resources/models/3_by_3/elu_model_v100.pth (torch, 200490 bytes, 26 tensors)

0.weight f4 [256, 9]
0.07106712 0.10883906 -0.079785 0.1266865 0.19853468 -0.30639604 0.15089 0.18939427
-0.030189466 -0.048887108 0.21531942 -0.23447137 0.21572936 -0.28086382 0.04260843 0.19448543
0.21416008 0.16506773 0.09032251 0.045370787 -0.06770499 -0.26896402 -0.07877048 0.3211271
0.30736214 -0.105398625 0.06483263 -0.257637 0.08646764 -0.29008493 -0.12122397 -0.082738824
-0.03270699 -0.27927998 0.097356886 0.31827533 -0.20360279 -0.057203513 -0.21551135 0.13089944
-0.12055353 0.3409827 -0.2562105 0.11660345 -0.10319301 -0.23567788 -0.1431366 0.34645048
-0.1838259 -0.041293837 -0.36257663 -0.115139045 -0.33652416 0.085267134 0.12116412 -0.27287108
-0.23153026 0.22105633 -0.014017742 -0.32176495 -0.3029659 -0.07281869 0.078804895 0.015299721
-0.19089872 -0.035346396 0.10777606 0.2011214 0.14282727 0.09348276 0.3493393 -0.1267189
0.1607175 0.10712802 0.06821692 0.17108603 -0.17776534 -0.0064942474 0.05318335 0.2969686
0.16907239 0.19957869 0.19606523 0.052084837 -0.23810418 0.12742299 -0.15030074 0.1660586
0.094864376 -0.16102274 -0.09719437 0.26985326 -0.17614909 -0.24024974 0.122693956 -0.3036826
-0.31982774 0.19867718 0.11389112 -0.12129153 0.1533223 -0.15371175 0.31868652 0.07588717
-0.1338928 0.16764633 0.29763418 0.15264401 0.22194387 -0.2564807 -0.18708314 0.2795302
-0.011378185 0.18108624 0.14402652 -0.020298734 -0.22732562 0.116188265 0.22978657 -0.36265144
-0.2505093 -0.017887624 -0.16501738 -0.12619889 0.21951778 0.1171639 -0.14856777 0.27270767
-0.20170486 0.22196169 -0.27940044 -0.3447015 0.047299553 0.023995452 -0.13293317 0.2895937
-0.091835715 0.16548628 -0.2400039 0.21636297 0.09247819 -0.14563441 -0.19499224 0.25622004
-0.24776827 0.24355179 -0.039242193 0.20254521 -0.059045207 0.11854983 -0.09784776 0.29415292
0.12667453 0.018073034 -0.247273 0.18204209 0.24386142 -0.36290509 0.18204752 0.2680274
0.2613695 0.117372565 -0.3198629 -0.117984794 0.17779568 -0.09099954 0.038103815 -0.1402341
0.22520244 0.08168672 0.12429589 0.23132508 -0.26526618 0.024581658 0.14221954 0.104557015
0.15640208 -0.034472745 0.23709212 0.030519435 0.23420572 -0.11502873 -0.35878104 0.0438233
-0.09125628 -0.024079973 0.087285824 0.06968715 -0.02249002 -0.10312752 0.04199573 0.17579578
-0.027058044 0.018278146 -0.26649246 -0.15876211 -0.21133538 -0.028248068 -0.1780442 0.20692636
0.15982959 0.07421876 0.26029894 -0.2308275 0.084356785 -0.030231891 -0.07534638 -0.19469921
0.23579672 -0.22436523 -0.011886645 0.04285225 -0.22659831 0.2204914 0.096185416 0.029665932
0.18803148 0.08440047 0.076203585 0.07567094 -0.22630563 0.16799226 -0.29068357 0.29420105
0.30911955 -0.04326606 0.046762448 -0.12202918 0.19423892 -0.05228315 0.20413083 -0.16768171
0.12213106 -0.13494824 -0.29397422 0.24544245 0.04044597 0.17410111 0.05921537 0.2254287
0.3234949 -0.11368431 -0.27408046 0.11161878 0.17482753 0.28359732 -0.09107761 -0.13069579
-0.19496663 0.07682715 -0.09717167 -0.025704095 -0.1574461 0.0034457888 -0.16515508 0.012760655
00000000: a38b 913d 03e7 de3d 5166 a3bd 1bba 013e
00000010: ad4c 4b3e f1df 9cbe e882 1a3e 92f0 413e
00000020: e64f f7bc d93d 48bd b27c 5c3e 4319 70be
00000030: 28e8 5c3e 62cd 8fbe 2d86 2e3d 3027 473e
00000040: c84c 5b3e 8407 293e 02fb b83d b8d6 393d
00000050: eaa8 8abd a7b5 89be 6b52 a1bd c56a a43e
00000060: 925e 9d3e 3cdb d7bd f8c6 843d ffe8 83be
00000070: f215 b13d 0386 94be 4644 f8bd f972 a9bd
00000080: c4f7 05bd c9fd 8ebe 0c63 c73d fcf4 a23e
00000090: 407d 50be 3b4e 6abd 02af 5cbe 810a 063e
000000a0: c5e4 f6bd 4995 ae3e 062e 83be cacd ee3d
000000b0: db56 d3bd 8b55 71be 6792 12be f561 b13e
000000c0: db3c 3cbe ba23 29bd a5a3 b9be 05ce ebbd
000000d0: e54c acbe 89a0 ae3d e524 f83d c2b5 8bbe
000000e0: 4516 6dbe 975c 623e acaa 65bc 60be a4be
000000f0: 591e 9bbe f721 95bd 7664 a13d aeab 7a3c
00000100: f47a 43be 62c7 10bd b2b9 dc3d c5f2 4d3e
00000110: 5041 123e e473 bf3d 9adc b23e 99c2 01be
00000120: 2193 243e ef65 db3d 50b5 8b3d 2d31 2f3e
00000130: 1e08 36be b2cd d4bb c9d6 593d 450c 983e
00000140: 5021 2d3e 5b5e 4c3e 53c5 483e e956 553d
00000150: 95d1 73be 2c7b 023e 70e8 19be 440b 2a3e
00000160: 4148 c23d 25e3 24be d80d c7bd 352a 8a3e
00000170: 6d60 34be 0704 76be f846 fb3d 497c 9bbe
00000180: 76c0 a3be 0872 4b3e bf3f e93d b267 f8bd
00000190: 8500 1d3e 9d66 1dbe e12a a33e bc6a 9b3d
000001a0: 321b 09be 7bab 2b3e 8263 983e b64e 1c3e
000001b0: 4145 633e 7051 83be b992 3fbe 951e 8f3e
000001c0: 916b 3abc ac6e 393e b07b 133e 8849 a6bc
000001d0: 0cc8 68be 1df4 ed3d 2c4d 6b3e 73ad b9be
000001e0: c142 80be 1189 92bc 51fa 28be 483a 01be
000001f0: 45c9 603e a0f3 ef3d 2622 18be 57a0 8b3e
00000200: b88b 4ebe ed49 633e 930d 8fbe b77c b0be
00000210: 2dbd 413d 1c92 c43c a21f 08be a045 943e
00000220: 5d14 bcbd 3c75 293e 95c3 75be 418e 5d3e
00000230: 3565 bd3d 3021 15be 0cac 47be 462f 833e
00000240: f7b6 7dbe a465 793e 6cbc 20bd 0368 4f3e
00000250: 63d9 71bd 41ca f23d 6864 c8bd 369b 963e
00000260: f8b6 013e e60d 943c 2235 7dbe 3e69 3a3e
00000270: cfb6 793e b2ce b9be aa6a 3a3e e33a 893e
00000280: 39d2 853e 0761 f03d 12c5 a3be 03a2 f1bd
00000290: 1210 363e f85d babd bf12 1c3d 8799 0fbe
000002a0: 789b 663e 5e4b a73d d88e fe3d 7be0 6c3e
000002b0: f8d0 87be 795f c93c 00a2 113e fd21 d63d
000002c0: de27 203e 4b33 0dbd 47c8 723e e503 fa3c
000002d0: a0d3 6f3e 2f94 ebbd 26b2 b7be 1080 333d
000002e0: 93e4 babd 5d43 c5bc e9c2 b23d 23b8 8e3d
000002f0: fe3c b8bc 8534 d3bd b703 2c3d cf03 343e
00000300: d5a8 ddbc 0dbc 953c b371 88be 8992 22be
00000310: 4d68 58be 7e68 e7bc 3851 36be 81e4 533e
00000320: 5eaa 233e 0100 983d e745 853e 0b5e 6cbe
00000330: 40c3 ac3d dfa8 f7bc 344f 9abd 3b5f 47be
00000340: b274 713e 00c0 65be 34c0 42bc d785 2f3d
00000350: 6309 68be 7fc8 613e dcfc c43d f805 f33c
00000360: 538b 403e 27da ac3d a010 9c3d 5ef9 9a3d
00000370: aabc 67be 2a06 2c3e 7ad4 94be 85a1 963e
00000380: eb44 9e3e c137 31bd fb89 3f3d 6fea f9bd
00000390: 91e6 463e db26 56bd ac07 513e c1b4 2bbe
000003a0: d91f fa3d df2f 0abe ca83 96be 4455 7b3e
000003b0: acaa 253d 9047 323e d18b 723d c8d6 663e
000003c0: 20a1 a53e 52d3 e8bd 4654 8cbe 6398 e43d
000003d0: fd05 333e ab33 913e e686 babd 1ed5 05be
000003e0: 55a5 47be 8e57 9d3d f101 c7bd 6591 d2bc
000003f0: 8d39 21be bed2 613b 6a1e 29be 1112 513c

0.bias f4 [256]
-0.01716113 0.13438581 -0.2663804 0.04778465 -0.11376865 -0.22026563 -0.31903136 0.18140368
0.08391902 -0.17897043 -0.043200962 -0.3140779 0.07583347 0.18108635 0.2269421 0.19474684
0.30664942 0.055498276 -0.29999626 -0.19593288 0.27961197 -0.25623682 -0.044617437 -0.10754436
0.08597248 -0.1943148 0.18681775 0.09544562 -0.290394 0.31926286 0.15444584 -0.06928183
0.008295158 -0.2698191 0.17373128 -0.18673109 -0.23923452 -0.32247227 0.06323473 0.07883612
0.039551567 -0.16528112 0.022071159 0.17661296 0.32083294 -0.2703545 -0.21810701 0.04697879
0.3320806 -0.22570148 0.06933664 -0.03024026 -0.0694271 -0.10401698 0.039150827 0.029769178
0.19261393 -0.16742852 0.31952178 -0.124930814 0.23080768 0.16728729 0.17471406 0.18574896
0.16816373 -0.262383 0.159256 0.0403258 0.074269265 0.055426423 0.20878118 0.030584067
0.12965764 -0.18212773 0.062208313 -0.0009774623 -0.19751354 0.2692466 -0.2482264 -0.015524973
-0.08586016 -0.08261263 0.027803425 0.061189786 -0.07993711 -0.2835802 0.12461769 -0.10748143
-0.1929482 -0.26610935 -0.10376546 -0.314178 0.03438977 -0.030556161 -0.2899659 -0.0007173288
-0.2887828 0.2904341 0.31322604 -0.2498636 -0.09463061 0.18889679 0.180212 -0.053284332
0.1463453 -0.16573383 0.053805936 0.07820712 -0.1416009 -0.1490079 0.019367598 0.1397597
0.24116533 0.06445954 -0.18022163 0.0983312 0.022825342 0.2581758 -0.3169839 0.02204915
0.18843581 0.29112157 -0.21754733 0.24055147 0.25229853 0.24172956 0.3112179 0.19498497
0.08802449 0.2791694 0.16209295 -0.121860795 0.324903 -0.26225948 0.26255438 0.21797794
-0.18758798 -0.19369307 -0.19296682 0.047651473 0.07677109 -0.019330515 -0.22811495 -0.019552654
-0.25405452 0.19988677 0.16919939 0.23628332 -0.18274318 0.31126207 0.21831383 -0.07055686
-0.24740568 -0.037596498 -0.25553158 0.2872533 -0.13461606 -0.14225698 0.3332792 -0.19386256
-0.026057508 0.26368573 -0.082037196 -0.29437274 0.3074986 -0.26308396 0.07312984 -0.15483135
0.038086083 0.31118885 0.29562178 -0.17893201 -0.06954175 -0.2918747 -0.16915613 -0.1418133
0.12656648 -0.12635998 0.21746537 -0.17004247 -0.0629765 -0.18938957 -0.20983267 -0.1448615
0.058614478 0.1447083 0.020966383 -0.3228035 -0.16529296 -0.32950878 -0.17648819 0.273528
0.28412056 -0.273602 0.03252069 0.22443478 -0.17563944 -0.15349057 -0.27291137 0.31221452
-0.1888731 -0.17101689 0.09903681 -0.19754024 0.29707527 0.16771589 0.0699562 0.25527418
-0.3077258 0.06404701 -0.025805429 0.044748057 0.18113466 0.3138889 0.1144269 -0.17103
-0.26999116 -0.19474456 0.27712235 0.31393757 -0.26977995 0.109284855 0.012110232 -0.30656472
0.040136896 0.009430495 -0.10047335 -0.17456138 0.2561095 -0.32641688 0.28624657 0.10462352
0.1561156 -0.0022241145 -0.13223441 -0.10642796 -0.16904888 0.23504055 -0.05933701 -0.19731557
-0.14669538 -0.036612097 0.12743375 0.27009445 -0.2851136 0.30635205 0.33118707 -0.23064381
0.2566922 0.28458878 0.16274846 -0.06879439 -0.23896463 0.28680044 0.1288149 -0.01883379
00000000: 8095 8cbc 6f9c 093e 0363 88be d6b9 433d
00000010: 8aff e8bd 508d 61be 1458 a3be e3c1 393e
00000020: bcdd ab3d 0644 37be 7ef3 30bd d2ce a0be
00000030: 944e 9b3d b36e 393e 8363 683e b76b 473e
00000040: 2701 9d3e 2952 633d 1c99 99be a1a2 48be
00000050: 4d29 8f3e 7931 83be c6c0 36bd 3840 dcbd
00000060: 5712 b03d 75fa 46be 274d 3f3e fe78 c33d
00000070: 86ae 94be 6c76 a33e 0d27 1e3e a2e3 8dbd
00000080: 6ae8 073c bb25 8abe 9de6 313e 6f36 3fbe
00000090: e5f9 74be 161b a5be 3681 813d d574 a13d
000000a0: d300 223d 743f 29be 93ce b43c 07da 343e
000000b0: 3744 a43e e86b 8abe 7257 5fbe d56c 403d
000000c0: 7806 aa3e 4a1e 67be 5e00 8e3d 6cba f7bc
000000d0: cc2f 8ebd db06 d5bd 9e5c 203d 7ede f33c
000000e0: 963c 453e 6272 2bbe 5c98 a33e badb ffbd
000000f0: d958 6c3e 5c4d 2b3e 3ee8 323e fa34 3e3e
00000100: 1d33 2c3e 1157 86be 0114 233e ab2c 253d
00000110: 7c1a 983d d106 633d bcca 553e 708b fa3c
00000120: f9c4 043e b17f 3abe 25ce 7e3d 311e 80ba
00000130: fd40 4abe b1da 893e 102f 7ebe 755c 7ebc
00000140: 74d7 afbd d030 a9bd 02c4 e33c 24a2 7a3d
00000150: 11b6 a3bd 6d31 91be 8f37 ff3d 391f dcbd
00000160: 3794 45be 7c3f 88be fc82 d4bd f0db a0be
00000170: 4adc 0c3d ea50 fabc 6976 94be 1f0b 3cba
00000180: 57db 93be c7b3 943e 2a5f a03e 3edc 7fbe
00000190: b1cd c1bd 296e 413e 7f89 383e ac40 5abd
000001a0: 8bdb 153e 21b6 29be 9d63 5c3d 0e2b a03d
000001b0: d4ff 10be 8795 18be cca8 9e3c 2b1d 0f3e
000001c0: 0bf4 763e 5d03 843d 058c 38be de61 c93d
000001d0: 36fc ba3c 9e2f 843e b74b a2be 6ba0 b43c
000001e0: 51f5 403e e30d 953e bac4 5ebe 2053 763e
000001f0: 462d 813e f487 773e f457 9f3e 24aa 473e
00000200: 2f46 b43d 4bef 8e3e b2fb 253e 2792 f9bd
00000210: b059 a63e e046 86be 876d 863e 9c35 5f3e
00000220: 1017 40be 7a57 46be 1899 45be 312e 433d
00000230: 293a 9d3d 075b 9ebc f796 69be e32c a0bc
00000240: 6f13 82be 1eaf 4c3e 9b42 2d3e 41f4 713e
00000250: 0721 3bbe be5d 9f3e a98d 5f3e 1d80 90bd
00000260: ea57 7dbe c9fe 19bd 09d5 82be dd12 933e
00000270: cbd8 09be d0ab 11be 92a3 aa3e e883 46be
00000280: 8e76 d5bc d101 873e 1e03 a8bd 06b8 96be
00000290: 7570 9d3e f1b2 86be 19c5 953d 1c8c 1ebe
000002a0: 2700 1c3d 2554 9f3e bd5b 973e f439 37be
000002b0: e86b 8ebd 9a70 95be 4437 2dbe 8137 11be
000002c0: a59a 013e 8364 01be 3eaf 5e3e 9d1f 2ebe
000002d0: d3f9 80bd 57ef 41be 60de 56be 9356 14be
000002e0: bc15 703d 6a2e 143e b1c1 ab3c 8046 a5be
000002f0: 8f42 29be 60b5 a8be 52b9 34be dd0b 8c3e
00000300: 4078 913e 9015 8cbe 6a34 053d 3bd2 653e
00000310: d3da 33be a22c 1dbe 0abb 8bbe 95da 9f3e
00000320: f367 41be 0d1f 2fbe d0d3 ca3d fd47 4abe
00000330: 401a 983e b7bd 2b3e 3245 8f3d 4cb3 823e
00000340: 3c8e 9dbe 142b 833d e865 d3bc bd49 373d
00000350: 5d7b 393e 0cb6 a03e a758 ea3d 7d22 2fbe
00000360: 483c 8abe 1e6b 47be fbe2 8d3e 6dbc a03e
00000370: 9920 8abe bdd0 df3d ff69 463c 0df6 9cbe
00000380: 9666 243d 5d82 1a3c f9c4 cdbd 38c0 32be
00000390: c920 833e 1d20 a7be e98e 923e db44 d63d
000003a0: c5dc 1f3e 73c2 11bb 7568 07be e7f6 d9bd
000003b0: 261b 2dbe 78ae 703e 5d0b 73bd 180d 4abe
000003c0: 5037 16be 91f6 15bd fe7d 023e d249 8a3e
000003d0: 69fa 91be 2dda 9c3e 5a91 a93e e42d 6cbe
000003e0: 296d 833e 9fb5 913e 88a7 263e 13e4 8cbd
000003f0: 25b3 74be 82d7 923e 0ee8 033e 5249 9abc

1.weight f4 [256]
1.1148435 1.0664291 1.002153 0.98938566 1.083206 1.0340889 1.10248 0.97441864
1.0509923 1.0506405 0.9497014 1.0967292 0.95956916 0.96453446 1.0482863 1.0854393
1.0183357 0.95838195 0.98902076 0.9913167 0.9876655 0.9918879 1.1001236 1.1760199
1.0248096 1.0577899 1.0674711 1.048867 1.0751723 0.9901119 1.0682982 0.99888736
1.0582582 0.9765494 1.06535 0.95721716 1.043017 0.9822832 1.0041409 1.0271407
1.0530995 1.1347692 1.0301272 1.0920444 0.96642965 0.9995891 1.0053694 0.9679608
0.992894 1.0059541 1.0328618 1.03997 0.99414766 1.1356958 1.1260345 1.104863
1.0111446 0.99507844 1.1476686 1.0829659 1.0606107 1.0049052 1.0384424 1.0204992
1.0042825 1.0242507 0.98805 0.98065186 0.97966796 1.0059158 1.0211544 0.96375597
1.1450523 0.99605715 0.94104624 1.0104599 0.9926803 0.98357266 0.9671388 0.95913076
1.0916309 0.98384744 0.99058276 0.998258 1.0263891 1.1749504 0.99145633 0.9927337
1.1175966 1.1326513 0.95748264 0.98969454 0.9997228 1.1417938 1.0901215 0.97044486
1.1182387 1.0424027 0.9896229 1.0141132 1.0886786 1.013604 1.0153925 0.9941586
1.0852662 0.98453933 1.0141151 1.0029967 1.0380739 1.0800459 0.99466693 1.0678844
1.0219178 0.92787766 0.9550912 1.0533416 1.0464232 1.0030044 1.0674514 0.9871146
1.043656 0.98441654 0.9847797 1.0301133 1.0450441 1.0041282 1.0942533 1.0507835
0.98173326 1.0607625 1.0534599 1.0734627 1.0227444 0.99034214 1.1441188 0.97737294
1.1175647 1.0156037 1.028529 1.0884129 1.0083104 1.0525901 0.9589863 1.1108377
0.991024 1.0352353 1.1056898 0.9869391 1.1515937 1.0166095 0.9892099 1.0247395
0.94434196 0.96969444 0.9879218 1.0994627 0.9947991 0.9883474 0.98338807 1.1405329
0.9607199 1.0035642 1.1422615 1.0013741 1.0300509 0.98129576 1.0135102 1.0020655
1.0447874 1.0400548 1.0249723 0.9915425 0.97906965 1.000448 1.0828781 1.1164454
1.0490545 0.9962695 1.0065815 0.9898908 1.0449699 0.9939192 1.1150081 1.021034
0.9941117 1.0021834 0.9797993 1.01028 1.1111614 0.9915771 1.027617 0.9549913
1.0834699 1.1328005 1.056938 0.9730368 0.9984693 1.064195 0.98367 1.043551
1.0068017 1.1079574 1.0796227 1.0240875 1.0357684 1.0013901 0.98694754 1.0044973
1.0588152 0.96158934 1.0890437 1.0146958 1.022983 1.0526569 1.0879027 1.0425926
0.98161274 1.080858 0.9512603 1.1117251 0.9808494 1.0628383 0.9697472 1.029669
1.0942318 0.9436688 0.9892358 1.0590309 1.039317 1.1119878 1.0966918 1.0208482
0.97960407 1.0094161 1.0264156 0.9670688 0.99141866 1.0067581 1.1543678 1.0432997
0.99252933 1.0429399 1.0842323 1.0203216 1.1203858 1.0369455 0.9949 1.0566192
1.0103066 1.0019579 1.0050906 1.0304431 1.0041796 1.0040926 1.0963746 1.0259795
00000000: 31b3 8e3f c080 883f 8d46 803f 6148 7d3f
00000010: 7fa6 8a3f 065d 843f 111e 8d3f 8073 793f
00000020: ea86 863f 637b 863f a21f 733f 9f61 8c3f
00000030: 53a6 753f bbeb 763f 3f2e 863f adef 8a3f
00000040: d358 823f 8558 753f 7730 7d3f eec6 7d3f
00000050: a5d7 7c3f 5eec 7d3f dad0 8c3f d287 963f
00000060: f62c 833f a965 873f e5a2 883f 4641 863f
00000070: 3f9f 893f f977 7d3f ffbd 883f 15b7 7f3f
00000080: 0175 873f 24ff 793f 645d 883f 2f0c 753f
00000090: 9581 853f e976 7b3f b087 803f 5979 833f
000000a0: f7cb 863f 1e40 913f 35db 833f 1cc8 8b3f
000000b0: ef67 773f 12e5 7f3f f2af 803f 47cc 773f
000000c0: 4d2e 7e3f 1bc3 803f d134 843f bd1d 853f
000000d0: 7680 7e3f 7b5e 913f e621 903f 276c 8d3f
000000e0: 306d 813f 76bd 7e3f cee6 923f a09e 8a3f
000000f0: 17c2 873f bca0 803f aeeb 843f b89f 823f
00000100: 548c 803f a61a 833f d8f0 7c3f 000c 7b3f
00000110: 85cb 7a3f d9c1 803f 30b5 823f b6b8 763f
00000120: 1391 923f 9afd 7e3f 68e8 703f c056 813f
00000130: 4c20 7e3f 6bcb 7b3f 6996 773f 9889 753f
00000140: 90ba 8b3f 6ddd 7b3f d596 7d3f d68d 7f3f
00000150: b860 833f c664 963f 15d0 7d3f cc23 7e3f
00000160: 680d 8f3f b8fa 903f 951d 753f 9f5c 7d3f
00000170: d5ed 7f3f 4d26 923f 1a89 8b3f 136f 783f
00000180: 7222 8f3f 746d 853f ed57 7d3f 76ce 813f
00000190: d259 8b3f c7bd 813f 62f8 813f 2e81 7e3f
000001a0: 01ea 8a3f c50a 7c3f 86ce 813f 3262 803f
000001b0: 9bdf 843f f23e 8a3f 7ea2 7e3f 70b0 883f
000001c0: 34ce 823f 6489 6d3f db80 743f e6d3 863f
000001d0: 32f1 853f 7362 803f 3fa2 883f 8bb3 7c3f
000001e0: 8596 853f b902 7c3f 861a 7c3f c1da 833f
000001f0: 01c4 853f 4687 803f 7e10 8c3f 1380 863f
00000200: df52 7b3f 11c7 873f c6d7 863f 3a67 893f
00000210: 4ae9 823f 1087 7d3f 7c72 923f 1d35 7a3f
00000220: 5c0c 8f3f 4dff 813f d7a6 833f 1d51 8b3f
00000230: 5110 813f 46bb 863f 2080 753f ee2f 8e3f
00000240: c0b3 7d3f 9782 843f 3e87 8d3f 0aa8 7c3f
00000250: 6c67 933f 4320 823f dc3c 7d3f aa2a 833f
00000260: 65c0 713f e53d 783f 71e8 7c3f 32bb 8c3f
00000270: 27ab 7e3f 5604 7d3f 52bf 7b3f fbfc 913f
00000280: bdf1 753f cb74 803f a035 923f 072d 803f
00000290: b5d8 833f 3336 7b3f b4ba 813f af43 803f
000002a0: 98bb 853f 8420 853f 4b32 833f bbd5 7d3f
000002b0: 4fa4 7a3f ae0e 803f c09b 8a3f afe7 8e3f
000002c0: 6b47 863f 850b 7f3f aad7 803f 7c69 7d3f
000002d0: 93c1 853f 7d71 7e3f 96b8 8e3f 3eb1 823f
000002e0: 1b7e 7e3f 8c47 803f 20d4 7a3f db50 813f
000002f0: 893a 8e3f ffd7 7d3f f488 833f 4f7a 743f
00000300: 24af 8a3f 9bff 903f bf49 873f f118 793f
00000310: af9b 7f3f 8b37 883f ccd1 7b3f 1493 853f
00000320: e1de 803f 8cd1 8d3f 1431 8a3f 4d15 833f
00000330: 0f94 843f 8d2d 803f 98a8 7c3f 5e93 803f
00000340: 4287 873f b82a 763f c965 8b3f 8de1 813f
00000350: 1bf1 823f 76bd 863f 6540 8b3f ad73 853f
00000360: f94a 7b3f 8e59 8a3f cc85 733f 024d 8e3f
00000370: f218 7b3f 160b 883f 5a41 783f 32cc 833f
00000380: ca0f 8c3f 4794 713f 8f3e 7d3f 538e 873f
00000390: 5708 853f 9e55 8e3f 6660 8c3f 27ab 823f
000003a0: 55c7 7a3f 8c34 813f 9661 833f d291 773f
000003b0: 9dcd 7d3f 73dd 803f 53c2 933f d88a 853f
000003c0: 6716 7e3f 0e7f 853f 20c8 8a3f e699 823f
000003d0: cd68 8f3f a1ba 843f c4b1 7e3f 4c3f 873f
000003e0: ba51 813f 2840 803f cfa6 803f 8fe5 833f
000003f0: f588 803f 1b86 803f 0156 8c3f 4c53 833f

1.bias f4 [256]
0.018137796 -0.094823994 -0.020038811 -0.031539977 -0.11587353 -0.09724613 -0.11018076 0.0033462802
-0.056059197 -0.032031078 0.008108448 -0.13102873 -0.051051747 0.0028932546 -0.11927794 -0.11544888
-0.099462755 -0.020132232 -0.029140254 -0.0018125324 0.0027140765 -0.08414219 -0.050896917 -0.1475451
-0.0053969594 -0.066462204 -0.09590652 -0.008126438 -0.069918625 -0.031331155 -0.042372487 0.035065494
-0.07429195 -0.048080415 -0.099087566 -0.0027640066 -0.032938026 -0.0021280933 -0.05986097 -0.013401214
-0.038063668 -0.13443364 -0.009232856 -0.07129764 -0.0334603 -0.026047196 -0.05070039 0.0037901807
-0.020601299 -0.0082671475 -0.092448786 -0.026274279 -0.05241476 -0.14110914 -0.10825638 -0.048028715
-0.03198473 -0.004525381 -0.12041535 -0.058700617 -0.078864574 -0.031583574 -0.065014035 -0.08713229
-0.010364677 -0.022552967 -0.04926267 0.007805867 -0.034701157 -0.031286955 -0.041751485 -0.023094011
-0.095320374 -0.07576372 0.0038379668 -0.07836396 0.017143035 -0.0023702034 -0.03677556 -0.012863221
-0.103650816 0.04806258 -0.032756943 -0.036810663 -0.016842764 -0.15188557 0.024288094 -0.0018405163
-0.091321245 -0.13929318 -0.011056401 -0.016992128 -0.025175117 -0.14502823 -0.02930755 -0.019330844
-0.09579193 -0.045352288 0.094662294 -0.005390143 -0.13327986 -0.04256591 -0.09466225 -0.01473574
-0.07731749 0.0018172907 -0.050614823 -0.03803038 -0.059213795 -0.052752975 -0.027977917 0.04237358
-0.043023493 0.013512278 0.0036384223 -0.08616377 -0.063839376 -0.07091072 -0.00057948596 -0.023269495
-0.045983355 -0.021493798 -0.01634857 -0.041751765 -0.045885697 -0.00523546 -0.04860427 -0.022992881
-0.0043219733 -0.041821484 -0.024282163 -0.04191477 -0.03266307 -0.049647078 -0.1439332 0.022636922
-0.0750494 -0.037141703 -0.02216751 -0.03924504 -0.028983295 -0.07338325 -0.020918416 -0.07619353
-0.025099222 -0.082741186 -0.049682185 -0.017664861 -0.14377142 -0.014500722 -0.023510724 -0.057737727
-0.03443295 -0.055126954 -0.018744254 -0.056836575 -0.009674579 0.004495265 -0.016756603 -0.19902727
-0.035403144 -0.006375865 -0.13908356 0.029055426 -0.014503199 0.021011608 -0.030087885 -0.077069804
-0.02827383 -0.02462664 -0.048606098 0.005412189 -0.0027708085 -0.056894362 -0.0017349189 -0.10846706
-0.111345924 0.0041071046 0.010316826 -0.012015926 -0.035860524 -0.020211328 -0.07518089 -0.092403896
-0.013013413 0.030973047 -0.013287696 -0.048598304 -0.11314921 -0.031683356 -0.0574974 0.014722047
-0.056630965 -0.0849311 -0.034523264 0.02128773 -0.0049104034 -0.069923244 0.0252941 0.028378729
-0.04310426 -0.07488652 -0.10866431 -0.01924935 -0.04092365 -0.035366606 -0.021988528 0.011701156
-0.044001598 -0.03842167 -0.09774274 -0.06122126 -0.021454182 -0.13579 -0.107723035 -0.12397041
-0.0029067947 -0.11380745 -0.04628777 -0.0877892 0.010651369 -0.049100004 0.002937172 -0.04941058
-0.09312593 -0.014893885 -0.028662669 -0.06234522 -0.056148097 -0.11033957 -0.07740782 -0.052552994
-0.010291334 -0.016150715 -0.03925459 -0.00982936 -0.034757532 -0.01784007 -0.05454531 -0.05892996
-0.034969088 -0.08172726 -0.13609096 -0.00399541 -0.05414622 -0.041796245 -0.0045478377 -0.04371185
-0.06308477 0.006467757 -0.028934553 -0.08001049 -0.042439297 -0.04543061 -0.13750781 -0.03555701
00000000: b795 943c 1533 c2bd 6f28 a4bc 1030 01bd
00000010: 1a4f edbd fb28 c7bd 73a6 e1bd 444d 5b3b
00000020: 549e 65bd 0533 03bd 4cd9 043c 652c 06be
00000030: a31b 51bd c29c 3d3b fe47 f4bd 7670 ecbd
00000040: 21b3 cbbd 5aec a4bc 8bb7 eebc 7f92 edba
00000050: a6de 313b be52 acbd 4979 50bd 1016 17be
00000060: fad8 b0bb 561d 88bd a36a c4bd c024 05bc
00000070: 7f31 8fbd 1955 00bd c68e 2dbd d6a0 0f3d
00000080: 6126 98bd f8ef 44bd 6cee cabd 5624 35bb
00000090: 06ea 06bd 7b77 0bbb c730 75bd c490 5bbc
000000a0: a6e8 1bbd f9a8 09be 6845 17bc 7f04 92bd
000000b0: ab0d 09bd ee60 d5bc 36ab 4fbd ae64 783b
000000c0: 0ec4 a8bc ee72 07bc ca55 bdbd 283d d7bc
000000d0: dcb0 56bd ea7e 10be 85b5 ddbd c2b9 44bd
000000e0: 6c02 03bd a649 94bb 539c f6bd 0f70 70bd
000000f0: c083 a1bd c75d 01bd 1426 85bd 6a72 b2bd
00000100: 9bd0 29bc 00c1 b8bc a7c7 49bd 5cc8 ff3b
00000110: cd22 0ebd c026 00bd 9b03 2bbd a72f bdbc
00000120: 5437 c3bd 022a 9bbd 6686 7b3b 497d a0bd
00000130: 8d6f 8c3c 6a55 1bbb f8a1 16bd 42c0 52bc
00000140: e146 d4bd 45dd 443d 252c 06bd c7c6 16bd
00000150: d6f9 89bc e487 1bbe d3f7 c63c 7b3d f1ba
00000160: a206 bbbd dfa2 0ebe e825 35bc 1333 8bbc
00000170: 0c3c cebc 4882 14be 6316 f0bc b85b 9ebc
00000180: 8f2e c4bd 52c3 39bd 4ede c13d cc9f b0bb
00000190: 847a 08be 9759 2ebd 48de c1bd 2c6e 71bc
000001a0: a258 9ebd 2832 ee3a 7d51 4fbd bec5 1bbd
000001b0: 2a8a 72bd 8113 58bd f231 e5bc eb8f 2d3d
000001c0: 6739 30bd 9a62 5d3c 9972 6e3b a176 b0bd
000001d0: 38be 82bd a439 91bd a5e8 17ba ab9f bebc
000001e0: 0b59 3cbd c313 b0bc 70ed 85bc e603 2bbd
000001f0: a4f2 3bbd 398e abbb 4515 47bd 915b bcbc
00000200: 579f 8dbb 014d 2bbd 63eb c6bc d2ae 2bbd
00000210: b6c9 05bd bc5a 4bbd 3a63 13be 1171 b93c
00000220: 80b3 99bd e621 18bd a398 b5bc 68bf 20bd
00000230: 606e edbc f549 96bd 195d abbc 5a0b 9cbd
00000240: e29c cdbc 3674 a9bd 8c7f 4bbd e6b5 90bc
00000250: d138 13be 7094 6dbc 9099 c0bc 657e 6cbd
00000260: 9109 0dbd cdcc 61bd 8d8d 99bc 78cd 68bd
00000270: 2082 1ebc 044d 933b 2545 89bc cecd 4bbe
00000280: e302 11bd a2ec d0bb ec6b 0ebe a505 ee3c
00000290: d39e 6dbc 8920 ac3c de7a f6bc c6d6 9dbd
000002a0: 859e e7bc cfbd c9bc 3017 47bd bb58 b13b
000002b0: 7496 35bb 100a 69bd 3866 e3ba fa23 debd
000002c0: 5509 e4bd e494 863b e807 293c 72de 44bc
000002d0: 7ce2 12bd 3a92 a5bc 70f8 99bd 413e bdbd
000002e0: 3636 55bc 30bb fd3c a3b4 59bc 040f 47bd
000002f0: c6ba e7bd 68c6 01bd 6582 6bbd be34 713c
00000300: dff5 67bd 5bf0 adbd 4468 0dbd 9b63 ae3c
00000310: 73e7 a0bb eb33 8fbd 9335 cf3c 827a e83c
00000320: 188e 30bd 1b5e 99bd 658b debd d0b0 9dbc
00000330: 8f9f 27bd 93dc 10bd 4921 b4bc 35b6 3f3c
00000340: 053b 34bd 0b60 1dbd 582d c8bd 25c3 7abd
00000350: aec0 afbc 890c 0bbe e59d dcbd 33e4 fdbd
00000360: ec7f 3ebb e113 e9bd 3f98 3dbd d3ca b3bd
00000370: 1483 2e3c 161d 49bd 927d 403b c062 4abd
00000380: cfb8 bebd 7b05 74bc f9cd eabc b45d 7fbd
00000390: 8cfb 65bd b6f9 e1bd fe87 9ebd cf41 57bd
000003a0: fc9c 28bc 814e 84bc 6cc9 20bd 530b 21bc
000003b0: ea5d 0ebd 5725 92bc e76a 5fbd 8b60 71bd
000003c0: bf3b 0fbd 9f60 a7bd 6e5b 0bbe eeeb 82bb
000003d0: 6dc8 5dbd 8a32 2bbd 0706 95bb 320b 33bd
000003e0: 9732 81bd 7aef d33b 2808 edbc 8adc a3bd
000003f0: d4d4 2dbd 7315 3abd d9ce 0cbe 3aa4 11bd

1.running_mean f4 [256]
-0.0018568498 0.12514362 -0.64912015 0.33333865 -0.03414166 -0.07143397 0.23105878 -0.03446822
0.14296696 -0.35027283 0.2752333 -0.3185787 0.004130427 0.3924636 0.4480392 0.26034722
0.33816463 -0.15199393 -0.54501915 -0.20765129 0.36626735 -0.058760144 -0.12455792 -0.1887033
0.35350052 -0.11391357 -0.24760891 0.093006596 -0.49397796 -0.02771128 0.19261351 -0.07027894
-0.028358381 -0.15420316 -0.14819348 -0.15505722 -0.46951014 -0.51589143 0.15778969 -0.032601446
-0.3389782 0.025410306 -0.19561085 0.1891543 0.2196255 -0.58561355 -0.3664635 -0.2371688
0.24149337 -0.3111363 -0.048140634 0.18705465 -0.12774539 0.11595902 -0.34894136 0.21043326
0.3640291 -0.12564512 0.4928286 0.18492295 0.31532258 0.13489275 0.37267423 0.1960764
0.31158346 -0.52745974 0.11101635 -0.10985088 0.021031601 0.012964634 0.23222029 0.14073727
0.43939647 -0.20161664 0.14621726 0.067939125 -0.04594337 0.32247663 -0.29834023 -0.027525436
0.09141514 -0.03984605 0.37450734 -0.17762074 0.10752908 -0.04455512 -0.018920818 0.1338457
-0.55312145 -0.29358897 -0.42828053 -0.37092826 -0.022901813 -0.07135939 -0.31782323 -0.35936385
-0.42190874 0.3591019 0.43723592 0.09234788 -0.04770641 0.37844256 0.30316657 0.1406625
0.3313974 -0.36291605 -0.0938835 0.41726568 0.034459423 -0.33901054 0.40698898 0.014996022
0.14796776 0.4266956 -0.27206928 -0.26173884 -0.089806855 0.20373662 -0.45997226 -0.33258888
0.015242527 0.41359186 -0.5270264 0.2578917 0.43378597 -0.014416535 0.16779374 -0.012255289
0.5115328 0.07180213 0.026050115 0.09012161 0.068174265 0.18497744 0.10484378 0.1848791
-0.1696137 -0.54333377 -0.39571056 -0.17777528 0.2560912 -0.0011440385 -0.2941904 0.044439286
-0.21069044 0.23636216 0.23490922 0.57268006 -0.050665367 -0.08376007 0.48496547 -0.25210512
-0.43576506 -0.10437526 -0.22876129 0.68079686 0.069034696 0.049137328 0.074503414 -0.54891354
0.020323306 0.03168875 0.15646179 -0.25250974 0.58706367 -0.024598988 0.17124625 -0.12999928
0.3396527 0.5511902 0.25195673 0.0561268 -0.2989282 -0.21148503 -0.17875177 0.03649965
0.41918916 -0.12702014 -0.041765172 -0.3185441 0.2978118 0.032758955 -0.6019095 -0.22781499
0.28074387 0.004847986 -0.09879484 -0.16911048 -0.08415757 -0.15609752 -0.40042302 0.2670379
0.582166 0.0765029 0.06902553 -0.12100876 -0.10016765 0.00028303385 -0.33284402 0.26003486
-0.078965604 0.124344565 0.4957085 -0.23002577 0.016816387 0.06418055 0.33111778 0.32823545
-0.17590833 -0.021924352 -0.077843376 0.29413313 0.35129508 0.33113986 -0.12831798 -0.04161857
-0.5178307 -0.21592996 0.44567883 0.44402537 0.060141213 -0.1310492 0.035495523 -0.43532157
0.20757277 -0.22283886 -0.5066807 -0.5320471 0.04535469 0.07352037 0.0096837655 0.34600335
0.21073838 -0.17584561 0.1388691 -0.35240677 -0.37919465 0.3132031 -0.20831208 -0.3273226
-0.22879367 0.1701814 0.09211701 0.22998734 -0.5496203 0.35425252 0.35998362 -0.13279295
0.34045064 0.19946335 -0.030970072 -0.14680712 -0.25482702 0.05000395 0.40343222 0.18371543
00000000: 8a61 f3ba a625 003e bd2c 26bf 5dab aa3e
00000010: 20d8 0bbd f94b 92bd ac9a 6c3e 8c2e 0dbd
00000020: ee65 123e f656 b3be 61eb 8c3e bf1c a3be
00000030: 8858 873b fdf0 c83e 6565 e53e 3b4c 853e
00000040: ea23 ad3e 4ca4 1bbe 6086 0bbf 8aa2 54be
00000050: 6587 bb3e 7aae 70bd 3918 ffbd 703b 41be
00000060: 05fe b43e 854b e9bd 318d 7dbe 3e7a be3d
00000070: aeea fcbe c402 e3bc 7a3c 453e 68ee 8fbd
00000080: d64f e8bc 6fe7 1dbe 08c0 17be 52c7 1ebe
00000090: a263 f0be 7611 04bf 9f93 213e 1889 05bd
000000a0: 8d8e adbe 4629 d03c 364e 48be aab1 413e
000000b0: 82e5 603e c5ea 15bf 1ba1 bbbe 61dc 72be
000000c0: 0a4a 773e 424d 9fbe 1d2f 45bd 418b 3f3e
000000d0: b0cf 02be ec7b ed3d 71a8 b2be d17b 573e
000000e0: 0662 ba3e 1da9 00be 0854 fc3e 715c 3d3e
000000f0: f671 a13e 5321 0a3e 28cf be3e 40c8 483e
00000100: de87 9f3e 9a07 07bf 8a5c e33d 80f9 e0bd
00000110: 774a ac3c 9e69 543c 28cb 6d3e 6e1d 103e
00000120: 93f8 e03e 9874 4ebe fab9 153e ab23 8b3d
00000130: 1d2f 3cbd a81b a53e 0dc0 98be 067d e1bc
00000140: dc37 bb3d 9d35 23bd 6dbf bf3e 36e2 35be
00000150: 3538 dc3d 6e7f 36bd d5ff 9abc d90e 093e
00000160: 5e99 0dbf 4b51 96be 9647 dbbe 4fea bdbe
00000170: 959c bbbc df24 92bd bab9 a2be 8afe b7be
00000180: 6c04 d8be 34dc b73e 63dd df3e e320 bd3d
00000190: cc67 43bd 39c3 c13e a638 9b3e d509 103e
000001a0: ecac a93e 22d0 b9be fe45 c0bd d9a3 d53e
000001b0: 5325 0d3d ca92 adbe dc60 d03e e0b1 753c
000001c0: dc84 173e d877 da3e aa4c 8bbe a202 86be
000001d0: a8ec b7bd 55a0 503e 7c81 ebbe 1749 aabe
000001e0: cbbb 793c 50c2 d33e 34eb 06bf 620a 843e
000001f0: 3219 de3e 5533 6cbc 1fd2 2b3e 68ca 48bc
00000200: d0f3 023f ff0c 933d 0d67 d53c ae91 b83d
00000210: f39e 8b3d ba6a 3d3e 56b8 d63d f250 3d3e
00000220: 37af 2dbe ec17 0bbf 939a cabe b90a 36be
00000230: 631e 833e 90f3 95ba 20a0 96be f805 363d
00000240: 3cbf 57be ec08 723e 0b8c 703e 299b 123f
00000250: 7d86 4fbd 668a abbd 654d f83e ec13 81be
00000260: 991c dfbe b2c2 d5bd 6640 6abe b448 2e3f
00000270: 1062 8d3d 3944 493d 3f95 983d 9985 0cbf
00000280: 107d a63c 10cc 013d 8537 203e f548 81be
00000290: ce49 163f d183 c9bc 2d5b 2f3e 881e 05be
000002a0: f5e6 ad3e cd1a 0d3f 7900 813e 37e5 653d
000002b0: 1e0d 99be 888f 58be b40a 37be a880 153d
000002c0: f69f d63e 9111 02be f511 2bbd 3618 a3be
000002d0: ca7a 983e 412e 063d be16 1abf 5548 69be
000002e0: a9bd 8f3e dbdb 9e3b f354 cabd 4c2b 2dbe
000002f0: ce5a acbd 07d8 1fbe 3f04 cdbe 31b9 883e
00000300: d508 153f 8dad 9c3d 425d 8d3d 71d3 f7bd
00000310: b224 cdbd 2964 9439 886a aabe 4a23 853e
00000320: b8b8 a1bd 5da8 fe3d 81cd fd3e e08b 6bbe
00000330: 85c2 893c 1871 833d 4588 a93e 7a0e a83e
00000340: 5021 34be b39a b3bc 596c 9fbd 9e98 963e
00000350: f3dc b33e 2a8b a93e ca65 03be 3c78 2abd
00000360: 8e90 04bf be1c 5dbe 0430 e43e 4b57 e33e
00000370: a256 763d c331 06be c163 113d 78e2 debe
00000380: f58d 543e df2f 64be d4b5 01bf 3d34 08bf
00000390: d7c5 393d d991 963d a8a8 1e3c 5a27 b13e
000003a0: cdcb 573e df10 34be b433 0e3e a96e b4be
000003b0: cd25 c2be 285c a03e c34f 55be d496 a7be
000003c0: e348 6abe 0844 2e3e d8a7 bc3d cd81 6b3e
000003d0: eab3 0cbf 9660 b53e c64f b83e e0fa 07be
000003e0: 8c4f ae3e 1f40 4c3e f3b4 fdbc 9b54 16be
000003f0: b078 82be f1d0 4c3d ab8e ce3e e61f 3c3e

1.running_var f4 [256]
765.72864 1139.8649 1030.6024 1231.8123 1095.6051 1649.1865 1334.1062 858.0002
739.44415 794.2554 1442.2299 1085.2864 1114.0509 1209.5879 1356.1957 1189.5472
977.78485 1560.2812 829.7114 808.20166 736.4265 619.68036 807.5334 860.08325
1323.8724 542.52216 1402.3674 678.97144 748.64453 843.617 1391.6371 1366.1285
1544.94 924.82465 1211.1946 505.6882 1177.9205 878.46936 740.237 1006.4108
1323.771 928.16486 1166.135 1681.9175 1025.487 1095.5288 898.7924 2331.4868
1341.6862 1202.2764 1195.2919 916.26324 705.413 970.34607 1303.9813 564.92615
786.2114 965.12634 1200.2365 1006.2481 1423.7023 1605.2023 1170.1687 827.559
1263.1906 834.81476 914.31775 629.05035 1032.0702 1047.9368 926.5631 693.5957
1039.0426 721.3931 1193.6135 1165.5306 1179.8712 1165.3728 973.3589 1066.0435
921.47034 1184.6959 1159.2562 1207.9337 712.91754 613.1289 1328.1707 1829.3853
842.3557 872.1378 1186.9565 1238.2424 871.85443 1048.7015 1332.2683 1006.71643
821.16223 1391.4216 911.122 1151.2354 1476.4636 754.60284 1147.2743 1094.7974
1510.1702 1066.9619 499.35605 1000.3627 1370.5072 1297.2146 1231.0895 1227.891
883.5989 1573.4801 1151.8143 791.9214 965.08075 681.9351 811.82263 805.77277
1403.6979 989.1467 1038.1324 1421.934 1085.9823 1848.2294 1245.4618 1373.302
1436.089 575.3302 1407.4371 862.3467 1274.7449 1253.6758 983.4298 1254.0641
1021.2598 1170.3959 1119.7554 1751.2667 1284.0013 1582.9696 1114.9882 968.3863
578.892 486.06488 1463.4346 777.6871 846.6594 1887.0697 788.9682 825.6714
1202.3604 1454.1469 615.90063 839.1539 1376.5137 1297.4949 1251.3047 1039.749
1233.743 1241.0751 1386.0004 1094.6272 1031.5911 1564.491 440.2152 1011.63367
763.4995 1363.0304 1427.2919 1345.5106 1439.5415 577.6924 1219.6549 993.3005
1001.2619 902.16064 1103.0872 1043.3297 1903.0201 920.9508 1598.2318 1088.3364
1230.1553 1182.1445 751.34784 1476.8362 1292.9409 918.02814 1534.9889 1505.9852
1045.896 1580.9565 2132.2175 1603.8302 947.46106 1419.696 1118.013 1204.7357
733.86707 1090.2179 1602.3757 1166.383 915.31287 1277.8552 1192.7113 957.4007
1656.44 860.305 1370.5377 901.8423 1251.1462 1154.3285 923.7747 1060.3143
1868.6116 575.58606 947.2487 1008.72174 1208.828 1217.8251 821.6485 1249.7686
1177.153 903.9265 1450.488 1067.1436 1064.6296 1056.3479 588.9626 1421.794
1150.1964 701.3072 1177.9323 1433.5067 1322.9003 764.4142 1092.7546 1130.413
944.5864 835.8679 1018.3011 844.2456 869.6098 545.84143 793.48114 969.2002
1021.8243 2004.1616 1197.8555 1435.3788 1386.9391 922.71014 450.00107 1606.4774
00000000: a26e 3f44 ad7b 8e44 47d3 8044 fef9 9944
00000010: 5df3 8844 f825 ce44 66c3 a644 0380 5644
00000020: 6ddc 3844 5890 4644 5b47 b444 2aa9 8744
00000030: a141 8b44 d032 9744 4386 a944 83b1 9444
00000040: 3b72 7444 0009 c344 886d 4f44 e80c 4a44
00000050: 4c1b 3844 8beb 1a44 23e2 4944 5405 5744
00000060: eb7b a544 6ba1 0744 c24b af44 2cbe 2944
00000070: 4029 3b44 7de7 5244 63f4 ad44 1dc4 aa44
00000080: 141e c144 c734 6744 3a66 9744 17d8 fc43
00000090: 753d 9344 0a9e 5b44 2b0f 3944 4b9a 7b44
000000a0: ac78 a544 8d0a 6844 52c4 9144 5c3d d244
000000b0: 962f 8044 ecf0 8844 b7b2 6044 cab7 1145
000000c0: f5b5 a744 d848 9644 5769 9544 d910 6544
000000d0: 6f5a 3044 2696 7244 67ff a244 463b 0d44
000000e0: 888d 4444 1648 7144 9107 9644 e18f 7b44
000000f0: 79f6 b144 79a6 c844 6645 9244 c7e3 4e44
00000100: 19e6 9d44 25b4 5044 5694 6444 3943 1d44
00000110: 3f02 8144 fafd 8244 0aa4 6744 2066 2d44
00000120: 5de1 8144 2959 3444 a233 9544 fbb0 9144
00000130: e17b 9344 eeab 9144 f856 7344 6441 8544
00000140: 1a5e 6644 4516 9444 33e8 9044 e1fd 9644
00000150: b93a 3244 4048 1944 7605 a644 54ac e444
00000160: c496 5244 d208 5a44 9c5e 9444 c2c7 9a44
00000170: aff6 5944 7316 8344 9688 a644 daad 7b44
00000180: 624a 4d44 7eed ad44 cfc7 6344 88e7 8f44
00000190: d68e b844 95a6 3c44 c768 8f44 84d9 8844
000001a0: 72c5 bc44 c85e 8544 93ad f943 3617 7a44
000001b0: 3b50 ab44 de26 a244 dde2 9944 837c 9944
000001c0: 54e6 5c44 5daf c444 0ffa 8f44 f8fa 4544
000001d0: 2b45 7144 d97b 2a44 a6f4 4a44 7571 4944
000001e0: 5576 af44 6449 7744 3dc4 8144 e3bd b144
000001f0: 6fbf 8744 5707 e744 c7ae 9b44 aaa9 ab44
00000200: d982 b344 22d5 0f44 fded af44 3096 5744
00000210: d657 9f44 a0b5 9c44 82db 7544 0dc2 9c44
00000220: a150 7f44 ab4c 9244 2cf8 8b44 89e8 da44
00000230: 0b80 a044 07df c544 9f5f 8b44 b918 7244
00000240: 17b9 1044 4e08 f343 e8ed b644 f96b 4244
00000250: 34aa 5344 3be2 eb44 f73d 4544 f86a 4e44
00000260: 884b 9644 b3c4 b544 a4f9 1944 d9c9 5144
00000270: 7010 ac44 d62f a244 c069 9c44 f8f7 8144
00000280: c737 9a44 6722 9b44 0340 ad44 12d4 8844
00000290: eaf2 8044 b68f c344 8c1b dc43 8ee8 7c44
000002a0: f8df 3e44 f960 aa44 5769 b244 5730 a844
000002b0: 54f1 b344 506c 1044 f574 9844 3b53 7844
000002c0: c350 7a44 488a 6144 cae2 8944 8d6a 8244
000002d0: a5e0 ed44 da3c 6644 6bc7 c744 c40a 8844
000002e0: f8c4 9944 a0c4 9344 43d6 3b44 c29a b844
000002f0: 1c9e a144 cd81 6544 a5df bf44 873f bc44
00000300: acbc 8244 9c9e c544 7b43 0545 917a c844
00000310: 82dd 6c44 4676 b144 6ac0 8b44 8b97 9644
00000320: 7e77 3744 f946 8844 064c c844 42cc 9144
00000330: 06d4 6444 5ebb 9f44 c316 9544 a559 6f44
00000340: 140e cf44 8513 5744 3551 ab44 e875 6144
00000350: ae64 9c44 834a 9044 95f1 6644 0f8a 8444
00000360: 9293 e944 82e5 0f44 ebcf 6c44 312e 7c44
00000370: 7f1a 9744 673a 9844 8169 4d44 9838 9c44
00000380: e524 9344 4cfb 6144 9e4f b544 9864 8544
00000390: 2614 8544 220b 8444 9b3d 1344 68b9 b144
000003a0: 49c6 8f44 a953 2f44 d53d 9344 3730 b344
000003b0: cf5c a544 821a 3f44 2698 8844 374d 8d44
000003c0: 8825 6c44 8cf7 5044 4593 7e44 b80f 5344
000003d0: 0767 5944 da75 0844 cb5e 4644 d04c 7244
000003e0: c174 7f44 2c85 fa44 60bb 9544 1f6c b344
000003f0: 0d5e ad44 73ad 6644 2300 e143 47cf c844

4.weight f4 [128, 256]
-0.07080965 -0.034428947 -0.070757054 -0.06221756 0.021546155 -0.01575647 0.08475245 -0.015639413
-0.027303327 0.0025503687 0.03283532 -0.005396102 -0.038443163 0.04835741 0.015819285 0.035303023
-0.018966364 0.020392282 0.011252826 -0.042088803 0.011165271 0.026460107 -0.02947235 -0.056841094
-0.0021341702 -0.04987671 -0.0024212499 0.023447221 0.03479565 -0.00082125363 -0.016299812 -0.026912274
0.022683088 0.010922021 0.01988858 0.0005109691 0.054955058 -0.041221704 0.05066153 0.0038774644
-0.02451198 0.0052875 -0.033922266 0.016658384 -0.05058026 0.027770415 -0.034541767 -0.04538438
0.0289548 0.012037076 -0.025900034 0.026825484 -0.05276643 0.09117194 0.00076883624 0.005593611
0.027184574 -0.012489236 -0.0662661 0.032148626 0.017005254 -0.036966465 0.02922496 0.02706771
-0.03331976 0.06453253 -0.0019319613 -0.07022519 0.0076159383 -0.06525975 -0.02664859 -0.024602754
0.00442045 -0.035508703 -0.043377977 -0.073982015 -0.024779921 0.06391951 -0.017458802 -0.034142654
0.016106028 -0.029148491 0.023954416 -0.018201998 0.06289012 0.08312727 -0.07377925 0.07628513
-0.07978069 -0.015057085 0.03628683 0.030917015 -0.004747928 -0.07401512 -0.01816893 0.04625224
-0.05062876 0.03318477 -0.008506423 0.016702864 0.034722496 0.088607825 -0.049038824 0.038720667
-0.059308242 0.036144126 -0.04356441 0.0034108798 0.04434344 -0.047741927 -0.0044199587 -0.06304422
-0.056692366 0.042033225 0.012309693 0.022269802 -0.051959343 -0.002585446 -0.002559783 0.06430174
-0.0113824485 0.014416296 0.010549721 -0.02540398 0.051494706 0.041797005 -0.013716339 0.037437037
0.012752495 0.009878887 -0.011356276 0.06947263 -0.024613943 -0.020783234 0.04582491 -0.028628403
-0.012213386 -0.051874682 0.0066271005 0.041123144 0.0013529261 -0.014645198 0.0061340462 -0.06659557
0.0238777 -0.023064446 -0.044572756 -0.033135056 0.0355655 -0.0527232 -0.01980954 0.046381723
0.042176843 -0.057220954 -0.005921696 0.04265794 0.026841123 0.018472739 -0.012189578 0.01345317
-0.04693007 -0.01099681 0.048104964 0.017596161 0.021675086 0.03631681 -0.06238658 -0.040110942
0.04586764 -0.07699107 -0.018208176 0.08360537 -0.03646671 0.06844608 -0.01133573 0.051928002
0.043975957 0.031893607 -0.06665594 -0.02581376 -0.0278469 -0.00016969927 0.05390904 -0.012822637
0.09129536 0.043781124 -0.023780985 -0.05701178 -0.017518383 -0.052343518 -0.05066753 0.01952149
0.056623984 0.016739829 0.027243374 -0.048052326 0.005556642 0.002669898 0.014528076 -0.0023148798
0.032238744 0.017862197 0.07323711 -0.03306766 -0.03876799 0.034753695 -0.05151558 0.06715331
0.0005340503 0.016306672 -0.047786642 -0.05554891 -0.048639387 -0.055106424 -0.008906827 -0.03755024
0.039706267 -0.07618675 0.019745063 -0.052107513 0.01678575 0.003280351 -0.006783799 -0.010671658
-0.029639851 -0.0062170746 -0.06684962 -0.03503173 0.012156489 0.09156796 -0.007331768 -0.061108444
-0.035998464 0.044466466 0.016133305 -0.06872382 0.0153511185 0.032017455 -0.02181107 -0.03275248
-0.018986281 0.020569019 -0.06498327 0.006646915 -0.07061028 0.03500594 0.012852618 -0.009197365
0.0009594918 -0.030732216 -0.028796723 -0.012714702 -0.03145447 -0.021662906 0.06957468 -0.006139013
00000000: a604 91bd 5e05 0dbd 13e9 90bd d7d7 7ebd
00000010: 9081 b03c b613 81bc b192 ad3d 3a1e 80bc
00000020: 3aab dfbc 1624 273b 547e 063d c9d1 b0bb
00000030: 9476 1dbd 6b12 463d 7297 813c e799 103d
00000040: 595f 9bbc b70d a73c c65d 383c 4f65 2cbd
00000050: 8aee 363c dec2 d83c ff6f f1bc 35d2 68bd
00000060: 6fdd 0bbb 854b 4cbd d5ad 1ebb 6314 c03c
00000070: e285 0e3d 6649 57ba 2f87 85bc 2177 dcbc
00000080: e2d1 b93c 47f2 323c 60ed a23c 8ef2 053a
00000090: 8e18 613d 17d8 28bd 7782 4f3d 0f1d 7e3b
000000a0: 59cd c8bc c442 ad3b 13f2 0abd 2a77 883c
000000b0: 3f2d 4fbd c87e e33c ab7b 0dbd f9e4 39bd
000000c0: 9e32 ed3c 2837 453c 4f2c d4bc 1ec1 db3c
000000d0: 9d21 58bd 5bb8 ba3d ba8b 493a 9c4a b73b
000000e0: 2fb2 de3c a79f 4cbc 85b6 87bd 47ae 033d
000000f0: 9a4e 8b3c 266a 17bd 2f69 ef3c 1abd dd3c
00000100: 4d7a 08bd a229 843d dd39 fdba 39d2 8fbd
00000110: 1f8f f93b e7a6 85bd 254e dabc b78b c9bc
00000120: 6cd9 903b 9371 11bd 1bad 31bd e283 97bd
00000130: 43ff cabc 3be8 823d c305 8fbc 2bd9 0bbd
00000140: caf0 833c d1c8 eebc 0d3c c43c 5b1c 95bc
00000150: 89cc 803d a13e aa3d 9319 97bd 613b 9c3d
00000160: 0f64 a3bd feb1 76bc 80a1 143d ae45 fd3c
00000170: 8294 9bbb 3d95 97bd 02d7 94bc fd72 3d3d
00000180: 1a60 4fbd c1ec 073d 865e 0bbc 72d4 883c
00000190: 2d39 0e3d 0578 b53d efdc 48bd 9099 1e3d
000001a0: 33ed 72bd dd0b 143d 9870 32bd 1189 5f3b
000001b0: 78a1 353d 0a8d 43bd 4dd5 90bb 541d 81bd
000001c0: 4136 68bd 082b 2c3d 98ae 493c 296f b63c
000001d0: 52d3 54bd 9670 29bb 08c2 27bb a1b0 833d
000001e0: 737d 3abc 5432 6c3c bdd8 2c3c 021c d0bc
000001f0: 1dec 523d 5633 2b3d 7fba 60bc 9457 193d
00000200: d7ef 503c 0edb 213c ad0f 3abc ab47 8e3d
00000210: 2ea3 c9bc 9a41 aabc e7b2 3b3d 1d86 eabc
00000220: a71a 48bc 8c7a 54bd 2628 d93b be70 283d
00000230: ab54 b13a 6af2 6fbc 1c00 c93b 4263 88bd
00000240: 2b9b c33c a6f1 bcbc ec91 36bd a0b8 07bd
00000250: 21ad 113d 48f4 57bd 9e47 a2bc c3fa 3d3d
00000260: a0c1 2c3d 8560 6abd c90a c2bb 18ba 2e3d
00000270: eae1 db3c 2454 973c ccb6 47bc af6a 5c3c
00000280: bf39 40bd f72b 34bc b609 453d d325 903c
00000290: f38f b13c efc0 143d 1289 7fbd 5f4b 24bd
000002a0: b5df 3b3d 7ead 9dbd 5029 95bc 4b39 ab3d
000002b0: 1e5e 15bd 752d 8c3d 7fb9 39bc 75b2 543d
000002c0: 2220 343d dfa2 023d e982 88bd 6177 d3bc
000002d0: 2f1f e4bc 4df1 31b9 bacf 5c3d 0a16 52bc
000002e0: 10f9 ba3d d653 333d 57d0 c2bc 2f85 69bd
000002f0: b682 8fbc 2866 56bd c288 4fbd 88eb 9f3c
00000300: 8dee 673d f721 893c 7f2d df3c 84d2 44bd
00000310: 7e14 b63b 75f9 2e3b 2b07 6e3c 3db5 17bb
00000320: c60c 043d be53 923c 57fd 953d f471 07bd
00000330: 2fcb 1ebd e459 0e3d 0002 53bd ad87 893d
00000340: 82ff 0b3a 9295 853c edbb 43bd 4187 63bd
00000350: 183a 47bd 46b7 61bd f1ed 11bc 48ce 19bd
00000360: 0aa3 223d cc07 9cbd 66c0 a13c b06e 55bd
00000370: 4582 893c 28fb 563b a14a debb 2ed8 2ebc
00000380: 46cf f2bc 9ab8 cbbb 74e8 88bd 6e7d 0fbd
00000390: 032c 473c fc87 bb3d 543f f0bb d94c 7abd
000003a0: 2073 13bd 7822 363d fe29 843c 13bf 8cbd
000003b0: 4283 7b3c bc24 033d 21ad b2bc 7727 06bd
000003c0: 1e89 9bbc 5c80 a83c f315 85bd 5dce d93b
000003d0: 1f9c 90bd 6362 0f3d c993 523c 8bb0 16bc
000003e0: 6886 7b3a 21c2 fbbc 1be7 ebbc 5351 50bc
000003f0: 67d6 00bd 6876 b1bc 2b7d 8e3d c629 c9bb

4.bias f4 [128]
0.053964306 0.043721642 -0.0014787596 0.051607303 0.01930035 0.0023250338 -0.0201729 -0.005112574
-0.053946823 -0.008959189 -0.038061384 -0.033409238 -0.00433639 -0.04066635 0.023029972 0.031613007
0.04411055 -0.055770297 -0.01917537 0.0077539207 -0.05221898 0.03440821 0.036745153 0.03851632
0.037818447 -0.04094921 0.05398454 -0.02774195 -0.01132272 0.008198413 -0.054276843 -0.011289705
-0.043879952 -0.050239444 -0.023333421 0.009756923 0.02828494 -0.0077648144 0.0042070383 0.056962363
-0.025839845 -0.004262248 -0.020608509 -0.053596523 -0.051062163 0.021199677 0.034974508 0.01669129
-0.030539967 0.040945824 0.007731374 -0.0035188869 0.038196925 0.012418408 -0.041775595 0.035285987
0.016041983 -0.05550565 0.033068962 -0.046652753 0.05388777 0.042728495 0.01642543 -0.031959616
0.052037034 -0.01570304 0.03599204 -0.059264764 0.041094426 0.05303449 -0.059402537 -0.025491955
0.05119805 -0.015886642 -0.0070526036 -0.014679298 -0.049499262 0.0037830886 -0.034034643 0.029174086
-0.045855224 -0.03980398 -0.02788279 0.05162479 0.026303373 0.018255461 0.06151183 0.021258457
0.035116807 -0.004525631 0.014091173 0.007841444 -0.048183918 0.047016688 0.02573888 0.046124343
0.056047294 0.019909611 -0.017680986 -0.040893346 0.04049469 0.009354253 0.043507975 -0.05542239
0.005496528 0.00059722393 0.033885878 -0.006616478 -0.02291792 -0.03169646 -0.016688738 -0.012881699
-0.022332963 0.04958314 -0.03889677 -0.0056576 0.0078373235 0.011455162 0.038412165 -0.0011580283
0.010385965 0.030118376 0.025951585 0.040289614 -0.0064218156 -0.017267304 -0.0022792553 0.055840436
00000000: ad09 5d3d 7715 333d f0d2 c1ba 2e62 533d
00000010: c51b 9e3c 985f 183b a341 a5bc 6187 a7bb
00000020: 58f7 5cbd 90c9 12bc 41e6 1bbd 20d8 08bd
00000030: 4718 8ebb c291 26bd 5aa9 bc3c a47c 013d
00000040: 44ad 343d 656f 64bd aa15 9dbc 9a14 fe3b
00000050: 92e3 55bd a0ef 0c3d 1682 163d 4ac3 1d3d
00000060: 84e7 1a3d 5cba 27bd e51e 5d3d 1643 e3bc
00000070: ee82 39bc a352 063c 6551 5ebd 74f8 38bc
00000080: 77bb 33bd e0c7 4dbd bb25 bfbc 80db 1f3c
00000090: d2b5 e73c fc6f febb 32db 893b 5e51 693d
000000a0: 15ae d3bc 54aa 8bbb 2dd3 a8bc 0788 5bbd
000000b0: 8f26 51bd f2aa ad3c 6e41 0f3d 2cbc 883c
000000c0: f42e fabc cfb6 273d 7757 fd3b 209d 66bb
000000d0: 6174 1c3d 9476 4b3c e31c 2bbd 0a88 103d
000000e0: 7a6a 833c e459 63bd 5273 073d f516 3fbd
000000f0: 6cb9 5c3d 1304 2f3d a08e 863c 16e8 02bd
00000100: c924 553d a9a3 80bc 646c 133d 9cbf 72bd
00000110: a152 283d b23a 593d 1350 73bd 81d4 d0bc
00000120: 0cb5 513d b424 82bc 8719 e7bb 7081 70bc
00000130: bdbf 4abd b2ed 773b e967 0bbd 7efe ee3c
00000140: b0d2 3bbd 8009 23bd 736a e4bc 8474 533d
00000150: 2c7a d73c 7a8c 953c d4f3 7b3d 3726 ae3c
00000160: a4d6 0f3d bf4b 94bb aade 663c 6679 003c
00000170: 805c 45bd 9294 403d 58da d23c e1ec 3c3d
00000180: d991 653d 7b19 a33c b7d7 90bc c87f 27bd
00000190: c3dd 253d 9542 193c 6b35 323d 9702 63bd
000001a0: 381c b43b 058f 1c3a ebcb 0a3d 0acf d8bb
000001b0: 5dbe bbbc 26d4 01bd d2b6 88bc c30d 53bc
000001c0: 9ef3 b6bc b117 4b3d 3852 1fbd 6363 b9bb
000001d0: 1e68 003c 6fae 3b3c 1356 1d3d fbc8 97ba
000001e0: e529 2a3c d0ba f63c 6b98 d43c b906 253d
000001f0: 186e d2bb 2974 8dbc 8f5f 15bb f1b8 643d

5.weight f4 [128]
1.0874647 0.9889137 1.1627073 1.0982543 1.0042571 1.0225173 1.0265244 1.0687456
1.0140564 1.133546 1.1282963 0.99116075 1.0973101 0.9979977 1.1424758 1.0624082
0.9999513 1.0555669 1.0742313 1.0802884 1.0619353 1.0434895 1.0886005 1.0264703
1.01767 0.99964947 1.0477113 1.1820468 1.0501392 1.026754 1.0931504 1.032687
1.0934219 1.1701374 1.0850714 0.9978422 1.1625421 1.1245725 1.0364605 1.1628622
1.0061116 1.0057136 1.1064795 0.9419011 0.9974482 1.0663611 1.1060925 0.9638958
1.0096642 1.088017 0.95638025 1.0209179 1.0942448 1.0656765 0.9938314 1.1088065
1.0921144 1.1477845 1.130585 1.0513841 0.98177624 1.0764416 1.085286 1.1656446
1.116395 0.95767844 1.0598305 1.0070546 1.036688 1.1034762 1.1422843 0.9749088
1.025498 1.1217195 1.0247698 1.1100152 1.0657716 1.1477549 1.1001569 0.9887098
1.0169269 0.9697378 1.067019 1.1429089 1.1425619 1.0422289 0.975455 1.0209078
1.0724266 1.1594636 1.0955822 1.1446989 1.1451358 1.0048962 1.1185848 1.0111624
1.1138589 1.1671448 1.0481554 1.066411 1.0979165 1.0778722 1.0245094 0.9788546
1.161574 1.0619042 1.1330448 1.0598321 1.1553763 1.0354776 1.099675 1.153915
1.1051276 1.0331439 1.0191004 1.0148387 1.0647324 1.0058244 1.0441784 1.0675005
1.1673448 0.9965337 1.1538258 0.98695904 1.0098406 0.9875706 1.1657993 1.177757
00000000: 0b32 8b3f 7329 7d3f 98d3 943f 9993 8c3f
00000010: 7f8b 803f d9e1 823f 2765 833f a8cc 883f
00000020: 9acc 813f 0918 913f 036c 903f b6bc 7d3f
00000030: a874 8c3f c77c 7f3f a63c 923f fefc 873f
00000040: cffc 7f3f d11c 873f 6980 893f e446 8a3f
00000050: 7fed 873f 1091 853f 4357 8b3f 6163 833f
00000060: 0343 823f 07e9 7f3f 671b 863f 4f4d 973f
00000070: f66a 863f ad6c 833f 5aec 8b3f 162f 843f
00000080: 40f5 8b3f 10c7 953f 9fe3 8a3f 9672 7f3f
00000090: 2ece 943f fef1 8f3f bdaa 843f abd8 943f
000000a0: 44c8 803f 39bb 803f 1fa1 8d3f 6e20 713f
000000b0: c458 7f3f 857e 883f 7094 8d3f e0c1 763f
000000c0: ad3c 813f 2444 8b3f 56d5 743f 70ad 823f
000000d0: 3710 8c3f 1668 883f bc6b 7e3f 5fed 8d3f
000000e0: 68ca 8b3f 9aea 923f 02b7 903f c193 863f
000000f0: b055 7b3f d7c8 893f a7ea 8a3f d833 953f
00000100: 08e6 8e3f 6a2a 753f 87a8 873f 2ae7 803f
00000110: 31b2 843f b53e 8d3f 5f36 923f a093 793f
00000120: 8543 833f 8194 8f3f a82b 833f fa14 8e3f
00000130: 346b 883f a2e9 923f f1d1 8c3f 161c 7d3f
00000140: a92a 823f bd40 783f 1494 883f d74a 923f
00000150: 783f 923f c267 853f 6bb7 793f 1bad 823f
00000160: 4645 893f 4e69 943f 0a3c 8c3f 7e85 923f
00000170: cf93 923f 70a0 803f c92d 8f3f c56d 813f
00000180: ee92 8e3f 0065 953f f529 863f 2880 883f
00000190: 8788 8c3f b7f7 893f 2023 833f 3796 7a3f
000001a0: 75ae 943f 7aec 873f 9d07 913f 94a8 873f
000001b0: 5fe3 933f 888a 843f 27c2 8c3f 7db3 933f
000001c0: d274 8d3f 0f3e 843f e271 823f 3ce6 813f
000001d0: 2749 883f dbbe 803f a3a7 853f dba3 883f
000001e0: 8e6b 953f d51c 7f3f 90b0 933f 59a9 7c3f
000001f0: 7542 813f 6dd1 7c3f e938 953f bec0 963f
