resources/models/3_by_3/exp_dataset_model_v100.pth (torch, 275742 bytes, 5 tensors)

lstm.weight_ih_l0 f4 [512, 3]
00000000: ce9b 51be e457 0dbd 9af2 62bd c1ee 04be
00000010: bb22 26bd 85ad c6bd 39e8 e0bc 4838 c1bd
00000020: 64ff 7fbe f881 e73d 47c5 8e3b 4c64 13bd
00000030: 8d3a 2ebd 8698 6fbd 1f4d c2b9 3297 e0bd
00000040: 805b c7bd dc1f 62bd b249 ad3d 8ef9 afbd
00000050: d4cd b3bd b5ef 1ebd 8ded 513b 2332 563d
00000060: f6f6 6abd a922 303d c0c5 b13d 9ed3 dbbc
00000070: 8467 acbd 3d13 b03d 874f 0c3e 435c e83c
00000080: d897 0fbe 171a febd 7729 eabc fc24 cdbd
00000090: 0f50 c93d 36f6 6a3d 46c7 983d 832d 523d
000000a0: 2001 00be 9978 a8bd bf80 c13c 0841 0c3e
000000b0: 3f1d 03bb f45b 973d 79b6 603c 9697 9ebd
000000c0: 043d af3d 8dd3 a93d 6e03 f73c e239 b9bc
000000d0: 1bb9 c73d dd97 c73d 2a55 843d 132a 433c
000000e0: fb61 083e d004 a53d b003 de3d 2356 973d
000000f0: 7734 ccbd 672b 92bd c39b 8f3d b9bd 7b3c
00000100: eedd 7ebd 27b9 b139 ef95 21bd 3567 d23d
00000110: f5be 23be 79de 2fbd e6b3 163d f72c 983c
00000120: eef1 823d ce30 3bbc 0f7f 09be 1fd1 d93d
00000130: 2762 80bb 1537 d7bd e82f 3f3c e5c9 48bd
00000140: 3dcc c73d 6e89 e23d a767 9abd 4aa5 8b3d
00000150: 3f93 debb f8a2 fcbc 2243 a0bd 097d 4ebd
00000160: a3fc 95bd 781e 633b 7e9d ab3d 94b4 a7bd
00000170: d59a 613d 2cce debc b35b c3bb 6c42 863d
00000180: bd71 b33d 9a34 a3bc ea05 c3bd a2c0 153d
00000190: 0b7b 3ebd 4f76 8dbd a5c4 bc3d 02aa 98bd
000001a0: 7cdf bc3c a40b 6dbd 5a66 c9bd b6c3 b53c
000001b0: 0f21 a13d e828 83bd 9bf4 643c 8c04 a03d
000001c0: bb63 c93d 0859 14bd b442 083e 3712 e93c
000001d0: 9cc6 2d3d 3584 41bd e095 ba3d d0dc 78bd
000001e0: 4489 fa3c 042d 13bc c0a1 c0bc 6c79 96bc
000001f0: 61d2 78bd 9871 f0bc a475 453c f472 a23d
00000200: ecd9 983d b34d 00bd 35c8 703c 66ec b23d
00000210: 5a17 af3d 4bf8 893d f27d 9bbd ada7 0bbe
00000220: f1bb 3cbd ef2f c03c 377e ce3d 95c0 acbc
00000230: ee4f 8cbc 17f3 ee3c f602 33be 3a08 f5bc
00000240: 6a10 b6bd 0b1b 133e e5fb 5b3c ec87 3ebd
00000250: 0803 31bd 15ac 043e 6f4a 7ebd 1fc7 323d
00000260: 7f13 833d 1115 eb3d 59cf bbbd 5ade 853d
00000270: e70c 2a3e b4ca a2bc 1308 43bd 64ae 613c
00000280: 6ac0 b9bd 5dfb 4a3d 7810 8ebd 7848 8a3d
00000290: 2b29 2c3c 7aad 063e 8398 2ebd fce5 abbb
000002a0: 6110 71bd 8a6d 113c a425 a83b b231 13be
000002b0: 8cb0 93bd d351 8dbd 169b aabd f847 b13d
000002c0: c868 073d 717f bb3c 7487 283e 40cf b53d
000002d0: 6721 2a3c 195a a2bd 9b61 77bd 377e 24bd
000002e0: b6b3 9bbc 28f2 593d 9af4 d23d fbba f73d
000002f0: c46b 323d 57e8 2fbd b44a a53d 1164 fa3d
00000300: a8fe a73d 96fe 43bd c44e 4f3d 83d0 8dbc
00000310: 00f7 043e fbad 453d 3690 803d c54f 153d
00000320: dfbc e83d 12d4 65bd f74e 8f3c 8bf8 18be
00000330: f56e 10bd fc8e 8dbc ed5f bebd 84bf e03d
00000340: cf47 debc 3c8f 3e3d 5232 6c3d cc05 143e
00000350: 4f88 003c d1e1 aebd 4ef7 703b d731 97bd
00000360: 6a8b d4bd e64a ddbd c688 6fbd 59b2 60bd
00000370: 7ca3 45bc 6757 a43d 2292 8abd 9e6b 42bb
00000380: c166 6abc f785 0abe ca87 9dbd fa4c 13bc
00000390: 8c43 583c 7400 863c f38a bdbd 2370 d03c
000003a0: c00a a6bd a5c7 d53d 355f d53d cbce 533d
000003b0: 5764 883b 3bb8 013e 81ae da3c c387 bbbc
000003c0: a808 0c3d dad4 d9bd d8d4 113d 8442 92bd
000003d0: 76a5 c5bd 209b d6bc e30f ce3c 7bdc 8d3d
000003e0: 799c 383e 8a49 d5bb be89 ff3c 5b69 5c3d
000003f0: 03cf aebc 8e7f 21be a6e6 ac3b cbe9 173d
-0.20469591 -0.034507647 -0.055407144 -0.12981702 -0.040560465 -0.09701065 -0.027454482 -0.09434563
-0.24999768 0.113040864 0.0043570134 -0.035984322 -0.042536307 -0.058495067 -0.00037060023 -0.10966338
-0.09734249 -0.055206165 0.08461322 -0.08592521 -0.08779493 -0.03880282 0.003203246 0.052293908
-0.057364427 0.043001805 0.08680296 -0.026834305 -0.084181815 0.085974194 0.13702212 0.028364306
-0.14022768 -0.1240732 -0.028584225 -0.1001682 0.09829723 0.05736371 0.074598834 0.051312935
-0.12500429 -0.08226127 0.023620961 0.13696682 -0.0020006446 0.073905855 0.01371538 -0.077437565
0.0855656 0.08292303 0.030153003 -0.022610608 0.09752103 0.097457625 0.06461556 0.011911887
0.13318627 0.080575585 0.10840547 0.07389476 -0.099709444 -0.071371846 0.07012131 0.015365058
-0.062223367 0.0003389802 -0.03944963 0.102735914 -0.15990813 -0.042936776 0.03679266 0.018576128
0.06393801 -0.01142521 -0.13427375 0.1063559 -0.0039179507 -0.10508553 0.011669137 -0.049020667
0.09755752 0.11061369 -0.07539301 0.06818636 -0.0067924554 -0.030839428 -0.078253046 -0.05041221
-0.07323577 0.0034655612 0.083796486 -0.081887394 0.0550793 -0.02719792 -0.005961859 0.06555638
0.08761928 -0.019922543 -0.095226124 0.036560662 -0.04650406 -0.06907331 0.092171945 -0.074543014
0.023055784 -0.05787243 -0.09833975 0.022188049 0.078676336 -0.064042866 0.013974334 0.07813367
0.09833475 -0.03621772 0.13306695 0.028451068 0.042425737 -0.047245223 0.09110618 -0.06075746
0.030583031 -0.0089829005 -0.023514628 -0.018368445 -0.060747508 -0.02935104 0.0120519735 0.07932082
0.0746344 -0.0313241 0.014696171 0.08736496 0.08549376 0.06736811 -0.075923815 -0.13638182
-0.046077672 0.023460357 0.10082667 -0.021087924 -0.017127957 0.029168649 -0.17481598 -0.02991115
-0.088898495 0.14365785 0.013426756 -0.046516344 -0.04321578 0.12956269 -0.062082704 0.043646928
0.06400203 0.114786275 -0.09170408 0.06536551 0.16606484 -0.019872047 -0.047615122 0.013774488
-0.09069903 0.049556125 -0.06936735 0.067521036 0.010507862 0.13152114 -0.042625915 -0.005245922
-0.05885351 0.008876214 0.0051314402 -0.14374426 -0.07211408 -0.06900372 -0.083303615 0.08656305
0.03305891 0.022887917 0.16457921 0.088774204 0.01038394 -0.07927341 -0.06039582 -0.04015943
-0.019006591 0.053209454 0.1030056 0.120962106 0.043559805 -0.042946186 0.08070889 0.122261174
0.08202869 -0.047850214 0.050612226 -0.01731134 0.12984848 0.048261624 0.06277506 0.036453027
0.11364149 -0.05611045 0.017493708 -0.14938562 -0.035262067 -0.017280094 -0.0929564 0.10974029
-0.02713385 0.046523318 0.057665177 0.14455336 0.0078449985 -0.08539165 0.0036768499 -0.07382553
-0.103781536 -0.10805301 -0.058480047 -0.054857586 -0.0120629035 0.08024483 -0.06766154 -0.0029666196
-0.014306725 -0.13527666 -0.07691915 -0.008990521 0.013199698 0.016357638 -0.09255018 0.025444096
-0.08107519 0.1043847 0.1041855 0.051710885 0.004162352 0.12667935 0.026694538 -0.022891885
0.034187943 -0.10636301 0.035603374 -0.07141593 -0.096507 -0.026197016 0.02515406 0.06926819
0.1802844 -0.0065090107 0.03119361 0.053811412 -0.021338945 -0.15771315 0.005276519 0.037088197

lstm.weight_hh_l0 f4 [512, 128]
00000000: cef5 8cbe 400f 373e 3295 243e ca1d c23d
00000010: 2059 3fbe e233 11be 2f2d f6bc f536 24be
00000020: 9f68 123e 0526 76bb 6a81 48be 29b3 d73a
00000030: 4c3e 2cbe e67f 12bd 51de 153e ec9d a2be
00000040: dc33 bb3d 5250 1e3e d2a7 eebd 0bb5 00be
00000050: 4e54 31be f462 1cbd 6ad7 cf3d e80d 0b3e
00000060: 9c60 f8bd d5d3 01be 525c 243d 4dcc 3ebc
00000070: 24fa 26bc e45a aabd f841 393e 3cbf 9c3d
00000080: a8fa 543c 81e2 5abe 6b4e 04bd 1ce9 2d3e
00000090: f50d 653d 9277 f63d 93e3 1b3d 107d be3c
000000a0: c20d 633e 8d45 263d 4faf 213c 2bfb 533e
000000b0: 2b89 513e 4e9f 98be 9828 5b3e 6214 99be
000000c0: 482d 11be d37a f43d 6ef9 893e 34fa c2bc
000000d0: 0980 363d d9a0 463e da59 9b3e ec73 013d
000000e0: 6e56 89be d720 04bd a7f5 a33c f88a efbd
000000f0: 6297 373e cf86 d43d 4432 353e 4230 043e
00000100: 17bb 0dbc fb73 8cbe 1d1d 56be 7e12 80bd
00000110: 03ec 9f3e f00b 243e f701 eabd 6f32 e23d
00000120: d506 a63c d655 abbd a3e4 4d3e 9c82 dd3d
00000130: a2cc 7d3d 9d3a 883d 8060 49bd 9ff6 09be
00000140: 3f7b 0e3e d4e0 d2bd dc62 10be 4eb3 b9bd
00000150: 4b3c 893e e68e 25bd deb6 1bbd 0d22 73be
00000160: 706d f2bd fa9e 2dbb d947 343e 252d 64bc
00000170: cbe5 18be 37ce 72be a449 3d3e f0d0 d03c
00000180: 3432 09be c062 933e 065d cabb 5cde 3fbe
00000190: eea0 6dbd 018e 5c3d 2f85 b93d 7bf9 c4bd
000001a0: 7daa 20be 255a 55bd 7859 33be c238 9a3d
000001b0: f55b a33e 1264 f8bd e6d8 adbd df57 c73c
000001c0: 89de 83be d6d6 d9bd ed35 053e faf1 2a3e
000001d0: 907e f13d b153 823e 4273 fbbd 50f4 0c3e
000001e0: 48e4 4a3c fa79 ddbd 90ee 7ebc de59 403e
000001f0: 2037 05be 787e 28be d15d 47bd 0129 dfbd
00000200: 9820 21be ea9c e53d d3b8 513e 49da a33e
00000210: 3ed5 d43b f4a2 37be b2c5 683c 6fb9 933d
00000220: 0272 babd 962a 33be 5ecd 583d e453 9abc
00000230: b0ad 35be 4b08 b43d 2ccc 26bd cae5 21be
00000240: be15 f53c 71d3 20be 7d62 023e b2e1 1fbe
00000250: 40f0 00bc 8294 583e 71f9 f23d 14c5 403e
00000260: c833 0dbe ccdc 153e 5f42 2c3d 0edf 34bd
00000270: 4f3f 15be fd12 2e3e ff77 d93d a25b 6dbe
00000280: 6b22 3f3e 2db8 37be ac66 803d 9e3c d43d
00000290: a95a 2fbd 0284 4bbe c888 e63d 22a7 6ebe
000002a0: 88d3 4f3e 7a40 2fbe ce57 85bd 9a6b 043c
000002b0: 5517 51bd 2180 93bd 11c2 50be cbd0 4d3e
000002c0: 28cf ffbb 8cdf 40be c621 cd3c fd8a c4bc
000002d0: 26b8 19bd 0af5 32be 04b2 243d 9d6b ca3d
000002e0: 7cc8 1ebd bb3c 363e b1f2 b63d 2292 353e
000002f0: 2094 483e 4834 84be 4cb4 c2bd fc70 ac3d
00000300: 59b9 123e 825f e13d 3079 0fbe 663e 35bd
00000310: 2692 c4bc 8aff 653e 92b1 0fbe ca55 ad3e
00000320: 1748 bfbb 929d 17bd 9d4a a2bd 7f5b 65be
00000330: 20f4 133e e02d 883e 1c63 18be 9a38 9dbe
00000340: 420f b6bd 66aa 45bd 9a54 82bd f355 423e
00000350: 09f3 7fbe a6b7 d03d c5b4 2d3e c58f f93d
00000360: 0b6b 2a3e 9a40 f73d 73c9 5a3e c9a1 2c3e
00000370: 7f72 eebd b4b7 dfba b585 793e 7520 95be
00000380: ae9e 11be 55e0 503d e901 8cbb ce97 73be
00000390: 2277 2bbe 7f37 843d b99f e33d d479 e8bd
000003a0: efcb 17be e8e2 2a3d fa80 24be 90fb 9abe
000003b0: a2e8 adbd 153f 743e 651f 46bd dc1a c83d
000003c0: 9c14 413d 0c9c 2f3d ec99 203e 5a41 8a3d
000003d0: 1718 89bd 187c 7fbe 6cbf 143e d21a 8e3e
000003e0: 254d 213e a52d f13c 2918 52bd fcad 89be
000003f0: e9e5 efbd 4a2a e53d e09d 33be b0e7 94be
-0.27531284 0.17876911 0.16072538 0.09478338 -0.18686342 -0.14179948 -0.030050842 -0.1603659
0.14297722 -0.0037559283 -0.19580618 0.0016456592 -0.1682064 -0.035766505 0.14635588 -0.3176111
0.09140751 0.15460327 -0.11653103 -0.12569062 -0.17317316 -0.038180307 0.10148509 0.13579524
-0.12127802 -0.12678464 0.040127106 -0.011645389 -0.010191474 -0.08318117 0.18091571 0.076536626
0.012999214 -0.21375467 -0.032301348 0.16983455 0.055921514 0.12034525 0.03805883 0.023252994
0.22173217 0.040593673 0.009868457 0.20701282 0.20462482 -0.2980904 0.21402204 -0.29898363
-0.1417743 0.11937489 0.26948112 -0.023800947 0.044555698 0.19397296 0.3034199 0.031604692
-0.26823753 -0.03225788 0.020014597 -0.11696428 0.17928842 0.10377275 0.17694956 0.12909034
-0.008650563 -0.27432236 -0.20909543 -0.06253527 0.3123475 0.16020179 -0.11426156 0.11044776
0.02026693 -0.08365981 0.20106749 0.108159274 0.06196273 0.066518046 -0.049164295 -0.13472985
0.13914202 -0.10296789 -0.14100212 -0.09067403 0.26803812 -0.04041948 -0.038016193 -0.23743458
-0.1183728 -0.0026492462 0.17605533 -0.013926779 -0.14931409 -0.23711477 0.18485123 0.025490254
-0.13398057 0.28786278 -0.00617564 -0.18737167 -0.058014803 0.053846363 0.09058606 -0.09617897
-0.15690036 -0.05208792 -0.17514598 0.07530357 0.31906095 -0.12128462 -0.08488636 0.024333892
-0.25755718 -0.1063668 0.13008852 0.16693869 0.11791718 0.25454476 -0.12277843 0.13765073
0.012383528 -0.10814281 -0.015559807 0.18784282 -0.1300931 -0.16454494 -0.048673455 -0.10896493
-0.1573509 0.112115696 0.20480661 0.32002476 0.006495147 -0.17933255 0.0142072905 0.07213103
-0.091037765 -0.17496714 0.05293023 -0.01883883 -0.17742038 0.08790644 -0.040722057 -0.15810314
0.029917594 -0.15705658 0.12732883 -0.1561344 -0.00786978 0.21150401 0.118639834 0.1882518
-0.13789284 0.14635009 0.042055484 -0.044158034 -0.14574932 0.16999431 0.106185906 -0.23179486
0.18665473 -0.17941351 0.06269583 0.10363124 -0.04281107 -0.19874576 0.11256558 -0.23305944
0.20295537 -0.1711444 -0.06510888 0.008082295 -0.05104764 -0.07202173 -0.2038653 0.2009918
-0.0078066774 -0.18835276 0.025040518 -0.023992056 -0.037529133 -0.17476287 0.04020883 0.09883807
-0.038765416 0.17796604 0.089330085 0.17731526 0.19587755 -0.25821137 -0.09507045 0.084199876
0.14328517 0.11004545 -0.14011073 -0.04424896 -0.02399547 0.22460762 -0.14032581 0.33854514
-0.005837451 -0.037015505 -0.079243876 -0.22398184 0.14448595 0.265975 -0.14881557 -0.30707246
-0.08889629 -0.048258208 -0.06363793 0.189781 -0.24995054 0.10191278 0.1696349 0.12185625
0.16642396 0.12072869 0.2136591 0.16858591 -0.11642932 -0.0017068298 0.24367411 -0.29126325
-0.14220688 0.05099519 -0.0042726886 -0.23788378 -0.16744664 0.064558975 0.11114449 -0.11351362
-0.14823888 0.0417203 -0.16064826 -0.30270052 -0.08491637 0.23852189 -0.048369784 0.09770748
0.047138795 0.042873427 0.15683717 0.06750746 -0.06694048 -0.24949682 0.14526147 0.27754837
0.15752085 0.02944071 -0.051292572 -0.26890552 -0.11713774 0.111897066 -0.17540693 -0.29083014

lstm.bias_ih_l0 f4 [512]
00000000: fbf7 2d3e 47b7 d13b b458 e9ba e3af 0f3e
00000010: f4e3 043e 8990 893c 1f4d 7d3e ded3 803e
00000020: bb7e 0a3e 6d1e 0e3e 0722 ca3d d709 8f3e
00000030: 80b9 7738 a31a 0f3e 3b7b 403d 9a8b 013e
00000040: 30ac 423e 4410 433e 298f a6bd 69f4 413c
00000050: cb7f 173e 20c6 553e 903e 773e a557 ff3b
00000060: 988c a43a aba4 433e 0a6a 363e f7f9 89bd
00000070: 9d80 9d3d e3df 873e d7de 1e3d 0111 bb3d
00000080: 6935 243e 0473 333d a2f0 42bd bd81 133e
00000090: 4f0b 153e f701 c13d 37a9 1d3e 93c1 dbbb
000000a0: 415f 793e 8fc2 6f3e 48f9 de3c 0b42 203e
000000b0: 02b7 173e 2eba 5c3c 7225 2f3e 24d5 4b3e
000000c0: 2faa 723e 2a65 873e 9663 983d 52e2 9c3d
000000d0: 4e79 253d 78bb 693e fe12 83bd 87a2 903d
000000e0: f909 b43e 3dbf d73d 2595 0d3e 9916 9b3e
000000f0: 5ef2 0e3e 2b30 513e 8c28 073e e717 293e
00000100: a667 163e 56f0 3dbc 2188 2c3e 93ef 703d
00000110: 7264 0fbe 24d8 eb3d 482a 543d 4ce4 fa3c
00000120: 7d02 043e f21b 013e 8f5e 0f3e 0705 113e
00000130: 3c97 133e cf93 0d3e 8a51 0a3d 2e40 843e
00000140: ca32 833e 37cd 113e ca7f 8c3e 9d29 ed3d
00000150: 4918 b93d 3dc4 2b3e 5863 523e 2686 69bb
00000160: 2a29 3d3e 689c 113e 1f9b 903e 5eaa 7f3e
00000170: 68ae f8bd 69ee 913e 1c0a 153d 07c5 243d
00000180: 9675 6d3e 7efa 4e3d f57d 8b3e f806 47bc
00000190: 912d 2c3d f7b7 8b3e 7726 933d d8fc 3b3d
000001a0: 8849 8f3d 2f52 6d3d 884b 003e bc45 873e
000001b0: a898 2f3d c914 73be 3c90 a7bc a18f 173d
000001c0: f848 443e 3750 0c3e 4cdb 533c 0a17 593e
000001d0: 2a0b 6a3e 73b7 6b3d 065f 633d b43d 483e
000001e0: 5fdb 223d 1d48 4e3d e4c9 313d 0a14 323e
000001f0: 14d6 ce3d f000 943e 3c23 7b3e 5780 513e
00000200: 4c3a d13c 3026 d03b f0fb 3e3e 208e 2f3a
00000210: 07b5 d43d c7b3 663e 1a6f 8fbe 986b 46be
00000220: fa13 b5bc c2a3 d03d 1fcc 1abe 5079 bcbc
00000230: 03ba 133e bc2b 3c3a 40af 99bd fb9e ca3d
00000240: e462 e13d baa5 383e a9f4 6f3d 5f25 fb3d
00000250: 8fd3 793e 1072 e03d b2a8 91bc a080 c3bb
00000260: 5ae6 89bd 45e2 2b3c 8e2a bd3d 2cd3 2fbe
00000270: b90e 0e3e fb3a 5e3d 64af 9f3c c823 b33d
00000280: f6c5 d9bd c414 1b3e 2ddf 733c cce0 a13c
00000290: 0054 583e e5d4 0a3e b13b 64bd d9c5 80be
000002a0: 78a1 573e b1ae 0fbd dd1d 3c3d ab30 d4bc
000002b0: af41 06be 69f1 85bc 3e9b 033e 98af efbd
000002c0: 1157 0c3e a0fd 9ebd 5d6d 293e 1086 903e
000002d0: 6349 9a3d 62cd aa3d ef80 fd3d 9642 123c
000002e0: 97fa 023d 4e97 50bd 3d7e 283e cab4 e6bb
000002f0: 1ad8 db3d 67bf 033e 1631 833d a5f0 8c3d
00000300: 1dba 443e 726b 57bc e192 803d eda7 433e
00000310: d019 06be 1cb6 8b3c c9fd 4d3d 269f 3d3d
00000320: 2530 543e 0fe1 95bd 2bca 3cbd 3d8b 503d
00000330: 23e0 483e 91ec 00be 36de 5a3e ea52 1d3e
00000340: 89e3 083d e1cd 8e3d fa0b 053e 4523 c23d
00000350: 3d15 aebd 0c49 01be d66a a43d c250 273d
00000360: eabd 733d 4ac0 c8bd 8000 26bb d903 213e
00000370: 63db 8b3d c3f8 a6bc fecb a03d 4199 3e3e
00000380: e56c 733c 7413 4d3e 8a32 fdbd eb38 f93d
00000390: 6f06 f93d 2fa6 f23d db66 8cbd fa7d dabd
000003a0: 731d 513d ab87 0abc 97d2 6e3e a048 bfba
000003b0: 5351 afbc bb9a 063e 8322 8fbb 6821 b53d
000003c0: 35b6 37bd 477a 383e 295c 143e 2e03 a53d
000003d0: 71a2 913a 3c64 0e3e c7d7 3bbe c400 b93d
000003e0: e1a4 423e bdba 1fbe b2c2 49bc e987 903e
000003f0: 62f8 91bd 0b69 a13d b96f ab3d f4ae 57be
0.16989128 0.006400022 -0.0017802925 0.14031939 0.12977582 0.016792553 0.2473645 0.25161642
0.13524906 0.13878794 0.098697715 0.27937195 5.906215e-05 0.13975005 0.04699252 0.1265091
0.19010997 0.19049174 -0.081327744 0.011838057 0.14794843 0.2087636 0.2414496 0.0077924305
0.0012554107 0.19105785 0.17813888 -0.0673713 0.07690547 0.26538 0.038786735 0.091341026
0.16036 0.04381086 -0.047592767 0.1440496 0.14555095 0.09424203 0.15396582 -0.0067064255
0.24352743 0.23414062 0.027218476 0.15650193 0.14815906 0.013472123 0.17104128 0.19905525
0.23697732 0.2644437 0.074408695 0.07660355 0.04039889 0.2282542 -0.06400107 0.0706225
0.3516386 0.10534523 0.13826425 0.30290678 0.13959643 0.20428531 0.13199061 0.16513024
0.14687976 -0.011592945 0.16848804 0.058822226 -0.1400316 0.11515835 0.051798135 0.030626439
0.12891574 0.12608317 0.14000915 0.14162074 0.1441316 0.13825916 0.033769168 0.25830215
0.25624686 0.1423844 0.27441245 0.11580203 0.09037835 0.16774078 0.20545709 -0.0035632937
0.18472734 0.1421982 0.28243348 0.24967334 -0.1214264 0.28502205 0.036386594 0.040226962
0.23189387 0.050531857 0.27244535 -0.012147658 0.042035643 0.27288792 0.07185071 0.045895427
0.06996447 0.057939705 0.12528813 0.2642039 0.042870194 -0.23738398 -0.020454518 0.03700221
0.1916846 0.13702475 0.012930702 0.21200195 0.22855821 0.057547998 0.055510543 0.19554788
0.03975999 0.05036174 0.04340543 0.17390457 0.10099426 0.28906965 0.2452516 0.20459114
0.025540493 0.0063522086 0.18650794 0.00066968985 0.10386091 0.22529517 -0.2801445 -0.19376981
-0.022104252 0.10187484 -0.15116929 -0.023007065 0.14426427 0.0007178148 -0.075041294 0.09893604
0.1100519 0.1803197 0.058582935 0.12262987 0.2439711 0.10959256 -0.017780636 -0.005966261
-0.06733389 0.010490959 0.09236632 -0.171704 0.13872804 0.054255467 0.019492812 0.08747059
-0.10633461 0.1514464 0.014884752 0.019760512 0.21125793 0.13557775 -0.05572099 -0.25150946
0.21057689 -0.035078708 0.045926917 -0.025902113 -0.13110994 -0.016350465 0.12852189 -0.11703414
0.13705088 -0.07763219 0.16545625 0.28227282 0.07533529 0.08339955 0.12378108 0.008927008
0.031977262 -0.050925545 0.16454406 -0.0070405947 0.107345775 0.12865983 0.06405847 0.06881837
0.19211622 -0.013148176 0.06278015 0.19107027 -0.13095784 0.01705461 0.050290857 0.046294354
0.2072149 -0.07318317 -0.04609124 0.050914038 0.19616751 -0.12590243 0.21373829 0.1536366
0.03342012 0.06972862 0.1299285 0.094793834 -0.08500145 -0.12625521 0.0802819 0.0408485
0.059507288 -0.09802301 -0.0025329888 0.15724124 0.06828954 -0.02038229 0.078514084 0.18613149
0.014857505 0.20026952 -0.12363155 0.12169059 0.1215943 0.11848103 -0.068555556 -0.10668559
0.051053476 -0.008455197 0.23322521 -0.0014593787 -0.021401083 0.13144962 -0.004368128 0.08844262
-0.0448515 0.18015395 0.14488281 0.08057247 0.0011111033 0.13905424 -0.18344031 0.09033349
0.19008209 -0.15598579 -0.012314485 0.2822869 -0.071274534 0.078813635 0.08370919 -0.21062833

lstm.bias_hh_l0 f4 [512]
00000000: 7bfd 713e 8212 ce3d ac55 aaba c9b8 e83b
00000010: 7b0a cb3d 30e7 9bbd b34a 5a3e f3fd 963e
00000020: ab71 3d3e ab66 2f3e b3c4 453c 2bce 1f3e
00000030: 828e 72bd 7dbd 4d3d b512 7e3d 23f0 403e
00000040: 6f9a 363e a818 e53d dbc1 e4bc aedf 643d
00000050: edee 043e 51ca 313e 66f6 863e 10a9 a33d
00000060: 12c8 bc3d a214 813e b411 173e 4295 cdbd
00000070: 889c 0d3d 6cac 903e 21d7 8fbc f4f8 c13d
00000080: b391 843e 1ab6 7c3d 6464 e13d 0b9d 0c3e
00000090: a14c 123e d0af ae3d 8928 5e3e e9bd 993d
000000a0: 3872 063e cb2b 843e d3c7 063e 382e 003e
000000b0: c2e3 473d b346 f23d 88e4 bf3d 4b5a 033e
000000c0: b2c7 433e 5cd0 943e 2271 9c3d 6378 5d3e
000000d0: a187 c6bd a782 fe3d 3ceb b93c a94e 4d3e
000000e0: 0528 9d3e 99ed 633e b02f 5a3d 5814 753e
000000f0: 7b5f 2a3e 2339 723e 7db5 b33d 00c2 033e
00000100: 58da 4e3e 7ce2 ddbb 2a23 003e 1890 da3d
00000110: cd9a 06be 0a77 263e 8ff0 903d 1612 b53d
00000120: 4edf b63d a017 3b3e 21eb eb3d b428 863d
00000130: eb43 773e 8c01 d13d ecdc 0d3e 4713 1d3e
00000140: a0c0 823e 5fde 003e 8fd4 2e3e fa9d 773d
00000150: 446a 143e 3f13 4e3e 0038 4c3e 0897 843d
00000160: 8c4f 163e 6a9e ad3d a01d ae3e b6bc 773e
00000170: de98 95bd 412a 893e d878 143d d60e 873d
00000180: e8f6 0c3e 0367 c83d 3205 833e 809d 073e
00000190: 9705 023e 1fe4 813e f4ee d93d 927a cb3d
000001a0: bf10 223e 7e2d 7c3c d99d 0c3e 71f8 893e
000001b0: fcd0 c33d 6aa6 62be a252 e2bb 7aef 023e
000001c0: 6cbc f03d 2e6a f43d fa8a 2cbd aed4 5e3e
000001d0: 9a4b 193e 18b7 4c3e 6345 8e3d 7c76 3d3e
000001e0: 40cd 9f3c c956 35bc 0e94 083e aefe 913d
000001f0: e210 f53c 1a23 873e 86f4 3e3e cd47 363e
00000200: 9c17 0e3d 5fc6 c6bc 7921 0d3e 9186 be3d
00000210: 7afb 9c3d f291 6b3e 90b1 9abe 849f 4cbe
00000220: 61ff 9bbd 0649 ac3d f46f 40be 8044 f03b
00000230: 681f 073e a847 0abe ed27 d0bd e37c ef3c
00000240: b323 1b3e 3609 453e 09df 48bd e651 c93d
00000250: 3993 143e a729 653d a035 b4bd 78fa dcbc
00000260: 9773 023d efed 403d f9ff bd3d 0dd0 12be
00000270: 0a7e 813d ba81 763d f1f6 89bc 8cd7 063e
00000280: cdae cdbb b010 803e b68c a93d 84d1 913d
00000290: 9cf0 9f3d 1dae e83d 2cac 31bd b724 62be
000002a0: d8d3 883d 11bd 403d fdd7 313e 22d6 233d
000002b0: 4e30 36be fbc6 e53c 6835 683e 0a50 0ebe
000002c0: efc5 1d3e 05a6 4dbe 13e5 533e 3b96 623e
000002d0: 8579 b1bd 0523 063d 9c84 673e f246 083d
000002e0: 635a 473e 7e9b c53c a0b2 d73d a52e ff3c
000002f0: 055f e6bc 2a9d 353e 0bc8 c23d d895 f8b9
00000300: 9bb1 4b3e 999b 8cbd fe9f 253e ebb3 463e
00000310: d7bd cebc 1833 e6bb 1624 5ebd 8217 493d
00000320: 5750 3e3e 8317 ebbd cf36 64bd f56e 833c
00000330: 1967 b53d 6b00 8cbe 21b6 043e bfb0 133e
00000340: ffe2 023d 5b31 b53d 1ca1 083e d29b db3c
00000350: ec07 a9bd 0ba2 c6bd 100d 1d3e 7635 32bc
00000360: 67b1 133e d0e3 a3bd 2cd4 53bb f51f 683e
00000370: 74b4 823d a0a0 6cbc fcb1 2bbd 8c33 6a3e
00000380: 8b8f b83c 38f1 0c3e 5fcc 10be e88c 393d
00000390: 7f09 5c3e 6a41 d23c 20ad b1bd 8317 b8bd
000003a0: 2fb3 82bd 3619 95bc 215a a93d de26 983c
000003b0: 49d8 593b 415f 1e3e ed39 9ebd eac1 3b3e
000003c0: 82ce 35bd 71db c33d 4e29 153d 5081 403d
000003d0: 71c6 98bc 1a35 b33d ec39 e4bd 614b 063d
000003e0: 0e1e 273e 9912 32be c32b a83d 6ea0 e83d
000003f0: 1c4b 5abe 8aff 093e d04d 7039 23b6 c3bd
0.23631851 0.10062124 -0.0012995503 0.007102106 0.09914108 -0.07612455 0.21317558 0.29490623
0.18500392 0.17129008 0.0120708225 0.1560599 -0.059217937 0.05022954 0.06202956 0.18841605
0.17832349 0.111863434 -0.027924469 0.05587738 0.12981768 0.17362334 0.26359862 0.079912305
0.09217848 0.25211054 0.14752847 -0.10038234 0.034573108 0.28256547 -0.017558636 0.09471312
0.2589241 0.061697103 0.11005476 0.13731782 0.14287044 0.08529627 0.2169515 0.075069256
0.13129508 0.2581466 0.13162164 0.12517631 0.04880119 0.11829891 0.09369761 0.12827413
0.19119146 0.29065216 0.07638766 0.21627955 -0.09693838 0.12427264 0.022695176 0.20049538
0.30694595 0.22258605 0.053268135 0.23933542 0.16637985 0.23654608 0.087748505 0.12866974
0.20200479 -0.006771384 0.12513414 0.10672015 -0.1314499 0.16256347 0.07077133 0.0884134
0.08929311 0.18270731 0.11519457 0.06550732 0.24147002 0.10205373 0.13853806 0.15339385
0.25537586 0.12584828 0.17073272 0.060453393 0.14493662 0.2012453 0.19943237 0.064741194
0.14678782 0.08477481 0.34006977 0.24193081 -0.07304548 0.2679005 0.036248058 0.065946266
0.13766062 0.09785273 0.255899 0.13243675 0.12697445 0.25369355 0.1064128 0.09935488
0.158267 0.015391706 0.13732089 0.26947358 0.09561345 -0.22133794 -0.0069068233 0.12786666
0.117546886 0.11934315 -0.042124726 0.21760818 0.14970246 0.1999172 0.06946828 0.1850223
0.01950705 -0.0110680545 0.13337728 0.071286544 0.029915277 0.26393968 0.18647966 0.17800827
0.034690484 -0.024264513 0.137823 0.0930301 0.07665153 0.23004892 -0.30213594 -0.19982725
-0.07617069 0.084123656 -0.18792707 0.0073323846 0.13195574 -0.13503897 -0.10163865 0.029234355
0.15150337 0.19241795 -0.049040828 0.09830074 0.14509286 0.055947926 -0.08799291 -0.026974902
0.031848516 0.04710191 0.092773385 -0.14337178 0.06322868 0.06018231 -0.016841384 0.13168162
-0.0062769414 0.25012732 0.082787916 0.0712004 0.078095645 0.113613345 -0.043377087 -0.22084318
0.06681031 0.047055308 0.17367549 0.039999135 -0.17791864 0.028048983 0.22676623 -0.1389772
0.15407537 -0.20082863 0.20692854 0.22127621 -0.08665756 0.03274824 0.2260918 0.033270784
0.19468074 0.024121996 0.10532117 0.031150172 -0.02812148 0.17735735 0.095108114 -0.00047413888
0.1989197 -0.068656154 0.16174313 0.19404571 -0.025237007 -0.007025134 -0.054233633 0.049094684
0.18585335 -0.11479094 -0.055716332 0.01604412 0.08857555 -0.2734407 0.12960102 0.14422892
0.03195476 0.088473044 0.13342708 0.0268077 -0.08253464 -0.09698876 0.15337014 -0.010877004
0.14423142 -0.08002436 -0.003232251 0.2266844 0.06382075 -0.014442593 -0.041917786 0.22871226
0.022529384 0.13763893 -0.14140461 0.045300394 0.21487997 0.025665957 -0.08675599 -0.089888595
-0.06381833 -0.018200498 0.08269144 0.01857322 0.0033240488 0.15466024 -0.07725892 0.18335691
-0.044386394 0.095633395 0.036416344 0.046998322 -0.018649312 0.08750363 -0.1114386 0.03278673
0.16320059 -0.17389907 0.08211472 0.113587245 -0.21317714 0.13476387 0.00022917171 -0.09556224

fc.weight f4 [1, 128]
00000000: 26bf dd3c 2fd3 1b3e b2a5 e4bd 653d 363d
00000010: 2dfd adbd 963b 2b3e 55f8 433e 8a45 e23d
00000020: a1fb 7d3e 201c 5bbe 626e 423e e508 303e
00000030: 1a8b 84be d748 613e 983f 9abc 16cf 983d
00000040: 67e7 95be 6a27 2e3e b965 a2be 2c19 7ebe
00000050: 8eee b33d 6018 243e 7397 5fbe 0a84 ddbd
00000060: 0d6a 74be 7348 3fbe 2eb3 84bd 28b1 79be
00000070: 7578 cbbd 21b9 71be 0553 86be 1ae8 c23d
00000080: d183 32be 8330 b3bd c196 dabd 0e4a 863d
00000090: 2bc9 823d ac6e 67be 874d 8f3e e2d4 79be
000000a0: d93f 883e 12c6 843e f7dd 343e 0f13 74be
000000b0: 02cd 7abd 1fcf 6a3e eaab d8bd c1cc 783e
000000c0: 0d7b 85be 7b4f 393e ccb0 923d c496 ddbb
000000d0: c1b0 693e 3e24 2d3d a092 4dbe 287e 423e
000000e0: b051 603e d6a3 d13d 0b6d 7fbd 4bea 86be
000000f0: 542a 97be d82b b13d 7edf 653e 6206 1b3e
00000100: cf0c bfbd 221f 6b3e 1da3 69be 6c64 d8bd
00000110: b761 9ebd 39e8 01be b190 4c3e 5b32 513d
00000120: bc36 aa3e 5386 413e 892f 3cbd 649c 23be
00000130: e4c0 203e 6d1a 833e 12bc 083e f007 473e
00000140: 10f7 a63d 5657 9b3d ec71 783e f3b8 633d
00000150: 89aa a4bc c7b4 72be 29aa 383e 3a4a 7a3e
00000160: 718a a1be 5e9d 113d 4fa1 843e f7df 67be
00000170: a14a 83be 2360 213e 106a 6d3d 5536 393e
00000180: 8692 d33c 9dc0 1bbe f9ec 813e c3b5 37bd
00000190: e0bc 2e3d f73e 403e a91e 8b3e 928f 8b3d
000001a0: bac3 b7bd 259e 3a3d 8c66 8f3d 5d77 95be
000001b0: ce64 f8bc 2cd0 6ebe 79af 92bc 79ba 683e
000001c0: 8357 993d 0682 413d 4751 9abe 9a7b 2d3e
000001d0: 51b3 9ebc 9fe6 71be 713e 853d 3d10 4fbd
000001e0: 0ccd 5a3e a9b0 79be 1532 86bd 2a3a 033d
000001f0: 173b 9fbd 3bcc 02be b414 b7bd d650 623e
0.027068686 0.15217279 -0.111644164 0.044492144 -0.08495555 0.16721949 0.191377 0.1104842
0.2480302 -0.21397448 0.1898742 0.17190893 -0.25887376 0.22000442 -0.018829152 0.074613735
-0.29278108 0.17007223 -0.31718233 -0.2481429 0.08785735 0.16024923 -0.21835117 -0.108162
-0.2386858 -0.18679981 -0.06479488 -0.24383986 -0.09935085 -0.23605777 -0.26235214 0.09516926
-0.17433096 -0.08749487 -0.10673285 0.065570936 0.06386026 -0.22600812 0.27988836 -0.24397615
0.26611212 0.25932366 0.17662798 -0.23835395 -0.061230667 0.22930573 -0.10579665 0.24296857
-0.26070443 0.18096726 0.071626276 -0.0067623574 0.22821333 0.04227089 -0.20075464 0.18993437
0.21906161 0.10236327 -0.06235985 -0.26350626 -0.2952448 0.08650941 0.22448537 0.15139154
-0.09328615 0.22961095 -0.22816129 -0.10566029 -0.077334814 -0.12686242 0.1997707 0.051073413
0.33244884 0.18898897 -0.04594377 -0.15977627 0.15698582 0.256061 0.13352993 0.19436622
0.08152592 0.075850174 0.24262208 0.055596303 -0.020100849 -0.23701774 0.18033661 0.24442378
-0.31550935 0.035550468 0.2590432 -0.2264403 -0.25642875 0.1575933 0.057962477 0.18087132
0.025826704 -0.15210195 0.25376108 -0.044851076 0.042660594 0.18774019 0.2717183 0.06814493
-0.08972879 0.045560975 0.07001981 -0.2919263 -0.030321505 -0.23321599 -0.017905938 0.22727384
0.07487395 0.04724314 -0.30140135 0.16941682 -0.019372614 -0.23623131 0.065060504 -0.050552595
0.21367282 -0.24383797 -0.06552521 0.03203789 -0.07774942 -0.1277322 -0.08939496 0.22101149
