resources/models/3_by_3/exp_dataset_model_v101.pth (torch, 275742 bytes, 5 tensors)

lstm.weight_ih_l0 f4 [512, 3]
00000000: ba7e 1cbd b796 fabc 8195 be3d cd03 fb3d
00000010: aaae 57bd e079 3e3d 1ba2 013d 9c71 3bbd
00000020: fe99 cd3d a77c 5d3d d318 b23d e591 fe3c
00000030: 4179 0b3e a1d9 febc 9357 0f3d 8554 db3c
00000040: f5dd f23d 8dae 3ebc 6501 553d d83f e53c
00000050: 93e8 bebd bc08 b8bd c84a 23be 5b7a 953c
00000060: 4069 87bc ef90 f43d 94f6 033c 4448 f0bd
00000070: f7a1 083d 1bd2 91bc fd7f d13c 2ea3 d7bb
00000080: 9c37 253e 2b7e a1bc 59f5 cb3d 8137 06bc
00000090: 293a e93d c446 3d3c d5f3 a23c 3926 17bc
000000a0: 949d 5d3c aeca 2d3e d684 0cbc 08ae efbd
000000b0: 8344 a8bc cc22 95bd 5862 dbbc ebf3 9d3d
000000c0: a6cf a6bd 7d7a 0bbd a0db ba3b 4e7f f53d
000000d0: 472c e9bc 097c a1bc f20d 31be ce64 47bb
000000e0: 9102 403d 0a8a 0cbd 5ceb 8b3b 89b1 0b3e
000000f0: e338 213e 8881 813d bfd7 57bc e207 fd3d
00000100: 79f3 dfba 4675 3f3c 8e2e 64bd 6ed8 ac3d
00000110: c6a0 58bd 09a2 02bd 25b0 893d 08d1 cf3d
00000120: d5ad 94bb 8f53 ba3c cc96 1d3e fee3 c5bb
00000130: f5a0 2dbd dccb 013e eeb0 113e ab32 e43d
00000140: a51d 7bbc 4717 173e b975 443d ba06 5a3b
00000150: 8e50 0bbd 7a34 a7bd 0d6a aabd 4387 4dbd
00000160: 1a26 28bd 2c27 67bd a450 7e3d dca7 033e
00000170: 56cc eb3b 1821 b3bb c2f5 aabd ef37 b93d
00000180: 191a 35bc 144a 18bd e0c3 9c3d 50db e4bd
00000190: f576 943d 3f93 ac3b c53b 173c 4f0b ed3d
000001a0: f44d 05bd 3fc0 e73d 98cb 7dbc 2bb8 ad3d
000001b0: 9bd3 aa3d 184f 5cbd 6194 9ebc d679 373c
000001c0: cc89 0dbd 3f21 10be 44b6 04bc 02ac 5e3d
000001d0: 5a83 08bd f1f7 9ebc 959c b13d 5c1b 733d
000001e0: 39ab f239 1ba3 6b3d fc33 5e3d 5c65 f6bb
000001f0: 7656 293d 5c4d c53d bb9c 5abd 77f9 7cbd
00000200: 4daf 8a3d e6f3 da3d 5258 6a3d 1513 013c
00000210: 1e42 3ebc d197 7f3d 2a1f 973d c32a 4ebd
00000220: 90d6 813d b5bd 513b 5665 f0bc 29f7 153e
00000230: 6f59 6abd 6802 7a3d f9d4 bd3c 9dfd b63d
00000240: d9a9 b6bc f017 8f3c 1f0e 9f3d 0dd5 07be
00000250: 3135 03bd a1fe 24bc 978a ae3d 7912 87bd
00000260: 8618 35bd ff96 6a3c a9bb c93c 8a04 023e
00000270: b531 42bc 218b c2bd d443 b03d 0942 c9bc
00000280: 1e2e 053e fe92 5d3d 8256 75bd 0eec e7bd
00000290: d31d 583b a6a7 b03d e96f b13b d174 a5bd
000002a0: 604f 8c3d 2730 64bd 58af 883d 0802 89bb
000002b0: 733b 9b3b eb71 133e 873c 013e 5106 5e3c
000002c0: 5863 063d d7c6 553c f802 a9bc 6693 bd3d
000002d0: 70b8 00bd 698f 843d 0e6a ba3d 5d11 6f3d
000002e0: 244c ec3c cff5 373d 26a8 6ebd c8c8 bf3d
000002f0: 6577 13bd 2a6e ae3d 6332 bf3c 5ec7 6fbd
00000300: c32d 953d b962 22bd f4ed a9bd e9a8 e93d
00000310: dcf5 45bd 64be afbc 3075 e03d 4f2a 0a3b
00000320: a3d2 1d3d dcc0 203c 2a6c 13be 9a3d 873a
00000330: 4f5f a4bd 983b 893d b2f2 42bb ef55 af3c
00000340: 5ce1 1bbe 018c 3c3d ab47 2bbe 2646 2bbd
00000350: eabe 4e3d 2b1a 03be 3c25 5cbb 3e16 8e3d
00000360: a06f 64bd 57f1 81bd de25 49bd b74b c5bc
00000370: d8d5 b33d 00a9 c83c b601 183e 32dc 1b3d
00000380: a3ea bdbb 6700 023e 5815 1c3d a85c ff3b
00000390: 4f4f 173c b499 ca3b 2eeb 103e 143b e73d
000003a0: 2de3 dfbc cd25 d3bd 24ed 053e 400b b2bd
000003b0: 1371 74bc 4a86 f13c 7921 85bd 0da3 23be
000003c0: 8943 45bd 7669 173d 77c9 d33d 7eb9 97bd
000003d0: 2da3 853d 779c 94bd a851 8b3c d010 c7bc
000003e0: 9db6 0fbe d187 a2bd 9e47 37bd 231b 813d
000003f0: f28b e13d 3bad ecbc 0c54 89bc 1a4b 913c
-0.038206793 -0.030589445 0.09305859 0.12256584 -0.052656807 0.046502948 0.031648736 -0.045762643
0.10039137 0.054073956 0.08696141 0.031075427 0.13620473 -0.031109633 0.034995627 0.0267737
0.11858741 -0.011638296 0.052003283 0.027984545 -0.09321704 -0.08986041 -0.15946496 0.01824682
-0.01652968 0.119417064 0.008054394 -0.117325336 0.033357587 -0.017800381 0.025573725 -0.006580732
0.16134495 -0.019713482 0.09958906 -0.008191944 0.11388046 0.011552516 0.019891659 -0.009225422
0.013526339 0.16971847 -0.008576592 -0.11703116 -0.020540481 -0.072820276 -0.026780292 0.07712539
-0.081450745 -0.03405236 0.005702451 0.11987172 -0.028463496 -0.019712465 -0.17290476 -0.0030425075
0.046877448 -0.03431133 0.0042700004 0.13641943 0.15744357 0.06323534 -0.0131739965 0.12355019
-0.001708611 0.011685675 -0.05570846 0.08439718 -0.0528877 -0.03189281 0.0672305 0.101472914
-0.004537324 0.022744922 0.15389556 -0.0060391417 -0.04238983 0.12675422 0.1422765 0.11142477
-0.015326892 0.14754973 0.04796383 0.003326817 -0.03401237 -0.08164306 -0.08321009 -0.050177824
-0.04105196 -0.05643384 0.062088624 0.12857002 0.0071959896 -0.0054665916 -0.08347656 0.090438716
-0.011053585 -0.03718002 0.07654548 -0.11174643 0.07249252 0.0052665765 0.009230559 0.115744226
-0.032545045 0.11315965 -0.015490435 0.08482393 0.08341142 -0.053786367 -0.019357862 0.011198482
-0.03455524 -0.14075182 -0.008100096 0.05436326 -0.03332839 -0.019405337 0.08672444 0.059352264
0.00046285408 0.057528596 0.054248795 -0.007519407 0.04134222 0.09633896 -0.053372126 -0.061761346
0.06771717 0.10691051 0.057213135 0.007878085 -0.011612443 0.062400643 0.07378991 -0.05033375
0.06339753 0.0032003943 -0.029345196 0.14645065 -0.057214197 0.06103745 0.023172842 0.08935092
-0.022297787 0.017467469 0.07766365 -0.13264866 -0.03203315 -0.010070474 0.08522528 -0.0659532
-0.04421284 0.014318227 0.024625616 0.12697044 -0.011852671 -0.09499193 0.08606687 -0.02456762
0.13005874 0.05409526 -0.059896953 -0.11324321 0.003297676 0.086257264 0.005414952 -0.080789216
0.06851077 -0.055709984 0.06674069 -0.0041811503 0.0047373115 0.14398925 0.12620746 0.013551311
0.032809585 0.013047895 -0.020631298 0.0925663 -0.031425893 0.06472666 0.091022596 0.05836617
0.0288449 0.044912156 -0.058265828 0.09364468 -0.036002535 0.08517106 0.023339456 -0.05853974
0.07284119 -0.03964493 -0.08297339 0.1140917 -0.048330173 -0.02145309 0.10959852 0.0021082347
0.038530957 0.009811606 -0.1439673 0.0010318041 -0.08025991 0.0670082 -0.0029746708 0.021403281
-0.15222687 0.046031956 -0.16726558 -0.041814946 0.05047504 -0.12802951 -0.003359153 0.06937836
-0.055770516 -0.0634486 -0.04910838 -0.024083955 0.08781022 0.024494648 0.14844403 0.03805179
-0.005795793 0.12695466 0.038106292 0.007793028 0.009235217 0.0061828736 0.14152214 0.11290565
-0.027330006 -0.10309944 0.13078743 -0.08693552 -0.014919537 0.02948298 -0.06500525 -0.15980168
-0.04816011 0.03696581 0.10341161 -0.07408427 0.06525264 -0.07256406 0.01700671 -0.024300009
-0.14034505 -0.07936061 -0.044746034 0.06304004 0.110130206 -0.028891196 -0.01676371 0.017736007

lstm.weight_hh_l0 f4 [512, 128]
00000000: 92ee 1a3e 4961 a4bc 4b9d 223d 6d9e 303c
00000010: 99a6 1bbd b92c 3dbc ce57 1a3e 0e79 84bd
00000020: 05e9 4cbd 26ce c4bb 7fae 193d 11dd f83d
00000030: 1c4e b0bc c76b 2dbc 2c09 ecbc 96ac c3bd
00000040: 8fc7 2dbd 050a e6bd 32e0 26be 87f4 123d
00000050: 2d79 3f3d a73f 913d 744b 153e fbe7 653d
00000060: b697 1fbe 4d5a 123e 4608 14bd f060 ed3d
00000070: 4df6 5abd 74d8 59bd bf88 51bd abca a2bd
00000080: 24df f5bd f9d5 ba3d 9aa0 00bd 9dfc 14be
00000090: a0cf ad3d c744 debd 4f7f 133d 12f3 00bd
000000a0: 0a8d b43a 7dd2 1cbd d21b a0bd 65ba a1bd
000000b0: 9d2c c63d 4fb9 ce3d 6f4b c7bc 3200 0dbd
000000c0: 33d7 dfbc ae32 debc 2e44 273c 48bf 023e
000000d0: 9c3f efbd aa61 9cbd b84a 3b3d 6b8e c5bd
000000e0: 9682 61bc 853e 293e c2b6 04be 1d03 0dbe
000000f0: 388e f4bd 60db 71bd 3d45 9ebd d373 bc3d
00000100: 8359 253d 6987 1bbe c543 0e3e 71b2 6b3c
00000110: d6f5 0b3e d31a b1bd c774 bdbd 1c97 173e
00000120: 62fd 9f3c a715 10bc b58c ee3c 4db6 933d
00000130: 90dc d63d fff5 ee3d 7247 113e 9f8f c0ba
00000140: d524 36bd 1f12 c63d 60c2 c4bd 1c3a f6bd
00000150: c1d5 08be af12 623d c5e7 0d3d 31a3 efbd
00000160: 3dbb f93c bc48 a83d 5698 87bd 3c7c 993d
00000170: 1463 1e3d 880b 43bd cbf5 cb3d 4073 ae3b
00000180: b77f 803d e322 3abd 3f64 a03d 16f7 f13c
00000190: 1359 76bd e2a4 c33d 7f1c 21bd a6c6 043e
000001a0: 0510 063d 7300 843c 8d88 21bd 3bb9 243d
000001b0: 10c7 8ebd e448 5e3d bc47 f4bd a86c 6e3c
000001c0: 5ca0 0dbd 3f81 173e 531e 20be d8eb e8bc
000001d0: 399f 2ebe 94cd bd3c 5dde 933c 3702 37bd
000001e0: 6c53 3a3d 2f0f 093e 07c3 72bd 0a96 883d
000001f0: 87cf 3d3c 3039 a2ba 74f2 d8bd c93a f5bd
00000200: 1e9e 04be 6756 92bd f4dc 39bc db3b 6abd
00000210: 4825 7d3d bc2f eabd 2362 48bd a1e6 1b3d
00000220: a7dc 3a3d 2e81 cc3d 3fdf ddbd a739 f1bd
00000230: 4b20 a3bd 2e40 6b3d 6c25 0cbd 36da 7c3a
00000240: 4397 66bd 9789 c63d 1ff3 8e3d 37cd f13c
00000250: 7c9b efbd cf16 1c3c d665 d6bd 43b6 87bd
00000260: dea7 913d 1373 98bd a2d2 cebd 595f 97bd
00000270: 462e b2bd a638 043d b157 093e 071e 823d
00000280: 30ab e03d 7496 513d a2fa ed3d b490 4d3d
00000290: f926 1cbe dedf 933d e6cf a83d 4c08 c8bd
000002a0: ff48 a1bd 5aba 8cbd cc11 253e 05cd 36bd
000002b0: f122 523d 592b e23d 4044 a9ba 60db 3a3d
000002c0: 2832 0bbd 6fa4 a83d 2589 6dbd 8a46 6dbd
000002d0: 00e4 2ebc 03dc bb3d 0298 d5bd d818 6dbd
000002e0: d6c8 9f3d 6555 0cbb bd00 2a3d 6ec3 813d
000002f0: 6c10 0a3d 1da5 a93d a382 ce3c 2be5 013d
00000300: 2197 c13d 0511 fb3d 2be0 003d cd01 293e
00000310: 15fd 4dbc 5967 b6bd a543 b43d 7c79 8bbd
00000320: 338a 8ebd 2dcf 893d 6b53 093e cc8e b9bc
00000330: 7077 bc3d 57b1 523c 4b99 42bd 625d 80bd
00000340: ce0e d43d 49e4 0cbe a8b9 c3bc 28be 273e
00000350: 63c3 383e 305b 553d 759e b93c bfbe 97bc
00000360: 56c6 eabd 4cbb 1abe d30e 64bd be9b e93d
00000370: efe5 be3d f1b0 10bd 90bf ba3c ff8f e3bc
00000380: d097 cbbd 842a 7a3d 8df6 863d 874b 09bd
00000390: 99f5 7cbd efc2 a9bd f162 b6bb 12ef bc3d
000003a0: 840b 1dbe d117 b13b c2e6 013d 83ea b5bd
000003b0: 1b07 1ebc af54 0abe 978b 323e da36 31bd
000003c0: 7953 183e 31ef 0abe ed05 4a3d 11de 533d
000003d0: 5ae5 113e 27f4 783d 7ecc 833d cfba 76bd
000003e0: 2f2e 11be a149 00be 47b9 81bd b7cb 043c
000003f0: dc05 a33d f0ca d8bc 0200 a83c 0e7b c93c
0.1513007 -0.02006592 0.039700788 0.010779959 -0.038000677 -0.011546307 0.15072557 -0.06468402
-0.050026912 -0.00600602 0.037519928 0.1215154 -0.02152162 -0.010584778 -0.028812967 -0.095544025
-0.042426642 -0.1123238 -0.16296461 0.03587773 0.04674642 0.07092219 0.14579564 0.056129437
-0.15585217 0.1429226 -0.036140703 0.11590755 -0.053457547 -0.05318494 -0.0511558 -0.07948812
-0.12005451 0.09122843 -0.03140316 -0.1454949 0.08486867 -0.10852962 0.036010083 -0.03148181
0.0013774943 -0.038286675 -0.07817806 -0.0789688 0.09676478 0.100939386 -0.024327962 -0.034424014
-0.027324295 -0.027123775 0.010209126 0.1276828 -0.116820544 -0.076358154 0.045725554 -0.09646305
-0.013764044 0.16527756 -0.12960342 -0.13770719 -0.119411886 -0.059047103 -0.0772805 0.09201779
0.04036857 -0.15188374 0.1389304 0.014385805 0.13667998 -0.086476944 -0.09250789 0.14803737
0.019530002 -0.008794225 0.029119829 0.072125055 0.10491288 0.11668014 0.1418741 -0.001469124
-0.04446872 0.09671425 -0.096073866 -0.12022802 -0.1336279 0.0551936 0.03464486 -0.11701048
0.03048479 0.08216998 -0.06620853 0.07494399 0.038668707 -0.04761842 0.09958991 0.0053237975
0.0627436 -0.045443427 0.078316204 0.029536765 -0.06014354 0.09552933 -0.039333817 0.12966403
0.03273012 0.016113495 -0.039436866 0.040215712 -0.06971562 0.054268733 -0.11927745 0.014552273
-0.03457676 0.14795397 -0.15636568 -0.028432772 -0.17052926 0.023169316 0.018050367 -0.044679847
0.045489714 0.13384698 -0.059268024 0.06669243 0.011585123 -0.0012376662 -0.10593119 -0.11974103
-0.12950942 -0.07145386 -0.011344183 -0.05718599 0.061803132 -0.11434886 -0.048921715 0.03806174
0.045620587 0.099855766 -0.108335964 -0.117785744 -0.07965144 0.057434253 -0.034215376 0.0009645553
-0.0562966 0.09694212 0.069799654 0.0295168 -0.11699578 0.009526922 -0.104686424 -0.066265605
0.07112096 -0.07443824 -0.10098769 -0.07391233 -0.08700232 0.032280587 0.13412358 0.063533835
0.109701514 0.051168874 0.1162007 0.050186828 -0.15249242 0.07220434 0.082427785 -0.097672075
-0.07875251 -0.06871481 0.1612007 -0.044629116 0.051302854 0.11043424 -0.0012914017 0.04561937
-0.03398338 0.08234488 -0.05799212 -0.0579286 -0.010674477 0.09172823 -0.10429384 -0.05788502
0.07801978 -0.0021413204 0.04150461 0.063361034 0.033707067 0.08283446 0.025208777 0.031712692
0.09452654 0.122591056 0.031463783 0.16504593 -0.0125725465 -0.08906431 0.08801965 -0.06810281
-0.06959953 0.06728969 0.13410728 -0.022651099 0.092024684 0.012859664 -0.047509473 -0.06267811
0.10354386 -0.13758959 -0.023892239 0.16381133 0.18043284 0.052088916 0.022658566 -0.018523572
-0.11463611 -0.1511051 -0.0556782 0.114066586 0.093212 -0.035324994 0.022796422 -0.027778624
-0.09941065 0.061075702 0.065899946 -0.033519294 -0.061757658 -0.08289134 -0.005565994 0.092252865
-0.15336424 0.0054044505 0.03171421 -0.0888262 -0.009645249 -0.13508867 0.17436062 -0.0432652
0.14875592 -0.13567807 0.049322058 0.05172545 0.14247647 0.060779717 0.06435488 -0.06023675
-0.14177774 -0.12528087 -0.06334167 0.00810521 0.07960102 -0.026463956 0.020507816 0.02459481

lstm.bias_ih_l0 f4 [512]
00000000: ac13 8f3d 432f c1bc 10f1 12bd e46e 01be
00000010: 68f4 b23d 9ec5 71bc 5e32 213e f601 f0bc
00000020: fb9f e5bc f10a 573e 656c 9ebd b85e 113d
00000030: 78e2 e93c 48bd 20bd f6b0 b4bd cae7 8abd
00000040: f6b0 cabd 50c9 ae3d 15cb e43c 01be 373d
00000050: 2cbf a7bd 74f4 8fbc bab1 51bd 3e05 2abc
00000060: 5460 8d3d 7c68 12bd ba67 7fbd a6e8 fabd
00000070: 36de f53a 7fb7 633c 82f3 8b3d f802 213d
00000080: c363 003e 7eb9 583d 584a acbd 19ce 1dbd
00000090: 35fc d03d 4f76 063e f85d 053d 8e42 e03c
000000a0: 8433 c53a 03f9 8abd 4b8b c33d 5dca 2c3a
000000b0: 241e b6bb 737b 10be 2b5b 52bc c395 e6bd
000000c0: dbfe 203d e4a9 ecbd 4fdc 4e3d dfa1 8a3d
000000d0: c8b0 993c 25ac 2cbd 2a6b d0bd 5691 9c3d
000000e0: 20f8 bfbd 37c1 00be 9b4a 0bbd 6af8 ea3d
000000f0: d2ef 15be 5ad4 65bd df72 a5bd a602 aabd
00000100: e0cf a03d 8f9b 5ebd 3cec 9339 12e2 7fbc
00000110: 84ba 34bd 7914 043e 59ad cf3d 21d2 35bd
00000120: ea29 4a3d 1ef4 d93d 85c9 bfbc 919e e83d
00000130: d381 2abd 2304 2b3d e072 c63c 7eb5 dabc
00000140: 25ae dbbd 66b2 d23d 0d4a 3dbd 65d1 9d3d
00000150: a780 81bd 5e97 2fbc bcc3 933d c742 e7bc
00000160: d075 a43d 5cbc 533d 1e9c a6bd 2ad7 ccbc
00000170: 243b 973d 996c 603d 5e55 15bd fdc8 333e
00000180: 74b4 73bd 06cb da3c 58de e13a b400 433c
00000190: 0ec2 be3c 05a5 783d 113e 43bc 3a32 28be
000001a0: 1496 1c3c fec9 3bbd 4bc9 7dbb 5477 e53c
000001b0: 12c4 6f3d 8a87 403b 8224 35bd 1bbf aebc
000001c0: f291 053e f30d e33d 88e7 fd3d da12 da3d
000001d0: 53a7 bb3d fb39 02be 54e8 c23d f42b 3e3e
000001e0: 7ffd 9f3d e068 fdbc a077 88bc fa35 10bd
000001f0: cdc1 61bd 0e6b 843c 01f8 6fbd 2ebf 693d
00000200: 3633 883c aace 923d 8274 fd3d 1d2d 37bd
00000210: 4193 353d 6cb7 ca3d bc8c 35bd ed43 23bd
00000220: 681f babd 525b 893d 7f5c 0a3d e72e bf3d
00000230: 9c28 93bd f216 c63d fc75 813d 87d4 9c3c
00000240: 63dc bcbd 0eb5 8abc 0fad 853d b4b9 8f3d
00000250: c0d3 b43d 2811 e73d 2244 af3d 95b3 883d
00000260: 22f8 fe3c cba7 683d 0401 e63d cb58 bd3d
00000270: abfe f73a 5add 653c 3b4f 873d 4496 e83d
00000280: 09d9 173d 4962 ccbd 41a9 8d3d 2df5 e33d
00000290: a017 a93d 6847 4e3d 8279 fe3c da73 f6bd
000002a0: bcee 253d 9828 83bb 72bb 97bd bfd8 5bbd
000002b0: d4df 0f3e 862f 06be 1a29 d43d c598 c83b
000002c0: 0239 303d db8b 6dbd b454 c3b9 ce16 b83d
000002d0: f23e ed3c 9184 1a3e bea2 c0bd f761 4abd
000002e0: 117a ae3d a8d2 0f3e 3e7d d03d ea96 0e3e
000002f0: b2aa 1d3e c45b 14bd d576 983d 8512 713c
00000300: ba35 643c 7458 be3d e8e0 403e 15b9 4a3d
00000310: acd9 1a3d f74e c5bc 8c7d 023e e052 a83d
00000320: b8db a53d 034a d4bc 03e9 093e 8b47 433d
00000330: 8028 46bd 400a 95b9 2f33 df3d 32d7 bdbd
00000340: 8635 36bd d723 65bd c2ea 0b3d 0ec0 113d
00000350: a1e4 0f3e 9b66 a5bd 962b 213d 706e 89bd
00000360: c1c4 cebd 1a32 4a3e bbae 16bd 79dd b43d
00000370: 28a3 7d3d 0ce3 afbd 8b0e 9abd d985 083d
00000380: bef7 d93d 9865 223e 681a 723d 2d56 b93d
00000390: 3fd4 ba3d f375 d13d 7a21 ffbb b209 9f3c
000003a0: ad78 b53d a7e2 a13c 3c8b 163d 5375 193e
000003b0: c418 9f3c b00b 7cbd 1b58 a63d d9e4 f9bc
000003c0: e96e 75bd daa5 c03d 86ca ad3c a64f ec3c
000003d0: bb35 20bd 9dad 1a3d f506 a53d 5a3f 083d
000003e0: c18b 16bd 3f9a f33c 3067 f43d 2dfe 0e3e
000003f0: 06d3 e03d 8485 c2bd 584c 203c 2a72 3a3d
0.06986174 -0.023582106 -0.035874426 -0.12639958 0.08738023 -0.014756588 0.1574187 -0.02929781
-0.028030386 0.21000268 -0.07735518 0.03549072 0.028550372 -0.039243013 -0.08822815 -0.067824915
-0.09897034 0.08534491 0.027928868 0.044858936 -0.0819076 -0.017572619 -0.051194884 -0.010377226
0.06903139 -0.035744175 -0.06235478 -0.122514054 0.0018758241 0.013898729 0.06833555 0.03930947
0.12538056 0.052911274 -0.084126174 -0.03852663 0.10204355 0.13131069 0.03256032 0.027375486
0.001504526 -0.067857765 0.095480524 0.0006591434 -0.0055577923 -0.14109592 -0.012839119 -0.112590335
0.03930555 -0.115558416 0.05050307 0.06769156 0.018761054 -0.042156357 -0.1017669 0.07644908
-0.09373498 -0.12573706 -0.034006696 0.114731625 -0.14642265 -0.056110717 -0.080785505 -0.083012864
0.07852149 -0.05434757 0.00028214033 -0.015617864 -0.044123188 0.12898435 0.10140485 -0.044389848
0.04935638 0.10642265 -0.023411522 0.11358369 -0.041627716 0.041751992 0.024224699 -0.02669787
-0.10726575 0.10287933 -0.0462132 0.077059545 -0.063233666 -0.010717241 0.07215068 -0.028230084
0.080302835 0.051693305 -0.08135246 -0.025004942 0.07384327 0.054791067 -0.036458366 0.1755714
-0.059498265 0.026708137 0.0017232401 0.011902023 0.023285892 0.06070425 -0.011916653 -0.1642541
0.009557266 -0.04584693 -0.0038724716 0.028011002 0.058536597 0.0029377663 -0.04422427 -0.02133136
0.13043955 0.11086645 0.12397677 0.10648127 0.09162774 -0.1271743 0.09516969 0.18571454
0.078120224 -0.030933797 -0.016658604 -0.035207726 -0.055116463 0.016164329 -0.058586124 0.05706709
0.016625982 0.07168324 0.12375738 -0.044720758 0.044329885 0.09898266 -0.044323668 -0.0398597
-0.090880215 0.06706871 0.033779617 0.09335118 -0.0718548 0.09672345 0.06321332 0.01914431
-0.09221723 -0.016932037 0.06527149 0.07017842 0.088294506 0.11282569 0.08557917 0.066748776
0.031124178 0.056800645 0.112306625 0.092454515 0.0018920501 0.014029825 0.06606909 0.11356786
0.037072215 -0.09979684 0.06917048 0.11130748 0.08256459 0.050361067 0.031063799 -0.12033816
0.040510878 -0.004002642 -0.07408799 -0.053673502 0.14050227 -0.13104066 0.10359402 0.006121727
0.043023117 -0.057994705 -0.00037256407 0.08988725 0.028960679 0.15089633 -0.094060406 -0.049409833
0.08519376 0.14045203 0.10180138 0.13924757 0.15397146 -0.036220327 0.074445404 0.014713888
0.013928825 0.09294215 0.18835795 0.049492914 0.037805244 -0.024085505 0.12743205 0.08218932
0.08098549 -0.025914198 0.13467793 0.04767565 -0.048378468 -0.00028427131 0.10898434 -0.09269561
-0.044484638 -0.055942383 0.03415943 0.03558355 0.14052059 -0.08076211 0.039348207 -0.067105174
-0.100961216 0.19745675 -0.03678773 0.08831305 0.061923176 -0.08588228 -0.07522305 0.033330772
0.10642956 0.15859067 0.059107214 0.0904964 0.09122514 0.10227575 -0.007785973 0.019413803
0.08860908 0.019761397 0.036753878 0.14986162 0.019420989 -0.061534584 0.081222735 -0.03050463
-0.059920225 0.09406634 0.021214735 0.028846573 -0.03911374 0.037763227 0.080579676 0.03326354
-0.036754373 0.029736636 0.11933744 0.13964148 0.109777495 -0.09498122 0.009783827 0.04551903

lstm.bias_hh_l0 f4 [512]
00000000: f029 1c3d bf19 7dbd 8527 2fbd 32f2 fabd
00000010: 868c ab3d edb5 acbd 5083 bb3d a309 263d
00000020: 7c26 2c3d ee01 2b3e aace c1bd 5d7c 68bd
00000030: d69c f13c d01a 5e3d b33b d5bd 7465 6c3c
00000040: a8d1 b6bd 7dd5 ed3d 6f64 e03a 32fe 083e
00000050: d868 263d 260c 2dbd f66e 2a3d b12c 903c
00000060: 8b95 873d 0436 c03c 9a55 9abd 3867 e5bc
00000070: 9c87 8e3d b97a bc3d 6eaa b8bc 25f9 163e
00000080: 25bd a0bc bb2e e93c 3c3b 1bbe 6969 5e3d
00000090: 4517 da3d a5ba 1b3e 0439 c5bd 1026 b63d
000000a0: e7b2 d43c cce7 02bd 9fef 9c3d 742f ec3b
000000b0: 07c1 d1bc 6358 ebbd 2f6b cb3c 97e7 1d3c
000000c0: abfe b7bc 7bfe b6bd 2dec 923d d38d ff3c
000000d0: 7fb2 b0bd f3d2 1fbd 172d 473c cea7 f13c
000000e0: 5aa4 05bd 656a cdbd 88ce 6bbd 3d0d b53d
000000f0: 7c4a 67bd e541 b4b9 7d1a cbbd b9db 95bc
00000100: f991 173d 212a 61bd 4afe 3bbd eb3a 96bd
00000110: e7dd 403d a8dd 033d c949 68bd b94d 83bd
00000120: f965 4ebd 7fb8 0e3e 233c 5bbd 9a6d b13c
00000130: 59a6 07bd 4293 9f3d bb16 c23c c21c 30bc
00000140: c0d2 b43c a959 68bd be33 713c 5cdb 5d3d
00000150: 27ed 943d 1ed6 c23b fdfd 34bd 5396 aebd
00000160: 70fb ab3d a6cf 15bd 5238 113c 5e01 20bd
00000170: cc58 213d a441 7bbc ab1f 8c3c 7032 f53d
00000180: caf6 393d e6e9 cd3c 98c8 e2bd 2c13 b13d
00000190: cf17 0cbe 7c4e 193d 7f72 b1bc e91a 92bb
000001a0: 416c 233d b281 b9bd 09b1 d0bc 27b9 003d
000001b0: 8011 973d 2a79 9fbd be8c 983d 67c7 e73d
000001c0: 35ab 0a3d 9e23 593c 2191 8bbc 8e0b 973d
000001d0: 7d03 a63d f729 9ebd b8a3 633d 4149 e63d
000001e0: af66 a13d 2029 88bd f76b 573d 0fd9 613c
000001f0: 7122 8abd 2fa1 8abd a974 183c 27c6 883d
00000200: 2238 2ebd 3527 8abd 85e0 2f3d 35cc cf3d
00000210: 258c c03d f774 9a3d ac05 3bbd 3533 a7bd
00000220: 8f5a 8abd dece 563c f53c 8c3d 8bbb 333d
00000230: f989 d1bd 13b6 943d 799f 22bd c40d 343e
00000240: 0eae 95bb e607 9f3d 8068 75bc eb28 55bd
00000250: b7fa 943b f00a 1f3e e25d ab3d 49bc d73d
00000260: ed48 0f3e 32d9 443c 9ca0 af3d 3175 9b3d
00000270: 3f9c 263d 62e2 87bd 636f 19bd 092f ac3c
00000280: 7491 133e 4e64 aabd 2b1e 983d a596 fa3d
00000290: 4c82 693d 4e95 b2bb ab1a 213d d8ae c5bd
000002a0: 3ce1 e1ba 5262 243c cd09 93bd 8c18 8fbc
000002b0: 1387 443c 40a4 2dbc 3bff 813d a418 3d3a
000002c0: 772b cabd 8b0a 75bd ae03 4bbd 31f2 ee3c
000002d0: 5baf 403d 7422 f03d 33f6 833b dd86 eabd
000002e0: 177f 333d 758c c33c 79fd 773d 566a 1b3e
000002f0: fbbb 233e eb92 92bd 9907 5d3d 3bff 853d
00000300: 8670 09bd 0aad 453b 4fc4 2d3e 4f95 053e
00000310: 8152 163e 6555 5c3c 4016 453c a031 093d
00000320: 92ed ef3d 7c31 863d 8f05 a13d b8a8 e53a
00000330: 960d 8bbd 4ddf 233d 5966 263e 1846 cd3c
00000340: d529 a1bd ad64 673d 926d 8ebd 71b4 fc3d
00000350: 06c0 903d 6970 8cbd 854b 553d 09ea 37bc
00000360: ae66 78bd a740 0f3e da68 023d 9c21 a33d
00000370: cd3c acbc 5d24 f23c 3a52 333d 97ed 2b3e
00000380: a6b7 b7bc c114 273d baf8 1d3e 7a8d b33d
00000390: d1a4 053e 6c20 3e3d 3ca5 bdbd 1b8f 943d
000003a0: f74c c53b 187a 313d 49ad ec3c c29a 043e
000003b0: 3a23 12bd 43e1 d9bd 0f7e d13d b710 b63c
000003c0: a54f 02bd 66e6 a73b ea4f 3d3d bf44 ee3d
000003d0: 895a 423d 1e12 fc3b 799d be3d 62ad 993d
000003e0: f681 a6bb 0a73 aa3c 7aef 493c bc8b 273e
000003f0: 6cd4 233e da03 00be eaf5 34bd 9b05 f2bc
0.038125932 -0.06179213 -0.042762298 -0.12253226 0.08376412 -0.08433137 0.09155905 0.040536534
0.04202889 0.16699955 -0.09463246 -0.056759227 0.02949373 0.05422479 -0.10411777 0.014428485
-0.089267075 0.11612985 0.0017119775 0.13378218 0.04062733 -0.042247914 0.041609727 0.017599436
0.0662032 0.023463257 -0.075358585 -0.02800332 0.06959459 0.09203095 -0.022542205 0.14743479
-0.019621441 0.028464666 -0.15159315 0.054299746 0.106489696 0.15207918 -0.096300155 0.088939786
0.025964214 -0.03195934 0.076628916 0.0072078053 -0.025604738 -0.11491468 0.024831383 0.009637735
-0.022460302 -0.08935257 0.07173953 0.031195557 -0.086277954 -0.039019536 0.012156746 0.02949896
-0.03262744 -0.10030059 -0.05757001 0.088404156 -0.05646752 -0.0003438137 -0.099171616 -0.018293248
0.037004445 -0.054971818 -0.045896806 -0.073354565 0.047086623 0.03219381 -0.056710992 -0.06411309
-0.050390217 0.13937567 -0.053524148 0.021658707 -0.033117626 0.07791759 0.02369248 -0.010749044
0.02207315 -0.05672613 0.014721809 0.054164276 0.07271796 0.005945935 -0.044187535 -0.08524766
0.08397567 -0.036574982 0.008863525 -0.039063804 0.039391324 -0.015335474 0.017104944 0.11972511
0.045401372 0.025135946 -0.110734165 0.08646235 -0.13680957 0.037428364 -0.021661041 -0.0044587743
0.03989816 -0.090579405 -0.025475042 0.031426575 0.07376385 -0.07786782 0.074487194 0.1131733
0.033854682 0.013253121 -0.017036976 0.07375251 0.08106134 -0.07722848 0.055576056 0.11244441
0.078809135 -0.06648469 0.052593198 0.013784661 -0.067448504 -0.067690246 0.009305158 0.066784196
-0.042534 -0.067457594 0.042938728 0.10146371 0.094017304 0.075418405 -0.045659706 -0.08164064
-0.06755554 0.013110844 0.06847564 0.043880027 -0.10231394 0.072612904 -0.039702866 0.17583376
-0.004567868 0.077651784 -0.014978528 -0.052040976 0.004546489 0.15531516 0.08367516 0.105339594
0.13992663 0.012014674 0.08575556 0.07590712 0.04067635 -0.06634976 -0.037459742 0.021018522
0.14410955 -0.08319913 0.07427629 0.122357644 0.057009026 -0.0054499274 0.039332073 -0.096524894
-0.0017233263 0.010033207 -0.07179604 -0.01746776 0.011995095 -0.010598242 0.063475095 0.00072134496
-0.098715715 -0.059824508 -0.049564056 0.02916822 0.047042232 0.117253214 0.004027152 -0.114515044
0.043822374 0.023870686 0.060544465 0.15177283 0.15989678 -0.07156929 0.053962324 0.06542822
-0.033554576 0.0030162954 0.16969417 0.13045238 0.1467991 0.013448094 0.012029231 0.03349459
0.11715235 0.06552407 0.07862388 0.0017521596 -0.06789701 0.040007878 0.1624998 0.025057837
-0.07869307 0.056492496 -0.06954493 0.12339104 0.070678756 -0.06857378 0.052073974 -0.011225232
-0.060644798 0.13989507 0.031838275 0.07965395 -0.021025086 0.029558355 0.04377959 0.16789852
-0.022426438 0.040791277 0.15426913 0.08767219 0.13051154 0.04641764 -0.092600316 0.07253858
0.006021138 0.04332933 0.028891223 0.1294966 -0.035678126 -0.106386684 0.10229122 0.022224767
-0.031814236 0.005123901 0.04621879 0.11634206 0.047449622 0.0076925894 0.09307379 0.07503773
-0.0050814105 0.020806808 0.012325162 0.16361898 0.15999001 -0.12501469 -0.044179834 -0.029543689

fc.weight f4 [1, 128]
00000000: 59ad 763e afc4 b9bd 4603 163e 0afe a43d
00000010: b8a3 5c3e 93b2 403e 30a6 033e a1cb e1bd
00000020: f5c0 62be ab05 50be 8979 573e 646f 1e3e
00000030: 09fb 393e c628 22be 9917 e23d f572 23be
00000040: 5060 9fbd d8dc 7dbe 194c 18be b4cc 26be
00000050: 50b8 3a3e c137 893e a121 173e 8d1e 623e
00000060: 08e0 62be 0ea3 323e 025c 473e c40f 2e3e
00000070: cacb 7dbd cb71 e0bb 4e95 4abe c65a 75be
00000080: 66c2 2cbe 9dc5 ae3c 56a7 51be e110 1bbe
00000090: cffd 6e3e 9253 06be 693c 603c 6f2b 21bc
000000a0: 908f fd3b 5636 253b 93d8 87be a96e e0bc
000000b0: 667f 723e 80a4 84bb 5476 5fbe d3b6 633e
000000c0: bf11 9abc d63e 6d3d 9e58 953c f869 463e
000000d0: bd43 18be 2a04 57be cd43 1abc f354 bfbd
000000e0: 86ad 57be f9d7 6e3e 0b30 32be d91f 0fbe
000000f0: c9bf 2fbe 14dc 1e3d ea7c 0dbe aa7d cd3c
00000100: fd75 13be 5a00 3dbe 2d45 553e ff24 24be
00000110: f13d 053e 13d4 023e 8413 15be 700e 1f3e
00000120: d7c4 233e 0042 55be 7add 7ebe cf50 5f3e
00000130: a5db db3d 8cf2 1a3e 22e8 713e 993c 183e
00000140: 86db ffbc aadb a33d ca3a 253e f36c ddbd
00000150: 2008 12be 622c 503d 6236 50be c936 b0bb
00000160: 92d3 b83d 5ee9 813e 94aa 96bd d48a 24bd
00000170: c8a5 2abe c5e2 34bc 8af3 873c 0911 573e
00000180: 233b 333e 48eb 3d3e 8681 d63d 1361 603e
00000190: e349 403e b670 583e 605a 8dbb b64e f93b
000001a0: ad8b 503e fa40 623e 3007 8b3e 5d42 1a3e
000001b0: 0fe4 18be 6d3a 4d3e 6f1b 0bbe 8046 543e
000001c0: 9829 4bbe 257f 353e b0fc a2bd 0e06 6bbe
000001d0: 144d 41be f7fd e5bc 9ff7 333e 4b85 683e
000001e0: af9c 263e 5145 673e 1a38 1abe 3006 373e
000001f0: 4c93 26be 4b2d 35bd e214 43bd c3b8 51be
0.24089564 -0.090707175 0.14649686 0.080562666 0.21546829 0.1881812 0.12856364 -0.11025167
-0.2214392 -0.20314662 0.21042456 0.1547218 0.18162169 -0.15835866 0.11039657 -0.15961821
-0.07782042 -0.24791276 -0.14872779 -0.16289026 0.18234372 0.2680035 0.14758922 0.22081967
-0.22155774 0.17445013 0.19468692 0.16998202 -0.061961927 -0.0068495027 -0.19783518 -0.23960409
-0.16871032 0.021334464 -0.2047399 -0.15143158 0.23339008 -0.13117817 0.013686278 -0.0098370155
0.0077380612 0.0025209389 -0.2653242 -0.027396517 0.23681411 -0.0040479302 -0.21822482 0.2223771
-0.01880729 0.057921253 0.018230733 0.19376361 -0.1486959 -0.20997682 -0.009415579 -0.09342375
-0.21062288 0.23324575 -0.1740114 -0.13976993 -0.17163004 0.0387841 -0.13817182 0.025084335
-0.14400478 -0.18457165 0.2082717 -0.16029738 0.1301191 0.12776212 -0.14558226 0.15532851
0.15993057 -0.20825958 -0.24889174 0.2180817 0.10735253 0.15131587 0.23623708 0.14866866
-0.031232607 0.08000882 0.16135707 -0.10811796 -0.14260912 0.050823577 -0.20333245 -0.0053776246
0.09024729 0.25373358 -0.07356754 -0.04017146 -0.16664803 -0.011040394 0.01659562 0.21002592
0.17503028 0.18546784 0.104739234 0.21912031 0.18778186 0.21136746 -0.004313752 0.00760826
0.20365782 0.22095099 0.2715392 0.15064378 -0.14930747 0.20041819 -0.13584684 0.20730019
-0.19840086 0.17724283 -0.079583526 -0.22951528 -0.18877059 -0.028075201 0.17574929 0.22707097
0.16270708 0.22585036 -0.15060464 0.17873454 -0.16267127 -0.044232648 -0.047627337 -0.20480637
