resources/models/3_by_3/log_dataset_model_v001.pth (torch, 73758 bytes, 5 tensors)

lstm.weight_ih_l0 f4 [256, 3]
00000000: 53d3 b03d 0b06 9b3d 85c4 c3bc e9bf 09bd
00000010: 0418 c9bd 285f c7bd 39e9 ef3c bec5 06be
00000020: 81df 033d d429 193b a6cc 903c 8413 0d3d
00000030: 9610 d03d 398d 6b3d 8868 c43d 98ab adbd
00000040: 5010 133c b254 3a3d eca4 cebd 038e afbd
00000050: 6384 ddb9 1ef5 dfbd 4e3c c6bd 900f adbd
00000060: bf30 c53d 5bc4 55bd 9ccd dcbd d4db 0c3c
00000070: 7ada 1b3d 63ea e1bc ca93 f33d d436 5e3d
00000080: 85c3 32bd 5a54 c4bb d830 39bc c3a2 353d
00000090: 6766 cd3d 8199 26bd d8c8 033e 5cf5 303d
000000a0: fd66 c33d 651f c03c c0ab bebd ae2c cdbd
000000b0: 7396 bd3d b5bf a73d e28e b5bd 1e25 353d
000000c0: a9d5 4bbd b238 ac3d 6f1c f3bd 047d 00be
000000d0: a1ee 31bd 75ce 01be dadf e33c 5686 adbc
000000e0: d7f8 113d 16a5 f3bd dbed e2bd f3e7 c63d
000000f0: 0d31 abbd b6f8 6cbd 3b10 93bd 5bf8 253b
00000100: 08cf 82bc c7ab 83bb b10a f7ba 2ae6 80bc
00000110: e966 043e 8387 553d 2d1f d9bd 08fd 773d
00000120: 1623 2bbd 0772 d53d f08a 14bc 01c1 b53d
00000130: 925d c7bc 1bb4 913d 1847 3b3c e904 a5bd
00000140: 18cd aebd ba43 c5bc e8c2 fcbb ccaa 81bd
00000150: 2c00 d73d 61f7 d63d 042c 04be 03ea d4bd
00000160: f4b8 04be 81d4 9d3c 10ca f5bc 25b8 bcbd
00000170: 75d3 c43d cc60 6dbd c0d6 d3bd 0ed5 403c
00000180: 5a25 013e 85b6 f8bc 20e6 b33d c7dc 3bbc
00000190: 68db 59bd 5917 b53c ba2d d6bd 1dcc bbbd
000001a0: 1dbf 583d 0e4a 07bd bfeb 3bbd 3803 d8bd
000001b0: 0883 973c 3c60 043e 93b2 f83d f42a 1a3d
000001c0: e215 f9bd bee6 823d 2e6d e5bc be3a b6bd
000001d0: 7fee 833d 01da c23c 2633 c3bc f478 00be
000001e0: 7571 2abd a2c9 ecbd 90ff 9b3d d315 afbd
000001f0: 531f ec3d 1115 bd3c 736d c9bc 04c2 3ebd
00000200: c28d 87bc ca60 9fbd 7776 723d e7f3 913c
00000210: 9b75 763d ca89 5dbd e124 ed3d 99c4 b5bd
00000220: 48a1 dcbd 4f16 d6bc be7d 833d de76 673d
00000230: 17cf 0fbd 1ffd 3dbd 1de2 3ebc 3cda e03c
00000240: 6a94 903d 3b03 c03d a87d c9bd abbf 783d
00000250: 6e45 2fbd 3042 8cbd 633c d23d d7ec 9a3d
00000260: 4ff5 483d 43be 903d 0023 62bd d3f5 b83d
00000270: 1070 5dbc 2437 c93d 801c 733d 5710 8ebd
00000280: 430b d1bd 779e 19bd 781b e63d 4412 c53d
00000290: a2e3 723d 6728 afbd 62d1 0fbd 0f36 3a3d
000002a0: 2d79 cabc 4aec 6b3d b0bc 90bd d65a 9e3d
000002b0: e370 d23d 58d6 d03d 99fc cfbd fac7 e03c
000002c0: 1fa3 efbc 19d1 a9bd d1a8 a0bd 2134 643d
000002d0: c550 92bd 55ac 31bd 40b7 3d3d 20c9 b53d
000002e0: 4d64 f23c 3151 073e fe09 b73d 6445 8a3d
000002f0: 0f9b 33bd 6b06 6b3b 1724 153d d848 de3d
00000300: 585d f0bd 23bf febc cb73 b8bb 4296 45bc
00000310: c0a5 583b a77f 963d 66d2 5dbd ab62 8e3d
00000320: 05b0 0b3d 81f3 b73d 2cda 8cbd 3b19 803d
00000330: fc81 d2bd aba4 83bc 497e 4ebd b73b d3bd
00000340: b7fc 313b a815 40bd 96dc d7bd d8ee 03bd
00000350: 8fbb 93bd f6cb a3bd 58f7 aaba c16e bfbd
00000360: 8529 ec3c 8f93 583d 690a d3bd 073a 63bc
00000370: f25e 1abd dee3 d9b8 5c70 01be 6707 b4bc
00000380: fd71 173c b296 723d 4ce4 2b3d 47f2 8cbd
00000390: c83c cd3d 0e2f 91bd b613 f83d ea16 07bd
000003a0: ae02 973b b1f3 ef3d 523c 90bc 3668 d93c
000003b0: ba0a 833d 7b3b ee3d 13a4 82bd d618 a5bd
000003c0: 9089 86bb ea70 a13d 6c17 69bd 812b 3f3d
000003d0: bec7 7fbd 5eec eabd 5cf2 67bc 669e 9e3d
000003e0: fb66 743d 6315 783d 79ab a53c 23dd c23c
000003f0: 6c64 ab3d 2613 19bd aae0 ea3d 1171 d03d
0.08634057 0.07569512 -0.023897419 -0.033630285 -0.09819034 -0.097349465 0.029286014 -0.1316137
0.03219557 0.0023370879 0.017675709 0.03444244 0.101594135 0.057507727 0.0959025 -0.084799945
0.008976057 0.045490928 -0.1009005 -0.085720085 -0.0004225104 -0.10935424 -0.09679471 -0.08450234
0.09628438 -0.052189212 -0.107814044 0.008597333 0.038050152 -0.027577585 0.11893423 0.054251507
-0.043643493 -0.005991501 -0.011303149 0.044344675 0.10029297 -0.040673736 0.12869585 0.043202743
0.09541128 0.02345247 -0.093101025 -0.100182876 0.092572115 0.08190862 -0.08865143 0.04422485
-0.04976431 0.08409251 -0.11870658 -0.1254769 -0.043440465 -0.12676413 0.027816702 -0.02118222
0.035637703 -0.11896722 -0.110805236 0.097122096 -0.08358965 -0.057854377 -0.0718083 0.0025325033
-0.01596786 -0.00401828 -0.0018847791 -0.01573475 0.12929882 0.052131187 -0.106016494 0.060544044
-0.041781507 0.104221396 -0.009066328 0.08874703 -0.02433661 0.071144305 0.011430524 -0.08057577
-0.08535212 -0.024080146 -0.0077136643 -0.06331405 0.1049808 0.104964025 -0.12907416 -0.10396197
-0.12961179 0.019266369 -0.030003577 -0.0921481 0.09610645 -0.05795364 -0.10343695 0.011769546
0.12611905 -0.03036047 0.08784127 -0.011466212 -0.053187758 0.02210586 -0.104579404 -0.09169791
0.052916635 -0.03302961 -0.045879122 -0.10547489 0.018495098 0.12927336 0.12143435 0.03763862
-0.12162377 0.06391667 -0.028006162 -0.08897923 0.06441974 0.023785593 -0.0238281 -0.1254614
-0.041612107 -0.11561896 0.07617104 -0.085490845 0.11529412 0.023081334 -0.024588322 -0.046571746
-0.016547088 -0.07782133 0.059195008 0.017816497 0.06017075 -0.054086484 0.115793 -0.08875389
-0.107729495 -0.026133684 0.06420468 0.056509845 -0.035109606 -0.046383973 -0.011650589 0.027447812
0.07059558 0.09375616 -0.0983842 0.060729664 -0.042790823 -0.06848562 0.10265424 0.07564705
0.04906207 0.070675395 -0.05520916 0.09031262 -0.013515487 0.0982497 0.05935335 -0.0693671
-0.10207226 -0.03750464 0.11235708 0.096226245 0.05929912 -0.08552628 -0.035111792 0.04546171
-0.024715984 0.05759839 -0.07067239 0.07732169 0.10275438 0.10197133 -0.10155601 0.027439106
-0.029252587 -0.08291835 -0.07844699 0.055713776 -0.07144312 -0.04337724 0.04631734 0.08876252
0.029588843 0.13214566 0.08937453 0.067515165 -0.043849047 0.003586198 0.03641137 0.108537376
-0.11736554 -0.031097 -0.005629038 -0.01205975 0.003305778 0.073485665 -0.05415573 0.06952413
0.034103412 0.089819916 -0.068775505 0.06254812 -0.10278699 -0.01606973 -0.050413404 -0.10314124
0.0027158686 -0.046895653 -0.1054012 -0.0322102 -0.07213508 -0.07997887 -0.0013043685 -0.093472965
0.028828392 0.052875098 -0.1030472 -0.013868815 -0.037688203 -0.0001038981 -0.12640518 -0.021976186
0.0092434855 0.059225745 0.041965768 -0.06882148 0.10021359 -0.07089053 0.121131346 -0.032980837
0.0046084737 0.11716402 -0.017606888 0.02653895 0.0639853 0.11632439 -0.06378951 -0.08061378
-0.004105754 0.07882865 -0.056907102 0.046672348 -0.06244635 -0.11470865 -0.014156904 0.07745056
0.059668522 0.06056727 0.020223366 0.023787087 0.08368763 -0.037371777 0.114686325 0.10177816

lstm.weight_hh_l0 f4 [256, 64]
00000000: 4c34 b43d 16d0 96bc 9389 8fbd b325 bb3d
00000010: c9b8 e03d 0f88 933d 44ce d7bd f88c bf3d
00000020: 4fde d33c 2d39 b7bb 6ce7 ad3d 29a5 363d
00000030: 44b6 f4bc 62b9 c2bc e10e 453b a4ff 2dbd
00000040: 018f d7bb 95c9 b03d 72ef e7bd 9f94 ecbc
00000050: 6819 51bc 6006 93bd e1d6 b4bd 2633 cf3b
00000060: fc87 d83d 3ea2 c23c 180d dfbc d8d9 063e
00000070: ffed 81bd 206b 1f3d a8d6 7bbd d8ed a4bd
00000080: e5e4 1cbd 8415 e33d 9b58 86bc 7fb8 b7bd
00000090: 052f 5b3d 0132 833d 7898 84bd 9c45 973d
000000a0: d250 063d 3182 be3d c84a 4d3c b53a 08b9
000000b0: 1081 9e3d 2526 d53d dcc2 ec3d da78 7dbc
000000c0: 453c 8cbd 043f 213d 40d6 d7bc aba1 80bd
000000d0: 06ae 37bd 9346 9f3d e871 9fbc a6f9 a13d
000000e0: 22f7 bfbc fd40 4c3d 86fc 3e3d 81e3 f73d
000000f0: d704 4bbc 7c68 bd3c 6d92 93bd b000 3abd
00000100: 7e0a c2bd 05d3 ef3d 5fc7 3cbd 00d9 c23d
00000110: 5a57 09bd bc35 a73d 4030 25bd 6b03 8ebd
00000120: ee5c 0a3d 123e 263d bb35 263d 5544 07be
00000130: d9bc 07be 2625 aebd 3c9d efbd 0c4c 63bc
00000140: e90f 31bd 8ff4 973d ff8d 943d 6d39 ddbd
00000150: 71e5 db3d 785b b7bc 21da de3b 74a6 00be
00000160: 9a17 c6bd 7b1a a73d eaa9 23bd f99e d93d
00000170: 490e bebd 0e84 833d eb32 adbd bb7e 86bd
00000180: 1fe1 803c 98ee 58bd 777e 093d 378c c43d
00000190: 4651 c9bb 9d22 febc 728d d13d d8d2 983d
000001a0: 3d76 07be 192b 0c3c 558f e43d c959 71bd
000001b0: c696 c3bd 905c 68bd 7b11 62bc 7a45 78bd
000001c0: be30 7b3b cdec 993d c584 8d3d 4716 193d
000001d0: fb85 c03c 69fb 84bd 5624 233d b3d6 edbd
000001e0: 6518 d5bd aefb 04bd e98f 8a3d 9b3c 9fbd
000001f0: 2533 eebd 1989 d93d 33f0 c63c ddcd f139
00000200: a112 99bc 5491 1abc 8d66 8bbd 6171 20bd
00000210: 17a3 85bd 0c21 813d 81f6 c8bd cbe7 c53c
00000220: c340 97bd 9450 54bd b3df d73d 5020 023d
00000230: a567 c43c ffed e73c 9451 933d a801 353c
00000240: 7c12 d8bd 090a 523d 4404 cd3d b1bb eabd
00000250: 5962 25bc 66f1 aa3c 2905 583d 7040 e73d
00000260: 4aac a43d 6f4e 3c3d d88f 02bd 872a b93d
00000270: b413 5bbd c62d 9fbd fa75 e3bd 4787 153d
00000280: 11b1 963d 08a4 8dbd bc74 bfbc a355 ad3c
00000290: 3443 dcbd 35a8 0fbc 4522 433d 1a1e 193d
000002a0: 9560 16bb de75 edbd 4e5b bdbc 39d6 cbbc
000002b0: 7096 bf3d 46c2 7dbd 54f2 dfbd 13b1 f63d
000002c0: 6808 d13c 221c 96bd d70c d03d c306 f33c
000002d0: 5ce5 fabc 3fd8 5d3d f996 d53d 5365 ccbd
000002e0: f0e6 c63b 17a2 6bbd ec7e a0bd 4aa5 2b3d
000002f0: 4e17 dfbd ccb2 9f3d 59f1 ccbd 2538 9a3d
00000300: e9b9 22bd 0f46 dd3d bda5 c63d 1e7c 19bd
00000310: 0363 e73d aabb c3bd 855d 043e 075c 423d
00000320: 67af b93d 4d5e 27bc 3dc1 b0bc 33c3 2b3d
00000330: dd69 d9bd 11f5 223c 38b8 84bc a9f8 643d
00000340: 84f4 a8bd 289f 3e3d f13c c13d d213 9dbd
00000350: f3d2 2b3d d7c5 033e fcae 8b3c d3cf b2bc
00000360: 9163 7c3c 4178 ddbd 709c d23d 9d64 f5bd
00000370: 5fb4 b3bd 0cfb dd3d e3e5 8bbd 9709 a6bc
00000380: caab fc3d 9220 8d3c eeab b43c 146f 2dbd
00000390: d035 053e f015 be3d 10e4 afbb 9a09 7f3d
000003a0: f539 3dbc cdc5 2f3d 6424 043d a3e1 bc3d
000003b0: 8a98 a2bd 7db6 81bd e2fb 4cbd 618e 753d
000003c0: ac07 6f3c 6b8d ecbc 152d eabd 46ab 4f3d
000003d0: 3fec e03d 608d 72bd fed2 3cbd c7c3 80bd
000003e0: 40a8 9f3c 7cb7 a8bb 9095 093d b114 213d
000003f0: 31ed 05bd 64e7 86bd 0961 93bd 4a12 d83c
0.08799037 -0.01840977 -0.07008662 0.0913805 0.10972745 0.072036855 -0.10537389 0.093530595
0.025862841 -0.0055915327 0.08491406 0.044591103 -0.029872067 -0.023770038 0.0030068683 -0.042480126
-0.0065783267 0.08632199 -0.113249674 -0.028879462 -0.012762405 -0.0717895 -0.088300474 0.006323236
0.10572812 0.023759004 -0.027227923 0.13169038 -0.06344222 0.03892052 -0.06148401 -0.080531776
-0.03830423 0.11088088 -0.016399672 -0.08970737 0.05351164 0.06406022 -0.064743936 0.07386324
0.03279192 0.09302176 0.012530036 -0.00012991841 0.077394605 0.10407666 0.11560604 -0.015470708
-0.06847433 0.039366737 -0.02634728 -0.06280836 -0.044843696 0.07777133 -0.019463494 0.07908945
-0.023433272 0.049866665 0.046627544 0.1210394 -0.012391291 0.023121111 -0.07205663 -0.045410812
-0.094746575 0.11710171 -0.046088573 0.09514046 -0.03353057 0.08164546 -0.040329218 -0.06934246
0.03378003 0.04058654 0.040578585 -0.1320966 -0.13255633 -0.08503179 -0.11699912 -0.013873111
-0.043228064 0.07419693 0.07253646 -0.10801969 0.10737122 -0.022382483 0.0068009053 -0.12563497
-0.096724704 0.081593476 -0.039956965 0.10626025 -0.092800684 0.06421672 -0.084569775 -0.06567141
0.015732346 -0.052961916 0.033567872 0.09597056 -0.0061437218 -0.031022364 0.10232057 0.0746209
-0.13228698 0.008555197 0.11160151 -0.058923516 -0.09550242 -0.0567289 -0.013798113 -0.060613133
0.0038328613 0.07515869 0.069100894 0.03737476 0.023501387 -0.06493265 0.039829575 -0.11613216
-0.104050435 -0.032466583 0.0676573 -0.077752315 -0.11630849 0.106218524 0.024284458 0.00046120482
-0.01868564 -0.009434063 -0.068066694 -0.039170627 -0.065252475 0.06305131 -0.09812642 0.024158379
-0.07385399 -0.051834658 0.10540714 0.031769097 0.023975203 0.028311728 0.07193294 0.011047758
-0.105504006 0.0512791 0.10010579 -0.114615805 -0.010094249 0.02086706 0.052739296 0.11291587
0.08040674 0.045973238 -0.03187546 0.090413146 -0.053485587 -0.077724025 -0.111064866 0.036505964
0.073579915 -0.06916052 -0.023371093 0.021158999 -0.107550055 -0.008768131 0.047640104 0.037382223
-0.002294575 -0.11594747 -0.023114827 -0.024882423 0.093548656 -0.06195285 -0.10934892 0.12045493
0.025516704 -0.07329585 0.10158699 0.02966631 -0.030626945 0.054161306 0.104291864 -0.099802636
0.0060700104 -0.057527628 -0.078367084 0.04190568 -0.10893117 0.07797775 -0.10006971 0.0753024
-0.03972808 0.10804378 0.09699581 -0.037471883 0.11298182 -0.095572785 0.129263 0.047451045
0.090666585 -0.010215354 -0.021576518 0.041934203 -0.10615895 0.009946124 -0.016201124 0.055901203
-0.08249763 0.046538502 0.09435452 -0.07669796 0.041949224 0.12868439 0.017051212 -0.021827614
0.015404598 -0.10813952 0.10283744 -0.11982081 -0.087746374 0.10838899 -0.06830957 -0.020268245
0.12337454 0.017227445 0.022054639 -0.04234226 0.13008809 0.09281528 -0.0053677633 0.062265016
-0.011549463 0.042913247 0.032261267 0.09222724 -0.07939251 -0.06333635 -0.0500449 0.059950236
0.014589231 -0.028876027 -0.1143438 0.05070045 0.1098256 -0.059216857 -0.046099655 -0.062873416
0.019489408 -0.005148826 0.0335899 0.039326373 -0.032696906 -0.06587103 -0.07196242 0.026375908

lstm.bias_ih_l0 f4 [256]
00000000: 35fd b43d adb4 2e3d 231d 7f3d c9f5 303b
00000010: 8725 ec3d 12e1 533d fa62 b7bb e809 cd3d
00000020: 4db8 8cbd de45 cd3d 14ff dd3d f398 86bd
00000030: 3eef ebbc 3e28 863d 6dfa 3a3b e6cd 9cbc
00000040: a101 54bc 39e6 7abd a395 72bd 6294 ba3d
00000050: 10df d63d c416 ccbd d598 69bd 2702 c1bb
00000060: b427 aebc cd8e 9bbc cc53 a43d b5ad 3b3b
00000070: f7ac 94bd 4767 083d b061 b23c 80bf d23b
00000080: 803f 653d 78a5 a8bc b0a4 f0bc 2517 c5bc
00000090: ae62 083e 10c0 6dbd ab9f ebbd 673f dc3c
000000a0: cbd1 afbd 33f3 bb3d 9559 5abd 923e c43d
000000b0: ecfd c83d af0e 5fbd 8f51 623d cc15 92bd
000000c0: 298a e13d 0353 e33d 6e9e c33c 5f8f 0bbd
000000d0: 9da9 ab3d 1812 ec3d a6ef cfbc 86d4 ca3d
000000e0: cfa6 bc3d 1af8 513d daf8 c93d 5314 ddbc
000000f0: 8909 923d bdd4 3f3d bb03 4cbd a09e 05bd
00000100: 91f7 f3bd 3305 003e 6c8b 113d b56b cf3c
00000110: b144 c6ba be84 a33d d9b2 923d 3c7d 89bd
00000120: 4f92 edbd 4a1d c1bc 1637 f53d abfb 343d
00000130: 9a96 c0bd 1093 9c3d dc04 cbbb 9244 023c
00000140: 4dd4 96bc 3ab6 78bd 4efd bfbd c03f b8bd
00000150: 7226 2ebd 88ca d03d 97ed f63d 9b79 073e
00000160: 9ae9 793d 5a71 d2bd 4d53 debd 1d4c a43d
00000170: 380c d93d 3e8e e83d 9746 55bd 3126 5abd
00000180: 36e3 cfbd e3d5 d6bd 9a8e 3dbd a722 6c3d
00000190: 4375 e13d 5da9 e53d 592b e33d 71ee 823d
000001a0: 0d82 b4bb d4e7 03bb 31f2 86bd aa0b 503d
000001b0: d198 89bd 765a d63d 6e98 023e a9ad d23d
000001c0: e07c fdbd 9eb3 efbc 90b8 d8bd 2b9b 95bd
000001d0: 65a7 92bc 03af afbd 2e55 44bd e271 72bc
000001e0: 6b52 c2bd ef74 363d 5c0a ba3c 4baa d13c
000001f0: 83e9 923d 5224 c3bd 6bfa 123d cc78 e63d
00000200: 517e ccbb f0a6 c13d eec3 fabd ae2b 573d
00000210: c856 bf3c 7ed5 b2bd 0675 e83d 0cbd a0bd
00000220: 81d5 443b 50e3 b53c 0bf2 e0bc 53af ac3a
00000230: 464c bd3c 758f e5bd ca3b e83d 595e ce3c
00000240: 08f7 0dbc f8c7 0bbd 140d da3d 6178 e2bd
00000250: 296c 593d 7aff 9f3c f3fb d8bd 1d17 063b
00000260: c5d7 e4bd e9f1 9fbd 0ba9 203d 601e 643c
00000270: 821d fcbd 897f 21bd 8b5c e53c 3cfa 04be
00000280: 0b8f 23bd c9ca bc3d 14f5 c6bc 73ea bdbd
00000290: d62b 773d 2b11 f2bd a4c0 30bd 2bb2 4b3c
000002a0: ebf1 72bc ec29 a2bd 88d6 f8ba 90b0 343d
000002b0: d343 e7bd 2e4f 673d 0fd7 e33d cb9f 96bd
000002c0: b83d 823d 8460 5ebc 4078 47bd ecd1 50bc
000002d0: 5a82 b63b 777f 7f3d 123f ebbd 60d8 a43d
000002e0: 70a4 fa3d e171 00bc bba3 cebd 0e01 b7bd
000002f0: 8495 acbc 690b d2bd b0f2 ec3c b9da d9bd
00000300: c4b8 833d fad3 003e c18d 2c3d 828f b03c
00000310: 1136 ab3c f834 b23b b302 c1ba bf93 6ebc
00000320: 5c08 823d b988 7f3d 107a 613c a724 5fbd
00000330: 24f3 893d 33ae 68bd 9668 863d b891 3cbd
00000340: c9b9 96bd ecc4 bf3d 7ebd 843c ebd3 a0bd
00000350: 2964 cf3d 8f02 d3bc 60cd b53d 3a98 1ebc
00000360: 2936 8f3d b35d 23bc 1964 83bc 7e6c 17bc
00000370: aba5 443d 6687 d93d 1f92 48bd 979d f63d
00000380: ce21 5abc c70e dcbd 547e e7bd 9fb1 6d3c
00000390: 263b 0a3c c948 1fbd 1243 373c cf44 f43d
000003a0: 1190 d7bd b693 c03d 44c0 013d d22e 0e3d
000003b0: d79d 933d f835 d83d 5468 f0bb dcc7 88bd
000003c0: 4c5b c93d a58b 093d ed07 633d 19d3 abbd
000003d0: 39cb 9dbd cf73 d7bd a9c9 e4bd 580c 103d
000003e0: 2d61 cd3d 97a0 d03d 0cc1 bfbd c3e0 5dbd
000003f0: 69b2 a83c afdd 34bd 26d4 8ebd 743e db3d
0.08837358 0.042652775 0.062283646 0.0027001968 0.11530595 0.051728316 -0.0055965157 0.10011655
-0.0687109 0.10023092 0.10839668 -0.065721415 -0.028800603 0.06550644 0.0028530613 -0.019141149
-0.0129398415 -0.061254714 -0.059224736 0.09110333 0.104917645 -0.0996528 -0.057030518 -0.005890149
-0.021259166 -0.018988991 0.080237955 0.0028637473 -0.07259553 0.033301618 0.021775097 0.00643152
0.05596876 -0.020586714 -0.029375404 -0.024058888 0.13318893 -0.058044493 -0.115050636 0.026885701
-0.08584937 0.09177246 -0.05330809 0.09582247 0.09814057 -0.054457363 0.05525356 -0.07133064
0.1101268 0.110998176 0.023879256 -0.034072276 0.083819605 0.115268886 -0.025382828 0.09903817
0.09211504 0.051262 0.09861918 -0.02698723 0.07130725 0.046833742 -0.049808245 -0.03262198
-0.11912454 0.12501983 0.035533354 0.025319913 -0.0015126673 0.07984303 0.07163019 -0.0671334
-0.11600172 -0.023573536 0.119733974 0.04418532 -0.09403725 0.076452374 -0.0061956476 0.007950919
-0.01841178 -0.06072066 -0.09374486 -0.08996534 -0.042517133 0.1019488 0.120570354 0.13229983
0.061013795 -0.10275526 -0.10855732 0.0802233 0.10598034 0.113552555 -0.052069273 -0.05325908
-0.10150759 -0.104900144 -0.046278574 0.057650235 0.11008694 0.11213944 0.11092252 0.06393135
-0.0055086673 -0.0020127194 -0.06589163 0.050792374 -0.067186005 0.10466473 0.1275346 0.10287029
-0.12377334 -0.029260453 -0.105820775 -0.073049866 -0.017902086 -0.08578303 -0.047932796 -0.01479766
-0.09488376 0.04454511 0.022710018 0.025593897 0.07173445 -0.09528412 0.03588335 0.11253509
-0.006240644 0.09455669 -0.12244402 0.05253189 0.02335681 -0.08732127 0.113504454 -0.07848558
0.0030034485 0.022203118 -0.027459165 0.0013174809 0.02310766 -0.11209003 0.11339529 0.025191473
-0.008664854 -0.034126252 0.10647026 -0.11058117 0.053081665 0.019531 -0.105949305 0.0020460554
-0.11173967 -0.078098126 0.039223712 0.013923258 -0.12310316 -0.039428268 0.02799823 -0.12986082
-0.03993134 0.09218366 -0.024286784 -0.09273233 0.06034454 -0.11819681 -0.043152466 0.012432615
-0.014828186 -0.07918152 -0.0018984834 0.044113696 -0.11292233 0.056471996 0.111250035 -0.07354697
0.06359428 -0.013572816 -0.048698664 -0.012745362 0.0055697383 0.06237742 -0.11486639 0.08049083
0.12238395 -0.007839651 -0.10089823 -0.08935748 -0.021067388 -0.102560826 0.028924316 -0.10637421
0.064317256 0.12580863 0.042127375 0.021552805 0.020899804 0.0054384433 -0.0014725536 -0.014561593
0.06349251 0.06238625 0.013762012 -0.054478314 0.067358285 -0.056806754 0.06562917 -0.046037406
-0.073596545 0.09363732 0.016203638 -0.0785292 0.10126526 -0.025758056 0.08877063 -0.009679848
0.06992752 -0.00997107 -0.016038941 -0.009242175 0.048009556 0.10621528 -0.048967477 0.120417766
-0.013313724 -0.10745006 -0.11303392 0.01450768 0.008436954 -0.038887773 0.011185424 0.11927187
-0.10525525 0.094031736 0.0316775 0.03471262 0.0720784 0.10557169 -0.0073366556 -0.06678745
0.098318666 0.03358044 0.05542748 -0.08389873 -0.07704777 -0.105201356 -0.11171276 0.035168022
0.100283004 0.1018688 -0.09362993 -0.054169428 0.020592885 -0.044156726 -0.06974058 0.10705271

lstm.bias_hh_l0 f4 [256]
00000000: 0293 60bd 1ee1 09bd d956 ba3d 0274 85bc
00000010: 1307 693d e7ff c23d 85e6 053e b39f f1bd
00000020: c6e4 e13d 9199 b5bc eca4 aebd 1c95 603d
00000030: b209 c2bd 86cf ecbd 908e e7bd 559f 5b3c
00000040: df27 0339 9b39 d8bd 0f09 19bd ec25 103c
00000050: fc6b c03d cdda 95bd 7b92 a03d 93d8 983d
00000060: 9059 4abd 04ac 643d 0b8e a7bc a93a 5d3d
00000070: e18f 093c 9112 8cbc c58b f03c e40e 2e3d
00000080: 835a f23d 3fe9 833c 7fef 4fbc cc31 da3d
00000090: 927f d93c 6152 f4bc 3cd7 9dbd 20e7 dbbd
000000a0: 534d e7bd 73e5 813d 4339 e93c a00a 353b
000000b0: 3292 5d3c e424 03be c1fb b83d d488 3fbc
000000c0: d7f4 40bd 89c8 fd3c ea06 c3bd 446c 6b3d
000000d0: 78cb d23d dcbf cebb 2d63 053e aeef c9b9
000000e0: acef 3b3d a032 edbd 3003 e53d 5eb9 f839
000000f0: e59b a43d b9d6 c8bd ef87 b03a a07a 36bd
00000100: 5906 923d c8b7 85bd e21e 5abd c056 103d
00000110: 142e b0ba 1660 933d 1f45 13bd a5d7 09bd
00000120: 6cf0 903d 2df1 a6bd 28fc 833c 9c7f 813d
00000130: 8ded 6d3c 2bc1 4dbd ce12 8ebd 665b 3abd
00000140: ae75 e53d 097a 86bd 8047 f23d 1266 bb3d
00000150: d145 b33d cc9d 97bd 7c89 033e c954 57bd
00000160: 5bdf f73d 529a cf3d bb58 05bd f156 9cbb
00000170: 3d88 0fbd f6ad 373c 1acc 3fbd 9522 40bd
00000180: 966c ec3d babb 70bd c0f2 cf3c 863a ec3d
00000190: 23b8 e5bc bf3c da3d 638b 633c 3029 b1bd
000001a0: bdb1 e5bd 60ca eabd 04ff 8a3d 8849 b43c
000001b0: d3cc cebd d5f1 573c 5c2b 033e f97c fdbd
000001c0: 2b50 283c 23d5 cdbd 464d 4d3d 25d6 dbbd
000001d0: 58a8 d2bd e262 43bd 9093 bdbd 139a 9a3d
000001e0: 4fe4 843d 430a 423c 1ba6 8abc f1ac c6bb
000001f0: 5f34 993b 3711 133c cac3 88bd 92a6 553d
00000200: 4ab0 b53b 322f 283b 5b72 43bc bdbc ca3d
00000210: 4aac 7f3d b2b6 d2bd c261 603d 2d5f 803d
00000220: ec99 c5bd e2d4 3f3d c220 4d3d 98d2 a33d
00000230: 558a d03d b919 83bd ef7c e33d a2b2 93bd
00000240: a5bd 90bd ca2b 89bd 934a e03c f985 56bd
00000250: c3a7 11bd 43c1 703d 05c2 c63d 9c2e 99bd
00000260: 92d7 5ebd 9316 38bd 29a0 a43d 173d ddbd
00000270: 40c0 e73d 5731 a43d 57c7 29bd 28ad 3cbc
00000280: ea78 203c c777 86bd ba7a b03c 57ce cbbd
00000290: 7b99 023e 089d 14bc b9b5 ccbd be42 ae3d
000002a0: ef0e 6e3d 1888 83bd 1646 babd 53f2 e5bd
000002b0: 9bf4 933d 1a92 103d d77d d83d 0fe3 653d
000002c0: 2b74 90bd eb6f 223d 9d36 8abd 0177 71bd
000002d0: c5ac 123d 7c70 c43b 5b47 68bc d82f e239
000002e0: d04e fc3c 807c bdbd affc bcbd 8223 85bd
000002f0: e1b3 5e3d 078f 9dbd 6d30 aebd af4c 05be
00000300: 2949 1cbd b0ba d7bd 1f7b e83d 9d3d 05bd
00000310: 46ab 773d dcb7 743d 55d3 c0bd efa0 6dbc
00000320: 84ab b93d 8e69 653c 3aaa 8d3d dfbd c2bd
00000330: 9638 97bc 2abd 26bc 09ef bebd b7c3 bcbd
00000340: d9b8 ed3d b68b 0f3a 8c3d b5bd b7c5 66bd
00000350: d298 56bd bd47 14bd 22fa 8538 bb41 743d
00000360: 6d04 033e 096d 29bb 2077 d8bd d09d 05bc
00000370: e05f 69bd 8eba ebbd bb39 d73d 1333 8abd
00000380: 8b02 fabc a562 b3bd 554c 4ebc 93ab f23d
00000390: 38af 7b3d a684 b53d f157 0e3d 851d 0ebc
000003a0: ffbd d93d a5fb 42bd c050 033d 5f50 a13d
000003b0: 90a4 c13d 88f3 b73d 4592 e1bc 55b3 ebbd
000003c0: 2120 2cbd 8ea6 f8bc 8592 d6bc 0afc 97bd
000003d0: df36 dc3d a8a4 c13d 484b 01bd 4282 c63d
000003e0: f1a8 6e3d 8330 643d c2f7 ddbd 0c4a a23b
000003f0: 864a d0bd 4c20 e73d 7940 7fbd d857 eabd
-0.054827698 -0.033661954 0.09098596 -0.016290668 0.056891512 0.09521466 0.13076217 -0.11798038
0.11029963 -0.022167953 -0.0852755 0.0548297 -0.094745055 -0.115630195 -0.113064885 0.013404687
0.00012507987 -0.10557862 -0.037362155 0.008798104 0.093955964 -0.073171236 0.07840439 0.07463183
-0.04940182 0.05582811 -0.020453474 0.05401102 0.00839612 -0.017098697 0.029363522 0.04249467
0.1183367 0.016102431 -0.012691378 0.10654029 0.026550088 -0.029824438 -0.07707068 -0.10737443
-0.11294045 0.06342592 0.028469687 0.0027624741 0.013523625 -0.12807041 0.09032393 -0.011690337
-0.047108497 0.030979412 -0.09522803 0.057476297 0.10292715 -0.0063094925 0.13026114 -0.00038516283
0.045882866 -0.115819216 0.111822486 0.00047440355 0.08037547 -0.0980658 0.0013468246 -0.044550538
0.07130117 -0.06529194 -0.05325211 0.03523898 -0.0013441467 0.07196061 -0.03595459 -0.03365292
0.07077107 -0.081514694 0.016111448 0.06323168 0.014521969 -0.050233047 -0.069371805 -0.04549732
0.11204086 -0.06566245 0.11830044 0.09150328 0.08753551 -0.07403144 0.12845415 -0.05257109
0.121031485 0.10136856 -0.032555323 -0.0047711064 -0.035042036 0.011210909 -0.046825506 -0.04690798
0.115441486 -0.05877278 0.025384307 0.115346 -0.028041905 0.10656118 0.013888213 -0.08650434
-0.112155415 -0.11464381 0.067869216 0.022007719 -0.10097661 0.013180216 0.12809509 -0.12377352
0.01027302 -0.10050418 0.05012252 -0.10734204 -0.10286015 -0.047701724 -0.09256661 0.075489186
0.06488859 0.011843267 -0.016924908 -0.0060630967 0.0046754326 0.008976272 -0.06677969 0.052160807
0.005544697 0.0025662896 -0.01192912 0.0989928 0.062420167 -0.102887526 0.05478073 0.06268153
-0.09648499 0.04683388 0.05008007 0.07999152 0.10182635 -0.064013906 0.111078136 -0.07211806
-0.07067422 -0.06697805 0.02737931 -0.05237386 -0.03556038 0.05877806 0.09704975 -0.07479593
-0.054404803 -0.044943403 0.080383606 -0.108026676 0.11315966 0.08017223 -0.04144987 -0.011515893
0.009794453 -0.065658145 0.021542896 -0.099514656 0.1275386 -0.009070642 -0.09995598 0.08508824
0.05811971 -0.06422442 -0.09095399 -0.1122786 0.07224389 0.035295583 0.10570877 0.056124743
-0.07053407 0.039657515 -0.06748698 -0.05895138 0.035809297 0.0059948545 -0.014177169 0.00043141725
0.0307993 -0.09252262 -0.09227883 -0.06500913 0.054370765 -0.07693296 -0.0850533 -0.13017534
-0.03815571 -0.10533655 0.113516085 -0.032529462 0.060466073 0.059745654 -0.094153084 -0.014503702
0.09065917 0.014002217 0.06917234 -0.09508871 -0.0184596 -0.010176936 -0.09322936 -0.09217017
0.116075225 0.00054758356 -0.0884963 -0.0563409 -0.052391835 -0.036201227 6.388525e-05 0.059632998
0.12794657 -0.0025852344 -0.10569596 -0.008155301 -0.0569762 -0.11510192 0.10509058 -0.06748023
-0.03051879 -0.08759049 -0.012591441 0.118491314 0.0614464 0.08863191 0.034751836 -0.00867403
0.10631942 -0.04760327 0.03205943 0.07876658 0.09455216 0.08981997 -0.027535567 -0.11508814
-0.042022828 -0.030352857 -0.026192913 -0.074211195 0.10752653 0.09455234 -0.031565934 0.096928135
0.058266584 0.055710327 -0.10838272 0.0049526747 -0.10170464 0.11285457 -0.062317345 -0.11442536

fc.weight f4 [1, 64]
00000000: 6729 4cbd 2ceb b4bd 38fd 06bd 28dd adbb
00000010: b2a0 3fbd 18fb d23d 22ed 773d 5ac1 d9bd
00000020: 3b7c 54bd 9941 b93c 1bc8 653d d183 fb3d
00000030: 2883 e63d 29e8 653c d105 8a3c 0f1d cf3c
00000040: 1309 8d3c 2af1 4c3d bb8a ae3d a92b 2b3d
00000050: 1078 913d 6f1a 91bd 0c9e 013e d944 f03d
00000060: a0c7 353c 3a24 c8bd 5bc2 c53b 2284 aa3d
00000070: 0002 d4bd 5642 953d a09a 943d 84f5 c4bd
00000080: 2acf 063e 434b 933d a005 d6bd ce0a 203c
00000090: 19ca fc3d fb36 cebb 9c47 d13d dde4 ebbd
000000a0: 7d45 c83d aa8a bebd f2ad 87bd 865b e33c
000000b0: 1849 a7bd 5bb5 9d3d ef77 f93d 6404 74bd
000000c0: 8ddc e73d 32de ce3c b163 b13d 21f4 f7bc
000000d0: c02f 9b3d 9773 e43d d4d8 df3d 6e78 373d
000000e0: f1ad 5e3d 7b79 b8bd 1e97 3a3d 06b8 d03d
000000f0: 688b bbbd 566b a63d 0dbf ac3d 22fa 72bd
-0.04984417 -0.08833918 -0.032956332 -0.005305905 -0.04678411 0.103017986 0.06052888 -0.10632582
-0.051876288 0.022614287 0.05609904 0.12281001 0.11255485 0.014032402 0.016848477 0.02528241
0.017216241 0.05003468 0.085225545 0.041789684 0.07102978 -0.0708512 0.12657946 0.11731882
0.011094958 -0.09772535 0.006035132 0.083259836 -0.10351944 0.07288043 0.07256055 -0.09617141
0.13164964 0.071920894 -0.10450292 0.009768201 0.123432346 -0.0062931753 0.102187365 -0.115182616
0.09778879 -0.09303792 -0.06624974 0.027753603 -0.081682384 0.077006064 0.12181079 -0.0595745
0.113213636 0.025252435 0.08661593 -0.030267777 0.07577467 0.111548595 0.109300286 0.044792585
0.054365102 -0.090075456 0.045554273 0.1019135 -0.09157449 0.081259415 0.084348775 -0.059320576
