resources/models/3_by_3/log_dataset_model_v003.pth (torch, 73758 bytes, 5 tensors)

lstm.weight_ih_l0 f4 [256, 3]
00000000: c4bd 0dbd f16a d2bd cb14 913c 106d d1bd
00000010: 422d ef3d 6ccb 18bc 2143 2abc 47ca f63d
00000020: 084c 88bd ff3d f73d cbd3 0dbd 26e7 8cbd
00000030: 36b6 1e3c 4260 af3d cd56 85bd 3e26 c83d
00000040: 3b29 5abd f9b9 90bd f2f0 f3bd 822d 9cbd
00000050: 56ca e33d 3d6c 72bd 6459 d03d 1834 063d
00000060: 1eb5 edbd 696f 263d 62b4 f23c 7b49 313d
00000070: e676 40bd 0429 be3d 02cf de3d a095 7b3d
00000080: ead2 b13d 7a76 2cbd fb6f 9abd e413 233d
00000090: 7e36 1dbd c2af 84bd ddb9 bf3d 32fe 453d
000000a0: 904e 52bb f6bb 883d d23a d0bd ab4e 75bd
000000b0: ede2 ab3d 929e b43d 1da1 60bb d68c a8bd
000000c0: 2a16 ab3d 6659 af3d 3ced ad3d 59a9 8f3d
000000d0: 0a1e e0bd 6dc3 d73d 569e a0bd 7579 4eba
000000e0: 39c2 a0bd 6f87 833d 1161 bb3d 919e 023e
000000f0: 7c75 2b3d 4d04 fbbd 7657 53bd 7b59 bbbd
00000100: 5897 523d 57cf 6d3d 4270 0cbd 8e7b ac3c
00000110: d424 70bc 17db 803d 4499 ad3d a34f 8b3d
00000120: b179 87bd db7d 8abd 1f76 c03c 5d94 183d
00000130: 2478 fa3d d321 e6bd 7d25 c53c 356f b23c
00000140: 74ac bb3d db69 73bc 344b e4bb a23a cd3b
00000150: 8623 a93d bc2a 8f3d e4bb 943c 5a8f ef3d
00000160: c29a 85bc d0eb efbd 335c b43d 7850 02be
00000170: 48f3 c9bb ed55 613d 0e91 f1bd f93c 373c
00000180: a726 103d fe93 5a3c 0edd babd 9583 82bd
00000190: 9220 0bbd 2180 2dbc afcd f2bd ad7a fa3c
000001a0: 6119 d93d 55bd e13d 5e56 1a3d 3635 bc3c
000001b0: ff11 70bd 96b2 383d 2c14 a53c 8899 bdbc
000001c0: 9291 613c 44bb e43d 00a2 b73d 3657 debd
000001d0: 23f9 ef3d 3aba 8dbd 1e9c 1ab9 45ef c73d
000001e0: 4dab cabd b80d 4bbb 4ae6 d8bd bf11 8e3d
000001f0: 9ba1 3c3d f0e6 a43d 41d0 4bbd 341e c33d
00000200: 1bb9 ce3d 5cb1 2f3c b5ca c7bd b0dc f03d
00000210: 8db1 dcbd 16f2 a2bb 73aa ac3c 5a58 e23b
00000220: 86d1 d23d e60f 12bc 3b73 b1bd 0a75 423d
00000230: e734 eb3d 01f1 993c 2cf3 cd3b 1324 953d
00000240: 8f5b 22bd b7e7 22bd f862 7dbd a6b5 0abc
00000250: 8782 efbd a08a c83d 642d f3bd 893d 11bd
00000260: 2a70 d43d 372c c33d f04c ab3c 10a4 b63d
00000270: 522f f2bb 1a3f b33d ed3f 20bd 3cf5 fbbc
00000280: 4d74 a1bb 6865 0aba 521d 23bc a46b c73d
00000290: 7801 cd3d a3df bebc a004 e53d c9a6 fa3d
000002a0: 8528 d83c 296e e0bd c418 60bd c577 b63d
000002b0: 83f2 f23d 8349 1dbd fa12 523d 1fb2 143d
000002c0: f04a b33d 223d ccbd dacb 5a3c a5e9 93bd
000002d0: f940 be3d f3cc b03d 73f6 a73d 7978 b7bd
000002e0: c1d3 9cbc 6849 f0bb 9d5b afbd 6029 943d
000002f0: 8f28 4a3d aa91 48bc 371e e9b8 80aa 52bd
00000300: 5077 bb3d 935b 8abd da03 f23c bda1 993d
00000310: 7b8c 75bd 671f 063d a93f 323c 5c1e ddbd
00000320: ad61 98bc 4c03 5a3d 09d1 83bc c339 a03d
00000330: 0a1e f9bd d314 243c f718 d83d 7759 f1bd
00000340: a197 9f3d 97f0 70bd 046d ddbc 0f5d 16bd
00000350: 390e d83d 14b2 c63d e9df d63d e16c 723c
00000360: 13cf d33d 4750 863d dae3 af3d 3975 64bc
00000370: 11c6 943d f932 863d b3a2 c5bd 2f10 b8bd
00000380: 39f1 db3d 85f0 943d 8fe8 843c 818d c3bd
00000390: 288e c5bc 2a6a fbbd 349d 89bd 3446 65bd
000003a0: 0854 af3d 23c5 cabd 684a c5bd 0c8e 6b3d
000003b0: f3d9 a43d e2f5 ec3c c346 523d 013e 373d
000003c0: fe9d f2bd 1ae5 84bb 5e22 ec3d 26ab babd
000003d0: ac91 443d c13a b6bc 2230 d43c 0e31 9f3d
000003e0: c79f 8c3c 997f d9bd c79c bdbb 3c20 16bd
000003f0: 78bd b3bd ae05 db3d 2e60 993c 853d 8bbd
-0.034604803 -0.10274304 0.01771011 -0.1022588 0.11678554 -0.009325843 -0.010391981 0.120503
-0.06655127 0.12072372 -0.03462581 -0.068800256 0.009686997 0.085632816 -0.065106966 0.09772919
-0.053261977 -0.070667215 -0.11911191 -0.076258674 0.11122577 -0.059185255 0.101733 0.032764524
-0.11606811 0.040633593 0.029627029 0.043282967 -0.04698839 0.09285167 0.10879327 0.06142199
0.08682807 -0.042105176 -0.0754089 0.03981389 -0.038382046 -0.06478836 0.093616225 0.048338123
-0.0032090284 0.06676476 -0.10167469 -0.059889477 0.08392892 0.088193074 -0.0034275718 -0.08229987
0.08353837 0.08561973 0.084925145 0.070147224 -0.109432295 0.105353214 -0.078427 -0.0007876375
-0.07849545 0.06422316 0.09149373 0.12755801 0.04186009 -0.1225668 -0.05159708 -0.091479264
0.051413864 0.058059063 -0.034286745 0.02105501 -0.014657218 0.06291788 0.08476499 0.06802299
-0.06615008 -0.06762286 0.023493825 0.037250865 0.12229946 -0.1123692 0.024065727 0.021781543
0.09163752 -0.014856781 -0.0069669727 0.006263093 0.08258729 0.06990573 0.018156 0.11697264
-0.016309146 -0.117148995 0.08806648 -0.12726009 -0.0061630346 0.055013586 -0.11795245 0.011183971
0.03519311 0.013340948 -0.09124194 -0.063727535 -0.03396661 -0.01058963 -0.11855637 0.030576074
0.10600544 0.1102244 0.037680022 0.022974592 -0.058610912 0.045092188 0.02015122 -0.023144498
0.013767617 0.111685306 0.08966446 -0.10856478 0.11717441 -0.069202855 -0.00014744743 0.09762434
-0.09895954 -0.0030983519 -0.10590799 0.069369785 0.046052556 0.0805186 -0.049759153 0.09527245
0.100939 0.010723438 -0.0975546 0.11760843 -0.107760526 -0.0049727065 0.02107737 0.006907505
0.1029387 -0.008914923 -0.086645566 0.0474749 0.114847 0.018791677 0.006285092 0.07282271
-0.0396381 -0.03977176 -0.061861962 -0.00846616 -0.11694818 0.097920656 -0.11873892 -0.035459075
0.10372956 0.09529918 0.02091071 0.08918011 -0.007390895 0.0875227 -0.039123464 -0.030756585
-0.004927194 -0.0005279393 -0.009955721 0.09737328 0.10010046 -0.023299998 0.11182523 0.12238843
0.026386509 -0.109585114 -0.05471112 0.08909563 0.11862662 -0.038400184 0.05128763 0.036302682
0.087545276 -0.09972598 0.013354266 -0.072222985 0.09289736 0.08632841 0.08201303 -0.08958525
-0.01914394 -0.0073329695 -0.08562396 0.07234454 0.049355086 -0.01224176 -0.00011115934 -0.051432133
0.091536164 -0.06755748 0.029542852 0.07501552 -0.059948426 0.03274479 0.010879436 -0.10796806
-0.018601263 0.0532258 -0.016090887 0.07823517 -0.121639326 0.0100147305 0.10551637 -0.11784642
0.07792593 -0.058823194 -0.027029522 -0.03670984 0.10549588 0.097019345 0.10491926 0.014796467
0.10342231 0.065582804 0.08588381 -0.013943964 0.07264341 0.06552691 -0.09650173 -0.08987462
0.10739369 0.07272438 0.016224174 -0.09548474 -0.024115637 -0.122761086 -0.06719437 -0.055975154
0.085609496 -0.09900882 -0.096333325 0.057508513 0.08049383 0.02892584 0.051337015 0.044736866
-0.11846541 -0.0040556313 0.115299925 -0.09114675 0.047990486 -0.022244813 0.025901858 0.07773028
0.017166032 -0.106200404 -0.0057865116 -0.036651835 -0.08776373 0.10694443 0.01872262 -0.06798843

lstm.weight_hh_l0 f4 [256, 64]
00000000: a088 563c 8f72 31bd c8dc 6abd 74a2 05be
00000010: d719 babc 6233 fabd e301 e93d 3aee 3ebc
00000020: 7c87 883a b6e0 7c3d c548 333d 8ab3 183d
00000030: 1016 f53d 83f5 edbd 54e9 883d 0bc6 6abd
00000040: a118 593c a449 cd3d 4d88 763c 586d c6bd
00000050: 53f7 93bd bd00 17bd 9c9e cebc e5a6 99bd
00000060: 6898 03bd 1c75 df3d d95f 9c3d 39f4 a1bd
00000070: a289 a13c d22c 5e3d 5312 673d c1cf fcbd
00000080: 0930 15bd db98 5f3b 5ee2 bebd e05b 663d
00000090: def3 96bd 603c 5abd d933 bd3b 1df7 aabd
000000a0: 384b b0bd 4bf6 163d 5b35 b93d a880 e13d
000000b0: 6c1e d63d 911d a53d b183 d13d 5219 6e3d
000000c0: 0b01 fe3d 5574 a5bc d35b debd 9cc7 9abd
000000d0: b1e9 dbbc 1240 b53d e838 5e3d 92d6 0a3d
000000e0: caef 82b8 506f ad3d 713c 07bd 30a0 843d
000000f0: 8ed7 653d a897 b7bd a594 52bd cb35 32bd
00000100: f5bc 7c3d 4908 5b3d 4e0b 04bc 3eca c3bd
00000110: b3d8 593c 9816 0d3d d7bf 423d 295c 5bbc
00000120: 2fce 9cbc cc2a 37bd fd78 79bc b03b df3d
00000130: 9803 f73d 02a6 e23c 6be5 46bd a2a3 9f3d
00000140: 181b f4bd 6eb9 d23c 8cbb f5bd f096 eebc
00000150: 108d d23d 4518 f43d 948b a33d 0c14 38bd
00000160: d7d4 993d a23e 403d 1b43 19bd ee9a c63c
00000170: 0e9e d2bd 31bb ad3d 518d 203d 85ba ae3d
00000180: 1652 8dbd 54c0 f43b 99d0 e5bc c110 e1bd
00000190: 11b2 edbc 2a5a 2a3d 5589 573d 9a8c 23bd
000001a0: 0e44 81ba 17bb 8ebd 1417 763d ec77 74bd
000001b0: 08b2 febd af0b dcbd 4e5b 503d 2b91 d7ba
000001c0: 1790 6f3d c730 ff3c 237a 11bd 9ddd d23d
000001d0: 379e 4abb bb87 7fbc e4b5 9f3d 7ea2 b1bb
000001e0: fef2 103d f9e4 68bb 5213 433d 81e6 413d
000001f0: ec31 de3d 3028 b03d ed8a a03d 47b2 c2bc
00000200: 5768 bdbd 0fd8 ad3d 70d0 453c d749 923d
00000210: c75e f53c 6ef7 e53d 1149 05bc f82f bb3d
00000220: c177 62bc 16dc dbbd eab0 f7bb efed 59bd
00000230: dc6e ef3b 3740 293d 0d72 e1bd bd83 0c3d
00000240: 3c00 89bc 24d4 98bd fd58 d73d e8fa 0c3d
00000250: b06c aebd 8ee8 bf3d abe3 8ebd ac98 353d
00000260: b15d febc 4df5 efbc 6bb0 b43d 90ee e63b
00000270: 4132 dc3b c2dd c5bd e328 8c3c 1b6b e53c
00000280: f081 e5bd ec8c acbc b251 01be c464 043d
00000290: 0454 b7bd 1a8f 673d cb86 273d cc24 203d
000002a0: 53d7 8bbc d1fa 773c 4d4b 9e3c 3264 693d
000002b0: f254 f53d dae7 75bc 5c89 b1bd eef6 fe3c
000002c0: da93 e9bd 5356 9ebd b895 5b3c eba9 acbd
000002d0: b323 a3bd a7a0 c6bd 0938 6a3d 12f0 03bc
000002e0: 4eb7 a4bd 5a1c 9d3c 43df 243c b6a4 283d
000002f0: 3f15 213b 8778 e43d 44ac b6bd 451e 563d
00000300: c602 33bd 9998 343d 3aa4 b6bd 12c7 8fbc
00000310: 8dce 843d bdf9 21bd 689b 4e3d 60df a93b
00000320: 0e7b dfbc c4db 6f3b 4d10 833d a21c abbd
00000330: 0b72 e9bd 4e90 41bc b8ad 013e a735 a73d
00000340: 34f6 e7bd ed83 a5bc 7b35 9c3d 9092 55bd
00000350: 9ba5 59bd 2dd3 10bd 6b3b 333a 9fcb 37bd
00000360: 305e 4d3d 94d8 223d 8039 013d 655c e0bd
00000370: 30b8 73bd 94cf bd3d db09 f1bd e3a7 d9bd
00000380: 7004 8bbd eafd 333d dd55 89bd c971 673c
00000390: 7f11 6c3d 7302 f2bd c19b 98bd b20f 84bd
000003a0: 9b5c c3bd b05c a1bd ddbc c43d 9e4f abbd
000003b0: f51a e5bc fd7a 7b3d 4743 253d 3938 58bd
000003c0: 025d 2cbd e298 09be 8b4a 47bd 13d4 2dbd
000003d0: b91b ddbd 6f1f 96bb 7e31 11bb 1acd a9bd
000003e0: 7efb 76bd 21dc 69bd c220 9a3d aab3 be3b
000003f0: b6cd 2c3d 4c0f 093c dc0a cabd 3a6d fbbc
0.013094097 -0.043322142 -0.05733946 -0.13050252 -0.0227174 -0.12216832 0.11377313 -0.011653477
0.0010416354 0.06173774 0.04377057 0.037280597 0.11967099 -0.11619093 0.06685129 -0.057317775
0.013250501 0.100238115 0.015047145 -0.096888244 -0.07224908 -0.03686594 -0.025222115 -0.07502536
-0.032127768 0.10911009 0.07635469 -0.0790791 0.019718949 0.054241963 0.05641396 -0.123443134
-0.036422763 0.0034118209 -0.0932052 0.056239963 -0.07370733 -0.053280234 0.005774003 -0.08347914
-0.08608097 0.036855977 0.0904338 0.11010867 0.10455021 0.0806228 0.10230196 0.058129616
0.12402543 -0.020197073 -0.10857358 -0.07557604 -0.026844831 0.08850111 0.05425349 0.033896036
-6.243547e-05 0.08468497 -0.033016626 0.06475866 0.056113772 -0.08964473 -0.05141129 -0.043508332
0.06170364 0.0534747 -0.008059336 -0.09560059 0.013296294 0.034445375 0.047546234 -0.013388672
-0.019141285 -0.04471855 -0.0152266 0.10900056 0.12061232 0.02766705 -0.048558634 0.07794882
-0.1191923 0.025723185 -0.11998662 -0.029124707 0.10280812 0.119186915 0.07985607 -0.044940993
0.07511299 0.04693473 -0.037417512 0.024243798 -0.10284053 0.084829696 0.03919727 0.085316695
-0.06900422 0.0074692164 -0.028053569 -0.10989524 -0.029015573 0.041589893 0.052621204 -0.03992901
-0.0009862201 -0.06969278 0.060080603 -0.05968468 -0.124363005 -0.10744416 0.050868325 -0.0016446462
0.058487024 0.031151189 -0.03551687 0.10296176 -0.0030917057 -0.0155963255 0.07798365 -0.005420982
0.035387985 -0.003553687 0.047625847 0.047338966 0.108493656 0.08601415 0.07838998 -0.02376665
-0.09248417 0.084884755 0.012073621 0.0714299 0.02995242 0.11228834 -0.008135096 0.09140009
-0.013822497 -0.107353374 -0.0075589316 -0.053205427 0.0073069166 0.041321006 -0.110080816 0.034305323
-0.016723745 -0.074623376 0.1051502 0.03441897 -0.08516824 0.09370528 -0.06977018 0.044335052
-0.031050535 -0.029291773 0.088227116 0.007047482 0.006719858 -0.096614376 0.01710934 0.028005173
-0.11206424 -0.02106329 -0.1262882 0.03232266 -0.089515716 0.056532957 0.040900033 0.039097592
-0.017070448 0.015135483 0.019323016 0.05698032 0.11979093 -0.015008891 -0.08668777 0.031123605
-0.114051536 -0.07731309 0.013402395 -0.08430847 -0.079657935 -0.09698611 0.057182346 -0.008052843
-0.08042775 0.019178558 0.010062995 0.041172706 0.0024579314 0.11155801 -0.08919576 0.05227496
-0.043703817 0.04409084 -0.089180425 -0.017550979 0.06484709 -0.03954481 0.050441176 0.005184099
-0.027280357 0.0036599496 0.063995935 -0.08355071 -0.11398705 -0.01181419 0.12663925 0.0816453
-0.113262564 -0.020204509 0.07627388 -0.052141726 -0.05313645 -0.035357643 0.0006837162 -0.044871923
0.050138652 0.039757326 0.031548977 -0.10955123 -0.059501827 0.09268108 -0.11769458 -0.10627725
-0.06787956 0.043943323 -0.0670583 0.01412625 0.057633873 -0.118168734 -0.07451583 -0.06448306
-0.095391475 -0.07879007 0.09606335 -0.08364795 -0.027966956 0.061396588 0.040347364 -0.052787993
-0.042080887 -0.13437226 -0.048655074 -0.042438578 -0.10796303 -0.004581384 -0.0022154744 -0.08291073
-0.060298435 -0.057094697 0.07525779 0.0058197575 0.04218837 0.008365463 -0.098653525 -0.030691732

lstm.bias_ih_l0 f4 [256]
00000000: e348 bcbd 2a2a 6c3d 7611 16bd 117e bfbd
00000010: d708 04be ff67 dbbc deb2 82bd c89a 813d
00000020: c5cd 17bc 7c88 3e3d a0d6 9ebb 3b12 e1bd
00000030: 15f9 f7bc 32ed aa3d 9cad 3cbd aff1 183d
00000040: 185f c53c 4be3 663c 006f 193d 8e7a 753d
00000050: 50e5 dcbd c590 113d 1207 d5bd 8f3b 783d
00000060: b9e6 eabd 09cf 04bd cf76 f3bd 031e d03d
00000070: 6bf4 58bd 64ea a53d 89dd b73d bfb9 ed3c
00000080: 54e1 c6bd 9bd5 c9bd b395 693d 50bf 703d
00000090: bab0 8c3d 9e3b bf3d 79b1 e9bd 306e 3e3c
000000a0: 29be 943d f80d 98bd 5767 87bd 6899 cabd
000000b0: 758c e23d da25 94bd d754 b93c 28e9 91bd
000000c0: 5b76 d4bb 13f0 a1bb d355 023e d95d 873d
000000d0: d16c 903d ece6 c73d a177 163d 878c 8d3d
000000e0: 7845 e83c 8485 fe3d 9651 2f3d 5378 65bd
000000f0: 9046 d7bd 457e ef3d afde 553d c437 4d3d
00000100: 4204 003e 9ad2 d33c 2272 8d3d 5c68 3dbd
00000110: 5e65 3ebc 0813 c03d 869c 973d 5039 693d
00000120: 8c78 95bd ce9f cabc 26b0 a93c b60d 053e
00000130: c0f0 55bc 5257 ac3d 393b 513d 75e0 53bc
00000140: 2f0e 8ebd 8eb3 fb3d 576e 263d 8ae6 433c
00000150: 6784 92bd 22c9 86bc 810e ab3d 47a2 993d
00000160: 9f1e f5bc 2b18 4ebd dc1c d7bd 76ee db3d
00000170: 6e70 a4bc 856d 6c3b d35c 9e3c ef53 debc
00000180: 5c20 d13d bad6 9d3d 274a efbd 8ed9 363d
00000190: f9ba 003e fa43 45bd 3323 6ebd 616d 90bd
000001a0: 70a1 e83d 54eb a7bd f3ff 8e3d 7957 b0bc
000001b0: ca52 06be 88a3 f13d f82f e4bd 708a cbbd
000001c0: 225f 733d 95d9 623d e3e6 f83d 8b5a ac3d
000001d0: ea4f 273d ba3c 80bc 652d 81bd 98f7 823d
000001e0: caaa ec3d b895 e6bd 00c4 b8bd 21dd a23d
000001f0: dce9 ec3d 8633 fe3d 67ce 2a3d 7761 b73d
00000200: 82c9 92bc 16d3 813d d214 893d bc66 f93d
00000210: e255 3a3c 59f3 f43d 3067 b73c d858 613d
00000220: 8084 363b 9dd3 473d e682 d53c 5814 4ebd
00000230: d77b 29bd b859 d13b edd1 32bd 641e 17bc
00000240: e705 18bd 106b 40bd 94fa fe3c 4c02 103d
00000250: ffa5 503d b4ee 29bd 209e 483c 4617 00be
00000260: 22a7 3b3d 955c 57bd c37b 32bc 10f0 f5bc
00000270: 87fd 7fbb 06b9 13bd 67c5 74bd 2c62 78bd
00000280: 83a8 253d 8454 b3bd fabf 4bbd d3e9 dfbb
00000290: d7f4 11bc 3c26 90bb 4b43 03be fe11 ebbc
000002a0: 8492 efbd b44e a43d 926a e13c 04cb cfbc
000002b0: 1f3d 99bc e30b 78bd 73cc 403d 34b2 a13d
000002c0: c297 d43c 00af df3d c3ff 993d cef4 d9bd
000002d0: 8938 cebd 38b8 eb3c e9fc 38bd 7933 01bc
000002e0: 68c7 ac3d 5a90 f0bc 7ddb c1bd 528c b1bd
000002f0: daa8 aa3c 0808 cbbd c3c4 3d3d 308b 903d
00000300: c991 51bd 32ae 763d f030 babd bb89 fc3d
00000310: 9806 9fbc f19d 853c 3963 c03d 7baa 303d
00000320: e04a 9c3d c58a 413d 0315 48bd 8e68 a1bd
00000330: c4d6 f13d f9c3 d03d f859 d9bb 69d0 873d
00000340: 0e58 603d 9123 073d 5cd1 e9bd 17b1 373d
00000350: fa4a e73d db5a a1bd e126 913c fa95 f23d
00000360: 9004 03be 2f42 9e3d aad6 9c3d 395a bf3d
00000370: 6a7a 2ebd 0dbd 77bd 881b dc3d c911 a0bb
00000380: 55ae 07be dd97 38bc 86b0 df3d e96a c93d
00000390: ca44 6b3d effb e3bc 8b71 47bc 1319 e03d
000003a0: 95f6 7f3d 53a7 aabd c235 7a3d 396b 693d
000003b0: 2fa8 e53d c1cf 5cbd 568d dfbd a418 05bc
000003c0: 3c29 613a bfae a03c 9b7a 463d f357 b4bd
000003d0: e523 c43d 1bcd c5bd 5496 d43d 58a8 8dbd
000003e0: 4b70 3d3d 5cda 583d 3d5e cf3c 41ee cabd
000003f0: fe51 a23b 4c2b c2bd 27f0 273c c96a b83d
-0.091935895 0.0576574 -0.036637746 -0.09350217 -0.12893997 -0.026782988 -0.063817725 0.0632835
-0.009265368 0.04651688 -0.0048473626 -0.10989805 -0.030270139 0.08346023 -0.046064004 0.037339862
0.024093196 0.014092277 0.037459373 0.05993133 -0.107859254 0.035538454 -0.10401739 0.060603675
-0.11469788 -0.032424007 -0.11887895 0.10161974 -0.05296747 0.08101347 0.08977801 0.029019235
-0.09710947 -0.09855195 0.05702753 0.0587762 0.068696454 0.09337543 -0.11410803 0.01162295
0.07262833 -0.07424539 -0.066115074 -0.09892541 0.11061946 -0.07233782 0.022623463 -0.07124549
-0.0064838356 -0.004941949 0.12728052 0.06609697 0.07052005 0.09760842 0.03673518 0.06911569
0.028353438 0.1242781 0.042802416 -0.056022953 -0.105115056 0.11694006 0.05221432 0.05010201
0.12501624 0.025857259 0.06906535 -0.046242103 -0.0116208475 0.0937863 0.07402901 0.056939423
-0.07298383 -0.024734404 0.020713877 0.12993512 -0.013057888 0.084150925 0.05108187 -0.012931933
-0.06936299 0.12290107 0.040632572 0.01195682 -0.0715416 -0.01645333 0.08352376 0.07501655
-0.029921828 -0.050316017 -0.10503551 0.10738842 -0.020073142 0.003607602 0.019331371 -0.027139632
0.1021125 0.077069715 -0.11684065 0.04464107 0.12571324 -0.04816053 -0.058139037 -0.07052112
0.11358917 -0.08199182 0.06982412 -0.021526085 -0.13117519 0.11798769 -0.11141962 -0.09938514
0.059416898 0.055383284 0.12153413 0.08415707 0.040847696 -0.015653957 -0.063074864 0.06394881
0.11556013 -0.11259025 -0.09021759 0.07952333 0.11568043 0.12412171 0.041700747 0.08954137
-0.017918352 0.063390896 0.06693424 0.12177798 0.011373015 0.119604774 0.02238807 0.05501637
0.0027849972 0.048785795 0.026063394 -0.05031237 -0.04137787 0.006388869 -0.043657232 -0.009223554
-0.037115004 -0.046977103 0.031125344 0.03515844 0.050939556 -0.04148741 0.012244731 -0.12508878
0.045813687 -0.052578527 -0.010893765 -0.030021697 -0.0039061026 -0.036065124 -0.05975857 -0.0606405
0.04044391 -0.087563545 -0.04974363 -0.006833294 -0.008908472 -0.004399089 -0.12818639 -0.028695103
-0.116978675 0.08022824 0.027516637 -0.02536536 -0.018705903 -0.06055821 0.047069978 0.07895318
0.02595127 0.109220505 0.07519486 -0.10642396 -0.10069377 0.028774366 -0.04516307 -0.007885807
0.08436471 -0.029365707 -0.09465692 -0.08669342 0.020832468 -0.09913641 0.046330225 0.07057798
-0.051164422 0.06022472 -0.09091365 0.123309575 -0.019412324 0.016310664 0.09393925 0.043131333
0.07631469 0.04725148 -0.048848163 -0.0788127 0.118085414 0.10193629 -0.0066330396 0.06631548
0.054771475 0.032992903 -0.11416885 0.04484662 0.112935975 -0.078786574 0.017718734 0.11845012
-0.12794709 0.07727467 0.076581314 0.093433805 -0.042597212 -0.060483027 0.10747439 -0.0048849327
-0.13250096 -0.011266676 0.10922341 0.098348446 0.05743865 -0.027830092 -0.012173067 0.109422825
0.06249102 -0.08332696 0.061086424 0.05698702 0.11213719 -0.053909067 -0.109156296 -0.008123551
0.0008589213 0.019614575 0.04845677 -0.088058375 0.09577159 -0.096582614 0.10380235 -0.06916875
0.04624967 0.05294262 0.025313491 -0.099087246 0.004953622 -0.094809145 0.010250128 0.09004743

lstm.bias_hh_l0 f4 [256]
00000000: b389 d43d b6a3 513d d1d2 573d 7bc7 00be
00000010: 0d46 03be c8d7 b93c e8cb f03d 9ac1 72bd
00000020: b702 84bd 9c5e 363d cb6f a4bd 3290 633d
00000030: 6433 fabc d769 f0ba 7625 89bd 4195 04bd
00000040: 5465 453d e56e f83c 588c 43bd 9515 cfbd
00000050: 551b 1d3c 0599 10bd 7aa2 cebd 47ed 9d3d
00000060: 213f b83d c303 4e3d 8ebf 8ebc 5504 ac3d
00000070: db45 81bd 2823 bd3d c8c4 13bd d068 0abd
00000080: 9de5 293c 47f8 9f3d f16b 2bbd 78a0 2f3d
00000090: c01a b83d 28e2 84bc 6398 9c3c 9635 b13d
000000a0: 1b5a d73d 76aa d2bd 6daa a5bd 0a84 c93d
000000b0: da36 d7bc aaab 3038 910e 663c 38c5 943d
000000c0: 84f6 783d 4476 e83b 4b45 ea3d 403f 503d
000000d0: d1de 953d 388b b5bc f2a3 ad3b 5eb7 71bd
000000e0: ad3e 0d3d d4d9 a8bd e9d0 9c3d d167 c5bd
000000f0: d811 fa3d bf55 22bd b322 c83d 0349 e83d
00000100: c34f c8bc 820a 8cbd 38d7 edbd 78b4 5c3d
00000110: 03d6 cdbd ba90 f63c 0e11 30bb 66a9 453c
00000120: 4e67 d43d 4838 ddbd eb1f 42bd 2a9a ad3d
00000130: 60ca f13b c9ae 183d 28bf a9bd 0871 943d
00000140: 20b0 26bd c6fb e3bd 75a9 13bd 93ca b0bd
00000150: 1c76 b3bc 800d c0bd 7f34 923d 00fc 38bd
00000160: fa80 6d3d 6be7 c73d 36ca da3d 4ae4 94bd
00000170: 5e8a 7bbc 6d12 afbd ba7c 91bd f414 39bc
00000180: 0048 c1bd 9255 b4bd 0768 fd3d ba20 cebd
00000190: 0b46 85bd 1572 bc3d 0a0b eb3d a9ca 453d
000001a0: 3d7d 603c ffcb b53c 5db0 8c3d bd72 413d
000001b0: a02f ccbd c022 663d 27af b3bc 1826 f8bd
000001c0: 166a 75bd 9621 b0bd ab7b d73b a8a6 77bd
000001d0: 1a2b 94bd d5d4 7cbd ff06 a53d 9c3d 943d
000001e0: e4f2 e4bc 339f f6bc 9762 1d3c 1f24 b7bd
000001f0: cab9 ffbc 8842 44bd 7092 b9bb 57a9 a8bd
00000200: eb1c 00bd 8475 a5bd 6eea 9e3b 58e1 c53d
00000210: 8e60 a23c 089e 5bbc a485 4d3d 7162 ce3c
00000220: dc59 c43d 8306 fabd d49b ef3d cc35 0dbd
00000230: 21ee d53d 2102 213d 72c9 f83d 1c39 96bd
00000240: 9028 bdbc bf1a 20bc b473 f43c 17a7 83bb
00000250: 51bc e33d 804e 0e3d 6630 b6bd d393 f5b8
00000260: bb17 bfba a034 973d ff95 f7bc fe9c b4bd
00000270: 64ea 033d 6e41 5fbd 3289 383d 7b5f d8bd
00000280: 96e2 a1ba d4c4 86bd 0f69 e23d 8fcb f4bd
00000290: 7ee1 683d 81ec 04be 8fce 26bd 02de aa3c
000002a0: 72ef 5e3c 9e05 3e3b b1e3 723b c218 bc3d
000002b0: 6957 8f3d de78 27bd 6832 d3bd b3c9 563d
000002c0: 68c4 efbd 3404 d43d 693c c93d 52ed f0bd
000002d0: 5394 8bbd ae00 dfbd 2584 ccbd 08d5 243d
000002e0: af29 9bbc a3ec 79bc 9322 863c 57a4 133d
000002f0: beec 99bd 66bf d13d 8973 99bd 970f 5d3b
00000300: 524c b93b 5941 ea3d 6060 f33c 654e df3d
00000310: a33f 2fbc 9d7d 81bc b87b 20bd 78de 823d
00000320: 55e1 f2bc ff6d 95bd e47c 4d3c 2a78 c63c
00000330: 1de1 74bd b849 08be f389 593d c49d 8fbd
00000340: 4e0e 663d 8311 0dbd ce72 7f3d 23f0 78bd
00000350: aef0 8d3d 9fcd 9a3d 8948 51bd e284 1d3d
00000360: 4b9c a93d 2fb0 a23d 12c2 73bd 9d30 1b3d
00000370: 50f9 a83d 23c6 3e3d e40f 933d fd66 4d3d
00000380: 4648 e3bd 426a 6abc d451 14bd 4fa1 d6bd
00000390: db74 993c 76c8 95bd b06b 2f3d 9be5 1c3b
000003a0: 8040 e03d a77f e33d fd2c 82bc dde4 183d
000003b0: 51db 933d e55c 1abc ba5d eabd 386f acbc
000003c0: 2860 873b 25d5 063e 12ae 9f3c de66 5abc
000003d0: 4d01 c53d 8d95 993d d9b7 5bbd f88e e13d
000003e0: 1aad 3abc 8024 41bd db29 e4bd 4f9d eabd
000003f0: a4d2 3fbd 6e8c d63c 5a03 59bd 44e3 893d
0.103778265 0.051181518 0.052691285 -0.12576096 -0.12819691 0.0226859 0.11757642 -0.059266664
-0.0644583 0.04452382 -0.08029135 0.055557437 -0.030542083 -0.001834209 -0.06696598 -0.032368902
0.048192337 0.030326316 -0.047741264 -0.10111538 0.009589036 -0.03530218 -0.10089584 0.07711273
0.08996416 0.050296556 -0.017425325 0.08399264 -0.06312152 0.09235221 -0.036076337 -0.033791363
0.0103696855 0.07811027 -0.041850988 0.042877644 0.08989477 -0.016221121 0.019115632 0.08652799
0.10515233 -0.10286419 -0.08089147 0.098396376 -0.026271272 4.2121545e-05 0.014041559 0.07264179
0.06078197 0.0070941765 0.11438998 0.05084157 0.073178895 -0.022161111 0.005299085 -0.059012763
0.0344836 -0.082446724 0.07657034 -0.09638942 0.12210435 -0.039632555 0.09772243 0.11342051
-0.024452096 -0.06837942 -0.11613315 0.053883046 -0.10050585 0.030098308 -0.0026865634 0.0120643135
0.10371266 -0.108017504 -0.04739372 0.0847667 0.0073788613 0.037276063 -0.08288413 0.072481215
-0.04069531 -0.11132006 -0.03605028 -0.08632388 -0.021906905 -0.09377575 0.07138919 -0.0451622
0.05798433 0.09760936 0.106831 -0.07270105 -0.0153528135 -0.08548436 -0.07103868 -0.0112964995
-0.09437561 -0.08805384 0.12373357 -0.10064836 -0.065075 0.09201447 0.11476715 0.048288975
0.013701734 0.022192 0.06869576 0.047228564 -0.09970021 0.056185484 -0.021934105 -0.12116641
-0.059915625 -0.08600156 0.0065760217 -0.06046167 -0.072347835 -0.06172641 0.08057975 0.072383136
-0.02794785 -0.030105209 0.009606025 -0.089424364 -0.03121652 -0.04791501 -0.0056632087 -0.08235424
-0.03127758 -0.08079055 0.0048497235 0.096621215 0.019821431 -0.013404377 0.050176278 0.025193425
0.09587452 -0.12208273 0.11699644 -0.034475133 0.1044581 0.03930867 0.12147798 -0.073351115
-0.02309063 -0.009772002 0.029840328 -0.0040177214 0.11119903 0.034742832 -0.0889595 -0.00011710045
-0.0014579216 0.07383084 -0.03022289 -0.088190064 0.032205954 -0.054505758 0.045052715 -0.105650865
-0.0012350853 -0.06580511 0.110551946 -0.11952888 0.05685567 -0.12980844 -0.040724333 0.020857815
0.013606893 0.0028995047 0.0037061984 0.0918441 0.06999094 -0.040886752 -0.103123486 0.05243845
-0.117073834 0.10352364 0.098259754 -0.11764015 -0.068154 -0.108888015 -0.09986142 0.040242225
-0.018940775 -0.0152541725 0.016373908 0.0360454 -0.07515858 0.102415845 -0.0749274 0.0033731216
0.00565485 0.11438245 0.029709041 0.109036244 -0.0106963245 -0.015806967 -0.039180487 0.06390089
-0.029648462 -0.07296371 0.012541983 0.02422722 -0.059784997 -0.13309371 0.053110074 -0.07012513
0.056165986 -0.03444053 0.062365346 -0.060775887 0.06930672 0.0755875 -0.051094566 0.038456805
0.08281764 0.079437606 -0.05951125 0.037888158 0.082506776 0.046575677 0.07180765 0.050147045
-0.110977694 -0.01430756 -0.03621085 -0.10479986 0.018732479 -0.073136255 0.04282731 0.0023940566
0.109498024 0.11108332 -0.015890593 0.037327636 0.07219566 -0.009421562 -0.11443658 -0.021049127
0.0041313358 0.13167246 0.019492183 -0.0133301895 0.09619389 0.07499228 -0.053642128 0.11013597
-0.01139381 -0.04715395 -0.11140796 -0.114557855 -0.046831742 0.026190009 -0.052981712 0.067328006

fc.weight f4 [1, 64]
00000000: 8a21 37b8 fbec 85bd 3373 c63d a523 c1bd
00000010: 95d7 543d 95a0 083d 0b1c 91bd fe7d 77bd
00000020: 516a a13d 3431 afbc 779b 04be d274 abbd
00000030: 2f74 e53b 0b1f 013c 8959 3a3d 7145 07be
00000040: a40d 003e 7729 c03c 9e96 ddbd 1b91 22bd
00000050: 5730 083e 2bb5 dcbc 1ee3 f0bd 33f1 213d
00000060: 8cd2 bbbd 2132 bc3d ac98 c53d 45e9 b33c
00000070: 79f0 693c 2664 323d 6805 093d bddc e5bd
00000080: c2e7 f8bd 6d06 463d f475 983d 9cfe b9bd
00000090: 99b5 943d e6f3 b7bd 3e6c 55bd a14d ba3d
000000a0: 4b89 aebd 76c4 8a3d b14a 213d 4f18 c2bd
000000b0: 9071 e63d ade3 993d 863a a03d cc76 0bbd
000000c0: 3c90 fe3d 409a a0bd 1193 85bd 4aa6 92bc
000000d0: 6a57 643d 8dd3 9dbc 9baa 003e 7ac4 cf3d
000000e0: 25d1 c63d 8bde d43d 01b0 a2bd 316a e63d
000000f0: 94d0 bb3c c435 723d 1fcb d5bd 50e8 df3c
-4.3661836e-05 -0.06539341 0.09689941 -0.09430627 0.051963408 0.033356268 -0.07085427 -0.06042289
0.07881606 -0.021385767 -0.1294993 -0.08371891 0.0070023756 0.007880936 0.045495544 -0.13210084
0.12505203 0.023457272 -0.108197436 -0.039689165 0.1329969 -0.026941856 -0.11762069 0.039536666
-0.09171018 0.09189249 0.096482605 0.021961818 0.014278525 0.04355254 0.03345242 -0.11223743
-0.12153579 0.04834597 0.07444373 -0.09081766 0.072611995 -0.08982067 -0.05210518 0.09096838
-0.0852228 0.06775753 0.039377872 -0.09477293 0.11252129 0.07514129 0.078236625 -0.03404884
0.12429854 -0.07841921 -0.06522191 -0.017901558 0.055747427 -0.019265914 0.12565081 0.10144897
0.0970786 0.10394009 -0.07943726 0.11250723 0.022926606 0.059133306 -0.10439133 0.027332455
