resources/models/3_by_3/log_dataset_model_v002.pth (torch, 73758 bytes, 5 tensors)

lstm.weight_ih_l0 f4 [256, 3]
0	0x3d8cb5e9	0.06870634
1	0xbdf7dc39	-0.12102551
2	0xbd0ce827	-0.034401085
3	0x3dd17341	0.10227061
4	0x3c907591	0.017634185
5	0x3e0589c9	0.13040842
6	0x3af1329e	0.0018401926
7	0x3c0c0a69	0.008547404
8	0x3ba4a57f	0.0050246115
9	0x3cbf150d	0.023325467
10	0xbd677f33	-0.05651779
11	0x3d8f5927	0.06999426
12	0x3ca08259	0.019593405
13	0xbd8e448b	-0.06946667
14	0x3dcc9109	0.09988601
15	0x3d6d8529	0.05798832
16	0xbe027913	-0.12741499
17	0xbd302ef1	-0.043013517
18	0xbdb103ba	-0.08643289
19	0xbd7504f6	-0.059819184
20	0x3e0726c0	0.13198376
21	0xbdf5b949	-0.11998231
22	0x3b1e00ec	0.0024109436
23	0x3aa886b6	0.001285753
24	0xbdca43ee	-0.09876238
25	0xbc56eb3f	-0.0131176105
26	0x3dc0d9df	0.094165556
27	0x3c5836cf	0.013196661
28	0x3d66b853	0.05632813
29	0xbdd3efbb	-0.10348459
30	0xbd506542	-0.050877817
31	0xbd8260ab	-0.06366094
32	0x3d016c8d	0.031597663
33	0xbd3cbdd6	-0.04607948
34	0x3c589a45	0.0132203745
35	0x3d64e87b	0.055885773
36	0x3da2afbf	0.07943677
37	0x3dc79fca	0.09747274
38	0x3af9c1c6	0.0019054941
39	0x3da796a1	0.08183027
40	0x3ce2cd5e	0.027685817
41	0x3c7bc471	0.0153666595
42	0xbcd3e5ff	-0.025866507
43	0xbc89ff00	-0.016845226
44	0xbd9f6db3	-0.07784595
45	0x3d4aaf82	0.049483784
46	0x3d92f627	0.07175856
47	0x3ddb1c83	0.106987976
48	0x3dbde46f	0.09272086
49	0x3de0b670	0.10972297
50	0x3dd20e21	0.10256601
51	0xbd6ed255	-0.058306057
52	0xbd276543	-0.040868055
53	0x3d780283	0.06054927
54	0x3d7aed2b	0.061261337
55	0xbdc3d8c3	-0.095628284
56	0x3d716f43	0.058943998
57	0x3d70a6d8	0.058752865
58	0x3daa1e10	0.08306515
59	0xbd583e86	-0.052794002
60	0x3d47ba1c	0.048761472
61	0xbc5340f3	-0.012893903
62	0x3d982543	0.07428982
63	0x3b997c06	0.004683974
64	0xbd80ab29	-0.06282646
65	0xbd309938	-0.04311487
66	0xbdae0ac1	-0.08498145
67	0x3e05e1e0	0.13074446
68	0x3dfb575f	0.12272524
69	0x3dedfa53	0.11620011
70	0xbc0921a1	-0.008369834
71	0xbb24b3cd	-0.0025131584
72	0x3da79042	0.08181812
73	0xbc7aaace	-0.015299512
74	0x3ddbc438	0.10730785
75	0xbd8ac392	-0.06775583
76	0xbd4c2813	-0.049842905
77	0xbdb10611	-0.08643735
78	0x3dcf1f1e	0.10113357
79	0x3dbe0f78	0.09280294
80	0xbd841f52	-0.064512864
81	0xbca859aa	-0.020550568
82	0xbdcd6ff2	-0.100311175
83	0x3df8ee9b	0.121548854
84	0x3de44ada	0.11147089
85	0xbd89f50f	-0.06736194
86	0x3dca5f73	0.09881487
87	0xbc39b295	-0.011334081
88	0x3dafb2d0	0.08579028
89	0x3d5e6b37	0.054301467
90	0x3d3da62b	0.04630105
91	0x3dd20882	0.10255529
92	0x3db15c32	0.08660163
93	0x3dc0c9bd	0.094134785
94	0xbdd0c2e6	-0.10193424
95	0x3d81e446	0.06342368
96	0x3da21941	0.07914973
97	0xbc88a91e	-0.016682204
98	0x3dc6e2ab	0.09711202
99	0xbde4a887	-0.111649565
100	0x3d3c66e0	0.045996547
101	0xbbdc909f	-0.0067311074
102	0x3d9db77b	0.07701012
103	0x3ddfb40e	0.109230146
104	0x3d9aee76	0.07565014
105	0x3d3d71d5	0.046251137
106	0xbc3bacf4	-0.011454809
107	0xbdf72834	-0.12068215
108	0x3cb974e2	0.022638742
109	0x3d221e70	0.03957981
110	0xbd04b23e	-0.032396547
111	0x3d327ba1	0.043574933
112	0xbdac43f9	-0.08411402
113	0xbd5ea201	-0.054353718
114	0xbd696433	-0.056980323
115	0x3dd6bbf5	0.10485069
116	0x3d112b7f	0.03544187
117	0x3d78f53e	0.060780756
118	0xbcd345d6	-0.025790136
119	0x3da862c2	0.082219616
120	0xbdb6f048	-0.08932549
121	0x3d2c7f3e	0.042113535
122	0x3d842166	0.06451683
123	0xbdbba2b7	-0.09161895
124	0xbd0a9141	-0.03382993
125	0x3d8e8c7d	0.0696039
126	0x3dad6ba7	0.08467799
127	0x3d596715	0.053076822
128	0x3dcfd2f7	0.1014766
129	0xbdc54d90	-0.096339345
130	0xbdef65c1	-0.1168933
131	0xbde10249	-0.10986764
132	0x3c35c19c	0.011093523
133	0x3ce4efcc	0.027946375
134	0x3de31c17	0.11089342
135	0xbddeada8	-0.10872966
136	0x3d3f3842	0.04668451
137	0x3c57a2de	0.013161389
138	0xbd48ca6a	-0.049021162
139	0x3d4987bd	0.049201716
140	0x3de1907a	0.11013885
141	0xbd5e2487	-0.054234054
142	0x3d9eab30	0.07747495
143	0xbc857da1	-0.016295256
144	0xbd23eb6c	-0.040019438
145	0x3de0ab13	0.1097013
146	0xbda88d5c	-0.08230087
147	0xbdac3879	-0.08409209
148	0x3dc76e36	0.09737818
149	0x3d51261c	0.051061735
150	0xbd4f0c98	-0.05054912
151	0xbd33ffe7	-0.04394522
152	0xbd6ff3f3	-0.058582257
153	0x3d9de735	0.07710115
154	0xbdabef41	-0.083952434
155	0xbdbac815	-0.09120194
156	0xbdbc5aa4	-0.09196976
157	0x3dc37bd7	0.09545105
158	0xbd54d142	-0.051957376
159	0xbd08a7a7	-0.03336301
160	0xbc79796b	-0.015226702
161	0x3db40187	0.08789354
162	0xbd95a2fa	-0.07306476
163	0xbd52e4b2	-0.051487632
164	0xbd832ebd	-0.06405399
165	0x3d2eeefe	0.04270839
166	0xbdb2280b	-0.08699044
167	0x3c538c25	0.012911831
168	0x3b8bf9ae	0.0042717075
169	0x3d94d31d	0.07266829
170	0xbd5b5568	-0.053548247
171	0x3da6a53a	0.08136983
172	0x3de45fc3	0.111510776
173	0xbcb8ba4d	-0.022549773
174	0xbdeaff88	-0.1147452
175	0x3d22fcb7	0.03979179
176	0x3d46d812	0.048545904
177	0x3c459e17	0.012061617
178	0xbc80606c	-0.015670978
179	0x3c4aa720	0.012368947
180	0x3d9d2df8	0.076747835
181	0xbd5836c1	-0.052786592
182	0x3a2bdf38	0.00065563945
183	0x3d6558f0	0.05599302
184	0xbc2958da	-0.010336125
185	0x3ddcafc0	0.10775709
186	0xbcbc2cd8	-0.022970602
187	0xbde368b2	-0.111039534
188	0xbd480e34	-0.04884167
189	0xbd49045f	-0.049076434
190	0xbd0009da	-0.031259395
191	0x3db68a1d	0.08913062
192	0xbdaf4953	-0.08558907
193	0xbdcdcd68	-0.10048944
194	0xbd57b7f3	-0.052665662
195	0xbcc0386b	-0.023464402
196	0xbbe650b8	-0.0070286654
197	0xbd3b0a19	-0.045663927
198	0x3d11399d	0.035455335
199	0xbe05e3fc	-0.1307525
200	0xbb2119b3	-0.0024581968
201	0xbddf6124	-0.109072
202	0xbdc9a1f8	-0.09845346
203	0xbcbac987	-0.022801174
204	0x3d0b4adb	0.034006935
205	0x3da9b410	0.08286297
206	0x3d2a3b30	0.04156035
207	0xbd8f7fcd	-0.07006798
208	0x3d660f15	0.056166727
209	0x3ddc85aa	0.10767682
210	0xbaeec7a2	-0.0018217454
211	0x3d8a09b2	0.067401305
212	0xbd9b565a	-0.0758483
213	0x3d983f83	0.07433989
214	0x3e02ac3d	0.12761016
215	0x3da6884f	0.081314676
216	0xbc911907	-0.01771213
217	0xbb24113f	-0.0025034694
218	0x3ca6be11	0.020354303
219	0x3cf7eb73	0.030263638
220	0x3d48b90b	0.049004596
221	0x3d02683f	0.031837698
222	0x3dfa9fc7	0.12237506
223	0x3c6958d8	0.014242373
224	0x3d3a1452	0.045429535
225	0x3bbd16a5	0.0057705217
226	0xbc9037dc	-0.01760476
227	0xbd1b4d8f	-0.037915763
228	0xbd11a111	-0.035553996
229	0x3dbd0b59	0.0923068
230	0xbd30af52	-0.04313595
231	0xbd407d37	-0.046994414
232	0x3d98b392	0.07456125
233	0xbc235cea	-0.009970883
234	0x3d8d232b	0.068914734
235	0x3d88944e	0.06668912
236	0xbd4cb2be	-0.04997515
237	0x3cccafda	0.024986196
238	0xbd8fffe0	-0.07031226
239	0xbc9e91dd	-0.019356662
240	0x3d87c68b	0.06629666
241	0x3d539dd4	0.05166419
242	0xbd7988a5	-0.06092133
243	0x3d842537	0.06452411
244	0x3e00949a	0.12556687
245	0xbdc73504	-0.09726909
246	0x3d9cb364	0.076514035
247	0xbc6ec557	-0.014573417
248	0x3e03d632	0.12874678
249	0x3b6e665d	0.0036376931
250	0x3dea15a0	0.11429906
251	0x3d812f0c	0.063078016
252	0x3d1c95f9	0.038228963
253	0x3d566597	0.052342977
254	0xbde3e98f	-0.11128532
255	0x3ddd4ea9	0.10806019

lstm.weight_hh_l0 f4 [256, 64]
0	0xbdbf0b61	-0.09328342
1	0x3bf54e1b	0.0074861175
2	0xbcebf55b	-0.028803518
3	0x3d3e0bec	0.04639809
4	0xbd6e1b99	-0.058131788
5	0x3d3c83e1	0.046024207
6	0x3d7039f6	0.058649026
7	0x3d911e37	0.07085841
8	0x3d694a1a	0.056955434
9	0xbdb0287b	-0.08601471
10	0xbcb399eb	-0.02192398
11	0xbd3d9780	-0.04628706
12	0x3d46b65f	0.048513766
13	0x3e02d32f	0.12775873
14	0x3dcd83b5	0.10034887
15	0xbdd34743	-0.103163265
16	0xbe0709e4	-0.13187367
17	0x3d28d8cf	0.04122239
18	0x3c5a1423	0.013310465
19	0xbc053924	-0.008131299
20	0xbc182cc6	-0.009288019
21	0x3acfde65	0.0015859125
22	0x3d5c4d77	0.053784814
23	0x3c88ce32	0.016699884
24	0xbd3c54a0	-0.045979142
25	0xbc28f7a6	-0.01031295
26	0x3dff7c08	0.12474829
27	0xbd36f886	-0.044670604
28	0xbb5abf7c	-0.0033378294
29	0xbe0b0db6	-0.13579449
30	0x3e0af459	0.13569774
31	0x3bfc4d0b	0.007699614
32	0x3dc36f9d	0.09542773
33	0xbdcd820d	-0.10034571
34	0xbc8d971a	-0.017283965
35	0x3cf73b15	0.03017954
36	0x3dbcdd29	0.092218705
37	0x3dfb0f01	0.12258721
38	0x3ddddb3e	0.10832833
39	0x3dfdfe55	0.124020256
40	0x3b73d124	0.0037203515
41	0xbd8659d2	-0.065601006
42	0x3ddb9d15	0.107233204
43	0x3df8ab40	0.12142038
44	0xbdff459f	-0.12464451
45	0x3c440c14	0.01196577
46	0x3bcc5309	0.0062354845
47	0xbd2cbc14	-0.042171553
48	0xbd30ad35	-0.043133933
49	0xbd8cc305	-0.068731345
50	0x3dd828d1	0.1055466
51	0x3c0094cc	0.007847976
52	0x3c441326	0.011967456
53	0xbdcf2096	-0.10113637
54	0xbc7db7a4	-0.015485678
55	0x3dc32b5a	0.09529753
56	0x3dcd3dbb	0.1002154
57	0x3d34a7db	0.044105392
58	0x3e064f1b	0.13116114
59	0xbd957df7	-0.072994165
60	0x3d21b055	0.039474804
61	0xbc5a0001	-0.013305665
62	0xbdd2f157	-0.10299938
63	0xb987bf1a	-0.00025891588
64	0x3ceb0abd	0.028691644
65	0xbcb7d2e4	-0.022439428
66	0x3df3598a	0.118823126
67	0x3d52efbf	0.05149817
68	0x3d98826b	0.0744675
69	0xbd70d499	-0.0587965
70	0x3d9dae3d	0.07699249
71	0xbdf3f844	-0.11912587
72	0x3d969e01	0.073543556
73	0x3cd3481f	0.025791226
74	0x3db62715	0.08894173
75	0xbda21d43	-0.079157375
76	0x3ddcbb3b	0.10777899
77	0xbd8bdb36	-0.068289205
78	0xbc823033	-0.015892124
79	0xbdbe5ad4	-0.09294668
80	0xbde64fee	-0.11245714
81	0x3d943d7a	0.07238288
82	0xbd97831a	-0.073980525
83	0x3d0bd610	0.034139693
84	0x3e020548	0.12697327
85	0x3df15ffe	0.11785887
86	0xbdc098fb	-0.09404179
87	0x3aad9d11	0.0013245662
88	0x3dbd9b65	0.09258155
89	0xbdba617f	-0.09100627
90	0x3d4fbaa3	0.0507151
91	0x3d941fc5	0.07232622
92	0xbd93aa23	-0.072101854
93	0xbc06d6e0	-0.008229941
94	0xbcfd4cc0	-0.030920386
95	0x3d9ae41e	0.07563041
96	0xbcdc785f	-0.026912866
97	0xbd249929	-0.040185127
98	0xbda13d18	-0.07872981
99	0xbdfa96ab	-0.12235769
100	0x3aeb8a13	0.0017970226
101	0xbd979709	-0.074018545
102	0x3d942cb8	0.07235092
103	0x3db66d06	0.08907513
104	0x3d2cbf97	0.0421749
105	0xbda28b34	-0.07936707
106	0xbd57852f	-0.05261725
107	0x3d75e8ad	0.06003635
108	0x3ddcd6e8	0.107831776
109	0x3d2080ea	0.039185442
110	0xbca140f3	-0.01968429
111	0xbb97371b	-0.0046147234
112	0xbd3abb50	-0.04558879
113	0x3d827460	0.06369853
114	0xbce09faf	-0.027419893
115	0xbcc43832	-0.023952577
116	0xbd4f81dd	-0.050660957
117	0xbd802d6f	-0.06258666
118	0xbdfb2082	-0.1226206
119	0xbbc57bc3	-0.0060267164
120	0xbded2f5c	-0.11581299
121	0x3e04424b	0.12915914
122	0x3dc2b2ae	0.09506737
123	0xbdec274f	-0.11530935
124	0x3c857b8c	0.016294263
125	0xb7b224e0	-2.1236425e-05
126	0x3ce2ebaa	0.027700264
127	0x3dc9d660	0.09855342
128	0xbcf0237c	-0.029313795
129	0xbd50ffd7	-0.051025238
130	0x3de4e279	0.11176009
131	0x3d39e0e9	0.045380507
132	0xbdd6259e	-0.10456394
133	0xbd8c495b	-0.06849929
134	0xbcb6148e	-0.022226598
135	0x3d8245c7	0.06360965
136	0xbdbe78b7	-0.09300368
137	0x3da445a9	0.08021099
138	0xbd313d73	-0.043271493
139	0xbdc8118a	-0.0976897
140	0xbdaff801	-0.08592225
141	0xbdedc824	-0.116104394
142	0x3da2d756	0.07951228
143	0xba38ffa8	-0.0007057139
144	0x3db6a53c	0.08918235
145	0xbdb47b32	-0.0881256
146	0xbd7ef03b	-0.06224082
147	0x3dde5622	0.10856272
148	0x3de1bdbe	0.110225186
149	0x3cd37dbc	0.02581679
150	0xbdb5516f	-0.08853423
151	0xbd563068	-0.052292258
152	0x3d928615	0.0715448
153	0xbd8d73a9	-0.06906826
154	0x3c746e84	0.014918927
155	0xbda557b5	-0.080733694
156	0xbc9aa47b	-0.018877259
157	0xbdeff940	-0.117174625
158	0xbd53e522	-0.05173219
159	0xbdf98c8f	-0.121850125
160	0xbd2b2f32	-0.041793056
161	0xbd21838e	-0.0394321
162	0xbd8ed3f6	-0.06974022
163	0xbd29fbc2	-0.04149986
164	0xbde16aad	-0.11006675
165	0x3d8b3126	0.06796484
166	0x3d63a02e	0.05557268
167	0xbdbc7915	-0.09202782
168	0xbd7c6045	-0.061615247
169	0x3cc45619	0.023966836
170	0x3d5a8daa	0.053357758
171	0xbcfcce9d	-0.03086024
172	0xbde31ef7	-0.110898905
173	0x3dfe5396	0.124182865
174	0x3db6bd82	0.089228645
175	0x3c7731d0	0.01508756
176	0xbc4556a5	-0.012044583
177	0xbd997bb9	-0.07494301
178	0xbbd81637	-0.006594445
179	0x3d5f11f8	0.054460496
180	0x3da4afc2	0.08041336
181	0xbdea918e	-0.114535436
182	0xbc825f46	-0.01591457
183	0x3d858102	0.06518747
184	0x3b81c24a	0.0039599286
185	0xbd7d3945	-0.061822195
186	0xbd09c918	-0.033639044
187	0x3de95130	0.113924384
188	0xbdc626c8	-0.09675366
189	0xbd964a06	-0.073383376
190	0x3db6a550	0.089182496
191	0x3d80bc10	0.0628587
192	0xbca16880	-0.01970315
193	0xbd6739a9	-0.056451473
194	0x3ddda897	0.108231716
195	0xbabf0cb9	-0.0014575935
196	0xbda30eaf	-0.07961785
197	0xbdb67c63	-0.08910444
198	0xbdc63b27	-0.09679251
199	0x3c85433f	0.016267417
200	0xbcb13c58	-0.02163522
201	0xbdda6123	-0.106630586
202	0x3e015112	0.12628582
203	0x3d932ab7	0.071858816
204	0x3d875fa2	0.066100374
205	0x3db6a92f	0.08918988
206	0xbccd7619	-0.025080727
207	0x3d8e615d	0.06952164
208	0x3b83d824	0.0040235687
209	0x3cee10c8	0.029060736
210	0x3dc9615b	0.09833022
211	0x3c380e9c	0.011233952
212	0x3d127d8c	0.035764262
213	0xbdd0edd7	-0.10201614
214	0xbdf82429	-0.12116272
215	0xbdd321a7	-0.10309153
216	0xbd86267b	-0.06550308
217	0x3cd6c320	0.02621609
218	0xbd71e859	-0.059059475
219	0x3deada82	0.11467458
220	0xbc56f9ab	-0.013121049
221	0xbda6deb8	-0.08147949
222	0x3d74d750	0.05977565
223	0x3d61ad1a	0.055096723
224	0xbd1fe695	-0.03903826
225	0x3d98f37a	0.074683145
226	0x3c41b72b	0.011823456
227	0xbda4255d	-0.08014939
228	0xbdb6ea77	-0.08931439
229	0x3d00fd7c	0.03149174
230	0x3b44122b	0.0029918056
231	0xbdeba510	-0.115060925
232	0x3dc02c04	0.09383395
233	0x3de3762b	0.11106523
234	0xbcf58071	-0.029968472
235	0x3d0fbb76	0.035090886
236	0xbdc41141	-0.095736034
237	0x3c645486	0.013936168
238	0xbc85f2ee	-0.01635119
239	0x3dc6063f	0.0966916
240	0xbd256687	-0.04038098
241	0x3de09094	0.10965076
242	0xbd34311b	-0.043992143
243	0x3c11ea79	0.008906
244	0x3d2c3fa4	0.04205288
245	0x3dba7d33	0.09105911
246	0xbe058c68	-0.13041842
247	0x3dd20af0	0.102559924
248	0x3d944ebd	0.07241581
249	0xbda3ee99	-0.08004493
250	0xbdebb348	-0.115088046
251	0x3de5fdfb	0.112300836
252	0x3d7a2d20	0.06107819
253	0xbe0a67cc	-0.13516158
254	0x3c08e4a4	0.008355293
255	0xbc29a939	-0.010355287

lstm.bias_ih_l0 f4 [256]
0	0xbdfa9261	-0.12234951
1	0x3c4573e1	0.012051553
2	0x3df48c34	0.11940804
3	0x3dc99a96	0.09843938
4	0x3d238eb3	0.03993101
5	0xbc374595	-0.011186023
6	0xbdc28972	-0.09498872
7	0xbcc2e655	-0.023791471
8	0x3cb68d73	0.022284245
9	0xbd855337	-0.065100126
10	0xbde87550	-0.113505006
11	0x3d8e8bc5	0.06960253
12	0xbd01c5b2	-0.031682678
13	0xbdd30fc6	-0.10305743
14	0x3ca7bab4	0.02047477
15	0x3b9e7dba	0.004836765
16	0xbe0865b1	-0.13320042
17	0x3df046bd	0.11732242
18	0xbd36848c	-0.04456
19	0x3dad409a	0.084595874
20	0x3c525cd2	0.012839513
21	0x3debdb9b	0.11516496
22	0xbc2861ce	-0.010277225
23	0xbd1e9df6	-0.038724862
24	0x3ded3486	0.11582284
25	0xbd3bc823	-0.045845162
26	0x3d575c38	0.05257818
27	0x3dc99236	0.09842341
28	0x3e06d273	0.13166218
29	0x3d826149	0.06366212
30	0xbda20b78	-0.07912344
31	0xbde5aef5	-0.11215011
32	0xbd9404dd	-0.0722749
33	0x3d976803	0.073928855
34	0x3d88dbfd	0.066825844
35	0x3d723c8c	0.059139773
36	0x3ddaa04b	0.10675105
37	0xbdfe9dfa	-0.124324754
38	0xbdb3ff4d	-0.08788929
39	0xbda9bf3e	-0.0828843
40	0x3d4b8dd1	0.049695794
41	0x3de85ba5	0.11345605
42	0xbd97e901	-0.07417489
43	0xbd5338a9	-0.051567707
44	0x3db8f1c7	0.0903049
45	0x3dcc33d8	0.09970826
46	0x3dec75db	0.11545917
47	0x3dcc551c	0.09977171
48	0xbc342ce6	-0.010997033
49	0xbbc084d4	-0.0058752093
50	0x3dcf6ecd	0.101285554
51	0xbc6cc1e9	-0.014450529
52	0x3d6329f4	0.05545993
53	0xbdb3b693	-0.08775058
54	0x3d8b52a9	0.068028755
55	0xbd8f77c0	-0.070052624
56	0xbdd3b9d9	-0.10338182
57	0xbe082c34	-0.13298112
58	0x3d995a5c	0.07487938
59	0xbcdda3c7	-0.027055634
60	0xbdbbf5d7	-0.091777496
61	0xbd923c92	-0.07140459
62	0xbd584bb7	-0.052806582
63	0xbd1eb468	-0.038746268
64	0xbe04fadb	-0.12986319
65	0x3c7d078f	0.015443697
66	0xbd2e7463	-0.042591464
67	0x3d795769	0.060874376
68	0xbc4361a9	-0.011925139
69	0x3deddb42	0.11614086
70	0xbcda1a22	-0.02662379
71	0x3d87a375	0.06622974
72	0x3daf8228	0.08569747
73	0xbdb268f5	-0.08711425
74	0xbd54fac6	-0.05199697
75	0x3d8dc343	0.06922009
76	0xbc7604f8	-0.015015833
77	0x3dc30ba0	0.09523702
78	0xbc9bff1e	-0.019042548
79	0x3dda67cf	0.10664331
80	0x3d9402c6	0.072270915
81	0xbd273a8d	-0.040827323
82	0x3cc857e1	0.024455966
83	0x3dd728f3	0.10505857
84	0xbc84671d	-0.01616245
85	0xbddffb42	-0.109365955
86	0x3cff44a4	0.03116066
87	0x3de4b739	0.111677594
88	0xbda54483	-0.08069708
89	0x3e019e94	0.12658149
90	0xbc92a811	-0.017902406
91	0x3d5ae058	0.053436607
92	0x3de6a78d	0.112624265
93	0xbd753dd0	-0.059873402
94	0xbde8af26	-0.11361532
95	0x3dec9429	0.11551697
96	0xbdbfa4c8	-0.093576014
97	0xbd397d1f	-0.04528534
98	0x3c1b98cf	0.009496882
99	0x3dd74616	0.10511415
100	0xbca5d7ea	-0.020244557
101	0x3d96462e	0.073376045
102	0xbd370bdc	-0.044689044
103	0x3df1da48	0.11809212
104	0x3de1fcd8	0.11034554
105	0x3db74a1e	0.089496836
106	0xbcbf34b7	-0.023340566
107	0xbd7a8b5e	-0.061168067
108	0xbd87a7dc	-0.066238135
109	0xbd32807c	-0.043579563
110	0xbce2374a	-0.027614255
111	0xbd9fa1b7	-0.077945165
112	0x3d7fb6b7	0.06243011
113	0x3d677c98	0.056515306
114	0x3d7b7544	0.06139113
115	0xbd26d0bd	-0.040726412
116	0xbb6069dd	-0.0034242787
117	0x3d544a1c	0.05182849
118	0x3dea836f	0.1145085
119	0x3d33cf8a	0.043899097
120	0x3da579b8	0.08079857
121	0xbda729d2	-0.081622735
122	0x3de41508	0.11136824
123	0xbcaa1992	-0.020764146
124	0x3ded328e	0.11581908
125	0x3baba8f3	0.005238646
126	0xbdaba812	-0.08381666
127	0xbd6c6418	-0.057712644
128	0xbded0024	-0.115722924
129	0x3d84965f	0.064739935
130	0x3ba8e50c	0.0051542576
131	0x3d983be7	0.074333005
132	0x3dee6e81	0.11642171
133	0x3de0a09e	0.10968135
134	0x3cc09096	0.023506444
135	0xbdde8df7	-0.108669214
136	0xbc7ec6f3	-0.015550363
137	0x3db891ad	0.090121605
138	0x3df89810	0.121383786
139	0x3da36d57	0.07979839
140	0xbddd6c87	-0.108117156
141	0xbdbf6bf2	-0.09346761
142	0xbd313716	-0.043265425
143	0x3e0a2a35	0.13492663
144	0xbd9f962b	-0.07792314
145	0x3dc288e7	0.09498768
146	0xbdcb1e64	-0.09917906
147	0x3e038a83	0.12845807
148	0xbdc6c1db	-0.09704944
149	0x3e076ae4	0.1322437
150	0x3dcfb0f5	0.10141174
151	0x3d3ddf5d	0.046355594
152	0xbdd8727f	-0.105687134
153	0x3dc23516	0.094827816
154	0xbd067fc3	-0.032836687
155	0x3cffa9c1	0.031208875
156	0x3cf08fa4	0.029365368
157	0x3d81ab4d	0.06331501
158	0xbde955bb	-0.11393305
159	0x3d872b67	0.06600075
160	0x3ce77424	0.028253622
161	0x3d86e1fe	0.06586073
162	0xbd0829e3	-0.03324307
163	0x3d43b624	0.047781125
164	0xbd2fe607	-0.04294398
165	0xbd2cacc6	-0.042156957
166	0x3dc86000	0.097839355
167	0xbde9ab56	-0.11409633
168	0x3cf4349f	0.029810248
169	0x3c83dd81	0.016096832
170	0x3d406093	0.0469671
171	0xbc906d99	-0.017630385
172	0xbdb982c2	-0.09058143
173	0xbdc185bb	-0.09449335
174	0xbbef697b	-0.0073062754
175	0x3de93ad8	0.11388177
176	0xbe04e880	-0.12979317
177	0xbdb87932	-0.09007491
178	0x3db946e3	0.09046724
179	0xbd953517	-0.07285517
180	0x3d41b08a	0.0472875
181	0x3b7feb58	0.0039050188
182	0xbd213fa1	-0.039367322
183	0xbd90ebe6	-0.07076244
184	0xbd93cf23	-0.072172426
185	0x3db3c135	0.08777086
186	0xbdea4631	-0.11439169
187	0x3d880dc6	0.06643252
188	0xbd828123	-0.06372287
189	0xbc59e02b	-0.013298075
190	0x3ddba475	0.10724727
191	0x3d106e95	0.03526171
192	0xbd4d3561	-0.050099734
193	0x3de27e52	0.1105925
194	0xbbaea27a	-0.0053294273
195	0x3dbfab59	0.09358854
196	0xbbf63900	-0.007514119
197	0x3e0809a2	0.13284925
198	0xbd45369e	-0.04814779
199	0x3db44f33	0.088041686
200	0xbde1adaf	-0.11019456
201	0x3b2d0bdb	0.0026404771
202	0x3deaea01	0.11470414
203	0xbdd3b6a1	-0.10337568
204	0xbd85e1bf	-0.06537198
205	0x3da0db3d	0.078543164
206	0xbdbc089e	-0.09181331
207	0xbd612446	-0.054966234
208	0x3d86cd67	0.06582146
209	0x3de1eb75	0.11031238
210	0x3c80080f	0.015628843
211	0xbd97c48d	-0.07410536
212	0xbde75d04	-0.11297038
213	0xbc81e03f	-0.015854
214	0x3daa9d69	0.08330805
215	0xbcc28fe8	-0.02375026
216	0x3da92e24	0.08260754
217	0xbdcf6326	-0.10126333
218	0x3de35f27	0.11102133
219	0xbd461e06	-0.048368476
220	0x3d978f2d	0.074003555
221	0xbd79e1ec	-0.06100647
222	0xbd37abd3	-0.0448416
223	0xbcc164ff	-0.023607729
224	0x3d42b259	0.047533367
225	0xbb1d3586	-0.0023988201
226	0xbd95f083	-0.073212646
227	0x3de27b4b	0.110586725
228	0x3d9c640f	0.07636272
229	0x3c0fa829	0.00876812
230	0xbc577a7f	-0.013151764
231	0x3d090d51	0.033459965
232	0x3b5388d8	0.003227761
233	0x3d87ba6c	0.06627354
234	0xbca2bd57	-0.019865675
235	0xbd85d315	-0.06534401
236	0xbd1d877d	-0.03845929
237	0xbde6a659	-0.11262197
238	0x3deac2e4	0.11462954
239	0xbd4513c4	-0.048114553
240	0xbd9efa59	-0.07762594
241	0x3dec4831	0.11537207
242	0x3c978a41	0.018498542
243	0x3cf5c05c	0.02999895
244	0x3e011e5d	0.12609239
245	0xbc359caa	-0.011084715
246	0x3de59166	0.11209373
247	0xbdcb05da	-0.099132255
248	0xbcb4fbed	-0.022092784
249	0x3dcbff92	0.099608555
250	0xbd111596	-0.035420977
251	0x3e0641c7	0.1311103
252	0xbdbfb9fd	-0.09361646
253	0x3d67f0c9	0.056626115
254	0xbcf118fb	-0.029430857
255	0x3c6c77d4	0.014432866

lstm.bias_hh_l0 f4 [256]
0	0x3c526e9c	0.012843754
1	0x3cb8bb7b	0.022550335
2	0x3db6b748	0.08921677
3	0x3cc6785b	0.024227312
4	0xbdaa335a	-0.08310576
5	0x3df5cd8e	0.12002097
6	0x3d9e1b0e	0.07720004
7	0xbcae12b7	-0.021249158
8	0xbddc6d8a	-0.107630804
9	0xbd2d4cd7	-0.04230961
10	0xba94607c	-0.0011320258
11	0xbd31de1a	-0.043424703
12	0xbde2b476	-0.110695764
13	0xbd90a499	-0.070626445
14	0x3cbe60e5	0.023239562
15	0xbd867c90	-0.06566727
16	0xbdafe79a	-0.08589096
17	0x3bdd0476	0.0067449166
18	0x3de4c261	0.11169887
19	0xbd24b59d	-0.040212262
20	0xbd14c843	-0.036323797
21	0xbcd701ac	-0.026245914
22	0x3dc69898	0.09697074
23	0x3df23579	0.11826605
24	0x3dfb8aec	0.122823566
25	0xbd92be14	-0.07165161
26	0xbd790e4e	-0.060804658
27	0x3ded29bc	0.11580226
28	0x3de67cf9	0.112543054
29	0x3dd8d181	0.10586835
30	0x3daa78a2	0.0832379
31	0xbda1b0a1	-0.078950174
32	0x3c8719e8	0.016491845
33	0xbd4497f7	-0.047996487
34	0x3d508c33	0.050914954
35	0x3ce95da1	0.028487029
36	0x3ccb803c	0.02484142
37	0xbd229612	-0.0396939
38	0x3e06daba	0.13169375
39	0x3db26de1	0.08712364
40	0xbc4e544a	-0.012593338
41	0xbd8c7bf3	-0.06859579
42	0xbda5b063	-0.08090284
43	0xbe029d0e	-0.12755224
44	0xbd9c8ad8	-0.0764367
45	0xbd973e58	-0.07384938
46	0x3b74c8a2	0.0037351032
47	0x3de228e9	0.11042959
48	0xbb476d65	-0.0030430194
49	0x3daf1370	0.08548629
50	0xbdc03533	-0.09385147
51	0xbb3786cf	-0.0028003936
52	0xbd019375	-0.031634767
53	0x3d8179cc	0.06322059
54	0xbde77784	-0.11302093
55	0xbdb70c50	-0.08937895
56	0x3da5462c	0.08070025
57	0x3d4b4de4	0.04963483
58	0x3d7903c9	0.060794625
59	0x3d3e9562	0.04652918
60	0xbd0412b4	-0.0322444
61	0x3d7303c1	0.059329752
62	0x3d988e12	0.07448973
63	0x3d8a65dc	0.067577094
64	0xbd0669a1	-0.03281558
65	0xbdb5f9a0	-0.08885503
66	0xbcf7709e	-0.030205067
67	0xbc4e6fcc	-0.012599897
68	0x3d999e19	0.07500858
69	0x3ddc47ac	0.10755858
70	0x3d07da62	0.03316725
71	0x3d1a1cdd	0.037625182
72	0xbdfacf40	-0.12246561
73	0xbd9bedaf	-0.07613694
74	0xbddbfcd1	-0.1074158
75	0x3d8d09f8	0.06886667
76	0x3d9971ca	0.07492407
77	0x3d20ae14	0.039228514
78	0x3db9f535	0.09079973
79	0xbd75ecda	-0.060040332
80	0x3c299997	0.01035156
81	0x3d2992a3	0.04139961
82	0x3ca82e60	0.020529926
83	0xbdd2cbb1	-0.10292757
84	0x3d12b0da	0.03581319
85	0x3e02f778	0.12789714
86	0xbd9e70b9	-0.07736344
87	0xbd50e8c4	-0.051003233
88	0xbba27e62	-0.0049589137
89	0x3c867eb3	0.016417837
90	0x3b82be14	0.0039899442
91	0xbd4fe394	-0.050754145
92	0x3dd29b43	0.1028352
93	0xbdd7fef0	-0.10546672
94	0xbc936c83	-0.017996078
95	0x3d91d816	0.07121293
96	0xbbf61d27	-0.0075107994
97	0xbdafb034	-0.0857853
98	0xbddf2077	-0.10894864
99	0x3d034c73	0.03205533
100	0x3c7925a1	0.015206725
101	0xbcfbca4f	-0.030736117
102	0x3d157cb8	0.036495894
103	0x3daa1544	0.08304837
104	0xba1916bd	-0.0005839875
105	0xbd17d92b	-0.037072342
106	0x3c17c5d7	0.009263477
107	0x3c9cff4e	0.019164708
108	0xbe0159f3	-0.12631969
109	0xbde5d459	-0.11222143
110	0xbd94a6dc	-0.072583884
111	0xbd6c21f5	-0.05764957
112	0xbd282162	-0.04104746
113	0xbcb4a133	-0.022049522
114	0x3d92102f	0.07131993
115	0x3d98a22a	0.07452805
116	0x3cfa90dc	0.030586652
117	0x3d1e6fb3	0.038680743
118	0x3dc22e6e	0.09481512
119	0x3d1ecf09	0.038771663
120	0x3d6480ab	0.05578677
121	0x3db8d724	0.0902541
122	0xbd04b489	-0.032398734
123	0x3d84c197	0.06482237
124	0x3da35d9f	0.07976841
125	0xbcdff3b3	-0.027337885
126	0x3decaf54	0.11556879
127	0x3bf1b186	0.007375899
128	0xbdcc8219	-0.09985752
129	0x3d7fe73e	0.06247639
130	0xbc17b016	-0.009258291
131	0x3d792460	0.060825706
132	0xbdb1ae8f	-0.086758725
133	0x3d49356a	0.049123205
134	0xbddc5cb5	-0.1075987
135	0xba76491e	-0.00093950506
136	0xbae6a44e	-0.0017596574
137	0xbdb25f48	-0.0870958
138	0x3dcef886	0.10105996
139	0x3dabebcf	0.08394586
140	0x3db3462d	0.08753619
141	0xbd2c3e14	-0.04205139
142	0xbd5c9709	-0.053854976
143	0xbda8f486	-0.08249764
144	0x3dc2896b	0.09498867
145	0xbd973146	-0.07382445
146	0x393b1856	0.00017842776
147	0x3ddc712c	0.10763773
148	0xbd952a4f	-0.0728346
149	0x3d311d59	0.04324088
150	0xbceb79ae	-0.028744545
151	0xbd9f2e97	-0.07772558
152	0x3deb0d48	0.114771426
153	0x3d06df84	0.032928005
154	0xbd4615c2	-0.048360594
155	0x3dd14bba	0.10219522
156	0x3da592a1	0.08084608
157	0xbd87eee0	-0.06637359
158	0x3d29fda9	0.041501675
159	0xbbfeaa7e	-0.007771789
160	0xbdc10226	-0.09424238
161	0x3d4198bc	0.0472648
162	0x3d3e2407	0.046421077
163	0xbbabfbe2	-0.0052485326
164	0x3db797fb	0.08964535
165	0xbd7cb54a	-0.06169633
166	0xbb3ddad6	-0.0028969548
167	0xbd46e2bf	-0.048556086
168	0x3de2f78e	0.110823736
169	0x3c17e1c1	0.0092701325
170	0xbcdda57d	-0.02705645
171	0x3d5e8583	0.054326545
172	0x3d1e2cdf	0.03861701
173	0x3ddd92c1	0.10819007
174	0xbc1f1080	-0.009708524
175	0xbd3f6dda	-0.046735622
176	0xbc10bc2a	-0.008833924
177	0x3d25d2b8	0.04048416
178	0x3d669870	0.05629772
179	0x3dd21212	0.10257353
180	0xbd669ccb	-0.056301873
181	0xbd9f0fb0	-0.07766664
182	0xbcb76866	-0.022388648
183	0xbc5e0c89	-0.013552793
184	0x3bd8100f	0.006593711
185	0x3d9a5a9d	0.07536814
186	0x3d2fd882	0.042931087
187	0xbcfa5c15	-0.030561486
188	0xbd75365a	-0.059866287
189	0xbcfbc4a2	-0.03073341
190	0x3d4e424a	0.050356187
191	0x3d8f29d8	0.06990403
192	0xbda4519b	-0.080233775
193	0x3b42462c	0.0029643876
194	0x3d3e1c08	0.04641345
195	0xbdbfcb80	-0.093649864
196	0xbce67fb2	-0.028137062
197	0x3ca7debc	0.02049195
198	0x3da9a70f	0.08283817
199	0x3cd6131d	0.02613216
200	0x3dfba737	0.12287753
201	0xbde180f6	-0.110109255
202	0xbc144b48	-0.009051152
203	0xbd571d19	-0.052517984
204	0xbdffbae8	-0.124868214
205	0x3c0e66d6	0.00869151
206	0x3dce7812	0.10081495
207	0xbb81d334	-0.003961945
208	0x3dea3eef	0.11437785
209	0xbc1a8e42	-0.009433331
210	0xbd95275e	-0.07282899
211	0x3db2aa9b	0.08723947
212	0x3ca737a3	0.020412272
213	0x3d7faf65	0.06242313
214	0x3d6b6690	0.057470858
215	0x3d4d5b4c	0.050135896
216	0xbc682244	-0.014168326
217	0xbd49c212	-0.049257345
218	0x3b4c4e1f	0.0031174493
219	0x3d2ddd06	0.042447113
220	0x3d8cb107	0.06869703
221	0xbdb026cf	-0.08601152
222	0xbd9b45f3	-0.07581701
223	0xbb8b4310	-0.004249938
224	0xbddc52ac	-0.10757956
225	0x3d4ea0c6	0.050446294
226	0x3c1cb3b5	0.00956433
227	0x3d80e739	0.06294102
228	0xbddcf9bd	-0.10789821
229	0x3d154680	0.036444187
230	0x3c07d2e8	0.00829003
231	0xbdaa998c	-0.08330068
232	0x3cdf29b4	0.027241565
233	0x3e039c9a	0.12852708
234	0x3d17d2d8	0.03706631
235	0xbd305d0e	-0.043057494
236	0x3da9aab3	0.082845114
237	0xbd8595b1	-0.06522692
238	0xbdd10310	-0.10205662
239	0xbd1f33a4	-0.038867608
240	0x3d957cff	0.07299232
241	0xbdd18ef9	-0.10232348
242	0xbcb13660	-0.021632373
243	0x3d84e97c	0.06489846
244	0xbc297623	-0.010343107
245	0xbd66f877	-0.0563893
246	0xbdbb260d	-0.09138117
247	0x3de3552a	0.11100228
248	0xbd03aa4c	-0.03214483
249	0x3db9b109	0.0906697
250	0x3de3b138	0.11117786
251	0x3de2e377	0.11078542
252	0xbd9335e8	-0.07188016
253	0xbdb3ac05	-0.087730445
254	0xbd00db1e	-0.031458966
255	0x3d381c44	0.04494883

fc.weight f4 [1, 64]
0	0x3c45a2e4	0.012062762
1	0x3b335059	0.0027361123
2	0x3dca7d4b	0.09887179
3	0xbd727271	-0.05919117
4	0xbcec0053	-0.028808748
5	0xbd7f2c51	-0.062298123
6	0x3de81835	0.11332742
7	0x3d241e61	0.040068034
8	0x3d498088	0.049194843
9	0x3d303bae	0.043025665
10	0xbd670adf	-0.05640685
11	0x3db23491	0.087014325
12	0xbc607090	-0.013698712
13	0x3dbae7ce	0.091262445
14	0xbdf28db5	-0.11843435
15	0x3c7f9da2	0.015601547
16	0x3d78c621	0.060735825
17	0xbd9028af	-0.0703901
18	0xbdb10440	-0.08643389
19	0xbdddf5c5	-0.108378924
20	0xbd83c8bb	-0.06434771
21	0xbdaf4e7b	-0.08559891
22	0x3e03e4b3	0.1288021
23	0xbcf23b21	-0.02956921
24	0xbc83421a	-0.01602273
25	0xbc850630	-0.016238302
26	0x3cf99765	0.030467698
27	0xbd9cd0ae	-0.0765699
28	0xbe07a646	-0.13247022
29	0x3d5aaaac	0.05338542
30	0x3df58466	0.119881436
31	0x3d5abfeb	0.053405683
32	0xbdd36370	-0.103217006
33	0x3d1c8832	0.038215823
34	0x3caaa91f	0.020832596
35	0xbc74a91f	-0.0149329
36	0xbe0a7a0b	-0.13523118
37	0x3cd57200	0.026055336
38	0xbd15b90a	-0.03655342
39	0x3de074b3	0.109597586
40	0x3d30afca	0.043136396
41	0x3e00abbb	0.1256551
42	0xbdcd3a6a	-0.10020907
43	0x3df4c4db	0.1195161
44	0x3d12b4e3	0.03581704
45	0xbd159b0a	-0.03652481
46	0xbd564c89	-0.052319083
47	0x3cfb5aa2	0.030682866
48	0xbc5d88d0	-0.013521388
49	0x3da71d37	0.08159869
50	0xbc751ebf	-0.014960944
51	0x3dc944f6	0.098276064
52	0x3d75d572	0.06001801
53	0xbbce5d40	-0.0062977374
54	0xbb50562b	-0.0031789641
55	0xbd93361b	-0.07188054
56	0xbd03977b	-0.032126885
57	0x3dd04ea8	0.101712525
58	0x3c6caae6	0.014445042
59	0xbd93c062	-0.072144285
60	0x3d98983c	0.074509114
61	0xbd1cdbb3	-0.03829546
62	0x3a213fa6	0.0006151147
63	0xbdbe06af	-0.092786185
