resources/models/3_by_3/relu_model_v100.pth (torch, 200660 bytes, 26 tensors)

0.weight f4 [256, 9]
00000000: b32e 42be 7ba0 063e 5ebf d13d 9908 80be
00000010: 14ea 093e 1cb2 b63e d69a 6b3d 9354 9f3e
00000020: 3baf 903e 821a 86be c2e2 03be e81c 793e
00000030: d5c6 14be 3489 f53d 8173 8f3e 8639 a3be
00000040: d47b 893e fc3a d73d 7c9c 44bd c86b a9bd
00000050: 20a7 813c fad6 12be d031 f63c 70c7 0cbe
00000060: 99b7 983e c79d 1d3e 61f3 73be 2114 35be
00000070: a96c cdbc 17c3 9d3e ecb4 34be 6f34 9a3e
00000080: 955c 22be 17c8 a2bd ac3a 913e eb95 9b3e
00000090: c65e c6bd 79b4 0e3e 7f49 6c3e b7e2 933e
000000a0: 0104 ab3e 7829 af3d 6d5b 82be d184 4d3c
000000b0: d036 e73d 5628 92be 7dc3 e73b aeda aabe
000000c0: ecba 493e 59f7 a0bc a3cc 42be 6709 4dbe
000000d0: 454d a63e a53a 99be e11e 69be ec59 563e
000000e0: e40d cc3d 6f0c 1b3e 68ed e33c 957a 833e
000000f0: 882a 323d 929b 1e3e b7a2 1cbe 66df 3dbe
00000100: 8a2c a0bd cd68 9ebd 65ec 26be b326 5dbe
00000110: a5d5 8c3e 1ceb 8f3e e5b8 26be 34e4 7d3e
00000120: aa77 d43d 786b ae3e 67dd 7fbe 4093 483e
00000130: ba5e 103e 4851 93be b6c6 03be e919 063e
00000140: ea17 b43e a9e9 883e 3d90 6bbe 0096 953d
00000150: 932e a03e 72b9 5fbe f91a a73e dc8c 6abc
00000160: 3d1f 3fbe e1b5 843e 871c 593e 411c 67be
00000170: 956d 223d 3464 0dbe a2f5 62be 6fe2 db3d
00000180: 6bb1 95be 1fa2 0dbe b5c2 b3be 1e9c 35be
00000190: 7378 4c3e ffca 973e 0953 123d 9779 9abe
000001a0: 14e9 97be eefe a93e d071 a93e e081 91be
000001b0: 81fe 743e fa0c 84be b801 b1bd 284b 853e
000001c0: e648 91be 10c6 1ebe f091 4bbe d8be ffbd
000001d0: 6217 f93a 4333 45be 045b 993e 8f2e 593e
000001e0: 32f6 2e3e db2a 273e da9a 8d3d 9c25 893e
000001f0: a8b5 1c3e c9af 96be 5a97 cdbd 0e85 96be
00000200: 0b8b 7e3e e58e 803d 1eaf 973e bac6 403e
00000210: f4b5 993e 5cfc 41be db46 de3d 8a66 8cbe
00000220: aa15 333d a179 923e 1d0f 893e 1935 f53d
00000230: 81df 153e aaed 6b3e 4e09 f0bd 614b 94be
00000240: 0f0c b33e 637e a8bc 2106 8bbe 3ad0 93be
00000250: 3198 3dbe 7e63 0e3e ae88 9cbe 78b8 943e
00000260: a32b 703e f840 7cbe 3e69 8b3c 622c c1bd
00000270: 7603 9d3e 54e9 5e3d abdb f3bd cf46 71be
00000280: 0717 70be a0dc 01be 6fcb e23d 7e1d 7d3e
00000290: 59d8 8cbe 09a3 1ebc 42a7 9f3e 1624 263e
000002a0: ebe7 e33d 498f 77be 4632 463d f9ec 0fbe
000002b0: fc8d 96be 631f 16be 16a4 983e 6630 853e
000002c0: 4744 263e 120f b23e 4c9a 93be 19e0 0dbe
000002d0: c217 8dbe b3ae a53e bb00 b2bc cb92 a03e
000002e0: 06fd 953e eec4 8a3e 7b44 32be e88e 0c3d
000002f0: e62c 993e fdd9 33be 3658 9b3d a017 9d3e
00000300: e086 08bc 17bc 863e 3a2b e2bd 0c02 a3be
00000310: b16f c23d 8eba 043e 3160 193e 5366 06bd
00000320: 50ea 0b3e 5a60 6d3e 44e9 92be 3e51 a2be
00000330: bc87 37bc 2a8e 013e 6d91 f6bd 5d11 183c
00000340: 6935 ac3d 3177 9a3e 7b96 a2be 2a0e ab3e
00000350: 1cfa 94bc 6689 8b3d bf0b 6abe aaf1 993e
00000360: 655b 05be ab38 f3bd 54f9 273e dad2 f33d
00000370: 9a45 fd3d 168e b6bd 3ea9 5b3e 2508 c83d
00000380: 36a8 eb3d 9fca b2bd 6ff2 94be 2381 4dbe
00000390: eccb 793d 8213 a93e 11e1 693d 5813 81be
000003a0: 91cd 87be 03de a03e fb00 953e 030f 033e
000003b0: 00fa 913e 555b 53be 9431 e8bd 171d 4fbe
000003c0: 2b93 81be 2118 093e 0eed de3d afd3 3d3e
000003d0: b728 94be 6121 07be ed9a 803e 87e5 89ba
000003e0: 6c3d c43c def9 78bd 1c7c 4abe 950d 80bd
000003f0: cdad 17be 2ca8 943e 1ed3 a6be 8d76 d9bd
-0.18963127 0.13147156 0.102415785 -0.2500656 0.134682 0.35682762 0.05752071 0.31119213
0.2825869 -0.261921 -0.1287947 0.24327433 -0.14528973 0.1198906 0.2801781 -0.31879824
0.26852286 0.10509297 -0.048000798 -0.08272511 0.015826762 -0.1433982 0.03005305 -0.13747954
0.29827574 0.15392219 -0.2382331 -0.1768346 -0.025076227 0.30812904 -0.17647141 0.3011813
-0.1585563 -0.0794832 0.28365076 0.30387816 -0.09686045 0.13936032 0.23074912 0.28883907
0.33401492 0.085528314 -0.25460377 0.012543873 0.112897515 -0.285464 0.0070728646 -0.33369964
0.19700211 -0.019649195 -0.19023375 -0.20023118 0.32480827 -0.29927555 -0.22765686 0.2093274
0.09963587 0.15141462 0.027823165 0.2567946 0.043497592 0.15489033 -0.15296446 -0.18542251
-0.07820995 -0.07734833 -0.16301115 -0.21596794 0.27506748 0.28109062 -0.16281469 0.24794084
0.103743866 0.34066367 -0.24986802 0.19587421 0.14098635 -0.2877295 -0.12868771 0.13095821
0.35174495 0.2674077 -0.23004241 0.07304001 0.31285533 -0.21848086 0.32637766 -0.01431581
-0.1866426 0.25920013 0.21202289 -0.22569372 0.039655287 -0.13807756 -0.22164014 0.10736548
-0.29236922 -0.13831376 -0.35109487 -0.17735335 0.19967823 0.2964706 0.03572372 -0.3017089
-0.29670012 0.33202308 0.33094645 -0.284194 0.2392521 -0.2579115 -0.08642906 0.26033902
-0.2837593 -0.15505242 -0.1987989 -0.124875724 0.0019004161 -0.19257836 0.29952252 0.21209167
0.17086104 0.16324942 0.06914301 0.26786506 0.15303671 -0.29430988 -0.10038634 -0.29398388
0.24857728 0.06277255 0.2962579 0.18825808 0.30021632 -0.18943924 0.10853358 -0.2742198
0.043721832 0.2860842 0.26769343 0.11973018 0.14636041 0.2303988 -0.11720525 -0.2896376
0.34970137 -0.020568078 -0.27153113 -0.28869802 -0.18515088 0.13905141 -0.30573028 0.29046988
0.23454146 -0.24634159 0.017017957 -0.094322935 0.30666703 0.054421738 -0.11907133 -0.23562168
-0.23446284 -0.12681818 0.11073958 0.24718282 -0.2750881 -0.009682425 0.31182295 0.16224703
0.11128219 -0.24175753 0.04838779 -0.14055242 -0.294052 -0.1466041 0.29812688 0.26013488
0.16236983 0.34777123 -0.28828657 -0.13855018 -0.27557188 0.32359847 -0.021728864 0.31361994
0.29294604 0.2710337 -0.17408936 0.034315974 0.29917067 -0.17563625 0.07585184 0.30682087
-0.008332938 0.26315376 -0.11043401 -0.318375 0.0949396 0.1296179 0.149781 -0.032812428
0.13663602 0.23181286 -0.28693593 -0.31702608 -0.011201795 0.12651888 -0.120394565 0.0092814835
0.08408625 0.3016906 -0.31755432 0.33409244 -0.018185668 0.06813316 -0.22856043 0.30067188
-0.13023145 -0.11876043 0.16403705 0.11905451 0.12366791 -0.089138195 0.2145128 0.097671784
0.11506693 -0.08730053 -0.29091212 -0.20068793 0.06098549 0.33022696 0.057099406 -0.2521007
-0.26524022 0.31419381 0.2910231 0.12798695 0.28511047 -0.20640309 -0.11337581 -0.2022594
-0.25307593 0.1338811 0.10885058 0.18537782 -0.28937313 -0.13196327 0.251182 -0.0010520675
0.02395507 -0.060785167 -0.19773906 -0.062525906 -0.14812393 0.29034555 -0.32582945 -0.10618315

0.bias f4 [256]
00000000: 6e9b ddbc 18e2 963e 1d4a dcbc aa08 fc3d
00000010: dcc3 5d3d fc51 8ebd 5cea 39be 9967 553e
00000020: 93ab 943e 83a0 da3d 7d21 52be 5689 9e3c
00000030: 225d 71bd f1c0 0d3d c784 003e 22ea 493d
00000040: 99da 9fbe 8e4c 8c3e 30b8 853d 1bf5 203e
00000050: 6c32 663e cfb3 893d 1926 58be 89e9 8abe
00000060: f5b5 5d3e cfa2 86be 0895 91be eda3 e0bd
00000070: e57b 94be cd41 26be 309f 0c3e 2f46 57be
00000080: 5638 a63e 9b6f c0bd db35 8e3e 40da 29be
00000090: 9a83 62bb c0c4 61be d9f9 a5bd 1311 2a3e
000000a0: 93ae 2e3e b643 50bd 89e8 343d 0ffc 03bc
000000b0: 903e b7bd 6ab4 4fbe f528 3e3e 881b 8e3b
000000c0: 0c37 a8be 355a 09be a3b1 73be 189e a73e
000000d0: eb73 db3a 4284 50be 457c ebbd 17e2 f33d
000000e0: f34f 963e 6282 973e e2c7 0a3e c418 6d3e
000000f0: d102 073d 10b0 d3bd ae24 763e 6fa3 74be
00000100: 1b4c 5f3e 54af 873c d6ba a43e ff6f 7bbd
00000110: fb0c a03d 7925 77be aa02 a9be d268 053e
00000120: 938a ccbd 606c 773e d2d6 823d 01c5 b3bd
00000130: f5de 15bb 4aaf 5d3c 2a61 aa3d 6621 a6be
00000140: 0000 a23e 8fec 7abe 6975 cbbd 7c97 e33c
00000150: a2ac 41be 0f5b 81be 905c edbc 550f ed3c
00000160: 76be 0a3e 27d5 603e 4ade 0cbe e9f0 233e
00000170: 1af9 68be b668 c6bd 8f64 8d3e aad9 a63e
00000180: ff92 7dbe 1ced 2fbe d18a 833e 98f1 0d3c
00000190: cdfc 0f3d 025a bcbd 728e 143c b120 26be
000001a0: 9f07 92bc 3b32 8cbe 6cd9 cabc 55ef f53d
000001b0: b523 7dbe 7165 c1bc 03f9 533c d820 fb3c
000001c0: 4603 49be cf2a bf3c a7cf bebd df57 f93c
000001d0: 3636 8ebe 35af b4bd 71f1 523e d1de f03d
000001e0: 8753 b23b 9f61 8fbe 389a 4ebe 4be6 4dbe
000001f0: 5147 103e de7b adbd 91fd 9f3e d147 6cbd
00000200: a102 0ebe 8555 2ebe 7eff 16be df02 21be
00000210: 69d4 903e afbe c5bd afc2 62bd fbe1 b43d
00000220: 31ec 723e 4ccd a0be 6afd 7e3c c5cb a83c
00000230: 5590 56bd 4177 333d b5cc a2be 93be 43be
00000240: f392 3abe 7557 a0bd e7c6 4b3e 2a34 26bd
00000250: ed40 713e b1a1 d63d d2bf 033e 5c3a 6a3e
00000260: e722 423d 2026 ebbd 3110 8abc 4366 813c
00000270: bcbd 91be 1df8 5abe 04e3 7e3e 8026 6bbe
00000280: 8dee b63d 8dbf fe3d c6f2 19be c8f8 7ebe
00000290: 4bed 0fbe 52b7 a03e e156 7bbe c423 993e
000002a0: f31d 86bd c371 a33e 3312 223d 9446 83be
000002b0: 3b14 1dbd b644 603d 4afe 943e d826 8c3e
000002c0: 9b63 b0bb be48 783c e9b8 29be 4a38 633d
000002d0: 140c 99be f201 9abe ba25 83be 702d 8fbe
000002e0: c3d1 e3bd 25d3 7c3e f125 31be 2a93 9e3e
000002f0: 817c 67be 62c3 843e f555 32bd 7efd edbd
00000300: e657 f3bc ec4a 903e d5e9 9d3e 0334 223e
00000310: de5a 3dbe f507 a6ba 39f9 963e 60f2 45be
00000320: a9b7 d43d 413c 02be c3a8 7f3d 1a03 3abe
00000330: ba6c 653e 6899 a8be 6ebc 233e 0054 593e
00000340: dcc8 3c3e 7bf3 aebd eb18 a03e 155d 96be
00000350: eb73 743e 4dd2 983d 5574 9c3d 5b9f 863d
00000360: 39a6 ee3c 2a99 3e3e 3cab 883e e13c 6f3e
00000370: ece0 023e af9d d3bd db10 a73c 2928 18be
00000380: e572 d03d f6d6 2b3d f4b6 853e 0ca2 473e
00000390: af65 903e 8f7b 693e 8d02 813e 6fbe 3bbe
000003a0: 9fa8 f3bd 9f2c a3be 68b5 50be d69f d9bb
000003b0: 0f98 9a3c a3e8 1a3e f8e6 94be 3875 083e
000003c0: 4d2a 0a3e bf08 733c cbb9 0b3e 69f3 ca3d
000003d0: b078 183e f969 86be d20a 3f3e 6b30 aa3e
000003e0: 221a 5dbd 8184 353c b929 52be 490a 453e
000003f0: 9ab0 99bb dbbf 573e 8f4f 4dbe 65d8 94be
-0.027051654 0.2946937 -0.026890809 0.1230634 0.054141864 -0.06949231 -0.18155807 0.208403
0.2903715 0.106751464 -0.20520587 0.019352596 -0.05892671 0.03460783 0.1255065 0.049295552
-0.31221464 0.27402157 0.065292716 0.157185 0.22480172 0.06723749 -0.21108283 -0.27131298
0.21651442 -0.26296088 -0.28434014 -0.10968766 -0.29000774 -0.16236039 0.137326 -0.21022867
0.32464856 -0.09396287 0.27775463 -0.16587162 -0.0034563304 -0.2204771 -0.08104295 0.16608076
0.17058782 -0.050845824 0.044167075 -0.008055701 -0.0894748 -0.20283666 0.18570311 0.004336778
-0.32854497 -0.13413318 -0.23798232 0.32737803 0.001674292 -0.20362952 -0.11498312 0.119083576
0.2935787 0.29591662 0.13552812 0.23153979 0.03296167 -0.10336316 0.2403743 -0.2389047
0.21806376 0.016563095 0.32173795 -0.061386105 0.07814976 -0.24135388 -0.33009845 0.13028267
-0.099873684 0.24162436 0.0638863 -0.0877781 -0.0022868488 0.013530562 0.08319314 -0.32447356
0.31640625 -0.24504302 -0.099345036 0.027782194 -0.1891351 -0.25264785 -0.028974801 0.028937975
0.13549218 0.21956311 -0.13756672 0.16009869 -0.22751275 -0.09687941 0.27615783 0.3258794
-0.24763106 -0.17180294 0.25691846 0.0086635575 0.0351532 -0.09196855 0.009067165 -0.16223408
-0.0178259 -0.27382073 -0.024761878 0.120085396 -0.24720652 -0.023607941 0.012937787 0.03065531
-0.19630155 0.023335842 -0.0931695 0.030437408 -0.27775735 -0.088224806 0.20599915 0.11761249
0.005442086 -0.28004166 -0.20176017 -0.20107381 0.14089705 -0.084708914 0.31248143 -0.057685677
-0.1386819 -0.1702481 -0.147459 -0.15723751 0.28287056 -0.09655511 -0.055361446 0.08832165
0.23722912 -0.3140663 0.015563348 0.020604977 -0.05238374 0.0438149 -0.31796804 -0.19115667
-0.18220119 -0.07829181 0.19900094 -0.04057709 0.23559923 0.10480059 0.12866142 0.22873825
0.047396567 -0.11481881 -0.016853424 0.015795832 -0.28465068 -0.2138371 0.24891287 -0.22963905
0.08932219 0.12438879 -0.15034017 -0.2489959 -0.14055364 0.31389862 -0.2454486 0.299101
-0.06548681 0.3192273 0.039568137 -0.25639784 -0.03834937 0.054753028 0.29100257 0.27373385
-0.0053829676 0.015154062 -0.16574444 0.055473603 -0.29892027 -0.3007961 -0.2561472 -0.27964354
-0.11123993 0.2468992 -0.1729963 0.30971652 -0.22606088 0.25930315 -0.043539006 -0.116206154
-0.029705 0.2818216 0.30842462 0.15840153 -0.18491694 -0.0012667166 0.29487017 -0.1933074
0.10386593 -0.12718298 0.062416803 -0.18165246 0.22404757 -0.3292954 0.15989849 0.2122345
0.18435997 -0.08542534 0.3126901 -0.2936789 0.23872344 0.07461987 0.07639376 0.065733634
0.029131996 0.18613115 0.2669314 0.23363067 0.12781113 -0.1033281 0.02039378 -0.1485907
0.101781644 0.04195305 0.26116145 0.1949541 0.28202578 0.2280104 0.2519726 -0.18334363
-0.11897396 -0.3186998 -0.20381701 -0.0066413684 0.018871335 0.15127806 -0.29082465 0.13325965
0.13492699 0.014833628 0.13645093 0.09909708 0.14889789 -0.26252726 0.18656471 0.33240065
-0.05398 0.011078955 -0.20523728 0.19242205 -0.004690242 0.21069281 -0.2004988 -0.29071346

1.weight f4 [256]
00000000: d8d7 8b3f 2a2b 833f e822 813f c391 863f
00000010: b857 843f 1e0a 7b3f ad5c 843f f35c 7b3f
00000020: e1c6 813f 1851 813f 19fd 7b3f 249b 7a3f
00000030: 3f32 7d3f 820c 813f 9595 843f 4b00 823f
00000040: 53a0 7e3f 585a 7a3f 9808 823f 98ac 7c3f
00000050: 58ca 803f 16a9 853f 5948 783f e588 863f
00000060: ae28 843f e4d9 7b3f f1a2 813f c694 803f
00000070: ac65 803f 4e3e 833f 529b 803f 2eb1 7a3f
00000080: a685 833f 3ced 813f a298 7e3f c82e 893f
00000090: 1ca9 7c3f fd80 833f a26b 7c3f 27cf 823f
000000a0: d1bf 7a3f 9a88 7a3f 8ef6 7d3f 257a 7b3f
000000b0: 9a0c 7b3f ef5a 7d3f 9884 823f 6a1e 7c3f
000000c0: 4295 833f 61d0 803f c684 813f 983d 823f
000000d0: 8b8a 7b3f 722e 813f 4a39 7f3f 9892 833f
000000e0: 23d2 813f e883 793f 8adb 7f3f 7954 773f
000000f0: be9c 7f3f 6383 7d3f 132a 823f b3ec 813f
00000100: 6fd1 823f 0613 7c3f fe67 823f 513b 823f
00000110: 10a0 803f 2c3c 813f 23a8 803f b7a8 773f
00000120: 2720 8c3f 66e7 853f e63a 823f 8203 823f
00000130: 2dda 863f 2e1f 6f3f 1183 7f3f 74db 813f
00000140: 3976 803f b69d 7a3f dbdb 853f 6078 7c3f
00000150: 3ca9 7f3f 3bd2 803f c21f 803f 42cd 833f
00000160: c696 7e3f 71f1 7b3f 2089 813f 40a9 813f
00000170: 562e 843f 5866 823f 5161 7d3f c504 883f
00000180: c86b 823f 1eae 7d3f bb24 7e3f d68b 8b3f
00000190: 3fca 7a3f 30fc 793f c4b4 813f 1fdb 7a3f
000001a0: 2027 7d3f 72ef 7d3f 96b3 803f 409c 7e3f
000001b0: 4ba5 7f3f 164a 7d3f 3e04 843f 163c 8b3f
000001c0: fdfc 7f3f 66ec 803f 05ee 813f 5a5e 7c3f
000001d0: 3bbd 803f 310f 7b3f 11f6 7e3f 9422 813f
000001e0: 35fc 7d3f 431b 813f b190 763f 75a9 7b3f
000001f0: 29b1 833f f992 823f 4593 843f 0154 7c3f
00000200: 469c 7a3f ecdd 7c3f 2229 7e3f 63eb 813f
00000210: 299b 823f bd46 803f a1d2 7a3f 9583 7a3f
00000220: 7cc4 7f3f dee2 7e3f 8622 813f 54e0 863f
00000230: 826d 7c3f 3ba7 813f d34a 803f 2434 803f
00000240: 9ef6 803f 6e56 813f bded 7d3f 5eab 803f
00000250: 2b4b 833f fc50 813f afe9 813f 83c2 803f
00000260: 9d35 7c3f c397 853f 8162 7d3f 870b 853f
00000270: 7a3e 803f ae25 883f 5520 7b3f 8416 7d3f
00000280: 3fb4 7c3f 3ab9 743f 8c19 8a3f 4aed 7b3f
00000290: 7f0a 793f e919 853f 2223 813f b7f0 7d3f
000002a0: 33d6 7f3f 8d46 7c3f 1652 803f 8596 7f3f
000002b0: fb69 763f d93e 833f e23a 7c3f 6250 7c3f
000002c0: 692e 803f 6e68 803f 0a6f 843f c98c 803f
000002d0: f166 793f e558 843f 3d79 7f3f 7664 7d3f
000002e0: 9f9b 7c3f fde2 7a3f 7106 803f f486 793f
000002f0: ad0c 7c3f e713 7c3f 7d51 7c3f 9cdc 823f
00000300: 4091 813f e370 803f 24fd 7b3f dfc1 793f
00000310: 94a8 833f 5554 803f 3bfe 803f e685 813f
00000320: 712c 823f 7c64 813f 6abb 7d3f d826 7d3f
00000330: 9a9c 7a3f 3746 7f3f f288 803f 82d7 7b3f
00000340: 3cc5 863f 456d 813f 220b 833f b072 7f3f
00000350: 6ab9 7b3f 4c57 7c3f 1e70 793f 1f03 803f
00000360: be39 813f 17be 753f 7dfd 883f 82c2 713f
00000370: 7760 803f d4e3 803f 62c7 7f3f 64e2 823f
00000380: 8e3d 803f 4cc9 823f 5429 853f 0081 813f
00000390: 004f 833f bf96 833f 90a5 813f 4920 7c3f
000003a0: 1fdc 7a3f ee6c 833f d5bc 7f3f 1d6b 753f
000003b0: f0d6 813f 6cac 833f 066f 803f 1d7a 823f
000003c0: 57fa 853f 1c2e 873f 4411 863f c88f 7c3f
000003d0: dc4e 7c3f 31b8 7e3f caf1 843f 49b1 7c3f
000003e0: 616d 813f 3810 823f 9fb5 7c3f 8675 813f
000003f0: 3e4f 853f 153f 823f 0a9b 833f c0e0 7d3f
1.0925245 1.0247548 1.0088778 1.0513233 1.033927 0.9806231 1.0340782 0.98188704
1.0138818 1.0102873 0.9843307 0.97892976 0.98904794 1.0081942 1.0358149 1.015634
0.99463385 0.97794104 1.0158873 0.9870086 1.006175 1.0442226 0.96985394 1.0510527
1.0324914 0.9837935 1.0127851 1.0045402 1.0031028 1.0253389 1.00474 0.97926605
1.0275161 1.0150523 0.9945165 1.0717402 0.9869554 1.0273739 0.98601735 1.0219468
0.9794894 0.9786469 0.9920434 0.9823325 0.98066103 0.9896688 1.0196714 0.9848391
1.0279925 1.0063592 1.0118644 1.0175047 0.98258275 1.0092299 0.9969679 1.0279112
1.0142254 0.974669 0.99944365 0.9661327 0.99848545 0.99028605 1.016909 1.015036
1.0220164 0.9846653 1.0187986 1.0174352 1.0048847 1.0096488 1.0051311 0.96741813
1.0947312 1.0461242 1.0174224 1.015732 1.0535332 0.9340695 0.99809366 1.0145097
1.0036079 0.978969 1.045772 0.9862118 0.99867606 1.0064157 1.0009692 1.0297015
0.9944881 0.98415285 1.0119972 1.0129776 1.0326641 1.0187483 0.9897662 1.0626456
1.0189142 0.99093807 0.99274796 1.090205 0.97964853 0.9765043 1.013329 0.979906
0.98887825 0.9919349 1.0054805 0.9945717 0.9986159 0.9894117 1.0313795 1.0877712
0.99995404 1.0072143 1.0150763 0.9858147 1.0057749 0.98070055 0.9959422 1.0088677
0.9921296 1.0086445 0.9631453 0.98305446 1.028844 1.0201102 1.0357443 0.9856568
0.97894704 0.98776126 0.99281514 1.0149959 1.0203601 1.0021588 0.97977644 0.9785703
0.99909186 0.9956492 1.0088661 1.053721 0.98604596 1.012916 1.0022835 1.0015912
1.0075262 1.0104501 0.99190885 1.0052297 1.0257314 1.010284 1.014944 1.005936
0.9851931 1.0436939 0.9897843 1.0394143 1.0019066 1.0636499 0.9809621 0.9886248
0.98712534 0.95595133 1.0789046 0.9840895 0.9728164 1.0398532 1.0088847 0.99195427
0.9993622 0.9854515 1.0025051 0.9983905 0.96255463 1.0253555 0.9852735 0.98560154
1.0014163 1.003187 1.0346386 1.0042964 0.974227 1.0339628 0.9979437 0.98981416
0.9867496 0.98002607 1.0001966 0.9747155 0.9845684 0.9846787 0.9856184 1.0223575
1.0122452 1.003445 0.98433137 0.9756145 1.0285821 1.0025736 1.0077585 1.0118988
1.0169812 1.010879 0.99114096 0.98887396 0.97895205 0.99716514 1.0041792 0.98375714
1.0528941 1.0111471 1.0237772 0.99784374 0.98329794 0.98570704 0.974367 1.0000952
1.0095747 0.9599318 1.0702358 0.9443742 1.0029439 1.0069528 0.9991361 1.0225339
1.0018785 1.0217681 1.0403237 1.0117493 1.0258484 1.0280379 1.0128651 0.98486763
0.9799213 1.0267618 0.9989751 0.95866567 1.0143719 1.0286994 1.0033882 1.0193516
1.0467023 1.0560946 1.0474019 0.9865689 0.9855783 0.99499804 1.0386288 0.98708016
1.0111505 1.01612 0.9871463 1.011399 1.0414808 1.0175501 1.0281689 0.99171066

1.bias f4 [256]
00000000: 6fd1 c43c f05d a13c 628c 04bc 0a10 a13c
00000010: cb17 bdbb 28c0 51bc 92b3 b83c 4758 74bc
00000020: 58de 653b f900 e33b 24a4 fe3b 9873 9a3c
00000030: 702f c13c 3aaa 5abc ac88 33bb b6ac 163c
00000040: 10a0 d5b9 f2bd 6f3b a7a8 223c 38f3 473a
00000050: e907 adbc 6080 6c3b 6703 93bc a7a4 8e3c
00000060: 58e3 3eba ac8b 8ebc 809f 933c 6d92 583d
00000070: bff3 2d3c 818a 7abc a4d2 49bc 61d5 debc
00000080: d049 e8ba 964b ce3a 43db 48bc 6a1e ca3c
00000090: 66f4 01bc 5cde 953c 674b 813c 87bc c2bb
000000a0: 9af4 03bc 259e 58bc 8763 34bc d043 8dbc
000000b0: bd00 25bc 5bd2 ad3b cd94 b4bc 203e 6ebc
000000c0: 83a2 0cbc 6916 98bc f9d3 d73c e521 a9bc
000000d0: 42a0 933b 778d 7b3c 7a2d 9abc 9485 16bd
000000e0: 7f8a 423d 1ee0 b83b cd54 913c fff2 67bc
000000f0: bcc6 13bc 78ca 2abb 1235 3bbb 75b3 acbc
00000100: 9baa 4e3c cb0b 78bb 9ccf f73c 02b1 423c
00000110: 9cee 8cbc 3ed9 b13c 04ed 253c dfdb 043c
00000120: 3290 b2bb 1659 5cbc ca68 b2bb dcbd aeb8
00000130: 5015 b73c c732 a83c e9c8 1ebc 0325 a93a
00000140: 5d28 4bbc ec22 acbc f67c 19bd 0d74 93bc
00000150: dbf1 023d 15c4 f7bb 923a 2bbc e0b4 3cbb
00000160: b4bd 2ebc 5742 d43a 0d09 623c 2235 3fbc
00000170: 3975 b23c d9ba f03b 08b2 d0bb 2454 373d
00000180: 424a 303c 3ca6 4eba 73d7 123a 882e ff3c
00000190: 57ba 83bc fb3d de39 e634 54bc 88de ffbc
000001a0: 100c 78bc b459 213c d4b4 b03c 6480 a8bc
000001b0: 0d4a 39bc bce0 eebc 9733 943c 6441 803d
000001c0: fa22 edbb e3e3 f63c a107 32bb 264c 9bba
000001d0: 4f48 7c3c c71d c6bc 8edc 78bc c790 13bc
000001e0: 0d9b 55bc cb7a 5b3c 261f 80bc d3d3 693b
000001f0: 7f96 813c 4f4a 95b9 3d30 ae3c 47e6 4dbc
00000200: 4873 86bc d4e3 893c 847a 87bc 8e2b 2a3c
00000210: 6679 8dbc b3c6 de3c a1ef 9d3b 6eba bc3c
00000220: fcfa 4dbc 1c5f 87bc 34e4 f23c 7102 fd3b
00000230: 2401 18bc 4832 e43c c743 c3bc ce17 71bb
00000240: 72bd af3c 7ca1 9abc ab6c bfbb 6d6b adbc
00000250: eb4e 103c da22 693c bc31 053a 13c5 b3bc
00000260: f2ae f3bc 2da7 0c3d 5e23 8c3c a94e 793c
00000270: b970 6cbc 7ce2 4b3c da48 d8bc c447 61bc
00000280: de54 54bb 41bc 9abc 346a e93c 4b7a b63b
00000290: 08dc 11bd 6b2a c7bc ecd4 d33c 681c b1bc
000002a0: 3a64 b73c a92b 97bc ce00 9c3c 4be7 e93c
000002b0: e82b 80bc 4386 843c ead6 dbbc 21a6 c5bc
000002c0: b715 c23c 6ade c63c 3732 11bb 601a d2bb
000002d0: 6b5d ccbc f339 453c 39a4 ed39 5405 503d
000002e0: 5630 12bc 4544 25bd ca84 83bc a0ca a6bc
000002f0: a00b b7bc c5d8 a5bc 746c 88bb ac76 b9bb
00000300: 1863 88bc 6f20 9eba 7396 a53b 96b2 523b
00000310: 4e57 343c c90f 79bc 98c7 e4b9 219a 283b
00000320: 5e1b 3e3b b00b 013c 5a17 82bb d8c7 9cb8
00000330: d671 5c3c 4e4d 5d3c a442 8fbb 5f76 4cbd
00000340: 7913 683c 8de3 67bc 93e6 1fbc a3a3 c33c
00000350: a6d0 afbc a155 66bc 3c63 f4bc d9f4 4b3a
00000360: e396 9d3c afda 6fbb 062c a13a 8d2a abbc
00000370: 2ca9 a83b 3411 793c fe5e 4839 feac 3b3c
00000380: a9a1 5dbc 74ce 7abb b04a 1f3c 057b 433c
00000390: c470 803c 7cba df3c 5219 de3c 2529 1ebc
000003a0: ead2 45bb 80a1 bc3c db38 3a3c 9d3f 273c
000003b0: 2185 1f3b 0f0c 843c 1c30 803c 5e6f 16bc
000003c0: b8f8 ea3c 109c 333c cff9 593c b6a7 603c
000003d0: 41ad 9abc 2c11 c93b 9c19 063d 5c07 9ebc
000003e0: 8891 72bc 5298 123b 87da 67bc aa31 f3bb
000003f0: 92e2 073d e92d a9bc bde9 01bc fa54 413b
0.024025647 0.019698113 -0.0080901105 0.019660968 -0.0057706586 -0.012802161 0.022546563 -0.014913625
0.0035075154 0.006927606 0.007771032 0.018853948 0.02358219 -0.013346249 -0.0027394695 0.009196451
-0.00040745782 0.0036581722 0.009927905 0.000762749 -0.021121936 0.003608726 -0.017945958 0.017412497
-0.00072818017 -0.017400585 0.018020391 0.052874018 0.010617196 -0.015291811 -0.012318287 -0.027201356
-0.0017722193 0.0015739079 -0.012259307 0.024672706 -0.007931804 0.018294506 0.015783025 -0.0059428844
-0.008053923 -0.013221298 -0.011010057 -0.01724425 -0.010070977 0.0053046173 -0.02204361 -0.014541179
-0.008583668 -0.018565373 0.026346194 -0.020646045 0.004505188 0.015353552 -0.018820513 -0.036748484
0.04749536 0.005641951 0.017740631 -0.014157056 -0.00901955 -0.0026060622 -0.0028565568 -0.021081666
0.012613918 -0.0037848826 0.030250363 0.011883022 -0.017203622 0.021710034 0.01012731 0.008109062
-0.0054493183 -0.013448974 -0.0054446207 -8.3323306e-05 0.02234903 0.020532025 -0.009691455 0.0012904707
-0.01239976 -0.021012746 -0.037472688 -0.017999673 0.031968933 -0.0075612166 -0.010450976 -0.0028794333
-0.010665346 0.0016194087 0.013796103 -0.011670383 0.021784412 0.0073464927 -0.006368879 0.044757977
0.010759892 -0.0007883047 0.00056015624 0.031150118 -0.016080065 0.0004238932 -0.012952065 -0.03123404
-0.015139595 0.009848047 0.0215706 -0.020569034 -0.011309159 -0.029159896 0.018091006 0.06262472
-0.0072368355 0.030137962 -0.0027165192 -0.0011848256 0.015398099 -0.02418412 -0.015189303 -0.009006686
-0.013037455 0.013395975 -0.015639853 0.0035679236 0.015818832 -0.0002847486 0.021263236 -0.012567109
-0.016412392 0.01683227 -0.016537912 0.010386361 -0.017269801 0.027194357 0.0048198258 0.023038115
-0.012572046 -0.016524844 0.029649831 0.0077212383 -0.009277616 0.027856007 -0.02383603 -0.003678787
0.02145264 -0.01887583 -0.0058418117 -0.021169389 0.008807878 0.014229501 0.00050809584 -0.021944558
-0.029746506 0.03433912 0.017106708 0.015216508 -0.014431172 0.012444135 -0.026401926 -0.01375002
-0.0032399218 -0.018888595 0.028493024 0.0055687777 -0.03561023 -0.024312219 0.025858365 -0.02161999
0.022386659 -0.018453436 0.019043352 0.028552672 -0.015645936 0.016177302 -0.026835877 -0.024127068
0.023691995 0.024275977 -0.0022155175 -0.0064118356 -0.024946889 0.012037742 0.00045326518 0.05078633
-0.008922657 -0.04034831 -0.01605453 -0.020360291 -0.02234441 -0.020244965 -0.0041633192 -0.0056598987
-0.016648814 -0.0012064109 0.0050533353 0.0032149903 0.011007143 -0.015201517 -0.00043636258 0.0025726634
0.0029008011 0.007876322 -0.003970069 -7.4758835e-05 0.013454875 0.0135072 -0.004371958 -0.049917575
0.014164799 -0.014153373 -0.009759563 0.023881739 -0.021461796 -0.014058501 -0.029832475 0.00077803206
0.019236987 -0.0036598851 0.0012296445 -0.020894313 0.00514712 0.015201855 0.00019108874 0.011454819
-0.013527312 -0.0038270028 0.009722397 0.011931186 0.01567877 0.027310602 0.027111683 -0.009653364
-0.003018553 0.023026228 0.011366094 0.010208038 0.0024340826 0.016119031 0.01564794 -0.009181825
0.028683051 0.010962501 0.013304188 0.01371186 -0.018881442 0.0061360803 0.032739267 -0.019290619
-0.014805205 0.0022368622 -0.014151222 -0.007421692 0.03317506 -0.020651774 -0.007929263 0.0029500113

1.running_mean f4 [256]
00000000: 3057 3cc3 d9d6 06c2 6f97 ff41 eea3 e8c2
00000010: 30a3 2ac3 c2ad 2243 4745 e3c2 2278 7941
00000020: e6a4 ecc2 936c e9c2 378e 4b43 c79a d6c1
00000030: 49c7 f642 d391 29c3 badf fac2 a6e9 a4c2
00000040: 9f23 8241 64c3 0943 e413 b9c2 2a2f 2ac1
00000050: 3b19 53c3 2a8c 42c2 d00e ce41 b4e6 d4c2
00000060: ddc1 c3c2 120b 8842 a61c 02c2 0f74 6b42
00000070: db7f c842 80c9 6541 3af4 2642 4828 98c2
00000080: ab33 2ec3 1fe3 24c3 b850 bac2 df94 46c3
00000090: 1b76 b340 6465 4bc3 86e5 4142 c1c0 7ec3
000000a0: c992 dac1 e989 e6c1 3ee7 2542 0ce4 d3c1
000000b0: f109 ee42 ec85 1e43 ae35 5bc3 8a13 0e43
000000c0: cb45 ad40 ee44 1ac3 c31e 3d43 f3ac 32c3
000000d0: c8e1 c342 4182 6942 f8b9 2cc2 cb63 ebc2
000000e0: 9a12 b942 9635 db42 1248 5942 2f42 10c1
000000f0: 2018 3c43 083f 8a40 7d24 2dc3 0ce8 0dc2
00000100: 9d1c f7c2 9330 2f43 cc99 9ac2 caab 1dc3
00000110: f066 1842 494f 8142 1b5c 8641 9e57 0c43
00000120: e43e 0bc3 48e3 9840 4064 0fc3 a26a 9b42
00000130: f1c1 1dc3 cdf8 2143 c06c c9c2 7cf0 bfc2
00000140: 2e69 3bc0 1203 2bc2 9296 02c3 dc82 cec2
00000150: 4830 5c43 fc39 5442 b64c cac2 7bfa 55c3
00000160: d238 cfc2 f238 17c1 f9fa 30c2 02e9 94c2
00000170: b070 99c2 a385 9bc3 1050 0e41 80b9 f7c2
00000180: b8fc b7c2 e55d 4243 4f41 e141 0660 1dc3
00000190: fdc1 8442 4bcf 7cc2 af72 cc41 c06a 91c2
000001a0: 12f5 cfc2 16c9 8c42 00ed 33c2 6060 17c3
000001b0: 02af 26c3 1cc9 0042 be01 04c3 f09a 50c3
000001c0: d0ad e9c2 9a17 5943 b8da 88c3 872f c842
000001d0: 47ab 2742 c490 a141 7e1e 9842 f4df 36c3
000001e0: 650a 22c3 5be5 c542 29b3 17c2 dcab 85c1
000001f0: 08c8 96c2 ca69 79c2 dfc8 09c3 d844 4942
00000200: aab0 c7c1 def4 0543 3afc 05c3 93d2 ffc2
00000210: d80e 8cc3 3631 f442 d3e4 d742 8500 dcc1
00000220: 5f02 1ec2 a526 b2c2 f971 3543 9812 80c3
00000230: 1273 6e43 d8e4 c842 5005 07c1 da3f 03c3
00000240: aeda 8f43 17ac 08c3 2d2d 07c2 5969 e941
00000250: 0c51 05c3 7aad 1043 e272 e9c2 02f7 1d42
00000260: 78b1 aa42 1ef1 22c3 6411 c540 1f48 d0c2
00000270: c158 ef42 6339 98c3 d604 0b43 2869 5cc3
00000280: ed4a 56c2 3012 9ac1 6ba8 39c3 2ad3 5f42
00000290: 07f1 2d43 ffe2 79c3 50b2 1e43 b06d a2c2
000002a0: 5c77 aa42 d051 ea42 fba0 9b42 9e14 a742
000002b0: 1f5e a1c1 6def e7c2 b10e 8341 6893 3541
000002c0: b120 3543 92f2 1543 f53e 93c3 1d3d 94c2
000002d0: 81d6 ee42 2292 86c3 8998 fec0 f2ad c642
000002e0: 2a18 c1c1 afa2 89c1 16da f5c2 2f0a 44c1
000002f0: b9af 49c2 f8ab 6140 180d 6fc1 db73 17c3
00000300: 678f 5dc1 bf43 79c2 891d e142 bc8c b5c1
00000310: 5049 17c3 a9a3 0ac2 bbff 34c3 8bc9 b340
00000320: a1f9 09c3 258e 49c3 7a2c 33c2 71c8 7d41
00000330: a9c3 0d43 cff8 1c43 c83d db42 437e 0c41
00000340: e8a8 93c1 c951 33c3 b265 70c3 516a 5342
00000350: dff9 a9c2 c0e8 8e40 c32e 77c1 167c 0843
00000360: 492b 9642 8d61 fec1 3a18 13c3 5207 56c1
00000370: ef8d 7542 393e 0943 887f 8ac0 9fe5 63c3
00000380: d2cf 49c3 c625 45c3 cd7f 10c3 717e 3ec2
00000390: da92 30c3 ddf7 a3c3 4fb7 8fc2 1069 ea42
000003a0: 28f2 9142 aaab 5fc3 e7af 8943 fc8d 4ec2
000003b0: 31ef 0342 38c9 c0c2 cbef 6342 1b71 2042
000003c0: e147 58c3 5639 6fc3 dd46 4ec3 648a ccc1
000003d0: 7481 9bc2 3e8b 3bc2 e32b fec2 6161 a942
000003e0: 324a 4cc3 6adc bec2 4485 8dc2 d59a 66c3
000003f0: a72e 1bc3 de30 f241 367e 25c3 ecdf 7a42
-188.34058 -33.709812 31.948942 -116.320175 -170.63745 162.67874 -113.63531 15.591829
-118.32207 -116.71206 203.55553 -26.825575 123.38923 -169.56963 -125.436966 -82.456345
16.267393 137.76324 -92.53885 -10.636515 -211.09856 -48.63688 25.757233 -106.45059
-97.87864 68.02162 -32.527977 58.86334 100.24972 14.361694 41.738503 -76.078674
-174.20183 -164.88719 -93.15765 -198.58153 5.608167 -203.39606 48.474144 -254.75294
-27.321672 -28.817339 41.475822 -26.486351 119.01942 158.52313 -219.20969 142.07632
5.4147696 -154.26926 189.12016 -178.67558 97.94098 58.3772 -43.18161 -117.69491
92.53633 109.60466 54.32038 -9.016158 188.09424 4.3201942 -173.14253 -35.47661
-123.555885 175.18974 -77.300385 -157.67105 38.100525 64.654854 16.794973 140.34225
-139.24567 4.7777443 -143.3916 77.70827 -157.75758 161.97188 -100.7124 -95.969696
-2.9282947 -42.753 -130.58817 -103.255585 220.1886 53.056625 -101.149826 -213.97844
-103.61098 -9.451403 -44.24509 -74.45509 -76.72009 -311.04404 8.8945465 -123.862305
-91.99359 194.36678 28.156889 -157.37509 66.37888 -63.202435 25.555998 -72.708496
-103.97865 70.392746 -44.981445 -151.37646 -166.68362 32.196396 -132.0068 -208.60522
-116.83948 217.0922 -273.70874 100.09283 41.917263 20.195686 76.059555 -182.87482
-162.0406 98.94796 -37.92496 -16.708916 -75.390686 -62.35331 -137.78465 50.31723
-24.961262 133.95651 -133.98526 -127.91128 -280.11597 122.096115 107.94692 -27.500254
-39.502316 -89.07548 181.4452 -256.14526 238.4495 100.44696 -8.438797 -131.24942
287.70844 -136.67223 -33.794117 29.17644 -133.31659 144.67764 -116.72438 39.49122
85.34662 -162.94186 6.158373 -104.14086 119.67335 -304.44833 139.01889 -220.41077
-53.57317 -19.25888 -185.65788 55.956215 173.94151 -249.8867 158.69653 -81.21423
85.23312 117.15979 77.814415 83.54027 -20.170958 -115.96763 16.382174 11.348488
181.1277 149.94754 -294.49185 -74.11936 119.41895 -269.14166 -7.95612 99.33974
-24.136799 -17.204435 -122.92595 -12.252486 -50.421604 3.5261211 -14.940697 -151.45256
-13.84751 -62.31616 112.557686 -22.693718 -151.28638 -34.659824 -180.99895 5.6183524
-137.97511 -201.55525 -44.793434 15.861436 141.7643 156.97191 109.62067 8.780826
-18.457474 -179.31947 -240.39725 52.853825 -84.98803 4.465912 -15.448916 136.48471
75.08454 -31.797632 -147.09464 -13.376787 61.388607 137.24306 -4.328068 -227.89696
-201.8118 -197.14755 -144.49922 -47.623478 -176.57364 -327.93643 -71.858025 117.2052
72.97296 -223.67056 275.37424 -51.638657 32.983585 -96.393005 56.984173 40.110455
-216.28078 -239.22397 -206.27681 -25.567574 -77.75284 -46.88598 -127.08572 84.69019
-204.28983 -95.4305 -70.760284 -230.60481 -155.18224 30.27386 -165.49301 62.718674

1.running_var f4 [256]
00000000: a540 be47 5502 9446 19c5 2446 cd63 3a47
00000010: ee67 9d47 5283 9a47 0660 1747 c15d 5b46
00000020: 16de 4247 d3a1 4047 830f d747 0ff2 c746
00000030: 7a6d 3a47 da0d 9f47 c6cd 4947 a8d3 f746
00000040: 6887 ae46 d7ed 5447 ff1b fc46 d62c 9d46
00000050: 4505 f147 6037 8c46 6a82 4b46 039e 2647
00000060: a7ab dd46 418a dc46 a9d1 8046 4a43 8446
00000070: 1ad0 0747 a701 9b46 0e33 b246 abba cc46
00000080: 5503 a047 40f7 8e47 a0a2 f846 1cb3 cf47
00000090: 8744 f745 1a14 d947 bd8d 9846 0100 1e48
000000a0: 5db9 1046 5032 a646 53cd 4346 a953 7e46
000000b0: 511b 2c47 591b 8547 2ad9 f347 171a 6247
000000c0: 27a5 5346 85ab 8447 5af6 bf47 8ca1 a647
000000d0: 8f5e 0e47 a2ae 9546 2983 9646 a67f 2d47
000000e0: e111 0047 74dc 0e47 aff2 5a46 0dff 3046
000000f0: e5f1 c147 d94f 7845 93d9 9e47 f163 9d46
00000100: 314a 3d47 9f8d a847 dbfd c146 3712 9347
00000110: bfa6 8d46 aeaa a546 8a44 d745 b4b9 6547
00000120: 0c2b 6847 cace 8546 4117 7547 499c c446
00000130: 92c4 7f47 e468 8947 1578 f446 6552 ec46
00000140: ded4 6a46 6bfe 7f46 699f 4f47 7407 1247
00000150: 27af ec47 1ca4 7b46 2656 0447 09ba e347
00000160: 7a1d 0047 3aac 5946 f123 7046 45be bc46
00000170: ea06 cb46 9035 6548 e6d5 a246 c1aa 2547
00000180: d60b fa46 ea49 ca47 eb02 1146 1800 8c47
00000190: 736b 8a46 2883 9346 ffc7 e945 39f8 9b46
000001a0: ac89 1347 0b46 9d46 de1b 8946 ba61 8347
000001b0: 6fe6 9647 d846 9c46 353c 4f47 ac3d d747
000001c0: 1433 3247 2ac2 fa47 d917 3348 63e6 fb46
000001d0: 062b 1046 6e32 fd45 5dc2 d446 8efa be47
000001e0: 5327 8647 8d5b 0447 cb61 7d46 dc1c 1046
000001f0: 32ca 7a46 d981 a246 5f94 7547 7ccb a046
00000200: 9c2d 5646 b77c 4547 912e 5247 eed8 5547
00000210: 912d 4448 8053 5947 9111 0947 621a 2946
00000220: 8dc9 6e46 3748 c546 c3a4 b447 da07 1c48
00000230: 6edd 0e48 db32 0f47 51d8 5046 e5e9 4f47
00000240: 239c 4648 2953 4e47 717f 7946 2737 6846
00000250: 10b4 6d47 a931 7347 012e 3647 7581 4e46
00000260: 5eb6 c646 575f 8747 3f17 4046 9a92 1347
00000270: 41ef 3047 ea79 6748 9e78 6047 84af f847
00000280: 7c83 a246 981f 7446 b4be b347 aa88 ba46
00000290: 949a 9f47 bc7c 2148 fa4e 7d47 5197 d346
000002a0: a582 0147 1750 1c47 f045 0547 dab7 c546
000002b0: 9802 1746 b8cf 3b47 3497 9546 91fc c945
000002c0: 2132 aa47 89d3 6e47 ebfd 5148 bdea c446
000002d0: 6641 2547 b674 3448 ea77 1c46 0914 0647
000002e0: aa73 7846 d6ac 1c46 26c9 4947 f9a8 3446
000002f0: d0c7 9546 749c 1846 d07d 1146 9809 8047
00000300: 3171 5a46 8d3c 8046 bbc3 1847 f9bd 2e46
00000310: 91db 7f47 bdb9 7c46 0525 aa47 3fe1 6746
00000320: 742d 5447 5ea7 cd47 e024 b246 f8b6 7a46
00000330: 74e8 6147 68a7 8647 4456 2447 9b63 2546
00000340: c861 5c46 54b4 a847 0a4d 0c48 3b74 7346
00000350: 448d bf46 703d 8145 1f25 7246 18fd 5747
00000360: b80d d946 fd6f 6f46 e7d6 5f47 c985 1f46
00000370: 2b81 4946 1646 4747 e6d8 2d46 d421 0548
00000380: 05b4 d847 0181 c147 8923 6d47 97ee 9046
00000390: c41c a147 0ce6 7d48 6051 de46 358c 2147
000003a0: 4991 9146 f149 f347 84b2 3b48 9afb bc46
000003b0: ce3c 9446 925e 0d47 e715 3846 fade 4946
000003c0: b37f ee47 2d76 1048 d677 d947 364a f245
000003d0: 3253 b846 59d6 a646 e5dc 2e47 8d35 f846
000003e0: 0c48 e447 e853 0947 df58 a646 0c26 0148
000003f0: aacc 7b47 b277 2a46 bc33 9547 2860 ae46
97409.29 18945.166 10545.274 47715.8 80591.86 79110.64 38752.023 14039.438
49886.086 49313.824 110111.02 25593.03 47725.477 81435.7 51661.773 31721.828
22339.703 54509.84 32269.998 20118.418 123402.54 17947.688 13024.604 42654.01
28373.826 28229.127 16488.83 16929.645 34768.1 19840.826 22809.527 26205.334
81926.664 73198.5 31825.312 106342.22 7912.566 111144.2 19526.87 161792.02
9262.341 21273.156 12531.331 16276.915 44059.316 68150.695 124850.33 57882.09
13545.288 67927.04 98284.7 85315.09 36446.56 19159.316 19265.58 44415.65
32785.88 36572.453 14012.671 11327.763 99299.79 3972.9905 81331.15 20145.97
48458.19 86299.24 24830.928 75300.43 18131.373 21205.34 6888.5674 58809.703
59435.047 17127.395 62743.254 25166.143 65476.57 70353.78 31292.041 30249.197
15029.217 16383.6045 53151.41 37383.453 121182.305 16105.027 33878.15 116596.07
32797.477 13931.057 15368.985 24159.135 25987.457 234710.25 20842.95 42410.754
32005.918 103571.83 9280.7295 71680.19 17717.725 18881.578 7480.9995 19964.111
37769.67 20131.021 17549.934 67267.45 77260.87 20003.422 53052.207 110203.34
45619.08 128388.33 183391.39 32243.193 9226.756 8102.3037 27233.182 97781.11
68686.65 33883.55 16216.448 9223.215 16050.549 20800.924 62868.37 20581.742
13707.402 50556.715 53806.566 54744.93 200886.27 55635.5 35089.566 10822.596
15282.388 25252.107 92489.52 159775.4 146293.72 36658.855 13366.079 53225.895
203376.55 52819.16 15967.86 14861.788 60852.062 62257.66 46638.004 13216.364
25435.184 69310.68 12293.812 37778.6 45295.254 237031.66 57464.617 127327.03
20801.742 15623.898 92029.41 23876.332 81717.16 165362.94 64846.977 27083.658
33154.645 40016.09 34117.938 25307.926 9664.648 48079.72 19147.602 6463.571
87140.26 61139.535 215031.67 25205.37 42305.4 184786.84 10013.979 34324.035
15900.916 10027.209 51657.15 11562.243 19171.906 9767.113 9311.453 65555.19
13980.298 16414.275 39107.73 11183.493 65499.566 16174.435 87114.04 14840.312
54317.453 105294.734 22802.438 16045.742 57832.453 68942.81 42070.266 10584.901
14104.445 86376.66 143668.16 15581.058 24518.633 4135.6797 15497.28 55293.094
27782.86 15323.997 57302.902 10209.446 12896.292 51014.086 11126.225 136327.31
110952.04 99074.01 60707.535 18551.295 82489.53 259992.19 28456.688 41356.207
18632.643 124563.88 192202.06 24189.8 18974.402 36190.57 11781.476 12919.744
122111.4 147928.7 111343.67 7753.2764 23593.598 21355.174 44764.895 31770.775
116880.09 35155.906 21292.436 132248.19 64460.664 10909.924 76391.47 22320.078

4.weight f4 [128, 256]
00000000: 1dbd 87bd 4e0a 603d 6154 3b3d 5e4a 98bd
00000010: 9522 8bbd 8864 7d3d 44de 0abd 2b67 01bd
00000020: 8c59 e63c df2f 92bb 71c1 66bd 733e 88bc
00000030: 136e 19bd adef 573c a7ce f63c 936f 3cbc
00000040: 70aa 3ebd 1e45 18bc e0db c1bc 273c 223c
00000050: 23d9 873c 8976 32bd 1092 1e3d 5cf1 4fbd
00000060: ce64 41bd 744c 44bd b9a3 253d 65c5 39bd
00000070: 4736 593d 92c2 2e3d f2fd 363d 2b62 8abc
00000080: ecb8 34bd 57be 84bd ee2f 343d 70d7 75bd
00000090: 9532 2bbd c8d1 f43a 4399 953c c847 bfbb
000000a0: 9c0a ae3c 99ff e83c 414e 1b3d 89fb 49bc
000000b0: 5468 26bd 597a 6f3c 3a9b 25bd c9d4 14bd
000000c0: 1007 afbd 26d3 cb3a c032 fb3c 1cb3 143d
000000d0: 42b6 803d 0d42 973a 84f0 283d e388 8ebd
000000e0: acc3 3a3d a268 873c 01dc f2bb c579 413d
000000f0: b57a f83b ca0d 2abd fb41 783c 2505 173d
00000100: e85d 1cbd 0b7f 8ebc 4a28 7ebd 1d26 99bd
00000110: 4ec4 b13c 58cf bcbc d412 fd3b 4a10 87ba
00000120: 8fed 263d 5653 d1bc 19a9 2b3d 8f66 66bd
00000130: 7499 0cb9 5e16 113d 2004 f0bc c7e7 95bd
00000140: 9d4f 033d 1ccc 463c 8ec4 05bd 928f 84bd
00000150: 52bc 223d 517d 86bb ff4c 92bd f990 343d
00000160: 7176 96bc e757 913b b45e 30bd 5e07 1d3d
00000170: 1bed 36bc 7ffa 3fbd bdba c33c 602a 29bb
00000180: ade4 d53c 9c60 9cbc d613 803d bc21 26bd
00000190: c08c c43b 3f85 80bd debb 1a3b c137 313d
000001a0: 0a7f 473d 5345 773c ff85 62bc 6df5 71bd
000001b0: 120a 71bd 8cbe 073d 686c 043d b2ac 433c
000001c0: 2173 3f3c 13e0 043d d1f3 74bd 275b 01bd
000001d0: 3078 0e3d 7e1f babc efac a2bc 7a87 89bc
000001e0: dcfd 1abd 3c87 a13c 7dba 8cbb 7fc7 06bd
000001f0: 7364 d8bc a58f 87bd d064 d4bb 7e07 7cbc
00000200: f2af 7abc cc60 d7bc 7881 023d 6fc9 65bd
00000210: 3e86 94bd 22e0 26bd e509 263d 920e 133d
00000220: cb3f b43c 5cf1 3c3d 52bb a93c bce8 63bd
00000230: cc89 583d e4fd 7a3c 49bb 89bd 1de8 ea3c
00000240: 52cc b03c 4e17 01bc a42b 473c 8c06 823c
00000250: e563 3ebd 5120 c0bc e077 87bd 178e 373c
00000260: ae62 49bc fd29 dc3c cdb1 01bc 70d1 49bc
00000270: 19b5 4dbd e80a babc 1bac fbbc 9fab 9abd
00000280: 3402 82bc 381f 233c 2bad 143d bb6b cdbc
00000290: 8a72 a4bc 092e 80bc 2cba 91b8 95d4 8cbd
000002a0: 615b 61bd 2bb7 adbc 9359 893c ad11 4c3c
000002b0: dcb9 2e3d 5bac 8abd 1d4c 283c 973f 62bd
000002c0: a8fd 70bd 96cf 183d 5107 99bc 873f 10bd
000002d0: 8f6b 1cbd f43f 4a3c 52f0 673d 93e0 57bd
000002e0: 3233 023c d68b 53bd b09b 0938 f32a fdbc
000002f0: ad5b 94bc 5f8c 2a3d 809d 553d f01a 3f3d
00000300: 9576 c7bd 6d32 1dbd e759 23bd f410 053d
00000310: 7459 4bbd 827b eabc c744 abbc d275 8fbd
00000320: a744 95bd e7d9 cc3c 883b 5fbd 5ee4 32bd
00000330: de4b 863c dff6 d13c 4f07 d6ba 8c7b 17bd
00000340: c1dc 163d 4051 f13b 372a 40bd aee9 69bd
00000350: ce7d 3bbd 7027 233d fa99 3abd b704 203d
00000360: a39a 253d 2771 8fbc a94d 253d 2fcc 0abd
00000370: b55c b4bb af9a 3dbd e336 2c3d 06eb 433d
00000380: 0aba edbc 2e40 57bc c686 253d 1fe9 0f3d
00000390: 15a8 71bc 6f9c 82bd d9d8 5bbd 338d 36bd
000003a0: 231f d13a 881b 1a3d 48cd d8b9 791a 7ebb
000003b0: bc0e 82bd a7d5 4cbd ccb1 73bd 0763 3cbd
000003c0: f23a 0d3d 7404 d73c 430c 5bbd 529d a1bc
000003d0: f301 223d 85f1 4abd c38a 86bd 4f89 f63c
000003e0: ad8f 363d ec0f cf3b 0cf8 c2bc 137e adbc
000003f0: 14a7 6e3c e647 2cbd c35f 9cbc 645c 1f3b
-0.06627867 0.054697327 0.045734767 -0.074360594 -0.067937054 0.061863452 -0.033903375 -0.03159253
0.028118871 -0.004461273 -0.056336824 -0.01663134 -0.03745849 0.013179702 0.030127836 -0.011501211
-0.04654926 -0.009293823 -0.023664415 0.009902037 0.016583031 -0.043570075 0.038713515 -0.050767288
-0.047215275 -0.047924474 0.04043934 -0.045354266 0.05303028 0.042666025 0.044675775 -0.016892513
-0.044121668 -0.06481617 0.04399102 -0.06001991 -0.041796286 0.0018678242 0.018261557 -0.0058374144
0.021245293 0.028442191 0.037916426 -0.012328037 -0.04062684 0.014616572 -0.04043124 -0.03633574
-0.08546269 0.0015550598 0.030663848 0.036303625 0.06284763 0.001154007 0.041245 -0.06959703
0.045596763 0.016529385 -0.0074114804 0.04723527 0.007582987 -0.041517057 0.01515245 0.03687014
-0.038175493 -0.017394563 -0.06205014 -0.07477973 0.02170005 -0.023048088 0.0077231918 -0.0010304537
0.040753897 -0.025552433 0.04190931 -0.05625015 -0.00013408606 0.03542172 -0.029298842 -0.07319599
0.032058347 0.012133624 -0.032658152 -0.06472696 0.039730377 -0.0041042943 -0.07143592 0.04408357
-0.018367024 0.0044355276 -0.043059066 0.038337104 -0.011164929 -0.04686975 0.023892755 -0.002581261
0.026110018 -0.019089036 0.062537834 -0.040559515 0.005998224 -0.06275415 0.0023610513 0.04326606
0.04870514 0.015092212 -0.0138258925 -0.059071947 -0.058847494 0.033140704 0.032329947 0.011943029
0.011685164 0.032440256 -0.059802834 -0.03158107 0.03478259 -0.022720095 -0.019857852 -0.016788233
-0.037839755 0.019717805 -0.004294692 -0.032905098 -0.026415085 -0.06619195 -0.0064817443 -0.015382646
-0.015300738 -0.026291274 0.031861752 -0.056100305 -0.07252167 -0.040741093 0.04053678 0.035902567
0.022003075 0.046128616 0.020719204 -0.055641875 0.05286579 0.015319321 -0.06725175 0.028675133
0.021581803 -0.007879091 0.012156401 0.015872262 -0.046481986 -0.02345291 -0.06614661 0.01120331
-0.0122915935 0.02687549 -0.007915926 -0.012318 -0.050221536 -0.022710279 -0.030721715 -0.075522654
-0.015870191 0.009956174 0.03629796 -0.025075784 -0.020074148 -0.015646951 -6.948816e-05 -0.06876484
-0.055018786 -0.021205505 0.016766345 0.012455386 0.042657718 -0.067711554 0.010272053 -0.055236425
-0.058835655 0.037307344 -0.018680247 -0.035216834 -0.038188513 0.012344349 0.05662567 -0.052704405
0.007946776 -0.05164703 3.280834e-05 -0.030904269 -0.01811012 0.041637775 0.052152157 0.04665655
-0.097394146 -0.038378168 -0.03988066 0.03248687 -0.049645856 -0.028623346 -0.020906819 -0.07004894
-0.07288485 0.025006248 -0.054500133 -0.04367482 0.016393598 0.025630413 -0.0016329082 -0.036983058
0.03683162 0.007364422 -0.04691526 -0.05710762 -0.045774274 0.039832532 -0.045557 0.039066996
0.040430676 -0.01751001 0.040357266 -0.03388613 -0.0055042156 -0.046290096 0.04204453 0.047831558
-0.029019374 -0.01313786 0.040411733 0.03513443 -0.014749547 -0.063774936 -0.0536736 -0.04456825
0.0015954714 0.037623912 -0.00041351677 -0.0038773103 -0.063504666 -0.050008442 -0.059495732 -0.045992877
0.034480043 0.02624724 -0.05347849 -0.019728336 0.03955264 -0.049546737 -0.065694354 0.03009477
0.044570614 0.0063190367 -0.023799919 -0.021178281 0.014566202 -0.042060755 -0.019088631 0.0024316544

4.bias f4 [128]
00000000: e8e1 713d fc01 60bd 180b e6bb 1a87 48bd
00000010: ce1a 49bd 611f 263d 2614 cb3a 7952 223d
00000020: 6e0b 07bc 9b74 013d 1b97 bc3c 0fbb 303d
00000030: 70c4 22bd c03c 9a3b 372d 7dbd a188 1abb
00000040: e6ab 25bd f833 653d 0c7c bebc 9fdf 35bd
00000050: 6c3d 243d 9541 6cbd 50d8 6e3c 8f96 2abd
00000060: 3ff4 003d cfe0 143d fe91 2cbc 6047 fd3c
00000070: 0e9f 99bb 8b02 5c3c a609 3abd 2e63 243d
00000080: b80f 6e3c 093b 6abc 548e 453d 8785 0fbd
00000090: 9758 ed3a b684 e13c 0a81 a7bc ab4e cfbc
000000a0: a556 633d 363f e9bc 6281 203d 137d 263c
000000b0: e603 1fbd 5aa8 943c 0ee1 43bd 4ef3 33bd
000000c0: bb89 843c c759 593d 0a4c 2a3b 9867 29bd
000000d0: f6b8 f6bb fd6c 72bd ddd3 adbc bcf5 71bd
000000e0: c72c 5e3c a559 05bd 0753 41bd faeb 57bd
000000f0: d964 753d c736 67ba 9481 66bd 104d 35bd
00000100: d66a 9bbc 8585 40bc a140 2abd da07 d9bb
00000110: 0503 e3bc 9cf0 11bd 709d 583d 29fb 4abd
00000120: 9581 b3bb 39c2 dabc 2af1 2e3d ddd5 503d
00000130: 421f 0abc cb1b 6abd be5f 403d 17ed 29bd
00000140: 7b6c 68b9 a189 cdbc a5b9 763d 105b 0bbd
00000150: 6c4c f33c ebe3 a7bc 7ac3 20bd 434b 9bbb
00000160: 2927 8539 6f60 483d 6141 45bc 97ca 153c
00000170: 75ef 5ebd 223d 84bc 9f79 81bc f94d 64bd
00000180: 884a 583c 5653 65bd 4a6b 953c 2938 773d
00000190: 1106 67bd 32a0 9939 89f5 753d a09a 46bd
000001a0: c2cf 42bd 4b22 323d 9c55 853a a2f6 3cbd
000001b0: 1c43 71bc 777a 743d 37af 643d 79ab db3c
000001c0: 45b5 b9bc 16b0 ddbc b881 f3bc 9222 e4bc
000001d0: 57f4 583d b266 48bd bd78 123d b89f 473d
000001e0: 187e 063d 9ae1 6f3d 60e4 323d 5c8d e63c
000001f0: 189c ec3c d20e a23c d824 183d 101f 6fbc
0.05905333 -0.054689392 -0.0070203654 -0.048956968 -0.04909783 0.04055727 0.0015493676 0.039629433
-0.008242471 0.031605344 0.023021271 0.043147143 -0.03973812 0.004706949 -0.0618107 -0.0023579972
-0.04044714 0.055957764 -0.02325251 -0.044402715 0.04009764 -0.05767973 0.01457794 -0.04164749
0.03148293 0.036347207 -0.010532854 0.030917823 -0.0046881502 0.013428341 -0.045419358 0.040133648
0.014530115 -0.014296302 0.048231438 -0.03503945 0.0018108067 0.027529102 -0.020447273 -0.025306066
0.055502553 -0.028472524 0.03918589 0.010161656 -0.038822077 0.018146683 -0.04782205 -0.043933205
0.016178956 0.053064134 0.0025985264 -0.04135856 -0.0075293733 -0.05918597 -0.021219188 -0.05907224
0.01356048 -0.032556195 -0.04719832 -0.05271528 0.05991063 -0.0008820113 -0.05627592 -0.044262946
-0.018971842 -0.011750584 -0.04156554 -0.0066232504 -0.0277114 -0.035629854 0.05288452 -0.04955593
-0.005478094 -0.02670394 0.04271046 0.050985206 -0.008430304 -0.05715541 0.046966307 -0.041485872
-0.00022165656 -0.02509004 0.06023564 -0.03402239 0.029699527 -0.020494422 -0.03924892 -0.0047391965
0.00025396913 0.04892009 -0.012039513 0.009142539 -0.054427583 -0.016142432 -0.015805064 -0.055738423
0.013201363 -0.05598768 0.018239636 0.060356293 -0.05640227 0.0002930179 0.060048614 -0.048487306
-0.047561415 0.043489736 0.0010172608 -0.046133645 -0.014725473 0.059687104 0.05583116 0.026815163
-0.022669444 -0.027061503 -0.02972494 -0.027848516 0.052967396 -0.048926063 0.035759676 0.048736304
0.032835096 0.05856476 0.043674827 0.028143577 0.028883025 0.019782458 0.037144512 -0.014594808

5.weight f4 [128]
00000000: 04b4 753f e73a 783f 207f 833f f974 833f
00000010: 6d46 803f 5cbd 8c3f 45f9 803f f77c 7a3f
00000020: 0c6c 803f 2aff 823f 3d6b 813f dab6 7e3f
00000030: 712a 743f d34f 813f c43d 763f 6dcf 7d3f
00000040: 387f 833f e776 773f b826 813f e089 7d3f
00000050: 022c 853f 09eb 823f eeab 7a3f dd31 7b3f
00000060: 5f34 803f 9961 7f3f 2d3b 8d3f a713 7d3f
00000070: 0e00 7d3f 6708 7d3f 16d7 6d3f fec4 833f
00000080: 21ad 8e3f 99e1 913f e687 7d3f 62fb 823f
00000090: cfe9 773f e1ce 733f f967 733f f462 843f
000000a0: 0e20 7d3f 6637 883f 1478 753f 99cf 8a3f
000000b0: 9ab7 7a3f dce0 7a3f 1ec0 7b3f 1272 873f
000000c0: c2db 7e3f 86bd 8f3f 8872 823f 643c 913f
000000d0: 5630 803f d356 803f c154 893f b90b 803f
000000e0: 4e8b 803f 3ecf 763f 1f15 8c3f 6ae9 823f
000000f0: f30d 7e3f 146f 7a3f ad09 853f 66c5 7e3f
00000100: 6c79 7e3f 119d 773f d6a8 7b3f 7bfd 7c3f
00000110: ee11 7f3f 834c 8f3f f15f 7a3f 3cc8 813f
00000120: f879 843f 1dc8 793f 904a 7b3f aa83 813f
00000130: 813b 833f c41b 843f c288 803f 57b2 7c3f
00000140: 39dd 853f 3f95 833f e459 813f 59b3 823f
00000150: bed2 853f dff8 743f b292 833f 1544 7b3f
00000160: 3f27 8b3f 04ba 813f 787f 7f3f d22f 8c3f
00000170: b5e7 723f 42bc 7f3f fa9e 7f3f f835 853f
00000180: 4980 7d3f 53c9 803f 0a85 733f b72f 833f
00000190: 29f1 8f3f 6c5f 7b3f f2a5 803f 9480 7d3f
000001a0: 5516 813f 9492 7c3f b27e 843f 61ca 813f
000001b0: 2f0d 853f a935 873f ea12 803f fddb 823f
000001c0: e5c2 743f 95a8 7e3f f981 7b3f 793e 7b3f
000001d0: 87c2 813f eb66 813f 5802 823f b1a5 773f
000001e0: 4175 7e3f 4765 843f 83c4 853f 1e5a 7f3f
000001f0: 0e21 773f 91a6 783f ee44 8d3f 7474 7d3f
0.9597781 0.9696488 1.027317 1.0270072 1.0021492 1.0995288 1.0076071 0.9784693
1.0032973 1.023412 1.0110852 0.9949776 0.9537726 1.0102485 0.96187997 0.9914463
1.0273199 0.96665806 1.0089941 0.99038506 1.0404055 1.0227977 0.97918594 0.9812296
1.0015982 0.997583 1.1033684 0.9885811 0.9882821 0.98840946 0.9290632 1.0294492
1.1146585 1.1396972 0.9903549 1.0232966 0.9684114 0.9523755 0.95080525 1.0342698
0.98877037 1.0641906 0.9588635 1.0844604 0.97936404 0.9799936 0.9834002 1.0581686
0.99554074 1.1229713 1.0191202 1.1346555 1.0014751 1.0026497 1.072899 1.0003577
1.0042512 0.96409976 1.0943946 1.0227482 0.99240035 0.9782574 1.0393578 0.99519956
0.99404025 0.9672404 0.983045 0.9882428 0.99636734 1.1195225 0.97802645 1.0139232
1.0349722 0.97570974 0.9816065 1.0118306 1.0252534 1.0320973 1.0041735 0.98709625
1.0458137 1.0279921 1.0105557 1.0210983 1.0454938 0.9569225 1.0279143 0.9815076
1.0871352 1.0134892 0.99803877 1.0952094 0.94884807 0.99896634 0.99851954 1.0407095
0.9902387 1.0061439 0.95124876 1.0248936 1.1245471 0.9819248 1.0050642 0.9902432
1.008494 0.9866116 1.0351164 1.0139886 1.0394648 1.0563251 1.0005772 1.0223385
0.95609885 0.99475986 0.982452 0.981422 1.013749 1.0109533 1.0156965 0.967372
0.99397665 1.0343407 1.0450596 0.9974688 0.9653481 0.9712916 1.1036661 0.9900582
