resources/models/3_by_3/Softmax_model_v100.pth (torch, 197554 bytes, 26 tensors)

0.weight f4 [256, 6]
00000000: f724 e3bc 2e23 bf3e dcb3 1fbb f163 b6be
00000010: f6c4 9c3c 50e7 c6be 4f87 c5be e8c8 25be
00000020: 2890 91bd a7cc a93e 40b9 8dbe ced3 82be
00000030: a3a4 b73e b0aa 823e c8cb c03e d10f 5abe
00000040: b5de 5e3e 6465 293e fc68 9bbe 1ed1 7b3a
00000050: ed7b cabe a0d8 0abe ec8e 44be d279 c0be
00000060: 91ed 30be dd33 93be 98fb 62be 8561 933d
00000070: d6c3 a73e 4225 4cbd 087d 8fbe 5aaa 853e
00000080: 8deb 413e 236b bcbe 1242 a6be 9ee7 fb3d
00000090: 4fe2 593d 5f10 893e 6d5c 9c3e 505c 91be
000000a0: d6a0 b2bd 33ad acbe b7b3 8fbe d59a a33e
000000b0: 8e85 5a3c e630 94bb c3b8 9cbe 84a1 0cbd
000000c0: aa8c 013e 2643 e5bd f404 9abe 2cce 84bd
000000d0: ac6d ba3d 935e 04be 69d7 cb3d 7a14 cfbe
000000e0: 4c38 41bd 870c aabe b0ce c33e 1edd 64bd
000000f0: 8c4e bf3e 5ebf 813d 95e3 edbd d200 aebe
00000100: abfd 9e3e 8721 a83e afa7 dbbd a55c a33d
00000110: 9085 e6bd 6caa 9fbe 50b2 793e ec7d 8d3d
00000120: 6b56 a7be b09f 93be d80f 04bc a4bc b83e
00000130: 7d5b e5bd 4a28 debc 9b33 533d 9a2e 65be
00000140: a451 c9be 3df3 b2be e5ed 69be 0283 13bd
00000150: 0e0a d03e 7c2f 0b3d e4db 19be 0087 c83e
00000160: 49a1 2dbe 327b fdbd 56a6 95bd 1bdd c5be
00000170: 5809 acbd 3226 b2be 7ec3 42be f7ca c3be
00000180: fa92 a53e 2f47 713c 0880 babe 1f48 a5be
00000190: 014c 983d 44ed 79be 8478 ebbc eb8b cbbe
000001a0: d6ac 8c3e 89c4 9abe 9597 22be 972e a83d
000001b0: 475f 95be 892e 10be 87c3 2a3e c4f7 1dbc
000001c0: 1514 823e 99bf bebe 5d8b 9c3d d610 ae3d
000001d0: 2205 2dbe 66cf 0abe ac51 84be b644 0f3e
000001e0: f9aa 8e3e 1d05 6d3e c11a c53e be68 c33e
000001f0: b2cd 983e 0106 f6bb 0392 343e 83c2 913e
00000200: c161 1a3e 5229 b3be 29e5 0ebe f2fc c43d
00000210: 373b ffbd be9a 94be b91c c4be fe93 2ebe
00000220: 2ef9 353c ff5a 8d3d 8e8d a13e 07b8 2a3e
00000230: ce3f 81be 6af3 c63e aa97 2a3e 4567 0abe
00000240: 1d42 7d3e 8863 933e 4807 443e 45b4 2dbd
00000250: e532 b33e 9300 2f3c 8306 0d3d d1ab 393e
00000260: aa85 99bd a62a dbbd c544 e13d 52ea 50bd
00000270: b6e3 bc3e 93bf 813e dcab c23e b95d 9cbe
00000280: 433b 8a3d 86d6 793e d532 bebe c6f5 4c3e
00000290: da63 0cbe 711f 8b3c 6edf c23e 161e 62bd
000002a0: 7346 e03b c5e2 92be 7abf 3dbd 727b 9b3e
000002b0: 699e ccbe b782 3abd 767c d1be 84f6 be3e
000002c0: d777 cebe a15f 37be 572d 6d3d a2ff 4a3e
000002d0: 2815 c43e ea11 08be 35b3 87be bbd6 87be
000002e0: 4985 81b8 739b c73d d346 a33e 5f57 893e
000002f0: 1015 22be 0482 ae3e 22bf 32bd 6d71 a0be
00000300: e324 093e c6b4 0d3e e4b9 8f3e 7d5d 983d
00000310: 2a3b cdbe c17a ff3c 4b32 13be b14c d23e
00000320: a87a 393e 0557 593e 711f cbbe 9397 513e
00000330: 54e4 613e 03df 6c3d 2108 bdbe bd88 9ebe
00000340: 3f0f ac3e 6fcc bc3e 693e 223e 3dae b93e
00000350: 6be3 56be 8b9e e33d 8db8 b4be cd11 6f3d
00000360: e6ac 3abe 64de 893e 7229 43be 18c0 b03e
00000370: 0ffb 9b3e ec52 c43e d291 713e a938 34be
00000380: be98 26be a9de 9fbe 1cce 5ebe 6504 8bbe
00000390: ddfc f2bd 1cb8 2cbe e9c3 2e3e 50e4 0a3c
000003a0: 8f5b 99be 27ad c2be 0427 813e bbdc 8fbd
000003b0: f8b5 f73d 12f2 ad3e b6d4 873e 8976 5d3e
000003c0: 4036 bd3e ec34 193e 4d77 80be e39e c1be
000003d0: 4790 84bd c329 afbe 0529 d33d 0dbc a4be
000003e0: 4132 c8be 2256 51be bc80 84be e964 983b
000003f0: 1116 a83e 19e3 43bd a6ec 02be fd64 a53d
-0.027727587 0.37331527 -0.002436868 -0.35623124 0.019136887 -0.38848352 -0.38579795 -0.16189921
-0.07107574 0.3316395 -0.27680397 -0.2555222 0.35867795 0.2552085 0.37655473 -0.21295096
0.21764643 0.16542584 -0.30353534 0.0009606051 -0.39547673 -0.13559198 -0.19195145 -0.37592942
-0.17278124 -0.28750506 -0.22166288 0.07196335 0.32766598 -0.04984022 -0.2802508 0.2610653
0.18937512 -0.3680049 -0.32472283 0.12300037 0.05319434 0.26770303 0.30539265 -0.2839074
-0.08722083 -0.3372589 -0.280668 0.31954065 0.013337506 -0.0045224307 -0.30609712 -0.03433372
0.12651315 -0.11194448 -0.30081904 -0.06484637 0.091029495 -0.12926702 0.099531956 -0.4044531
-0.04717283 -0.33212683 0.38243628 -0.055874936 0.37364614 0.063353285 -0.116156735 -0.33985
0.31052908 0.3283808 -0.107253425 0.07976655 -0.11255944 -0.3118471 0.24384427 0.06908783
-0.3268312 -0.2883277 -0.008060418 0.3608142 -0.11199091 -0.02711882 0.051562887 -0.22381058
-0.393201 -0.349512 -0.22844656 -0.03601361 0.4063267 0.03398083 -0.15025288 0.39165497
-0.16956057 -0.12377013 -0.07307117 -0.38645253 -0.0840022 -0.34794766 -0.19019887 -0.38240787
0.32338697 0.014726444 -0.36425805 -0.32281587 0.074363716 -0.24406916 -0.02874399 -0.39755186
0.27475613 -0.3022807 -0.15878136 0.08212011 -0.29174253 -0.14080252 0.1667615 -0.009641591
0.25405946 -0.37255552 0.07643769 0.08499305 -0.1689649 -0.13555679 -0.2584356 0.13991055
0.27864817 0.23146482 0.38496974 0.3816585 0.29844433 -0.00750804 0.17633824 0.28468713
0.15076353 -0.34992462 -0.13954605 0.09618558 -0.12462466 -0.2902431 -0.38303164 -0.17048642
0.011106772 0.06902122 0.3155331 0.16671763 -0.25243992 0.38857585 0.16659418 -0.13515957
0.24732251 0.28786874 0.19143403 -0.042408247 0.34999767 0.010681289 0.03443004 0.18131949
-0.074961975 -0.10701494 0.10999445 -0.051004715 0.3689248 0.25341472 0.38021743 -0.30540255
0.067495845 0.2439824 -0.37148157 0.2001563 -0.13709965 0.016982766 0.38061088 -0.055204473
0.0068443357 -0.28688636 -0.046325184 0.3036762 -0.39964607 -0.045534816 -0.4091527 0.37297451
-0.40325806 -0.17907573 0.057904568 0.19824079 0.3829739 -0.13288084 -0.26503912 -0.26531014
-6.1760256e-05 0.097464465 0.31889972 0.2682447 -0.15828347 0.3408357 -0.04363931 -0.31336537
0.13392977 0.13838491 0.2807151 0.074397065 -0.400842 0.031186463 -0.14374654 0.41074136
0.18113196 0.21224602 -0.39672425 0.20467977 0.22059757 0.057829868 -0.36920264 -0.30963698
0.33605382 0.3687472 0.1584412 0.36265746 -0.2098519 0.11114224 -0.3529705 0.058366586
-0.18230018 0.26927483 -0.19058779 0.34521556 0.3046498 0.38344514 0.23590782 -0.17599739
-0.16269204 -0.31224564 -0.21758312 -0.2715179 -0.11864636 -0.16867107 0.17066921 0.0084772855
-0.29952666 -0.3802273 0.2522508 -0.07024523 0.12095255 0.33973747 0.26529473 0.21627249
0.36955452 0.14961594 -0.2509102 -0.37816533 -0.06472831 -0.3421155 0.10310558 -0.3217472
-0.3910084 -0.20443013 -0.25879467 0.0046507013 0.32829335 -0.047824 -0.12785587 0.080759026

0.bias f4 [256]
00000000: 3720 64be 23da 42bd 5783 69be edeb a5be
00000010: 7170 6dbd fa9d bd3e 3bca f53d aae2 8f3e
00000020: e0b4 cf3e 939f 64be 2899 973e 94f9 2e3e
00000030: 050a 023e e9ba acbe 8084 0dbe 65e3 f63d
00000040: d82e b1be cdaa 0cbe bc06 983e 420f 843e
00000050: 4b34 fbbd f709 18bd 8274 f13c 6f40 c73d
00000060: 6e64 6dbc 901b 87be a8a2 90be 6f44 b83e
00000070: 058f 85be fb99 563d 1101 0b3e ceb3 d4bc
00000080: 39a7 d0be c875 c93e 26ea 8f3e 24ab bc3e
00000090: 8c47 b63e 5d3c b7be b7a0 c7be cecd 10be
000000a0: ce2f 903e 26a5 b0be b9bf 55be 46c4 99bd
000000b0: 19c0 273e 10d6 68be 1610 963c 992e 193e
000000c0: 4676 863e 8470 c6be 80cb 113e 226d b93e
000000d0: 7121 2bbd b77f 173d 74ee 283e 8235 0ebc
000000e0: f01b 8d3e a9f3 133d 1374 82be 0ae6 963e
000000f0: b4d3 a8be cb4a 35be b8fb c13e f9c3 713e
00000100: a3f3 043c 0c68 9b3e a09b 6ebe a984 cebe
00000110: b48c 7e3e 0544 cc3e 41a6 413e b855 49be
00000120: 6657 1b3e 0288 95bd b067 90be 5cb6 963e
00000130: 1107 ccbc 78cb 8fbe 4044 ce3e 1674 cebe
00000140: eb97 91be 3ef1 86be 0785 8dbe 534f a03d
00000150: 5a89 38bd 113f 4e3e b466 523d 9457 b23e
00000160: 0541 803e 3a74 983e 0f40 b63d f1dd be3d
00000170: e699 923e c617 1a3d 3c55 ac3e 2e45 b83e
00000180: f651 21be dc63 af3e 54b2 6c3e a616 a93e
00000190: 6223 a13e 5668 cb3e d227 623e eb18 0bbd
000001a0: b54a af3e 5b92 20be f30c 533e 2a6f 4bbe
000001b0: 0826 c6bd 9e94 a3be 3b4c 85be 7a9b 2c3d
000001c0: 695d 45be a2f4 72be f4b9 c5be 0d09 153e
000001d0: b71e b7bd 6ae2 3fbc a874 eebd d73b 69be
000001e0: 65c3 9fbc cc29 eebd 3a06 0cbe adb7 223e
000001f0: b030 83bd fed7 9abe 6e1a c43e a891 c0be
00000200: 79f5 0d3e 66a3 9d3d 2001 67bd ca2e d03e
00000210: 6500 1ebe e1e4 ba3e 15df 4b3e f48a ac3d
00000220: 528f a9be 5e6c 853e c244 b9bd 5613 423e
00000230: cdb4 aebe fdfc 35be 9780 373e 6273 08be
00000240: 7326 cf3d d767 67be defa 97be 9f98 bfbe
00000250: ae32 22be 8bed 03be 9e65 09be ba89 9fbe
00000260: 06b3 563e 6f2b c93e 4a5a 6b3e f372 a1be
00000270: a535 473d dc35 af3e 242b 47be f0b5 0ebe
00000280: 9daf 03be a216 da3c 3c8f 9d3e 9b48 703d
00000290: 2a11 4d3e 1808 8bbd 1c27 043d a18c 303e
000002a0: e63e 823b d943 8abe 687a edbd c6ab c1bd
000002b0: 9dd0 4c3d aaed 5bbe 3cca 0a3e 594d 0c3e
000002c0: 5641 85be 3fd5 cd3c b69f c73e da82 dc3b
000002d0: 0d2e 9fbe f5eb c1be b4df 233d 7fa1 d63c
000002e0: aede cc3e a8d5 dfbd 19b5 333e b672 a33e
000002f0: 18b4 fcba 1e78 9b3e 8e11 bdbe c247 9b3e
00000300: 0b39 aa3e a0bd 823e 7cec 533e b883 063c
00000310: 6788 12bc 0388 7abe 9c3c 3e3e 097d 42be
00000320: a01d 593d 0a4a 99be 7a3b 823e 48c3 9abb
00000330: 089b 9c3d bc16 c2be 90c9 813e 5dc9 61be
00000340: 26d4 a33e 629f a6bd 8a49 be3d 8556 bf3e
00000350: 280b 5fbe 1427 093e df78 3ebe 7620 e63d
00000360: 8bdb 9fbd 6708 7f3c 5e47 b1bd 751a a3b9
00000370: 90c5 b13e 8db5 a5bd 0224 443d 3a1c cdbe
00000380: d5ad f33d 37bc 2dbe c386 afbe 5e8d 37be
00000390: 5067 1e3e e99d 5b3d 8b80 ba3c 748e 7d3e
000003a0: 90f5 1c3e b7a8 c23d 659e 6f3e 10eb d83d
000003b0: e590 1a3e 5ba3 51bd 65c5 29be 03fa 3dbd
000003c0: 3b0e 12be dd8d 9cbd 21d6 cabe ff61 dc3d
000003d0: 3261 57bd 0f2c bebe a526 3b3e 44e3 a2bd
000003e0: bdb0 0f3e 223b 33be bc9f 123e fc53 08be
000003f0: dd19 d53d fbc9 1f3e cff6 41be 3f7f e03d
-0.22277914 -0.047571313 -0.22804008 -0.3240656 -0.05796856 0.3703459 0.12001463 0.28102618
0.40567684 -0.22326498 0.29609036 0.17087394 0.12699135 -0.3373635 -0.13820076 0.12055091
-0.3460605 -0.1373703 0.29692638 0.2579289 -0.122658335 -0.03711888 0.0294745 0.097290866
-0.014489276 -0.26388216 -0.28249097 0.3598971 -0.26085678 0.05239294 0.13574626 -0.025964644
-0.4075258 0.39347672 0.2810833 0.3684932 0.3560146 -0.3578824 -0.38989803 -0.14141008
0.28161472 -0.34500998 -0.20873918 -0.07508139 0.16381873 -0.22737908 0.018318217 0.14959182
0.2626211 -0.38757718 0.14237785 0.36216074 -0.04177994 0.036987033 0.16497213 -0.008679749
0.27560377 0.036121044 -0.25479183 0.2947238 -0.32974017 -0.17704313 0.3788736 0.23609914
0.008114728 0.3035282 -0.23301554 -0.40335587 0.24858361 0.39895645 0.18911077 -0.19661605
0.15170059 -0.07301332 -0.28204107 0.29436004 -0.024905713 -0.28084922 0.40286446 -0.40322942
-0.28436217 -0.26355928 -0.27640554 0.0782763 -0.045052864 0.20141245 0.051367477 0.34832442
0.25049606 0.29776174 0.08898937 0.09319676 0.2863304 0.03762033 0.3365878 0.3599028
-0.15753922 0.34255874 0.23114902 0.33025092 0.31472307 0.3972804 0.22085503 -0.03395931
0.34236684 -0.1568083 0.20610408 -0.19866624 -0.09675223 -0.31949323 -0.26034722 0.04214046
-0.19273914 -0.23726133 -0.38618433 0.14554234 -0.08941405 -0.011711696 -0.11643344 -0.22776733
-0.019502351 -0.11629066 -0.1367425 0.15890379 -0.06405771 -0.30242914 0.38301414 -0.37611127
0.13863172 0.076971814 -0.056397557 0.40660697 -0.15429838 0.36502746 0.19909318 0.08424941
-0.33117157 0.2605924 -0.09046318 0.18952689 -0.34122315 -0.17772289 0.17920147 -0.13325265
0.101147555 -0.22598206 -0.29683584 -0.37421128 -0.15839645 -0.12883584 -0.1341767 -0.31159765
0.2096673 0.3929095 0.22983661 -0.31533012 0.048635144 0.3422078 -0.1945005 -0.13936591
-0.1285996 0.02662212 0.30773342 0.058662992 0.20026079 -0.06788653 0.03226386 0.17241146
0.0039747832 -0.2700489 -0.11595613 -0.09456591 0.050003637 -0.2147738 0.13553709 0.13701381
-0.2602641 0.025126098 0.38989037 0.006729466 -0.3108982 -0.37875333 0.04000826 0.026200054
0.4001364 -0.109294236 0.17549552 0.31923455 -0.0019279746 0.3036508 -0.36927456 0.30328184
0.33246645 0.25535297 0.2069568 0.008210115 -0.008943654 -0.24465947 0.18577808 -0.1899301
0.05300677 -0.299393 0.25436002 -0.0047229864 0.07646757 -0.3790797 0.25349092 -0.2204947
0.31997794 -0.081358686 0.0929137 0.37370697 -0.217816 0.13393813 -0.18600796 0.1123666
-0.078055464 0.015565968 -0.0865619 -0.00031109495 0.3472104 -0.08091269 0.047885902 -0.40060598
0.1189839 -0.1696633 -0.34282503 -0.17925021 0.15469098 0.05361739 0.022766372 0.24761373
0.1532805 0.09504836 0.23400266 0.105917096 0.15094335 -0.05118118 -0.16579206 -0.046381008
-0.14263241 -0.07644246 -0.39616492 0.10760879 -0.052582927 -0.3714299 0.1827646 -0.07953504
0.14032264 -0.17503026 0.14318746 -0.13313287 0.10405324 0.15604393 -0.18941806 0.1096177

1.weight f4 [256]
00000000: 3408 803f 72ed 803f f6a2 803f afae 803f
00000010: 9ea6 803f 1e82 803f a169 7e3f 7840 803f
00000020: e79d 803f fd41 803f cad7 7f3f 7388 803f
00000030: ae7a 7f3f 5d8c 803f 26a6 7e3f 396a 803f
00000040: 09c3 803f 1475 7e3f 8665 7f3f a2b8 803f
00000050: 02bb 7f3f bb92 7e3f 530a 803f 53f1 7f3f
00000060: e129 803f e094 7d3f 7c4f 7f3f a536 7e3f
00000070: 84f1 7e3f 8480 803f 95a1 803f 6e1a 7e3f
00000080: d629 803f 555d 7e3f a367 7f3f 806f 7e3f
00000090: 89cf 7e3f 2316 813f 3e22 803f ffd7 7e3f
000000a0: eb06 7f3f 1220 803f c561 803f 6011 803f
000000b0: 4dc2 7e3f d998 7e3f cee2 7e3f dc1c 803f
000000c0: 6448 803f 854f 7f3f deb1 803f e0d4 7e3f
000000d0: 1f8f 803f 669f 7f3f 7560 803f 7a10 803f
000000e0: 739a 803f 0161 7e3f 2940 7f3f 302a 7f3f
000000f0: d7ff 803f ad41 7e3f d8ea 7d3f ad3c 7e3f
00000100: 8638 803f 2219 7f3f 871b 7f3f 78a8 803f
00000110: 6801 7f3f 226f 7e3f 349a 7e3f 9867 7e3f
00000120: b1b3 7e3f e0eb 7f3f 0988 803f 7fba 7e3f
00000130: 81b3 7f3f 26c3 7e3f 2088 7f3f a3df 7f3f
00000140: feaf 7d3f 1d7c 7f3f 4191 803f 050b 7f3f
00000150: 0eb8 803f 1e37 7f3f 902e 7e3f 612a 803f
00000160: 12f3 7d3f 3a45 7f3f 8fac 803f ad06 7f3f
00000170: d223 7f3f 8b6e 803f 6b9e 7f3f 0f8c 803f
00000180: 9228 7f3f 3853 803f d863 803f 3bc6 803f
00000190: fb58 7f3f 2e20 7f3f bb1e 803f c40f 7f3f
000001a0: 3d36 7e3f 688a 803f 9c33 803f 4def 7e3f
000001b0: 93a8 803f 99b4 7f3f feee 7e3f d1fe 7f3f
000001c0: d08f 7f3f fd52 7e3f 8390 803f c7a5 7e3f
000001d0: 2747 803f c12b 7f3f 4bc4 803f 1193 7e3f
000001e0: 9b76 7e3f 0290 7f3f dbd7 7e3f ac0d 813f
000001f0: d36e 803f 443c 803f 20b8 7e3f eaa6 803f
00000200: b1fe 7e3f bca2 7e3f 09c9 7e3f e2d8 7e3f
00000210: 08f2 7e3f c021 7f3f a3b7 7f3f 5207 803f
00000220: 8c56 7e3f 9fd0 7e3f 6350 7f3f 4169 7e3f
00000230: cab5 803f 6915 7f3f 4989 7f3f ef01 803f
00000240: 449b 7f3f 380a 803f e718 7f3f 5ef0 7e3f
00000250: 008a 7e3f f86a 803f 3f74 803f 2386 803f
00000260: f993 7e3f 3d36 803f c351 7f3f 9ba5 803f
00000270: 1689 7f3f 916d 803f ed1e 803f 38b5 803f
00000280: b085 7e3f 4cd4 7e3f ac49 803f fd04 7f3f
00000290: 68db 7d3f 4ccc 7f3f fb4b 7f3f 036c 803f
000002a0: 4ac2 7e3f 5aa3 7e3f b87c 803f 058d 803f
000002b0: b798 7e3f ef87 803f 5b72 803f 216a 803f
000002c0: ae8d 7f3f e403 7f3f a86c 7e3f fed2 803f
000002d0: eeea 7e3f 8c73 7f3f 3399 7f3f 23aa 803f
000002e0: f5ad 7e3f 44e7 7f3f 419f 7e3f f626 803f
000002f0: ec36 803f 127f 7e3f 1e97 7e3f a8b7 7e3f
00000300: a6f2 7e3f 6458 803f 16d6 803f b194 803f
00000310: 2f4f 7f3f 0695 7f3f f424 7e3f b0eb 803f
00000320: e247 7f3f da94 803f 56aa 7e3f ca91 803f
00000330: c473 7e3f e732 7e3f 0e76 7d3f b39a 803f
00000340: 7770 803f f383 803f 4d9a 803f 7e55 803f
00000350: 8d5a 7e3f 8c6e 7e3f 2149 803f 517f 7e3f
00000360: 9185 7f3f 2efe 803f e5f7 7e3f 9bc0 7f3f
00000370: c226 7f3f c13e 803f 0cde 7e3f b932 803f
00000380: 83de 803f 7e74 7f3f 388b 803f d69e 803f
00000390: e9c9 7e3f 51fd 7e3f b765 803f 0400 803f
000003a0: f5ed 7e3f 2585 803f 3aa9 803f aa62 803f
000003b0: 4b7e 803f 4dd5 7f3f 28c9 7e3f ab37 7e3f
000003c0: f11a 813f ef78 803f 4b36 803f 8e57 803f
000003d0: 6fab 7e3f 1a09 803f 3ba6 7e3f 2c69 7f3f
000003e0: f0b6 803f a3ce 7f3f d966 803f 17c8 803f
000003f0: fef7 7e3f 8c08 7f3f dec3 803f cc5f 7e3f
1.0002503 1.0072463 1.0049732 1.0053309 1.0050848 1.0039709 0.99379927 1.0019674
1.0048188 1.0020138 0.9993864 1.0041641 0.9979657 1.0042835 0.9947227 1.0032417
1.005952 0.993974 0.9976429 1.0056345 0.99894726 0.9944264 1.0003151 0.99977607
1.001278 0.9905529 0.9973066 0.9930213 0.99587274 1.003922 1.0049311 0.9925908
1.0012767 0.99361163 0.9976751 0.99388885 0.99535424 1.008488 1.001045 0.99548334
0.9961993 1.0009787 1.0029837 1.0005302 0.9951523 0.99451977 0.99564826 1.0008807
1.0022092 0.9973071 1.0054281 0.9954357 1.0043677 0.998526 1.0029436 1.0005028
1.0047134 0.99366766 0.99707276 0.9967375 1.0078076 0.99318963 0.9918647 0.99311334
1.001725 0.99647725 0.9965138 1.0051413 0.9961152 0.99388325 0.99454045 0.9937682
0.9949294 0.9996929 1.0041515 0.9950332 0.99883276 0.9951652 0.99817085 0.9995062
0.9909667 0.99798757 1.0044328 0.9962619 1.0056169 0.9969348 0.992898 1.0012933
0.9919902 0.99715006 1.0052661 0.9961956 0.9966403 1.0033735 0.998511 1.0042742
0.9967128 1.0025396 1.003047 1.0060495 0.9974515 0.9965848 1.0009378 0.9963343
0.9930151 1.0042238 1.001575 0.99583894 1.0051445 0.99884945 0.99583423 0.99998194
0.99828815 0.9934538 1.0044101 0.99471706 1.0021714 0.9967614 1.0059904 0.99443156
0.9939973 0.99829113 0.9954812 1.0082297 1.0033821 1.0018392 0.994997 1.0050938
0.9960738 0.9946706 0.99525505 0.99549687 0.9958806 0.99660873 0.9988958 1.0002234
0.9935081 0.9953708 0.99732035 0.99379355 1.0055478 0.99642044 0.99818856 1.000059
0.9984629 1.0003119 0.9964737 0.9958552 0.9942932 1.0032644 1.0035475 1.0040935
0.9944454 1.0016552 0.99734133 1.0050539 0.9981855 1.0033437 1.0009438 1.0055304
0.9942274 0.9954269 1.0022483 0.99616987 0.9916291 0.9992111 0.9972531 1.0032963
0.9951521 0.99468005 1.0038061 1.0043036 0.99451774 1.0041484 1.0034899 1.0032388
0.9982556 0.9961531 0.99384546 1.006439 0.99577224 0.99785686 0.9984314 1.0051922
0.9948419 0.9996226 0.9946175 1.001189 1.0016761 0.99412644 0.99449337 0.9949899
0.99589 1.0026975 1.0065334 1.0045377 0.997302 0.99836767 0.99275136 1.0071926
0.9971906 1.0045426 0.9947866 1.0044491 0.99395394 0.9929642 0.9900826 1.004721
1.0034322 1.0040268 1.0047089 1.002609 0.9935692 0.9938743 1.0022317 0.9941302
0.9981318 1.007757 0.9959701 0.9990327 0.99668515 1.0019151 0.99557567 1.0015479
1.0067905 0.9978713 1.0042486 1.0048473 0.9952684 0.9960528 1.0031041 1.0000005
0.99581844 1.0040632 1.0051644 1.003011 1.0038542 0.99934846 0.9952569 0.9930369
1.0086347 1.0036906 1.0016569 1.002672 0.99480337 1.0002778 0.994724 0.99769855
1.0055828 0.9992468 1.0031387 1.0061063 0.99597156 0.99622416 1.0059774 0.99364924

1.bias f4 [256]
00000000: 95e4 2abb 5e17 9e37 f58c c7bb ea80 e3ba
00000010: 8d89 15bb 1b4f 93bb 2302 cb39 1519 eebb
00000020: ff4d 08bb 92e0 b7bb 5a26 6b3b fafb f2bb
00000030: 34d9 a5bb d27b 943a e7a9 d8ba a40d 8d3b
00000040: 5ea5 223a 8246 a0bb 2232 78bb 190c 30bb
00000050: e181 923b 6ad7 a2bb 17ca 67ba 408a 8e3b
00000060: e16d 8e3b 6871 aebb e8c1 7ebb 3f45 cfbb
00000070: afbf 77bb 05e9 bebb 35a3 dabb b27e 85b9
00000080: 84c6 243b 64c6 c53b 14bb 92bb b84d 963a
00000090: f741 b23b fa45 24bb cffc 81bb e3cd 613b
000000a0: 7d3b 92bb ea88 88bb cc81 5e3b fd61 8b3b
000000b0: 6ee2 c9b9 6c25 b7bb 00e0 f3b9 7a7f 0dbc
000000c0: 8be8 b9bb ff5e ffbb da91 b7bb 7ab2 ecbb
000000d0: c5dc 16bb 0e69 6bbb c2d2 dbbb b12c e5bb
000000e0: 3c3f d23b dbf4 38b8 5b0e a1bb b1b8 67bb
000000f0: 7df5 823b 9de0 ddbb d1d8 653a 65d9 193b
00000100: 8c25 90bb 1a34 a3bb 69c8 89bb 8fc5 87bb
00000110: 9230 41bb 3fec 30bb 5b28 b2bb 9449 09bb
00000120: 3f9e f53a 40fd b2bb 0270 7a39 07a4 2d3b
00000130: f7a6 dfbb 2eb5 03bb 706b a9bb f747 543b
00000140: 4595 993b 257d 93bb 6cfe db3a 86bc c1bb
00000150: e036 903a ca72 89bb 63b1 94bb e74b 3e3b
00000160: b5c3 e6bb ef22 94bb 14b3 4c3b 71be 9f3b
00000170: 189a 48bb 9e7a d83a a274 80bb da3e e1ba
00000180: 9b2c 61bb 13a9 d3bb 70b1 483b bbab 5bbb
00000190: c834 eabb dda0 6abb eb10 813b 924e fabb
000001a0: a8ed 453b 272c 1e3b a0cd eaba 1414 9fbb
000001b0: 4faa 01b9 4aa7 223b a558 2fbb 388a 843b
000001c0: 85fa 12bb 35bb 61bb 9d53 4dbb 8a66 b9bb
000001d0: 833a d2bb 9b5d 9cbb e1f6 abbb 8390 cabb
000001e0: 80b4 393b 9bc6 91bb 630f 973b 0fd9 babb
000001f0: 6178 933b 1b97 943b 0939 babb bf7f acbb
00000200: 0711 0f3b cac6 b13a 69a3 a9ba 4c55 62ba
00000210: 3d04 31bb ab41 8cbb 9857 61bb cba5 863b
00000220: 6398 a9b9 d275 9dba 3764 fabb d747 6abb
00000230: 0897 29bb 265b 9dbb 5bd9 c9bb 4f21 93bb
00000240: 588f 283b 8ee7 a5bb 9cfb d3ba 78c2 82bb
00000250: dfac d43b 44e5 c7bb 9d3f a13b 995b f0bb
00000260: c7ab babb f6cc 823b d0d1 afbb 7f8d 62ba
00000270: 401c 3d3b 63fb b33b a5d2 eabb 9d34 a4bb
00000280: 5f08 d4bb 61ca a538 20ae a63b b7c8 783b
00000290: 3949 c73b f2dc e9bb a68a a0bb bc82 6ebb
000002a0: 8ef6 ca3b f6c7 56bb 7c68 94b9 e4b3 cfbb
000002b0: 3770 94bb 6881 e4ba c8fe 09bb a9d5 a43b
000002c0: d0d4 683b 8679 73bb 9b7e 9ebb 11d2 cbbb
000002d0: 6913 09bb 6f5d 7ebb 1f99 b83b cd49 5e39
000002e0: 6b8e 843b 563d d9bb 8e28 2ebb df74 04bb
000002f0: 410c 98bb a6e1 d4bb 6e21 60bb 3c0b 19bb
00000300: 0759 93bb 4ed6 75bb e24c e9bb d964 443b
00000310: 0438 80ba 1659 8fbb c961 a03b 9d9c d0bb
00000320: d8bf 7fbb 2cb4 78bb da87 0abb 3cbf 84ba
00000330: 7646 9bbb bac2 d5bb bd48 bb3b e2ee 03bc
00000340: 2158 b3bb e463 e63a 072a 0a3b 05ea 8e3b
00000350: 0fc4 eb3b a6b2 b2bb 75ab e03a a0b5 fb36
00000360: 7a61 c03a 2dca c5bb 54b3 bbbb d364 553b
00000370: 098f 63bb 6b20 d9bb 915f cbbb 625a 01bc
00000380: 7f6d 93bb 171d f9ba 163e 933b 30a2 433a
00000390: 6cd2 8e39 a794 09bb d4f5 88bb 8649 8d3b
000003a0: 9312 f7bb be59 cdbb e820 5bb9 b9c5 a73b
000003b0: ebbf b7bb 3bcb b7ba d616 1e3b a305 ccbb
000003c0: 5743 cabb ee76 13bc 3eb3 d1bb b18f 04bb
000003d0: 843f 0a38 5a19 8bbb 7f4c 39bb f56a 50bb
000003e0: 5b5f f9ba 7001 9c3b 4916 ffbb 377e 4f3a
000003f0: d472 f2bb fea4 b3bb 99ac 22bb c360 2e3b
-0.0026076187 1.8845949e-05 -0.0060898014 -0.0017357145 -0.0022817582 -0.004495514 0.0003872077 -0.0072661736
-0.0020798442 -0.0056114877 0.0035881014 -0.007415292 -0.005061293 0.0011328405 -0.0016530127 0.0043046046
0.0006204451 -0.0048912177 -0.0037871678 -0.002686268 0.004471049 -0.004969527 -0.00088420644 0.004349977
0.0043465947 -0.0053235777 -0.0038872901 -0.0063253934 -0.0037803461 -0.005826118 -0.006672288 -0.00025462132
0.0025142739 0.006035613 -0.004477868 0.0011467254 0.0054399925 -0.0025066123 -0.0039669047 0.0034454993
-0.004462658 -0.004166712 0.0033951877 0.0042536245 -0.0003850641 -0.005589178 -0.00046515465 -0.00863635
-0.0056734732 -0.007793307 -0.0056021037 -0.0072234245 -0.0023019772 -0.0035920772 -0.006708474 -0.006993853
0.0064162295 -4.4097058e-05 -0.0049150414 -0.0035357887 0.0039965496 -0.0067711608 0.0008767965 0.0023475525
-0.004399007 -0.004980576 -0.004204799 -0.004143424 -0.0029478413 -0.0026996282 -0.0054369397 -0.0020948397
0.0018739178 -0.0054623187 0.00023883584 0.0026495473 -0.0068253237 -0.0020097005 -0.0051702783 0.0032391527
0.004686984 -0.0045010024 0.0016784198 -0.0059123663 0.0011002682 -0.004194592 -0.0045377477 0.002903694
-0.007042373 -0.004520766 0.0031234669 0.0048749973 -0.0030609425 0.0016516035 -0.0039201537 -0.0017184869
-0.0034358862 -0.006459364 0.003062334 -0.0033519107 -0.0071474053 -0.0035801448 0.0039387844 -0.007638761
0.0030201469 0.0024135204 -0.0017914064 -0.0048546884 -0.00012365844 0.002481895 -0.0026755717 0.0040447973
-0.0022427153 -0.003444386 -0.0031330355 -0.0056579756 -0.0064156665 -0.004771901 -0.005247936 -0.006181778
0.0028336346 -0.0044487244 0.0046099885 -0.005702145 0.0045004343 0.0045346147 -0.0056830687 -0.005264252
0.0021830217 0.0013563272 -0.0012942377 -0.0008633926 -0.0027010583 -0.004280289 -0.0034384485 0.0041091195
-0.0003234773 -0.0012013263 -0.007641341 -0.0035748386 -0.0025877375 -0.0048021255 -0.006159944 -0.0044900547
0.0025720205 -0.005063004 -0.0016173008 -0.0039904676 0.0064903344 -0.0061003286 0.0049209134 -0.007335138
-0.005696747 0.0039917184 -0.005365588 -0.00086423004 0.002885595 0.005492614 -0.007166224 -0.005011155
-0.0064707245 7.905509e-05 0.0050866753 0.0037961432 0.006081727 -0.0071369344 -0.0048993407 -0.0036393842
0.0061939424 -0.0032772995 -0.00028306607 -0.0063385833 -0.0045299786 -0.0017433586 -0.0021056402 0.005030353
0.0035527237 -0.003715129 -0.00483687 -0.00622011 -0.002091611 -0.0038813015 0.005633488 0.00021199063
0.004045298 -0.0066296263 -0.0026574465 -0.0020211262 -0.0046401327 -0.006496626 -0.0034199613 -0.0023352643
-0.004496697 -0.0037511769 -0.007119761 0.0029967336 -0.0009782319 -0.0043746335 0.0048944694 -0.006366326
-0.003902426 -0.0037949188 -0.0021138103 -0.0010127793 -0.004738624 -0.0065234574 0.005715458 -0.00805256
-0.0054731523 0.0017577377 0.002108218 0.0043613934 0.007195003 -0.0054534255 0.0017140942 7.501527e-06
0.0014677488 -0.006036064 -0.0057281647 0.0032561317 -0.0034722707 -0.006626179 -0.0062064608 -0.007895084
-0.004499137 -0.0019005862 0.004493485 0.00074628275 0.00027241127 -0.0020993145 -0.0041796956 0.004311743
-0.007540056 -0.0062668016 -0.00020897726 0.005120006 -0.005607595 -0.0014022359 0.0024122498 -0.006226258
-0.0061725783 -0.009000523 -0.006399541 -0.0020227248 3.2960917e-05 -0.0042449655 -0.0028274355 -0.0031802033
-0.001902561 0.0047609136 -0.007784639 0.0007915231 -0.0073989425 -0.005482315 -0.0024822115 0.0026607967

1.running_mean f4 [256]
00000000: 2ddf 8841 8178 2e42 0aaf 71c2 53b6 8c42
00000010: de6c 8341 f476 a141 b26f 5740 6fa8 7641
00000020: 6d3a 9a41 c234 8141 a6b8 05c2 6c39 ab40
00000030: 911b b441 e428 6a42 d8b7 94c1 b2dd 9342
00000040: 0a15 be41 4ac5 d641 ee2a a041 b8d6 5341
00000050: ab16 9ec2 52f5 44c1 1cfc 3142 9e7f 02c2
00000060: e23b 59c2 dfde bec0 c8ce 52c2 a776 17c0
00000070: 8429 ce41 dc08 8841 016f ff40 cec0 a3c1
00000080: e727 42c1 4879 adc1 75ab 8cc1 4714 b7c0
00000090: fc4d 3ac2 fc44 3242 45a6 2242 d1bc 61c2
000000a0: e253 c341 1a4e 5642 70f7 d2c1 005b 8dc1
000000b0: d158 c540 8892 aac0 f293 1e42 9355 9a40
000000c0: 2fa9 c941 26db 103f c527 1042 766f 7241
000000d0: 2fa0 73c2 a846 69c1 539e 0e3f 5dda 9a40
000000e0: 5636 d0c1 2770 ba41 3039 17c2 ba6e bc41
000000f0: 886d e8c1 031e fa40 c6ba 1fc1 d45b 7dc0
00000100: 1622 5c41 241d d8c1 e908 a0c1 ac00 1341
00000110: ad49 b0c1 a68d 0441 72f3 4141 798c 1ec2
00000120: 135f 8ec0 c03f b941 2035 fe41 9439 efc0
00000130: 5222 4841 c3c5 66c1 6130 d2c1 d885 06c2
00000140: b487 3cc1 2e9e c4c1 2023 ae41 83b4 3ac1
00000150: 504b 44c2 97ab b33f 98d0 fbc0 12a7 93c1
00000160: dae3 efbf 061c cfc0 ddd5 1ec2 fe6b a8c1
00000170: 3280 16c2 87bb 7b41 9444 3b42 29af 15c2
00000180: c312 9841 a4f2 4c41 48e5 0842 294d c341
00000190: 3e75 3e41 6602 a941 f12a 76c1 6166 6e3f
000001a0: f408 00c2 03e2 c6c1 a428 f241 d691 21c2
000001b0: 6915 3842 17a8 33c2 68b9 fe41 36e4 5442
000001c0: ccb6 f6c1 75e1 9ec1 1add 8041 9e96 ac40
000001d0: 43db 0542 1d79 79c2 1e23 abc2 b119 d140
000001e0: b7fe 0741 b8ac bec1 a4e1 b5c1 004a 1dc2
000001f0: 15f1 0cc2 4ba8 dac1 2872 efc0 b043 b941
00000200: b98f 6241 3555 37c2 deaa f5c1 3e7b ca41
00000210: ca89 24c1 33a7 64c1 cb86 2242 2e75 34c1
00000220: 4b22 22c2 29fa 1a41 d288 9640 6158 20c1
00000230: e7ba 1142 80a1 d2c0 c02d 9f41 d323 7ec2
00000240: d57e 0541 0e94 1442 962e 1242 a90f 0ec2
00000250: cf3e 66c2 87aa 4b41 dcc0 15c2 dede 2e41
00000260: d1b9 0a42 3068 05c1 80bf d93f ad40 ab41
00000270: f4d3 a7c1 2188 b8c1 57a8 383f 318f 3b42
00000280: bb04 3cc1 a33d 3541 29c2 0f42 9cf1 8bc1
00000290: 3882 96c1 6b83 2141 e63a 79c2 475d 26c2
000002a0: 818d 7d41 e2ab 8ac1 52bf cc41 2aea 7641
000002b0: 937f 3541 a19d e941 8a55 1c41 e8b1 95c1
000002c0: 1adc 51c1 6b66 1b41 2ce9 c1c1 9b92 9741
000002d0: 0c5d 9f41 4676 1ac2 1e60 12c2 74b9 1ec1
000002e0: 9860 95c1 28f0 5541 ca18 9540 f2ca c041
000002f0: b738 e941 aa4e 88c0 5d5f ea41 3a86 33c1
00000300: 83b7 8441 1b0e 26c2 bbeb 1242 e4a9 ee41
00000310: b629 e741 27fb 16c2 3aa8 31c2 530d b441
00000320: 2b00 4542 440a 4a41 7cc6 52c2 c090 ba41
00000330: f24b 2fbf de00 0cc0 404d bcc1 1d21 8540
00000340: f03d 2e42 26b8 f1c1 dc52 0442 ff3c e3c1
00000350: 5a31 21c2 c5b7 22c2 ecf9 56c2 b316 843f
00000360: 6987 0041 64ca 1942 8b0c 53bf 72e5 1fc2
00000370: 7ebc 3ac2 a356 823d 1b90 2942 a359 88bf
00000380: f16a b941 2032 59c2 f2a4 f8c1 a4e6 1342
00000390: c93e 8dc1 450f e541 f450 5e41 1988 9cc1
000003a0: 46eb f4c1 404f 7341 3e49 1342 64cf 59c2
000003b0: 25b1 9141 062b d741 863b 75c0 011c db40
000003c0: 7110 cc41 b9c1 3141 14ef b93f 93d9 6f41
000003d0: 3f34 88c0 6fe8 1bc1 0773 ca40 8daa 9a41
000003e0: 7c31 a341 0cce 7bc2 e88e 32c1 8ca3 1b42
000003f0: 1e6a 7240 a793 38c0 a3cd 1442 456b 31c1
17.108973 43.61768 -60.420937 70.3561 16.428158 20.183083 3.3661923 15.4161215
19.278528 16.15076 -33.43032 5.3507595 22.51346 58.539932 -18.589767 73.933
23.760273 26.846333 20.020962 13.239922 -79.04427 -12.309893 44.4962 -32.624626
-54.30848 -5.964706 -52.701935 -2.366617 25.770271 17.004326 7.9823003 -20.469143
-12.134742 -21.68422 -17.58372 -5.7212253 -46.576157 44.567368 40.662373 -56.43439
24.415958 53.57627 -26.37082 -17.669434 6.167092 -5.330387 39.644478 4.822946
25.20761 0.56584394 36.038837 15.152212 -60.90643 -14.57975 0.55710334 4.8391557
-26.026531 23.304762 -37.805847 23.554066 -29.053482 7.8161635 -9.983099 -3.9587297
13.758322 -27.014229 -20.00435 9.187664 -22.035975 8.284582 12.121935 -39.63718
-4.4491057 23.156128 31.77594 -7.4757786 12.508379 -14.423282 -26.273623 -33.630707
-11.783131 -24.577236 21.76715 -11.66907 -49.073547 1.403674 -7.869213 -18.456577
-1.874141 -6.472171 -39.70885 -21.05273 -37.62519 15.733283 46.81697 -37.421055
19.009161 12.809238 34.223907 24.412676 11.903624 21.126171 -15.385484 0.9312497
-32.008743 -24.860357 30.269844 -40.392418 46.02091 -44.91415 31.84053 53.222862
-30.839256 -19.860086 16.10796 5.393386 33.464123 -62.368275 -85.56859 6.534386
8.499686 -23.834335 -22.735176 -39.322266 -35.23543 -27.332174 -7.482685 23.15805
14.160089 -45.83321 -30.708431 25.310177 -10.28364 -14.29082 40.631634 -11.278608
-40.53349 9.686074 4.7042017 -10.021577 36.43252 -6.5822144 19.897339 -63.534985
8.343465 37.144585 36.545494 -35.515293 -57.561337 12.729133 -37.43834 10.929411
34.68146 -8.337936 1.7011566 21.40658 -20.978493 -23.06647 0.72131866 46.889835
-11.751155 11.327548 35.93961 -17.492973 -18.813583 10.094584 -62.307518 -41.59109
15.847047 -17.333927 25.593418 15.432169 11.343646 29.201967 9.770884 -18.711868
-13.116236 9.712504 -24.238853 18.946585 19.920433 -38.6155 -36.593864 -9.920277
-18.672165 13.371132 4.659276 24.099094 29.152693 -4.2596025 29.296564 -11.22027
16.589605 -41.513775 36.730206 29.832954 28.895367 -37.745266 -44.414284 22.506506
49.250164 12.627506 -52.693832 23.320679 -0.6847526 -2.187553 -23.53772 4.160292
43.560486 -30.214916 33.080917 -28.404783 -40.298195 -40.679462 -53.744064 1.0319427
8.033059 38.447647 -0.82441014 -39.974068 -46.684074 0.06364181 42.390728 -1.0652355
23.177217 -54.29895 -31.08054 36.975235 -17.655657 28.632456 13.894764 -19.566454
-30.61488 15.206848 36.821526 -54.45253 18.211496 26.896008 -3.831758 6.8471684
25.508028 11.109796 1.4526086 14.990619 -4.2563777 -9.7442465 6.3265414 19.333277
20.399162 -62.951218 -11.159889 38.909714 3.7877269 -2.884012 37.200817 -11.088689

1.running_var f4 [256]
00000000: 3fc3 0e47 b866 dc47 d1b1 4d48 0b13 9248
00000010: b748 cd46 bb60 1947 2281 6946 1262 af46
00000020: 1787 d346 0157 0747 2e64 8f47 4c10 1c46
00000030: 87b7 0a47 6052 5048 6770 0e47 2ade 9e48
00000040: 20f6 4f47 eedb 5047 0ad2 0947 4dc8 6b46
00000050: a7a0 b548 7111 8946 7dd2 f147 01dc 9247
00000060: 4b62 2448 6142 6945 882c 2148 1763 4f46
00000070: d674 2c47 39ea 1947 93be 7f46 5ee5 1c47
00000080: 3306 9e46 9d6b 3e47 b55e 0347 cbf9 7046
00000090: 6720 0b48 ff67 fb47 2dfe c447 2dbb 3c48
000000a0: 4b7f 5b47 2016 2d48 f6c8 2c47 e9e2 1447
000000b0: c70d 2f46 0203 0146 33de b547 4549 9346
000000c0: a91b 1447 eb7a 4846 170f bd47 a15d ec46
000000d0: 909b 5948 5dc2 cb46 7238 a046 c1ab 9746
000000e0: c809 2d47 6c56 2447 0a37 b947 04c4 1747
000000f0: 95fd 6047 f29b 7a46 c49d 9a46 dacd 4b46
00000100: ba47 9746 3cf5 2d47 49c9 fc46 7b5c 8846
00000110: b770 2447 1dc8 4146 7b55 d446 4ee5 bd47
00000120: 2e61 5346 10a2 2147 a1e8 7347 e229 b446
00000130: 189d 8346 5a12 fe46 e9fc 3c47 2067 9a47
00000140: 905b 8d46 2917 3947 1a5f f146 408f c246
00000150: 586f 0c48 8c57 2346 6379 3746 0be6 bb46
00000160: 9c5e 0e46 459b e745 2938 ce47 ce53 3647
00000170: 58cd b447 4bb9 ee46 94e6 f847 96fd b847
00000180: ec3a 0747 a5d2 4b46 37d0 8147 aa32 2647
00000190: 9ade 9846 c051 0947 be11 8646 4ea2 0c46
000001a0: 112a a347 9e1c 1047 c539 7747 b6d8 c247
000001b0: 7610 f947 fbea 0748 7010 7047 7b80 2d48
000001c0: e33b 7c47 9185 fb46 f77f f146 96e7 9846
000001d0: 93b9 8b47 7fd4 6a48 80e8 d048 c828 b346
000001e0: 79da b046 e6cc 5347 8d95 1747 c397 bb47
000001f0: 6163 a047 827e 4947 308a 8546 cdcd 4547
00000200: c012 a246 9eae 0548 ee33 7247 5f36 1547
00000210: 1c65 b846 158e a746 215f c947 725d c946
00000220: 8174 ca47 cd68 6446 3959 5546 1da5 9b46
00000230: 38e2 ab47 2256 2046 733e 0147 9b5d 6a48
00000240: 83b7 7246 3ecf b447 b13e ae47 bb9c 8d47
00000250: 7d87 3848 4a62 a446 5a99 a447 a2ec bc46
00000260: 4d79 a447 f7f4 1546 fe01 2846 f846 fc46
00000270: 476f 0f47 003d 1147 0265 5846 0a96 ff47
00000280: 47e9 7346 0995 3946 7faa 8e47 e59f cf46
00000290: a767 0547 6202 2746 78bb 5948 4e68 e747
000002a0: f57f ad46 fcf3 a646 f7b6 3a47 db3b 2447
000002b0: 7b48 d646 4261 8147 cdd7 8e46 941d e646
000002c0: b5ee 7846 df25 8946 b3ae 1747 3183 0b47
000002d0: fc31 0747 f448 bb47 0020 b547 fc87 4946
000002e0: 83e8 0147 7a66 9546 2fc6 2446 567c 0647
000002f0: 39cc 6a47 6178 6446 13b0 5947 3c16 6046
00000300: 56be 0747 f311 d547 3b31 b347 76b2 7047
00000310: 6f97 6847 071c b047 9c38 e447 c2c8 2747
00000320: 2bfe 1448 21dc a446 debf 2048 055f 2b47
00000330: e149 3e46 66f8 0a46 b009 2d47 76b7 1746
00000340: f8ef d147 f4e3 7147 f381 8947 dc19 4847
00000350: 0c41 ce47 ac41 cb47 d4bb 2a48 3611 1b46
00000360: 4aa7 4846 c8df ac47 15a8 9046 a542 c747
00000370: 51f2 0148 6741 ea45 88ed d747 59e2 a346
00000380: ef52 2047 dd66 3348 1535 7947 d250 ca47
00000390: 32d0 fb46 0be9 5d47 547c cc46 1744 1147
000003a0: 05d0 8247 ea53 c246 006c ac47 3f20 3c48
000003b0: 94f4 e746 aaa5 4747 460e 1346 93e6 7e46
000003c0: 20d5 2847 7b18 ac46 e21d a846 ad62 a746
000003d0: 7a61 1946 9d2e 4a46 6819 1046 0740 ff46
000003e0: 5ced d046 87b7 6c48 e639 c846 afb5 bf47
000003f0: d730 3a45 9d71 f745 4488 c147 2f9f 9646
36547.246 112845.44 210631.27 299160.34 26276.357 39264.73 14944.283 22449.035
27075.545 34647.004 73416.36 9988.074 35511.527 213321.5 36464.402 325361.3
53238.125 53467.93 35282.04 15090.075 371973.22 17544.72 123812.98 75192.01
168329.17 3732.1487 165042.12 13272.772 44148.836 39402.223 16367.644 40165.367
20227.1 48747.613 33630.707 15422.448 142465.61 128719.99 100860.35 193260.7
56191.293 177240.5 44232.96 38114.91 11203.444 8256.752 93116.4 18852.635
37915.66 12830.7295 96798.18 30254.814 222830.25 26081.182 20508.223 19413.877
44297.78 42070.42 94830.08 38852.016 57597.582 16038.986 19790.883 13043.463
19363.863 44533.234 32356.643 17454.24 42096.715 12402.028 27178.74 97226.61
13528.295 41378.062 62440.63 23060.941 16846.547 32521.176 48380.91 79054.25
18093.781 47383.16 30895.55 24903.625 143805.38 10453.887 11742.347 24051.021
9111.652 7411.4087 105584.32 46675.805 92570.69 30556.646 127437.16 94715.17
34618.92 13044.661 66464.43 42546.664 19567.3 35153.75 17160.871 9000.576
83540.13 36892.617 63289.77 99761.42 127520.92 139179.92 61456.438 177665.92
64571.887 32194.783 30911.982 19571.793 71539.15 240465.98 427844.0 22932.39
22637.236 54220.9 38805.55 96047.52 82118.76 51582.508 17093.094 50637.8
20745.375 136890.47 62003.93 38198.37 23602.555 21447.041 103102.26 25774.723
103657.01 14618.2 13654.306 19922.557 88004.44 10261.533 33086.45 239990.42
15533.878 92574.484 89213.38 72505.46 188957.95 21041.145 84274.7 24182.316
84210.6 9597.241 10752.498 32291.484 36719.277 37181.0 13849.252 130860.08
15610.319 11877.259 73044.99 26575.947 34151.652 10688.596 222957.88 118480.61
22207.979 21369.992 47798.965 42043.855 27428.24 66242.516 18283.9 29454.79
15931.677 17554.936 38830.7 35715.19 34609.984 95889.91 92736.0 12897.996
33256.51 19123.238 10545.546 34428.336 60108.223 14622.095 55728.074 14341.559
34750.336 109091.9 91746.46 61618.46 59543.434 90168.055 116849.22 42952.758
152568.67 21102.064 164607.47 43871.02 12178.47 8894.1 44297.688 9709.865
107487.94 61923.953 70403.9 51225.86 105602.09 104067.34 174831.31 9924.303
12841.822 88511.56 18516.041 102021.29 133065.27 7496.1753 110555.06 20977.174
41042.934 183707.45 63797.082 103585.64 32232.098 56809.043 26174.164 37188.09
66976.04 24873.957 88280.0 192640.98 29690.29 51109.664 9411.568 16313.644
43221.125 22028.24 21518.941 21425.338 9816.369 12939.653 9222.352 32672.014
26742.68 242398.11 25628.95 98155.37 2979.0525 7918.2017 99088.53 19279.592

4.weight f4 [128, 256]
00000000: cadc 65bd cce0 ae3c e204 273b e0fe 983c
00000010: e35d c6bc 0e03 81bd 0dab 293d b7b4 e7bc
00000020: cde2 82bd d9a5 07bc c44d 533d 38db 6abd
00000030: cacf 13bd eaec 4b3d 3061 ec3b 9bf2 b23c
00000040: 180b 44bd aeac 31bc 0685 02bd 88e5 e5bc
00000050: 53d4 693d c284 613c f525 5f3d 7d23 b4ba
00000060: 304b 843c 1da8 32bc c190 88bb e8e3 ce3c
00000070: c617 5e3d 8cd3 103d 5500 d73b ea62 8b3c
00000080: 9619 04bd 37ae dabc 4afb ecbc 3757 18bb
00000090: fe5b 4bbc a706 86bd 1fc5 cd3c 9f6c 7f3c
000000a0: 04d5 653d 5e35 ee3c 9884 c8bc fdf1 90bc
000000b0: 2d90 00bc 8637 67bc b2d6 2fbd 4687 34bb
000000c0: 80af e4bb d73e eabc a8af 9bbc fd50 5f3d
000000d0: 921a fe3c 40ac dfbc 19a4 1cbd aff3 3ebd
000000e0: 290a 10bd e78a 2a3d fde3 363d a231 683d
000000f0: c7fe 81bb aa50 10bd b3ad 0bbd 07c6 a63c
00000100: e96b 233d f0cf 153d 031f 3c3c 038e 69bd
00000110: 8a57 2dbc 828e 2c3d 9320 593c 29a4 873d
00000120: c39c 8cbc 296c 3dbb c671 15bc b41f 3ebc
00000130: b1fe 66bd 52c3 a53b 85be 593d e758 593d
00000140: 9323 323c 5e21 05bd e514 0dbd 7138 6e3d
00000150: 4eb9 7e3d 1bb1 e63b 3079 dbbc a784 003c
00000160: 8251 583b da84 3dbb fd20 41bd f147 4f3d
00000170: 2fb0 4f3d ab43 02bd 4f18 97bc 0961 d7bc
00000180: 0a77 f0bb f82d e6bc 4f55 81bc 3d7d 493d
00000190: 684a 2f3d cfc7 113d d23f 033d a74f 43bd
000001a0: 2776 3fbd 7a35 523d 62d2 42bc 93bb a3bc
000001b0: 0bdd fcbc e628 1a3b f5f0 f8bc 0192 7f3c
000001c0: 4f08 62bd 80ae 21bd d2a6 3bbd 23ac 273c
000001d0: 19bc 66bd cdb3 823d 53cf ab3c b778 4abb
000001e0: b902 83bc 9763 24bd 9aa5 b13b 1bcb 5ebd
000001f0: 34ae 593d 4387 1d3d 04dd 623d 021e 963c
00000200: ce8d 5fbd 2f0a 33bd 9e51 0e3d dddc 2a3d
00000210: ab7f a3bb 617f 5f3c ea03 223d ca78 a93c
00000220: 3bd7 a7bc 6b43 fdbc aea0 d13c 659b 4039
00000230: 63f0 673d e2f4 61bd 14fe 203d 934a 6b3d
00000240: f78b f2bc 1c49 b9bb 2548 443d d4c3 a8bc
00000250: dc47 4cbd c4c5 683d d634 823d b59f 77bd
00000260: b9a7 47bd 8bd9 dcbc a5b8 53bc 3420 34bd
00000270: a4a8 0ebc 0c37 4b3d b1e1 05bc 6288 82bd
00000280: d232 ac3b 1d05 343d 1235 2a3d b3e1 3abd
00000290: b6bd 39bc 72d2 6dbd 432b 3bbd 55b1 ac3c
000002a0: 7488 67bd 4f29 41bd d55b 0fbd 1ad1 2bbd
000002b0: 6734 50bd 3537 5bbc 0d81 5c3d 7d8f 09bd
000002c0: 58d8 68bd 03b5 8b3c ec54 fc3b 2f58 82bd
000002d0: 8ae5 1d3d 3ceb 613c c879 293d 97a8 243d
000002e0: 46ef 833d 572e 513d c3d5 633d f098 503d
000002f0: d634 d7bb c080 d83c a23a 223d b890 673d
00000300: c900 86bd 6e15 cdbc 9afd d53c 6e34 efbc
00000310: 3183 b53b 978c 173d 3d96 32bd 4a2f 6f3c
00000320: ccfa 563c 462d 85bd 3c6c b8bc bd80 c93b
00000330: f37b 85bd 11b1 0cbd f6b6 88bc b058 5fbd
00000340: 2b37 73bc 6eb1 033d 8794 28bc b74f 2b3d
00000350: ea5a 2f3d 6a59 3b3d f08d bdbb 71e6 98bc
00000360: 8851 9ebc b988 25bd 9eef 443c 0b74 31bd
00000370: 9ffa 76bc bca3 10bc e363 013d 01bc ba3b
00000380: 3cad 59bd fa32 ea3c c5a1 c73c 3ea6 af3c
00000390: 6734 f6bc 16c1 223d 890a 353d 951f 6cbd
000003a0: ea71 223d e9e3 603c 6f63 fbbc 87c4 50bd
000003b0: 48ce 5b3d 737a babc 9cdb bdbb 8778 d4bc
000003c0: e723 d93c 5443 60bd 8e7f 3b3b 9321 df3c
000003d0: 6423 e5bb 2088 5abc 6cb5 533d a7e0 0d3d
000003e0: 6e62 573d 9f1c a8bc 5574 163d 3099 42bc
000003f0: be0d a6bc 3e47 2fbc d330 e6bc 4955 b0bc
-0.056118764 0.021347426 0.0025485088 0.018676221 -0.02421469 -0.06299411 0.041422892 -0.028284414
-0.06390915 -0.008279287 0.051587835 -0.05733797 -0.036086835 0.049786486 0.007213734 0.021844199
-0.047862142 -0.010844393 -0.031865142 -0.02806355 0.057087254 0.013764562 0.054479558 -0.0013743486
0.016149133 -0.010904339 -0.0041676466 0.025255159 0.05422189 0.035357997 0.006561319 0.01701494
-0.032250963 -0.0266944 -0.028928418 -0.0023245343 -0.012412069 -0.065442376 0.025118409 0.015589862
0.05611135 0.029078182 -0.024477288 -0.017693514 -0.007846874 -0.014112359 -0.04292936 -0.002754645
-0.006978929 -0.028594417 -0.019004658 0.054520596 0.03101853 -0.027303815 -0.038242433 -0.046619114
-0.03516594 0.041636374 0.04465102 0.05668796 -0.0039671394 -0.035233177 -0.0341012 0.020358099
0.039897833 0.036575258 0.011482003 -0.0570202 -0.010579953 0.042128094 0.013252395 0.06623108
-0.017164594 -0.002890358 -0.009121364 -0.011604238 -0.056395236 0.0050586844 0.05316021 0.0530633
0.010872739 -0.032502525 -0.034443755 0.058159295 0.06218844 0.0070401556 -0.026791185 0.007844127
0.0033007567 -0.0028918297 -0.0471506 0.050605718 0.05070513 -0.031802814 -0.018444208 -0.026291387
-0.0073384093 -0.028098091 -0.015787749 0.049191702 0.04279557 0.035590943 0.032043286 -0.047683384
-0.04674354 0.05132053 -0.0118909795 -0.019986903 -0.03086712 0.0023522913 -0.030388335 0.015598775
-0.055183705 -0.039473057 -0.04581339 0.010233912 -0.056331728 0.063819505 0.020972883 -0.0030894706
-0.01599251 -0.04013404 0.0054213526 -0.054392915 0.05314465 0.038459074 0.05538656 0.018324856
-0.054578595 -0.043710884 0.034745805 0.041714538 -0.0049895844 0.013641209 0.039554514 0.02068748
-0.020488372 -0.030915936 0.025589313 0.00018368436 0.056625735 -0.05516518 0.039304808 0.057444166
-0.029607756 -0.0056544673 0.047920365 -0.02060119 -0.049873218 0.05682923 0.06357734 -0.060455043
-0.048743937 -0.026959201 -0.012922441 -0.043976024 -0.008707199 0.049613044 -0.008171485 -0.06373669
0.0052550817 0.04395019 0.041554518 -0.0456254 -0.0113367345 -0.058062024 -0.045695554 0.021080652
-0.056526616 -0.047158536 -0.034999687 -0.04194746 -0.050831225 -0.013379862 0.05383401 -0.033584107
-0.056846946 0.017054087 0.007700553 -0.06364476 0.038548984 0.013788994 0.041375905 0.040199842
0.06442122 0.051069584 0.05562378 0.050927103 -0.006567578 0.02642858 0.039606698 0.0565345
-0.065431185 -0.025034633 0.026121903 -0.029199805 0.005539321 0.03699931 -0.04360031 0.014598677
0.013121318 -0.06502776 -0.022512548 0.00614938 -0.06517782 -0.03434855 -0.016688805 -0.05452794
-0.014844696 0.032151632 -0.010289318 0.04182407 0.04281131 0.04573957 -0.0057847425 -0.01866457
-0.019325987 -0.040413592 0.01202002 -0.043323558 -0.015074401 -0.0088281 0.0315894 0.0056986813
-0.053143725 0.02858876 0.02436913 0.021441575 -0.030054284 0.039734922 0.0441995 -0.057647306
0.03965942 0.013726213 -0.030687062 -0.050968673 0.053663522 -0.022763466 -0.0057940017 -0.025936378
0.026506377 -0.05475171 0.0028609964 0.02723769 -0.0069927443 -0.013338119 0.05168669 0.034638073
0.052584104 -0.02052146 0.036732037 -0.011877343 -0.020270225 -0.010698138 -0.028099453 -0.021525042

4.bias f4 [128]
00000000: 388d 403d cd65 28bd c742 3a3c 54e5 ca3c
00000010: 16a7 643c 767f 3cbc a05f 523d 12fe 97bc
00000020: c2d7 36bd e381 703d 2b87 a93b 336a af3c
00000030: bf84 5d3c 0d65 7dbd 2bea 4d3c 79ab 77bd
00000040: 0375 abbb b4d8 20bd 58ec 833b e99c ad3c
00000050: 0536 173d e42e 463d b96c 543d a4f9 a5bc
00000060: 8fb7 083d f293 593d 359c fd3b c4db f63c
00000070: 709f 30bd c648 523d cc73 d53c 1c31 cf3b
00000080: 078f 4dbd 3208 7b3d b365 11bd 4746 0dbc
00000090: cb94 14bd 8b41 76bd e584 423c cf32 d8bc
000000a0: fa37 7a3d 23fe 8abc de2f d43b 02e2 4538
000000b0: 5f24 973a f462 203d a20b 423d cc89 65bd
000000c0: 4b30 66bd 2922 cbbc eb4c 63bd 7765 123d
000000d0: bb12 d0bc 8fbf cd3c eb31 163c a50c d73b
000000e0: 15e7 52bd 235d ee3c 4b0a d43c 3f7e 63bd
000000f0: adff 7b3d 2f4a 993b ce04 8dbb c9f2 db3c
00000100: c746 34bd 0dd1 833c 1a93 57bb 8a44 08bd
00000110: 1a0c 41bc dd13 003d ceb0 10bd 69ca 0d3d
00000120: 81a4 6d3d 4d8d aa3c 45b8 163c 8cf7 053d
00000130: b8e0 7fbd 35d3 2fbd 3a95 883c 9548 e93c
00000140: f5ff 143d 8ddb 13bd b37b fa3c 9b6e b43a
00000150: a753 1a3d 676c 56bd fb74 873b 69d7 78bc
00000160: 56eb 393d 34cb 0d3d fa9e 1a3d dfd8 153d
00000170: 5244 49bc 59c2 543d 65f9 0b3d ad03 6abd
00000180: 1e5b 5e3d 40f6 29bc ba41 193d 3d27 5ebc
00000190: 3076 40bc 6a76 493c 7186 4f3d 211f 92bc
000001a0: aacc b73c baa3 febc 77ef 49bd 8e92 3a3d
000001b0: e4b2 743d 4304 d83c 9501 5b3c 0eb1 b03b
000001c0: 8c1d 863c 1109 5d3c a2f7 473d a74f 6bbd
000001d0: b172 50bc 327c 29bb 2853 ef3c 0db5 96bc
000001e0: b059 fe3a c012 58bd e6e0 fbbc f3c3 243d
000001f0: 4cad 783d 6414 513d 4ca4 eebc 33fb 5f3d
0.047009677 -0.04111271 0.01136846 0.024767555 0.013955852 -0.011504998 0.051360726 -0.018553767
-0.044639356 0.05871762 0.005173584 0.021412944 0.013520419 -0.061863948 0.012568037 -0.060466263
-0.0052324547 -0.039269164 0.004025977 0.021192985 0.03691675 0.048384562 0.0518615 -0.02026064
0.03337818 0.053119607 0.0077395686 0.03013409 -0.0431208 0.051338933 0.026056193 0.006322993
-0.05018523 0.061287113 -0.03549738 -0.008622712 -0.036274713 -0.0601211 0.011872505 -0.026391415
0.06108854 -0.016966885 0.006475433 4.7178946e-05 0.0011531225 0.03915687 0.047374375 -0.056039616
-0.0561984 -0.024796562 -0.055493277 0.035741296 -0.025399556 0.025115756 0.009167175 0.0065627866
-0.05148991 0.029097145 0.025883814 -0.05554032 0.06152313 0.004678033 -0.0043035513 0.026849167
-0.04401281 0.016090894 -0.0032894076 -0.03326849 -0.01178267 0.031268943 -0.035324864 0.03461686
0.05801821 0.02081933 0.009199207 0.032706782 -0.062470168 -0.042926032 0.01667272 0.028476993
0.036376912 -0.03609805 0.030576563 0.0013765873 0.037677433 -0.052349474 0.004133818 -0.0151880765
0.04539045 0.034617618 0.037749268 0.036583778 -0.012284355 0.051943157 0.034173388 -0.05713241
0.054286115 -0.010373652 0.037416197 -0.01355916 -0.011746928 0.0122962985 0.050665323 -0.017837109
0.022436459 -0.03108393 -0.049300637 0.04554992 0.059740916 0.02636922 0.013367076 0.0053922003
0.01637151 0.013490931 0.048820145 -0.05744901 -0.012722657 -0.002586138 0.029214457 -0.018396879
0.0019405391 -0.052752256 -0.030746888 0.040225934 0.060712144 0.051044837 -0.029131077 0.05468292

5.weight f4 [128]
00000000: d8e7 7e3f 2498 7e3f 6116 7e3f 057b 7e3f
00000010: a639 7e3f 1b36 7e3f ea10 7f3f 76e9 803f
00000020: 44b0 7f3f a88e 7f3f 7e31 803f 0e7a 7e3f
00000030: b492 803f a42e 813f 3870 7f3f 1fd5 803f
00000040: 98e3 7e3f 44a4 7e3f 9037 7e3f 2a13 7e3f
00000050: 0322 7e3f 6ebb 803f 2a7e 7f3f f28b 803f
00000060: 2e0b 7e3f f06f 7f3f 9dc2 7e3f 3e8a 803f
00000070: 9189 803f 9cec 7f3f 05d6 7e3f 0aa8 803f
00000080: 07b4 7f3f 54a9 7d3f 9ad6 803f 032c 7e3f
00000090: 960f 813f 9fbf 803f bf2b 803f 3519 7e3f
000000a0: 5e9a 803f c1ee 7e3f e5a8 803f 5ba3 803f
000000b0: fba6 803f 0550 7f3f f502 7f3f feea 803f
000000c0: d8a5 7e3f 535a 7f3f aa9f 7e3f 1365 7e3f
000000d0: c57e 7e3f 7a3d 7e3f 7d6d 7e3f a58a 803f
000000e0: c861 803f 748b 7f3f 7a65 7e3f a6c5 7e3f
000000f0: 6b7b 803f 1715 813f 778f 803f b3ab 803f
00000100: 644b 803f 6ce2 803f b751 803f cd85 7e3f
00000110: eb71 803f b2a3 7e3f a7db 803f d998 7f3f
00000120: f644 813f d779 803f fd0d 803f 15e3 7e3f
00000130: 2cb4 7e3f f9c8 803f 7db7 803f 47fd 7f3f
00000140: 501d 803f 40dd 7e3f f516 813f 76bf 803f
00000150: e2f8 7d3f c347 803f 9cdb 7d3f 2ebb 7e3f
00000160: 8aa3 7d3f a92b 7f3f 78e4 7e3f dc4b 7e3f
00000170: 115c 7f3f 0284 803f 26f4 803f b5cd 803f
00000180: eb0e 803f 9cb8 803f 8517 7f3f 39c4 803f
00000190: 3dd6 7e3f ae7e 803f 1f6c 7f3f 696b 803f
000001a0: 2762 803f 3a7a 7f3f 1ef6 803f 1cd8 803f
000001b0: 3610 7f3f 160f 813f 8b23 7f3f b4b2 803f
000001c0: 66db 7d3f c735 803f 184e 803f bec0 7d3f
000001d0: 34cf 7d3f b9fa 7e3f 78f0 7e3f e1bd 7f3f
000001e0: d3a1 803f 4d22 7e3f 916f 7f3f f1a7 7e3f
000001f0: 3568 7e3f 5a33 803f a334 803f b087 7e3f
0.99572515 0.994509 0.992529 0.9940646 0.99306715 0.9930131 0.99635184 1.0071247
0.99878335 0.9982705 1.0015104 0.9940499 1.004477 1.0092359 0.9978061 1.0065039
0.9956603 0.994694 0.9930353 0.9924799 0.9927065 1.0057199 0.99801886 1.0042708
0.9923581 0.9978018 0.99515706 1.0042188 1.0041982 0.9997041 0.9954532 1.0051281
0.99884075 0.990865 1.0065491 0.99285907 1.0082881 1.0058478 1.001335 0.9925721
1.0047109 0.9958306 1.0051543 1.0049852 1.0050958 0.99731475 0.9961389 1.0071714
0.9947181 0.997472 0.9946238 0.99372977 0.99412185 0.99312556 0.99385816 1.0042311
1.002984 0.99822164 0.9937359 0.9952034 1.0037664 1.0084561 1.0043782 1.0052398
1.0023007 1.0069098 1.0024937 0.99422914 1.0034765 0.9946853 1.0067033 0.998426
1.009917 1.0037183 1.0004269 0.9956525 0.9949367 1.0061332 1.0055996 0.99995846
1.0008945 0.9955635 1.0085131 1.0058429 0.9920789 1.00219 0.9916322 0.99504364
0.99077666 0.99675995 0.99567366 0.993345 0.9974986 1.0040286 1.0074508 1.0062777
1.0004553 1.0056338 0.9964526 1.0059882 0.9954565 1.003866 0.99774355 1.0032779
1.0029954 0.9979588 1.0075109 1.0065951 0.9963411 1.0082729 0.9966361 1.0054536
0.991629 1.0016412 1.0023832 0.99122226 0.9914429 0.9960132 0.99585676 0.9989911
1.0049385 0.9927109 0.9977961 0.9947501 0.9937776 1.0015671 1.0016063 0.9942579
