resources/models/3_by_3/sqrt_dataset_model_v001.pth (torch, 73768 bytes, 5 tensors)

lstm.weight_ih_l0 f4 [256, 3]
0	0xbd511bad	-0.051051784
1	0x3d6edb71	0.058314744
2	0xbde953bd	-0.11392925
3	0x3b1784a4	0.0023119831
4	0x3dc64b37	0.09682315
5	0xbdbe98a0	-0.09306455
6	0x3dbe8b0d	0.093038656
7	0xbdd8854a	-0.10572298
8	0xbdc53b38	-0.09630436
9	0x3dd9b860	0.1063087
10	0xbd2252b7	-0.039629664
11	0x3d1e9770	0.03871864
12	0xbdf60ec1	-0.12014533
13	0x3cdd2c71	0.02699873
14	0xbe04079a	-0.12893525
15	0xbd4d7ec5	-0.050169725
16	0x3d703ed4	0.058653668
17	0x3c92acda	0.017904688
18	0xbcbc46ae	-0.022982921
19	0xbda37e75	-0.07983104
20	0xbd4c8561	-0.049931888
21	0x3d01fe30	0.031736553
22	0xbdb23e7d	-0.08703325
23	0xbd7d460f	-0.06183439
24	0x3def6d15	0.116907276
25	0xba50f6af	-0.0007971329
26	0x3c02e8e0	0.007990092
27	0xbe011176	-0.12604317
28	0xbb8c825d	-0.0042880015
29	0xbc935b4a	-0.017987866
30	0xbded9bb6	-0.11601965
31	0xbd220b7e	-0.03956174
32	0x3da44624	0.08021191
33	0xbd974ebd	-0.07388065
34	0xbdd58a37	-0.10426753
35	0xbcaa62b9	-0.020799028
36	0x3dbeeba6	0.0932229
37	0xbdbb69be	-0.09151028
38	0xbc08e620	-0.008355647
39	0xbdc93de4	-0.09826258
40	0xbdbb6c4d	-0.09151516
41	0x3de17d8f	0.110102765
42	0x3d90d099	0.07071037
43	0xbdea0d7b	-0.114283524
44	0x3d0e706a	0.034775175
45	0xbda55017	-0.080719166
46	0xbcec4e5d	-0.02884596
47	0x3dba0578	0.09083074
48	0xbcbd6e36	-0.023123842
49	0xbd8b4de9	-0.068019696
50	0x3d9f4d12	0.07778372
51	0xbdc56461	-0.096382864
52	0xbbcd2ec8	-0.0062616803
53	0x3d2aa427	0.041660454
54	0xbc374630	-0.011186168
55	0x3dba440b	0.090950094
56	0xbd750c24	-0.05982603
57	0xbda0fa09	-0.078601904
58	0xbd88eaea	-0.06685431
59	0xbd8ea3a0	-0.06964803
60	0x3cac681f	0.021045743
61	0xbd9e32c4	-0.077245265
62	0x3d2c48c5	0.042061586
63	0xbda80989	-0.08204944
64	0x3dd39b6f	0.10332381
65	0x3ce0d83c	0.027446859
66	0xbdef0b89	-0.11672122
67	0xbdd81133	-0.105501555
68	0xbe04a5cc	-0.12953871
69	0xbd2da847	-0.04239681
70	0x3c0b92e7	0.008518911
71	0x3d089dce	0.03335362
72	0x3c1d5d51	0.009604768
73	0x3d01c50a	0.03168205
74	0xbdc21108	-0.09475905
75	0x3cc56259	0.024094747
76	0xbd8fdd2d	-0.07024608
77	0xbd314758	-0.04328093
78	0xbd8b3c87	-0.06798654
79	0xbc277fcf	-0.010223343
80	0x3db63e52	0.088986054
81	0xbdfeef4d	-0.12447987
82	0x3db4ebec	0.08834061
83	0xbdc24bbb	-0.09487101
84	0x3dcec594	0.10096279
85	0x3ceecb1b	0.029149583
86	0x3d97e0bf	0.07415914
87	0x3dcf16a0	0.10111737
88	0x3cc3f256	0.023919266
89	0x3c179eb3	0.009254145
90	0xbd596858	-0.053078026
91	0xbd12be66	-0.03582611
92	0x3dd1a897	0.10237234
93	0x3db7c84b	0.0897375
94	0xbbdbedf2	-0.006711715
95	0xbdefa00a	-0.11700447
96	0xbd06c933	-0.032906722
97	0xb8ff03e9	-0.00012160076
98	0x3de0f9d4	0.10985151
99	0xbdbfb667	-0.09360962
100	0x3cd3aec9	0.02584018
101	0x3d174a8e	0.036936335
102	0xbd71e75e	-0.05905854
103	0x3d539d17	0.051663484
104	0x3ce349dd	0.027745182
105	0xbc3f16e0	-0.011663169
106	0xbbfcc750	-0.0077141896
107	0x3dd085b3	0.10181751
108	0xbda1ee83	-0.079068206
109	0x3dcfcfb1	0.10147036
110	0xbd654813	-0.05597694
111	0xbded72bd	-0.1159415
112	0xbcfea817	-0.03108601
113	0xbdc55eba	-0.09637208
114	0x3d550336	0.052005015
115	0x3d700bb0	0.058604896
116	0x3cc5b328	0.02413328
117	0x3bdc8f78	0.00673097
118	0xbde376f1	-0.11106671
119	0xbd624928	-0.05524555
120	0x3de0c96d	0.10975919
121	0xbc68d625	-0.014211212
122	0x3a54f768	0.00081240246
123	0xbdea7db9	-0.11449761
124	0xbd94b21e	-0.07260536
125	0x3db0083d	0.08595321
126	0x3bdaf320	0.006681815
127	0xbd8c20f3	-0.06842222
128	0x3db775ab	0.0895799
129	0xbd8e1904	-0.06938365
130	0x3cc11114	0.023567714
131	0x3de1a040	0.110168934
132	0x3db2716b	0.08713039
133	0x3dfbfd61	0.123041876
134	0xbd6d3348	-0.057910234
135	0xbcfcf3db	-0.030877998
136	0xbd95d4eb	-0.073160015
137	0xbcf7fd01	-0.030272009
138	0xbcd963eb	-0.026536902
139	0x3b9fce4f	0.004876889
140	0xbd8c8508	-0.06861311
141	0x3ca9ce50	0.02072826
142	0x3da2816a	0.0793484
143	0xbdde8cf6	-0.1086673
144	0xbd5671ee	-0.052354746
145	0xbc4cffcb	-0.012512158
146	0x3bd259ce	0.006419397
147	0xbd9eafd3	-0.077483796
148	0xbc89db0f	-0.016828088
149	0xbde3fc4c	-0.11132106
150	0x3c9149f9	0.017735468
151	0xbdf7de35	-0.121029295
152	0x3d92ce72	0.071682826
153	0xbdfaeb87	-0.122519545
154	0x3deb44bb	0.11487719
155	0x3dc0ae33	0.09408226
156	0xbde696d7	-0.11259239
157	0xbd525be5	-0.05135717
158	0x3d6a6bb8	0.057231635
159	0xbd59f799	-0.053214643
160	0xbc1e4b0c	-0.009661447
161	0x3d93115c	0.071810454
162	0x3dace26f	0.08441626
163	0x3ded6696	0.11591832
164	0x3cf92cd3	0.030416882
165	0xbdc5f682	-0.09666158
166	0x3cd8ef95	0.02648143
167	0x3d7f97da	0.062400676
168	0xbc876674	-0.016528346
169	0xbd827721	-0.06370378
170	0x3d3e7fb8	0.04650852
171	0x3d388903	0.04505254
172	0x3b2ba3cc	0.002619016
173	0xbda65b64	-0.081229
174	0xbb300087	-0.0026855783
175	0xbda88779	-0.08228964
176	0xbdcf919f	-0.10135197
177	0xbdd64fce	-0.1046444
178	0x3baec83f	0.00533393
179	0x3dc875ea	0.09788115
180	0x3dcf7680	0.10130024
181	0x3de02400	0.109443665
182	0x3d92d80e	0.071701154
183	0x3c575ff4	0.013145436
184	0xbd0cdfff	-0.034393307
185	0x3cb8576a	0.02250262
186	0x3c9970e0	0.01873058
187	0xbd9a60fc	-0.075380296
188	0x3d0c9060	0.034317374
189	0xbdb56562	-0.08857228
190	0xbe03d341	-0.12873556
191	0x3dc5ae12	0.09652342
192	0xbddd9e10	-0.10821164
193	0x3d19660e	0.037450843
194	0xbd4827b5	-0.048865993
195	0x3bebe6e6	0.007199156
196	0x3d42bb48	0.047541887
197	0xbd8f7848	-0.07005364
198	0x3de5d71f	0.11222672
199	0x3d6ac7ff	0.057319637
200	0xbdc92c80	-0.09822941
201	0x3d97baa6	0.07408647
202	0xbdd23b74	-0.10265246
203	0xbde86084	-0.11346534
204	0xbdf763aa	-0.12079556
205	0x3cecaf3b	0.02889215
206	0xbd35b891	-0.04436547
207	0xbdb4ac84	-0.08821967
208	0x3d53e0e4	0.051728144
209	0xbdcba348	-0.09943253
210	0x3d197611	0.037466113
211	0x3d21cd15	0.039502222
212	0x3dba92b9	0.091100164
213	0xbddacff0	-0.10684192
214	0xbc561ad3	-0.013067919
215	0xbdd2c4c4	-0.10291436
216	0x3dd63790	0.104598165
217	0xbdcee584	-0.101023704
218	0x3dec5dd2	0.11541332
219	0xbcf4f1e3	-0.029900497
220	0x3c21430b	0.009842644
221	0x3cb9fbb6	0.022703033
222	0xbb859b59	-0.004077357
223	0xbde2fb21	-0.11083055
224	0x3d4486b3	0.04798002
225	0x3cc4c0d3	0.024017727
226	0xbd6f3c9a	-0.058407404
227	0x3ce67244	0.028130658
228	0xbdd1d449	-0.10245568
229	0xbd86f3a0	-0.065894365
230	0x3cd5b8f3	0.026089167
231	0x3cb46e48	0.022025242
232	0xbb3974a1	-0.0028298276
233	0xbd87dc30	-0.06633794
234	0xbd35af28	-0.044356495
235	0x3cd86c7f	0.026418922
236	0xbde64989	-0.112444945
237	0xbd9d581f	-0.076828234
238	0xbcfaa0cf	-0.030594258
239	0x3da200a7	0.07910281
240	0xbd7c390d	-0.061577845
241	0xbd952ea1	-0.072842844
242	0x3df2d984	0.11857894
243	0xbd2a29be	-0.041543715
244	0xbd9037e1	-0.07041908
245	0x3d29e00f	0.041473445
246	0xbd6e1379	-0.05812404
247	0x3dbf849c	0.09351465
248	0x3ca4bbe7	0.02010913
249	0xbcdc717d	-0.026909584
250	0x3d4d3a87	0.050104644
251	0x3d89b78b	0.06724461
252	0xbde3fd8e	-0.11132346
253	0x3d0b5f6b	0.034026545
254	0xbccd6b81	-0.025075676
255	0x3d9791e6	0.07400875

lstm.weight_hh_l0 f4 [256, 64]
0	0x3b2d1c95	0.0026414741
1	0xbccd9e90	-0.025100023
2	0x3dc1b3d5	0.09458128
3	0xbc4e8631	-0.012605236
4	0x3daa50c3	0.08316185
5	0xbda0f275	-0.07858745
6	0x3df8c058	0.12146062
7	0x3d3140b2	0.04327459
8	0xbc2cc009	-0.010543832
9	0xbdd9e5e8	-0.10639554
10	0xbd7cff6b	-0.061767023
11	0x3d8aeaab	0.067830406
12	0xbdaf47dc	-0.08558628
13	0x3d92b62d	0.071636535
14	0x3daa548c	0.08316907
15	0xbdce2565	-0.10065726
16	0xbdd8b9e5	-0.105823316
17	0x3c8c32c6	0.017114054
18	0xbdc66e19	-0.09688968
19	0xbda5d9c5	-0.08098177
20	0xbde58838	-0.11207622
21	0x3bfd5354	0.0077308808
22	0xbe045cf2	-0.12926081
23	0xbd18c9da	-0.037301876
24	0xbdd73794	-0.105086476
25	0xbdc9465e	-0.098278746
26	0xbd3518bf	-0.044213053
27	0xbcb3e459	-0.02195947
28	0x3cf00b07	0.029302133
29	0x3cb275ed	0.021784747
30	0xbc10eff5	-0.008846273
31	0x3d6342dd	0.055483688
32	0xbd8651d2	-0.06558575
33	0xbd79abcf	-0.060954865
34	0x3dc4f74b	0.0961748
35	0x3d9750c6	0.07388453
36	0x3d8be779	0.06831259
37	0x3db0d226	0.08633833
38	0xbc968ee1	-0.018378677
39	0xbc3bfb42	-0.011473479
40	0x3dc4d29a	0.096104816
41	0x3d950625	0.072765626
42	0x3ddf5704	0.10905269
43	0x3de1ec00	0.110313416
44	0x3d93c4e6	0.0721529
45	0x3d8bae90	0.068204045
46	0xbd03f8d4	-0.032219723
47	0xbd18a081	-0.037262443
48	0x3d4a2766	0.04935398
49	0xbdd34149	-0.103151865
50	0xbdaeeb2c	-0.08540949
51	0xbd021e73	-0.03176732
52	0x3cd7bed4	0.026336111
53	0xbcd05b9e	-0.025434311
54	0xbde8d643	-0.11368992
55	0x3dc71ee3	0.09722688
56	0xbcc2277a	-0.023700465
57	0x3dbd62fa	0.09247394
58	0xba8dd607	-0.0010821231
59	0x3da4e889	0.08052165
60	0xbd51b42c	-0.051197216
61	0x3d9fa9b8	0.07796043
62	0x3ded11c3	0.115756534
63	0xbc92be07	-0.017912878
64	0xbdd10016	-0.102050945
65	0xbdf13f66	-0.117796704
66	0xbdebb90f	-0.115099065
67	0x3deb542b	0.11490663
68	0xbe004638	-0.12526786
69	0xbd9c83a9	-0.076423
70	0x3db8efe1	0.09030128
71	0xbd09c9e2	-0.033639796
72	0x3d9b146d	0.07572255
73	0x3d571064	0.052505866
74	0xbc0466cf	-0.008081152
75	0x3de78e20	0.11306405
76	0x3d0bf88a	0.034172572
77	0xbd834639	-0.06409878
78	0xbdef9c6a	-0.116997555
79	0x3d94ba52	0.072621
80	0x3d52454f	0.05133563
81	0x3d8dd065	0.06924514
82	0x3ca4f772	0.020137522
83	0x3d004af8	0.031321496
84	0x3d90d66b	0.07072147
85	0x3dacb69a	0.08433266
86	0x3dea07c2	0.11427261
87	0x3d7c95b5	0.06166621
88	0x3d71f820	0.05907452
89	0xbc8eab4f	-0.01741567
90	0xbdfa29da	-0.12215014
91	0x3d88f2d7	0.06686943
92	0x3d4a41ea	0.049379267
93	0x3d3df6bb	0.04637788
94	0x3dc92ad0	0.09822619
95	0xbdc39ab7	-0.09550994
96	0x3b6a28f4	0.0035729976
97	0x3d3f9892	0.04677636
98	0x3d988996	0.074481174
99	0x3dc83800	0.09776306
100	0xbdf6bfd0	-0.12048304
101	0x3dc6a7fa	0.09700008
102	0x3df28be2	0.11843087
103	0x3e0068b4	0.12539941
104	0xbd655bd9	-0.055995796
105	0x3da1c5bb	0.07899042
106	0x3defd8bc	0.11711261
107	0xbd84f6f2	-0.064924136
108	0x3c641021	0.013919861
109	0xbdee0120	-0.11621308
110	0x3e001e1b	0.12511484
111	0xbc7fe384	-0.015618209
112	0x3db1b491	0.086770184
113	0xbdbed026	-0.09317045
114	0xb9e770ab	-0.00044143698
115	0x3d33c571	0.043889467
116	0x3cae4da1	0.02127725
117	0xbcd022a5	-0.025407145
118	0xbd9827d5	-0.07429472
119	0x3de6a938	0.11262745
120	0xbda3db5b	-0.08000823
121	0x3ccf11c7	0.025277032
122	0x3ccb41cc	0.024811648
123	0xbd35c691	-0.04437882
124	0xbda3d0c6	-0.07998805
125	0xbce1012e	-0.027466383
126	0x3daec586	0.08533768
127	0x3dff9365	0.12479285
128	0x3d7f9904	0.062401786
129	0xbb018e22	-0.0019768556
130	0x3df44ebc	0.1192908
131	0xbca1e0b8	-0.019760475
132	0xbc803c61	-0.01565379
133	0xbdec55c1	-0.11539794
134	0x3df9a5eb	0.121898495
135	0x3da54c94	0.08071247
136	0xbde726b0	-0.11286676
137	0x3d6a9160	0.057267547
138	0x3cf0b531	0.029383274
139	0xbca9c1bd	-0.020722264
140	0xbbea6009	-0.0071525616
141	0x3d95ec3c	0.07320449
142	0x3d89fbcc	0.067374796
143	0x3b99456e	0.004677466
144	0x3d292dd2	0.041303463
145	0x3decc840	0.11561632
146	0x3d9139b7	0.07091086
147	0x3d6006ef	0.054694112
148	0x3de488f7	0.111589365
149	0xbc17ed64	-0.009272907
150	0xbb6015a6	-0.003419259
151	0xbdd345f4	-0.10316077
152	0xbc350b06	-0.0110499915
153	0x3baf1fd4	0.0053443704
154	0x3da8acff	0.082361214
155	0x3dd39b0c	0.10332307
156	0xbc9ed6e3	-0.019389575
157	0x3c6931b8	0.014233045
158	0x3db8f3a1	0.090308435
159	0x3ddbabfe	0.10726164
160	0x3d46216c	0.048371717
161	0x3c9c3db3	0.01907239
162	0xbde417f7	-0.111373834
163	0x3b04ec63	0.00202825
164	0xbd9611d5	-0.0732762
165	0xbd5718fa	-0.052514054
166	0xbd003489	-0.0313001
167	0x3c422239	0.01184898
168	0x3d54c102	0.05194188
169	0x3d1a9e33	0.037748527
170	0x3da52704	0.08064082
171	0x3d6e1b15	0.058131296
172	0xbd969ac8	-0.07353741
173	0x3d4c60bf	0.04989695
174	0x3d045caf	0.032314952
175	0x3c601632	0.013677167
176	0xbdc4a8a3	-0.096024774
177	0xbdfed30a	-0.12442596
178	0xbdb5640c	-0.08856973
179	0xbddd8008	-0.10815436
180	0xbd3f35c0	-0.04668212
181	0xbd40bbe4	-0.047054186
182	0x3d2d23e6	0.042270564
183	0x3de1d5ad	0.110270835
184	0xbbe9bf11	-0.0071333726
185	0xbd5d34b4	-0.05400534
186	0x3d9df7fc	0.07713315
187	0xbcd5c744	-0.026095994
188	0x3d8d5040	0.06900072
189	0xbde446e2	-0.11146332
190	0x3ded5969	0.11589319
191	0x3c1d4c47	0.0096007055
192	0x3c943caf	0.018095342
193	0x3ce95c90	0.02848652
194	0xbdb3567a	-0.087567285
195	0x3d58fe04	0.052976623
196	0xbdb3ccfb	-0.08779331
197	0xbd3b7d94	-0.045774058
198	0xbdabce0c	-0.0838891
199	0x3cf5c74a	0.030002255
200	0xbb93b363	-0.0045074685
201	0x3d1c2bb0	0.0381276
202	0x3df21062	0.11819531
203	0xbc207a83	-0.009794834
204	0xbdacd3c9	-0.08438832
205	0xbddedfdf	-0.10882544
206	0x3c1fc98a	0.0097526405
207	0x3df66499	0.12030906
208	0xbd4d7f9c	-0.050170526
209	0x3d4c2994	0.04984434
210	0xbdc830ac	-0.097749084
211	0xba2a96e3	-0.0006507469
212	0xbc13173f	-0.00897771
213	0x3d0f5f21	0.03500283
214	0x3c1b51d5	0.0094799595
215	0xbd47ab9c	-0.048747644
216	0x3ddfbafa	0.10924335
217	0x3dc97621	0.098369844
218	0x3ccd6244	0.02507127
219	0x3de0ba2b	0.10973009
220	0xbd810933	-0.06300583
221	0x3e0149f4	0.12625867
222	0x3dddc0be	0.10827778
223	0x3de47a30	0.11156118
224	0x3c99d099	0.018776225
225	0x3de029b3	0.109454535
226	0xbd8cd7b0	-0.068770766
227	0xbdd4029e	-0.10352062
228	0xbc635e89	-0.013877519
229	0x3cbf44b7	0.023348195
230	0x3d65dafb	0.05611704
231	0x3db6915e	0.08914445
232	0x3db4f42a	0.08835633
233	0xbda97412	-0.08274092
234	0x3d173512	0.036915846
235	0x3dd3536f	0.10318648
236	0x3ded5233	0.11587944
237	0xbc9c437b	-0.019075146
238	0xbd40fc54	-0.04711564
239	0x3ddcc4e3	0.10779741
240	0xbd9fc6c6	-0.07801585
241	0x3d865b20	0.065603495
242	0x3e0340af	0.12817644
243	0xbd05ce74	-0.032667592
244	0xbdc75852	-0.09733643
245	0xbddb1066	-0.10696487
246	0xbd826fd5	-0.063689865
247	0x3d5146b6	0.051092826
248	0xbded8a86	-0.11598687
249	0x3aecd4b7	0.0018068765
250	0x3cad767d	0.021174664
251	0xbd37bed9	-0.04485974
252	0xbdc18853	-0.0944983
253	0xbde860ed	-0.11346612
254	0x3dee4cea	0.11635764
255	0xbdd2d21c	-0.102939814

lstm.bias_ih_l0 f4 [256]
0	0x3da7249f	0.08161282
1	0x3cfecfcb	0.031104943
2	0xbba633f7	-0.0050721127
3	0xbd415498	-0.047199816
4	0xbc011008	-0.007877357
5	0xbde5b2b4	-0.112157255
6	0x3ae9617a	0.001780554
7	0x3ce2be6f	0.027678696
8	0xbd356e3c	-0.04429458
9	0x3dbf92c6	0.09354167
10	0xbc9e9196	-0.01935653
11	0x3d965111	0.07339681
12	0xbd2ecfa0	-0.042678475
13	0xba1ce459	-0.0005984954
14	0x3cf5ac6e	0.029989447
15	0xbd391b80	-0.04519224
16	0xbd5e5be8	-0.054286867
17	0xbbd71bab	-0.0065645776
18	0xbdb5be57	-0.08874195
19	0xbdb7cb6a	-0.08974345
20	0x3daf2173	0.08551302
21	0x3dab44c1	0.08362723
22	0x3a4e7f8a	0.0007877281
23	0xbdee0547	-0.116221
24	0xbd5b9bd5	-0.05361541
25	0x3cd23e20	0.02566439
26	0x3d9a85f2	0.07545079
27	0xbdbc0b17	-0.09181803
28	0x3d6bb966	0.057549857
29	0xbc1dd69a	-0.0096336845
30	0xbcd79b1a	-0.026319075
31	0x3c897512	0.016779456
32	0xbc0f7b21	-0.008757384
33	0xbd8760f5	-0.0661029
34	0x3c66dc9e	0.014090685
35	0xbd9c24d2	-0.076242104
36	0x3d915534	0.07096329
37	0xbb5ef9e2	-0.0034023453
38	0xbdd70601	-0.10499192
39	0xbc494ec7	-0.012286848
40	0x3d9868f6	0.07441895
41	0xbd54d69c	-0.05196248
42	0xbdf15110	-0.117830396
43	0x3cbae7d3	0.02281562
44	0xbde71f1d	-0.11285231
45	0x3c88ff93	0.01672343
46	0xbdacfadd	-0.08446286
47	0xbcd600f1	-0.026123496
48	0xbd5f31e8	-0.054490954
49	0x3d8fb832	0.07017554
50	0xbc08f3a0	-0.008358866
51	0xbd3ded65	-0.046368975
52	0xbcbf537f	-0.023355244
53	0xbdc7cd11	-0.0975591
54	0xbdd42088	-0.10357767
55	0xbc3d5be7	-0.011557556
56	0xbd4ac77e	-0.049506657
57	0x3d0cefba	0.03440831
58	0x3c582183	0.013191584
59	0xbd868191	-0.065676816
60	0x3dc76a71	0.09737099
61	0xbbff5e01	-0.0077931886
62	0x3d1669eb	0.036722105
63	0xbd9d2c7b	-0.076744996
64	0xbd504f3d	-0.050856818
65	0x3dd7a3a2	0.10529257
66	0x3d8dd3ac	0.06925139
67	0x3d2c00c7	0.04199293
68	0xbdbccc38	-0.09218639
69	0x3cfa6650	0.030566365
70	0x3cf106cd	0.029422188
71	0xbbca44ee	-0.006172768
72	0x3c8cefb6	0.017204147
73	0xbd12bd15	-0.035824854
74	0x3db8fb2f	0.090322845
75	0x3d1bed55	0.038068134
76	0x3da18737	0.07887118
77	0xbd953c11	-0.072868474
78	0xbd934bcc	-0.071921915
79	0xbd830568	-0.063975155
80	0xbe02f796	-0.12789759
81	0x3ceaf5e5	0.028681705
82	0x3d401b5e	0.0469011
83	0xbcfaf7ad	-0.03063568
84	0x3df13ce3	0.11779191
85	0x3cdd4ff7	0.02701567
86	0xbd276f13	-0.040877413
87	0xbde6dc92	-0.11272539
88	0xbcb07ce3	-0.021543926
89	0xbdd70d49	-0.10500581
90	0xbd7f9a58	-0.062403053
91	0x3ba8c1f1	0.0051500727
92	0xbd38d219	-0.04512224
93	0xbddaed2c	-0.10689768
94	0xbd46e0e2	-0.04855431
95	0x3c93f31f	0.018060265
96	0x3df7380c	0.12071237
97	0xbd6f9f97	-0.058501806
98	0xbd744fea	-0.059646524
99	0xbc498e3e	-0.01230198
100	0x3dbb3d01	0.09142495
101	0x3db0027f	0.08594226
102	0xbd2b1b6b	-0.041774195
103	0xbd284cdb	-0.04108892
104	0x3dc98d9c	0.09841463
105	0xbdcb9de8	-0.099422276
106	0x3dbc11e1	0.09183098
107	0xbcf6441b	-0.030061772
108	0xbdc13fff	-0.094360344
109	0xbdabba1d	-0.08385108
110	0xbdc0f0db	-0.094209395
111	0xbd58ee37	-0.052961554
112	0x3dc588ae	0.0964521
113	0xbc0afcef	-0.008483156
114	0x3de4008e	0.11132918
115	0xbd66e55f	-0.05637109
116	0x3d38cac5	0.04511525
117	0xbde5faa1	-0.11229444
118	0x3de0dabf	0.109792225
119	0xbc20e779	-0.009820812
120	0xbc9c832c	-0.019105516
121	0xbd308bb3	-0.043101978
122	0xbdd4cb8a	-0.103903845
123	0x3c091e8b	0.008369098
124	0xbc883cd5	-0.01663057
125	0x3dd5f1af	0.10446488
126	0x3deb90c0	0.11502218
127	0xbda7aa8f	-0.08186828
128	0x3ce8c94e	0.028416302
129	0xbd2372e9	-0.03990451
130	0x3db48a41	0.08815432
131	0xbda1147e	-0.07865237
132	0xbddf2a4c	-0.10896739
133	0x3dc8aefa	0.09798999
134	0xbdfbbd5f	-0.12291979
135	0xbdbe8654	-0.09302965
136	0xbdb56bbb	-0.088584386
137	0x3d7d2d50	0.06181079
138	0xbd8be1e6	-0.06830196
139	0x3d9e8b36	0.07741396
140	0xbd8e5c5f	-0.06951212
141	0x3cc2476f	0.023715703
142	0xbcc07dd7	-0.023497505
143	0xbd377fc4	-0.04479958
144	0xbdf506b1	-0.11964167
145	0xbc4de8bf	-0.012567698
146	0xbddc568d	-0.10758696
147	0xbdf24aa7	-0.11830645
148	0xbd09d537	-0.033650603
149	0x3cfcdff5	0.03086851
150	0xbd186371	-0.03720421
151	0x3ddb8ac7	0.10719829
152	0x3dad8fe6	0.08474712
153	0xbd1337ba	-0.035941817
154	0x3b6772e4	0.0035316283
155	0x3d894ca6	0.06704073
156	0x3dcc2a8f	0.09969055
157	0x3da4195a	0.08012648
158	0xbda2cb6d	-0.07948957
159	0x3d3dc92c	0.04633443
160	0x3d6525b3	0.055944156
161	0x3d633aa3	0.055475842
162	0x3d200927	0.03907123
163	0xbdbfc8af	-0.09364449
164	0x3dc6b2ac	0.09702048
165	0xbc30bc8a	-0.010787139
166	0x3daf4835	0.08558694
167	0x3cf2c8d1	0.029636772
168	0x3cc85820	0.024456084
169	0xbd08d03b	-0.03340171
170	0x39b359d6	0.00034208474
171	0x3c5c1eee	0.013435109
172	0xbdd1c6af	-0.10242974
173	0xbdf53968	-0.1197384
174	0xbd8bdc60	-0.068291426
175	0x3da1b913	0.07896628
176	0x3d932e50	0.07186568
177	0xbde7d233	-0.11319389
178	0xbdc56406	-0.096382186
179	0xbd814c4d	-0.06313381
180	0x3d5fb702	0.05461789
181	0xbdf144d4	-0.11780706
182	0x3db17c8f	0.08666336
183	0xbd78bd91	-0.06072766
184	0x3d5829a3	0.052774083
185	0x3d5e4bfc	0.054271683
186	0x3d096ffd	0.033554066
187	0xbcebb0ad	-0.028770769
188	0x3c86bc7f	0.016447304
189	0xbc1cd47c	-0.009572145
190	0xbc84de96	-0.016219418
191	0x3d9a88ad	0.075456
192	0xbcc36a91	-0.023854526
193	0x3dd602d6	0.1044976
194	0xbc63d0bb	-0.013904746
195	0xbd80f84a	-0.062973574
196	0x3df33f63	0.118773244
197	0xbd4c9f11	-0.049956385
198	0x3db6e7cf	0.08930933
199	0xbdcfcc86	-0.101464316
200	0xbdbb08c3	-0.091325305
201	0xbdf95bab	-0.121756874
202	0x3b589025	0.0033044901
203	0x3bde54d2	0.0067850137
204	0xbd9f7535	-0.07786027
205	0x3d86c175	0.06579868
206	0x3da60489	0.08106334
207	0x3c8e2c80	0.017355204
208	0x3d210e19	0.039320085
209	0xbddd9529	-0.10819466
210	0xbdc0d9a2	-0.0941651
211	0x3cb64c8d	0.0222533
212	0x3de243ef	0.110481136
213	0xbdd88395	-0.10571972
214	0xbdc0aad7	-0.09407585
215	0xbba695df	-0.005083784
216	0x39877ec6	0.0002584366
217	0x3c236094	0.0099717565
218	0xbda83138	-0.08212513
219	0x3d8645c9	0.06556279
220	0xbdcd302d	-0.100189544
221	0xbcd53221	-0.02602488
222	0x3d8bb7de	0.06822179
223	0x3dd40e38	0.103542745
224	0xbbc496be	-0.005999415
225	0x3d0c367e	0.034231655
226	0xbdb75f51	-0.08953727
227	0x3d089e92	0.03335435
228	0xbc2bdbc9	-0.010489413
229	0x3dee8931	0.11647261
230	0x3d267f07	0.040648486
231	0xbdae64bc	-0.08515307
232	0x3d79cd18	0.06098661
233	0x3d0ea1be	0.034822218
234	0xbdbca698	-0.09211463
235	0x3d89da77	0.06731122
236	0x3d785735	0.060630042
237	0x3d167ec5	0.03674199
238	0xbd0776b2	-0.03307218
239	0xbd621153	-0.055192303
240	0xbd128bb7	-0.035777774
241	0xbdcc91cf	-0.09988748
242	0x3ddf3377	0.10898488
243	0xbdd86db8	-0.10567802
244	0xbd7130cf	-0.058884438
245	0xbcff3c11	-0.031156572
246	0xbdace520	-0.084421396
247	0x3d96b7c7	0.073592715
248	0xbcec7d1e	-0.028868254
249	0xbd9d50a1	-0.07681394
250	0xbdc6cc8e	-0.097069845
251	0x3c81180d	0.015758539
252	0xbc54cf88	-0.012988932
253	0xbdb086b7	-0.08619445
254	0xbdd762e6	-0.1051691
255	0xbd1e89c4	-0.038705602

lstm.bias_hh_l0 f4 [256]
0	0x3d665139	0.056229804
1	0x3de859c2	0.11345245
2	0xbac309d9	-0.0014880254
3	0x3ddd9fb4	0.108214766
4	0x3ac59ec4	0.0015077223
5	0x3c8083cc	0.015687846
6	0xbb8bff3f	-0.004272371
7	0x3d1c6ae4	0.038187876
8	0xbcd260aa	-0.025680859
9	0xba98fe07	-0.0011672386
10	0xbda3efb8	-0.08004707
11	0xbda67865	-0.08128432
12	0x3dc0c8a2	0.09413268
13	0x3dda06c6	0.10645823
14	0xbdb7cf02	-0.089750305
15	0x3d428188	0.047486812
16	0xbd7b49a0	-0.06134951
17	0x3df40be7	0.11916333
18	0x3a6f55f1	0.0009129933
19	0x3d423aea	0.047419466
20	0x3cc4fe4c	0.02404704
21	0x3c14af76	0.009075036
22	0xbe00d35e	-0.1258063
23	0x3d58c063	0.05291785
24	0xbd6c69f1	-0.05771822
25	0xbd2addf3	-0.041715574
26	0xbdf43d90	-0.119258046
27	0x3bd32f5e	0.0064448556
28	0x3aa9c26a	0.0012951617
29	0xbdd4aa0f	-0.103839986
30	0xbdebab6b	-0.11507305
31	0xbd197bd5	-0.03747161
32	0xbcff033a	-0.031129468
33	0x3de1305f	0.10995554
34	0x3da29e37	0.07940333
35	0xbdc01068	-0.09378129
36	0x3d25df50	0.04049617
37	0xbdded291	-0.10880006
38	0x3def76d4	0.116925865
39	0xbddb9818	-0.10722369
40	0xbd8906f8	-0.06690782
41	0x3dab3822	0.08360316
42	0x3d648f16	0.05580052
43	0xbd73833e	-0.059451334
44	0x3ce8958b	0.02839162
45	0xbc544e51	-0.012958125
46	0xbd881d8b	-0.0664626
47	0x3dc771b8	0.09738487
48	0x3d393acc	0.04522209
49	0x3dcb3db4	0.09923878
50	0x3d76f969	0.06029645
51	0xbd686081	-0.05673266
52	0xbd745b58	-0.059657425
53	0x3d4c41d2	0.04986746
54	0xbc96dd16	-0.018415969
55	0xbd22c8ba	-0.03974221
56	0x3d4c9a6e	0.049951963
57	0x3d948b45	0.07253126
58	0xbbf48e79	-0.007463273
59	0x3d9ed905	0.07756237
60	0x3d5add21	0.05343354
61	0x3cc74d31	0.0243288
62	0xbde5a7b0	-0.112136245
63	0xbd91b941	-0.071154125
64	0xbda567ef	-0.080764644
65	0x3b8360ec	0.0040093567
66	0xbdb2cbf0	-0.08730304
67	0x3d3918f3	0.04518981
68	0xbdb9efbe	-0.0907893
69	0xbda8ba12	-0.08238615
70	0x3d7ab313	0.061205935
71	0x3caa2f6b	0.020774564
72	0x3bd45782	0.0064801583
73	0xbddc7fc1	-0.107665546
74	0x3c9949c5	0.018711934
75	0x3dc809b1	0.097674735
76	0x3d3e57c4	0.04647042
77	0xbdbd0ad5	-0.09230582
78	0xbde9bd36	-0.11413042
79	0xbd5b7e2c	-0.053587124
80	0x3d7698e0	0.060204387
81	0x3d9438ac	0.07237372
82	0xbc38c3c1	-0.01127714
83	0xbdf18b44	-0.11794141
84	0xbd779aa3	-0.060450207
85	0xbd8f3c62	-0.06993939
86	0x3cfd788f	0.030941276
87	0x3d7778e9	0.060418043
88	0xbda72fc5	-0.08163408
89	0xbdbff58b	-0.093730055
90	0x3dc4a276	0.096012995
91	0x3d876144	0.06610349
92	0xbd3b7ed1	-0.04577524
93	0x3dc12b28	0.094320595
94	0xbd91330d	-0.07089815
95	0x3d27fa2b	0.041010063
96	0x3cc9ebc0	0.024648547
97	0x3d6a8201	0.057252888
98	0xbdcf0774	-0.101088434
99	0xbd2d562c	-0.042318508
100	0x3cd5a6c0	0.02608049
101	0x3bef0a9a	0.007294965
102	0xbde07403	-0.109596275
103	0xbdb8bed7	-0.09020775
104	0xbd38acd9	-0.045086715
105	0x3de2f7ec	0.110824436
106	0x3d9e88bd	0.077409245
107	0xbdec2b7a	-0.1153173
108	0xbdc4f09c	-0.09616205
109	0x3c866ce4	0.016409345
110	0x3df4abb3	0.119468115
111	0x3d8765d2	0.066112176
112	0x3af41c0f	0.0018624085
113	0xbdb39fd1	-0.08770717
114	0xbdff3388	-0.12461001
115	0x3d9f2720	0.077711344
116	0xbd092130	-0.033478916
117	0x3db08ea3	0.08620956
118	0xbd84718e	-0.06466971
119	0xbdc17fb6	-0.09448187
120	0x3d137066	0.035995863
121	0xbd08c698	-0.03339252
122	0xbb8f891c	-0.0043803584
123	0x3dda7eb3	0.10668697
124	0xbd326bf1	-0.043559972
125	0xbd0dd81c	-0.034629926
126	0xbddbc930	-0.10731733
127	0xbdcbd09d	-0.09951899
128	0x3d096262	0.03354109
129	0x3de18b05	0.11012844
130	0xbdec3ed8	-0.11535424
131	0x3d879216	0.066196606
132	0xbdc2cfa0	-0.095122576
133	0xbdc1e17c	-0.09466836
134	0x3d4d89bb	0.050180178
135	0x3d2291bc	0.039689764
136	0x3d675a1a	0.056482412
137	0xbd4c293d	-0.049844015
138	0x3d88ea51	0.06685317
139	0x3c970b6c	0.018438064
140	0x3b6fa949	0.0036569408
141	0x3df107a6	0.11769037
142	0x3d40af30	0.04704207
143	0x3d4bca30	0.049753368
144	0xbdc21e13	-0.094783925
145	0xbddebc39	-0.108757444
146	0xbdeae2bb	-0.11469027
147	0x3b92e7fb	0.0044832206
148	0xbdd7cac3	-0.105367206
149	0x3db8e0cc	0.090272516
150	0xbc166426	-0.009179151
151	0x3cba7fcf	0.022766022
152	0xbdb08989	-0.08619983
153	0xbdc331cb	-0.09530982
154	0xbddb7efe	-0.10717581
155	0xbdb4cd50	-0.08828223
156	0xbbd95bee	-0.0066332733
157	0x3bff47f9	0.007790562
158	0xbdd85f43	-0.10565045
159	0xbcaf4602	-0.021395687
160	0xbdb91151	-0.09036506
161	0xbdb720be	-0.08941792
162	0x3defe8e0	0.11714339
163	0x3db9af4d	0.09066639
164	0xbdef3f9e	-0.11682056
165	0xbda4bf02	-0.08044244
166	0x3cfc6709	0.03081085
167	0x3dda0caf	0.106469505
168	0x3cc472e8	0.023980573
169	0x3de8452d	0.11341319
170	0x3c896ad5	0.016774574
171	0xbdec709f	-0.11544918
172	0xbda9f9b3	-0.082995795
173	0x3db7801a	0.0895998
174	0x3dde2d4c	0.108484834
175	0xbc712709	-0.014718779
176	0xbde8cff4	-0.11367789
177	0x3c87be14	0.016570129
178	0x3c95b630	0.01827535
179	0xbda34e08	-0.07973868
180	0x3dea9f4c	0.11456165
181	0x3cb91635	0.022593597
182	0xbccec36d	-0.02523967
183	0x3d1fe9bd	0.03904127
184	0x3de8328e	0.113377675
185	0x3d7a9134	0.061173633
186	0xbdc1eca7	-0.09468966
187	0xbdfd94d1	-0.123819
188	0x3d170a66	0.03687515
189	0x3d04df97	0.032439794
190	0xbdcaa3b3	-0.098945044
191	0xbc98c0bd	-0.018646592
192	0xbd221cff	-0.039578434
193	0xbdff32b6	-0.12460844
194	0xbcfdaabe	-0.030965205
195	0xbd556107	-0.052094486
196	0x3d98a8fd	0.07454107
197	0x3df399cb	0.11894568
198	0xbd8d212c	-0.06891093
199	0xbbdb2098	-0.006687235
200	0x3bfb6ce5	0.0076728933
201	0x3dc4df1b	0.096128665
202	0xbd5d62ef	-0.05404943
203	0xbd8d8732	-0.06910552
204	0x3d56366d	0.052298
205	0x3d9990b1	0.07498301
206	0xbdbe68b3	-0.092973135
207	0xbd3bbd26	-0.045834683
208	0xbdc84883	-0.097794555
209	0x3d225f15	0.03964146
210	0x3d9e13ba	0.07718606
211	0x3ca358f4	0.019939877
212	0xbcb49099	-0.022041606
213	0x395f8638	0.00021316938
214	0xbdefc58b	-0.117076
215	0x3d86297f	0.065508835
216	0xbd772d25	-0.060345788
217	0x3d556929	0.05210224
218	0x3cbc8f5a	0.023017574
219	0x3cc0ccbf	0.02353513
220	0x3dbae5cd	0.09125862
221	0xbd1ebfcf	-0.03875714
222	0x3ccae945	0.024769435
223	0x3e00cef1	0.12578942
224	0xbdda064a	-0.10645731
225	0x3dc81527	0.097696595
226	0x3daaae5d	0.083340384
227	0x3da09eff	0.07842826
228	0xbd4a5454	-0.049396828
229	0x3c4bec4e	0.012446476
230	0xbdbea7f6	-0.0930938
231	0xbc27bc02	-0.010237696
232	0x3d684b83	0.05671264
233	0x3d87e332	0.06635131
234	0xbd1edcb5	-0.0387847
235	0x3d115f4e	0.03549128
236	0xbde0362c	-0.109478325
237	0x3d8594c2	0.06522514
238	0x3da8ef40	0.08248758
239	0x3d7b3e7a	0.06133888
240	0x3dbb8a99	0.09157295
241	0x3dab8c33	0.0837635
242	0x3da9aa3f	0.08284425
243	0x3d0df738	0.034659594
244	0xbde7bbb3	-0.11315098
245	0xbd9f3beb	-0.077751
246	0x3d12c6eb	0.035834234
247	0xbd8d453f	-0.06897973
248	0xbc0407dc	-0.008058514
249	0x3c0b83aa	0.008515278
250	0xbdd01802	-0.10160829
251	0xbde2f670	-0.110821605
252	0xbc9a93f5	-0.01886938
253	0xbd1c239e	-0.038119905
254	0x3dedc89a	0.11610527
255	0xbd8026a9	-0.06257374

fc.weight f4 [1, 64]
0	0x3d084376	0.03326746
1	0x3d47019f	0.04858553
2	0xbd456a81	-0.048197273
3	0x3d05fc3a	0.032711245
4	0xbd02b94a	-0.031914987
5	0x3d121e2b	0.0356733
6	0xbd219aee	-0.039454393
7	0xbca85b69	-0.0205514
8	0x3d805158	0.06265515
9	0x3d70b2e9	0.058764372
10	0x3d27394e	0.040826134
11	0xbdd77f88	-0.105223715
12	0x3b9e8b0d	0.0048383535
13	0xbdb18d9c	-0.08669588
14	0x3da0bebb	0.07848879
15	0xbdc3ca00	-0.09560013
16	0x3d941ff2	0.072326556
17	0x3d8b4527	0.06800299
18	0xbdb1b1c0	-0.08676481
19	0xbd30f8b4	-0.04320593
20	0xbd7f1a4a	-0.06228093
21	0x3d1d5b77	0.038417306
22	0x3d957352	0.07297386
23	0xbdd43817	-0.10362261
24	0x3d626d86	0.05528023
25	0x3dc22aa2	0.09480788
26	0xbd9a3cfb	-0.07531162
27	0xbda125e7	-0.078685574
28	0x3d93e9dd	0.0722234
29	0xbddee299	-0.10883064
30	0x3c62496d	0.013811451
31	0xbbe25cd6	-0.0069080396
32	0xbdde4ee1	-0.10854889
33	0xbd6e53bf	-0.058185335
34	0x3daef304	0.08542445
35	0x3dc0f394	0.09421459
36	0xbc592e21	-0.013255627
37	0xbd893f4e	-0.067015275
38	0xbdcd3179	-0.10019202
39	0x3d021873	0.031761598
40	0xbd8d9545	-0.069132365
41	0x3d5e4c37	0.054271903
42	0xbde13b35	-0.10997621
43	0x3c723651	0.014783458
44	0xbda83aa5	-0.082143106
45	0xbc7f650a	-0.015588054
46	0xbd11524a	-0.035478868
47	0xbd7bb8b3	-0.06145544
48	0xbd74525e	-0.059648864
49	0x3d966dd9	0.073451705
50	0xbd4953dc	-0.04915224
51	0x3dd2321c	0.10263464
52	0x3cc97b15	0.024594823
53	0x3d10f115	0.035386164
54	0xbd0e8fb0	-0.034805
55	0x3c72ae28	0.01481203
56	0xbc7d833c	-0.015473183
57	0xbd9eed0b	-0.07760056
58	0xbcbfc04d	-0.023407126
59	0xbd22a60b	-0.039709132
60	0xbab2bb73	-0.0013636186
61	0xb9dfecd1	-0.00042710316
62	0xbce11666	-0.0274765
63	0x3d8b62dc	0.06805965
