resources/models/mnist/log_dataset_model_v002.pth (torch, 856458 bytes, 9 tensors)

lstm.weight_ih_l0 f4 [512, 28]
-0.1656611 0.49515894 -0.22532997 -0.02549481 0.15003057 0.25930747 0.2567823 0.118439645
0.015845612 -0.11417774 -0.1141193 -0.17726453 -0.05695063 0.07866112 0.019024659 -0.08241562
-0.06832554 0.063994706 -0.33508614 -0.07593551 0.15311143 0.108255334 -0.071975075 0.05103534
0.018667545 0.11956948 0.4190985 -0.08302848 -0.027811682 -0.057334553 -0.3490508 -0.020027027
0.02441116 -0.018527249 -0.06305221 0.12588386 0.07235578 0.16757837 -0.016244002 0.17565581
0.25369793 0.17151791 0.09961543 0.14048806 0.1908654 0.24157345 0.042165663 -0.16655749
-0.23729876 -0.059020586 0.28457436 0.3878928 0.1645742 0.017963769 0.089423195 0.07407029
-0.31108356 0.016359419 -0.09790477 0.1966638 0.27818066 0.23469973 0.023955733 -0.07499196
-0.22719972 -0.0014326031 -0.059295267 -0.10088882 -0.07794386 0.054353155 0.03016247 0.11381318
0.25777143 0.19444005 0.10694591 -0.118590795 -0.1648535 -0.13855541 0.008070163 0.3107772
-0.003267108 0.044536866 -0.0008559815 -0.2118059 -0.34542987 -0.17876235 -0.06817051 -0.09725067
0.014004907 0.087886445 -0.072969116 -0.1634639 -0.24130826 -0.20332912 -0.07138816 0.039007876
0.2324378 0.16166162 0.22234125 0.19468693 0.015630517 -0.15757984 -0.27545017 -0.1581546
-0.083244674 -0.07615006 0.1064708 0.17530575 0.07660792 -0.110028505 -0.17172037 0.1126975
-0.3130414 0.48400217 -0.19815992 -0.24059378 -0.06315087 0.11396074 0.22599287 0.21057126
0.120573014 0.01075679 0.029529626 0.13484593 0.022339156 0.0050869808 0.086499386 0.14855893
-0.13832825 -0.22439378 -0.37240294 -0.34583163 -0.40016663 -0.45978144 -0.26355127 -0.03310516
-0.016630784 -0.24688697 0.03292829 -0.15022385 -0.35494122 0.0043861168 0.21882239 0.17172658
0.2758945 0.06874364 0.088107266 0.11893484 0.09035692 -0.064824894 0.028050285 0.21467645
0.122515395 0.14884602 0.17209372 0.060439393 -0.101685256 -0.16705883 -0.2952755 -0.25660545
-0.15761957 -0.022279251 0.26280865 0.17335907 0.041842118 0.09881557 0.029335598 0.26928875
-0.34859505 0.1025016 0.09880869 -0.09362215 0.032426067 -0.052689098 -0.019478193 0.121037744
0.30825335 0.15900879 0.22770709 0.33310202 0.042572826 -0.03138491 -0.15606469 -0.08119007
0.055736095 0.14944203 0.15005086 0.26089516 0.3284957 0.2736428 0.16587998 0.038106546
0.062447853 0.161426 -0.08125571 0.1830057 -0.36168835 0.28892872 0.074933335 0.2683959
0.29033864 0.18545116 0.21095087 0.038200893 -0.020908022 0.13530526 0.14564234 0.27706873
0.2397709 0.16431855 -0.08343998 0.22534552 0.17613977 0.11582398 0.18822472 -0.13174756
-0.029404348 -0.12027205 -0.009004013 0.25926292 0.21505131 0.051937934 0.21760681 -0.1444205
-0.107979015 1.0219095 0.097588286 -0.32661828 0.010512467 0.012499676 -0.07906341 -0.072370835
-0.018802898 0.016661027 0.019883506 0.3945802 0.21777812 0.020599144 0.11531964 0.012830668
0.03190878 0.102589235 -0.0730606 0.20681632 0.09076649 0.12778766 0.031014588 0.01605729
-0.107610755 -0.25340182 0.04050257 0.08415088 0.28966603 -0.26088348 0.15205087 -0.005840567
00000000: 10a3 29be 7985 fd3e e6bc 66be 7eda d0bc
00000010: 9da1 193e f3c3 843e f878 833e 7c90 f23d
00000020: a8ce 813c 05d6 e9bd 61b7 e9bd d584 35be
00000030: 1045 69bd 1519 a13d 9ad9 9b3c 85c9 a8bd
00000040: 43ee 8bbd a80f 833d 6990 abbe 1484 9bbd
00000050: 3ec9 1c3e f9b4 dd3d ab67 93bd 6f0a 513d
00000060: aeec 983c d8e0 f43d 1494 d63e d60a aabd
00000070: 53d5 e3bc a3d7 6abd c9b6 b2be b80f a4bc
00000080: eaf9 c73c 75c6 97bc 8421 81bd b3e7 003e
00000090: 442f 943d aa99 2b3e 2412 85bc 1edf 333e
000000a0: b2e4 813e 64a2 2f3e 2d03 cc3d 1adc 0f3e
000000b0: 3872 433e 085f 773e e7b5 2c3d 0c8e 2abe
000000c0: 72fe 72be 92bf 71bd bbb3 913e e399 c63e
000000d0: 2486 283e c128 933c 8223 b73d 2ab2 973d
000000e0: 5846 9fbe 3004 863c 4c82 c8bd 3c62 493e
000000f0: b26d 8e3e 2055 703e d03e c43c 6295 99bd
00000100: 0ba7 68be 2fc6 bbba 98df 72bd cc9e cebd
00000110: 08a1 9fbd 6aa1 5e3d 4917 f73c e216 e93d
00000120: 9efa 833e 4b1b 473e 7506 db3d bbdf f2bd
00000130: 5bcf 28be 78e1 0dbe b838 043c 301e 9f3e
00000140: fa1c 56bb 4a6c 363d f263 60ba a5e3 58be
00000150: 2fdc b0be 7a0d 37be fb9c 8bbd 5c2b c7bd
00000160: d674 653c cffd b33d d570 95bd 1563 27be
00000170: 8319 77be 8235 50be f533 92bd b9c6 1f3d
00000180: 2d04 6e3e a08a 253e 6dad 633e 035c 473e
00000190: 920b 803c 9c5c 21be ce07 8dbe 48f3 21be
000001a0: 2f7c aabd 90f4 9bbd 5d0d da3d 5a83 333e
000001b0: 9de4 9c3d a056 e1bd 77d7 2fbe f2cd e63d
000001c0: f646 a0be 22cf f73e 6fea 4abe 375e 76be
000001d0: 3e55 81bd 4064 e93d ad6a 673e fe9f 573e
000001e0: fcee f63d 3f3d 303c 1de8 f13c 0d15 0a3e
000001f0: 9b00 b73c b0b0 a63b 9726 b13d d51f 183e
00000200: eca5 0dbe 7cc7 65be 99ab bebe d810 b1be
00000210: a4e2 ccbe 7968 ebbe 31f0 86be 4799 07bd
00000220: 483d 88bc f0cf 7cbe d1df 063d 48d4 19be
00000230: dbba b5be 6ab9 8f3b fa12 603e 18d9 2f3e
00000240: 0b42 8d3e 77c9 8c3d 9571 b43d 1c94 f33d
00000250: 0d0d b93d eac2 84bd b6c9 e53c 25d4 5b3e
00000260: 5ae9 fa3d 176b 183e 5639 303e 4c8f 773d
00000270: 5c40 d0bd 7811 2bbe 5a2e 97be ca61 83be
00000280: 0667 21be fa82 b6bc db8e 863e 0a85 313e
00000290: a462 2b3d d15f ca3d 3551 f03c 37e0 893e
000002a0: 0d7b b2be 5cec d13d 365c ca3d f8bc bfbd
000002b0: 32d1 043d 86d0 57bd bb90 9fbc a3e2 f73d
000002c0: 62d3 9d3e 33d3 223e 0c2c 693e 598c aa3e
000002d0: d860 2e3d 778d 00bd 6ccf 1fbe fb46 a6bd
000002e0: 884b 643d 5507 193e efa6 193e 0d94 853e
000002f0: 9730 a83e e91a 8c3e 71dc 293e 9c15 1c3d
00000300: 52c9 7f3d db4c 253e 6569 a6bd d965 3b3e
00000310: 372f b9be 77ee 933e a676 993d 306b 893e
00000320: 44a7 943e e9e6 3d3e 8103 583e 8a78 1c3d
00000330: 4d47 abbc 768d 0a3e 4423 153e f4db 8d3e
00000340: 8186 753e 1f43 283e 95e2 aabd fac0 663e
00000350: fc5d 343e 1f35 ed3d fbbd 403e d5e8 06be
00000360: 63e1 f0bc 3151 f6bd 9185 13bc 1cbe 843e
00000370: 6936 5c3e dfbc 543d 52d4 5e3e f8e2 13be
00000380: 1a24 ddbd eecd 823f 5edc c73d 833a a7be
00000390: 7b3c 2c3c 71cb 4c3c ffeb a1bd 2937 94bd
000003a0: 8908 9abc b57c 883c bce2 a23c 6a06 ca3e
000003b0: 3a01 5f3e 89bf a83c b42c ec3d b937 523c
000003c0: c8b2 023d 4e1a d23d cca0 95bd a8c7 533e
000003d0: c8e3 b93d c5da 023e 4e12 fe3c 948a 833c
000003e0: 0763 dcbd e2bd 81be 06e6 253d 4c57 ac3d
000003f0: 1b4f 943e 8592 85be 39b3 1b3e 3a62 bfbb

lstm.weight_hh_l0 f4 [512, 128]
-0.018953575 -0.26853925 0.085682146 0.41697827 0.10597522 -0.111940466 -0.07871644 0.013363772
-0.109396994 0.27307686 -0.08904228 -0.0024244052 -0.15361217 0.28637612 -0.13935979 0.060255297
0.020647489 -0.15401725 0.13188466 0.037542343 -0.07651346 -0.03774558 0.08568619 0.32979804
-0.24512708 -0.033097964 -0.069599405 -0.3838583 0.09162772 0.109372795 0.30695817 0.10896996
0.14471728 -0.20752412 0.19077976 -0.094677396 0.11102056 0.08012654 0.21585421 0.11032411
-0.29814425 0.27319652 -0.05594568 0.08089915 -0.06533079 -0.44707248 -0.15658638 -0.33958304
0.21582468 0.17064886 -0.13163103 -0.21887954 0.008514781 0.24955255 0.23287074 -0.3328732
-0.2119655 0.2587168 0.16794053 -0.07927594 -0.05452601 0.36513928 0.08613784 -0.041131243
-0.26579493 0.26374242 -0.06321791 0.26193 0.1767025 0.05702196 -0.238784 0.103213355
0.00083586003 0.06224691 0.078109585 -0.07437341 -0.15965012 -0.41910234 0.23613554 0.15572143
0.008000221 -0.16557053 -0.15206969 -0.02480836 0.26481313 0.006709058 -0.082188435 -0.06606578
0.10231291 0.112028725 0.036940172 -0.12582417 0.41807553 -0.40862295 -0.42115685 -0.16921596
-0.01889854 -0.10740147 -0.21127202 -0.23710579 0.2910394 -0.24284334 0.03663591 0.21133241
-0.02378592 -0.23576412 -0.21892975 0.22506945 0.54139864 0.19946198 -0.050943464 0.04944673
0.30337843 0.054032102 0.07993484 0.4835108 0.15430184 0.060004093 0.2414987 0.21181984
-0.87825763 -0.014130028 -0.5431591 0.15033287 0.11829437 -0.27149191 0.37137216 -0.3605978
0.12939042 -0.23772553 0.21922937 0.25436237 -0.046663627 -0.17806698 0.16942747 -0.017180989
-0.41925225 0.035540026 0.319944 -0.17616868 -0.2924179 -0.053584617 0.00017092942 -0.07884211
-0.030843873 -0.13389285 0.20255718 -0.23159213 -0.2029665 0.055972792 -0.16028398 -0.15665996
0.21448757 -0.023742137 0.043668486 0.30187383 -0.042594545 0.11520778 -0.23834443 -0.034510944
-0.03835425 -0.011689438 0.22808635 -0.09301088 0.06339761 0.38587052 -0.018529603 0.22428629
-0.20633851 -0.16484487 0.22808743 0.03094251 -0.045913287 -0.04664546 -0.15791099 -0.28135356
0.0518855 0.09973671 -0.053492982 -0.07458271 0.14824642 -0.26640564 -0.10531407 -0.092668526
-0.42178667 -0.15038165 -0.53400683 0.3070693 -0.1544901 -0.3865969 -0.22605039 -0.2387188
0.25932088 0.019033695 -0.12458012 0.1979966 0.16646439 0.1549028 -0.13159993 -0.18857592
0.29977143 0.023172293 -0.026751231 -0.4029696 -0.08746482 0.09699914 0.046282254 0.1621883
-0.12653358 -0.22799964 0.33619663 0.13617367 -0.32884726 -0.023189558 0.04319683 0.14298637
-0.2384677 0.49696276 0.2594911 0.15797934 0.0057308925 0.0001939574 -0.17272122 -0.0045236936
-0.055880602 0.30260807 0.098765336 -0.026350189 0.009548146 -0.21592134 -0.241369 0.38801256
0.007818474 0.008641379 -0.002697541 0.19821858 0.13991715 0.043731976 -0.3188193 0.0682928
0.31517696 -0.15291667 -0.010505923 0.03407794 0.308378 0.078489594 0.020171046 -0.26716962
-0.13703436 -0.23277079 0.10373594 0.059227813 0.106123276 -0.0943176 -0.12992343 -0.09224608
00000000: 8744 9bbc fa7d 89be 1f7a af3d 2d7e d53e
00000010: 8909 d93d 0b41 e5bd 1636 a1bd b9f3 5a3c
00000020: 880b e0bd bbd0 8b3e cd5b b6bd c5e2 1ebb
00000030: 824c 1dbe e49f 923e 55b4 0ebe 42ce 763d
00000040: ec24 a93c b3b6 1dbe c60c 073e 00c6 193d
00000050: 17b3 9cbd 1c9b 1abd 3e7c af3d 4adb a83e
00000060: 9802 7bbe bb91 07bd 228a 8ebd 1389 c4be
00000070: 50a7 bb3d d8fe df3d 9f29 9d3e a42b df3d
00000080: c430 143e 3481 54be c55b 433e 39e6 c1bd
00000090: bf5e e33d 6219 a43d e308 5d3e 9bf1 e13d
000000a0: 5da6 98be 6ae0 8b3e 4c27 65bd 74ae a53d
000000b0: 26cc 85bd afe6 e4be 2e58 20be d4dd adbe
000000c0: 2501 5d3e 93be 2e3e 49ca 06be f521 60be
000000d0: 9481 0b3c b48a 7f3e ab75 6e3e 5b6e aabe
000000e0: 7c0d 59be 8776 843e 9af8 2b3e 6d5b a2bd
000000f0: aa56 5fbd 89f3 ba3e 0969 b03d 3c79 28bd
00000100: 4616 88be 3f09 873e 6478 81bd b01b 863e
00000110: 80f1 343e dc8f 693d cb83 74be 8661 d33d
00000120: 9e1d 5b3a 9ef6 7e3d ebf7 9f3d 1651 98bd
00000130: 527b 23be 9594 d6be 84cd 713e 7075 1f3e
00000140: 5c13 033c 528b 29be 28b8 1bbe e73a cbbc
00000150: 9695 873e a8d7 db3b 6952 a8bd 7f4d 87bd
00000160: 6e89 d13d 516f e53d 944e 173d 0dd8 00be
00000170: ff0d d63e 0737 d1be dfa1 d7be f346 2dbe
00000180: 1cd1 9abc 4df5 dbbd b157 58be dccb 72be
00000190: 1e03 953e edab 78be 890f 163d 8667 583e
000001a0: b1da c2bc 266c 71be 1f2f 60be 9b78 663e
000001b0: 1a99 0a3f c33f 4c3e 18aa 50bd a888 4a3d
000001c0: 6b54 9b3e c450 5d3d e1b4 a33d ba8e f73e
000001d0: 4d01 1e3e dac6 753d 6f4b 773e 4de7 583e
000001e0: 7ed5 60bf a281 67bc 7a0c 0bbf dcf0 193e
000001f0: 5244 f23d fd00 8bbe 7e24 be3e 46a0 b8be
00000200: ec7e 043e 526e 73be aa7d 603e c93b 823e
00000210: 5c22 3fbd 3157 36be 657e 2d3e 25bf 8cbc
00000220: 3ba8 d6be 6b92 113d b3cf a33e 9065 34be
00000230: cdb7 95be 8b7b 5bbd 843b 3339 f977 a1bd
00000240: 4aac fcbc 351b 09be 266b 4f3e 7d26 6dbe
00000250: 73d6 4fbe ba43 653d 7c21 24be 786b 20be
00000260: a1a2 5b3e df7e c2bc badd 323d 358f 9a3e
00000270: 9e77 2ebd 0ef2 eb3d 9010 74be 595b 0dbd
00000280: 5919 1dbd 0e85 3fbc 788f 693e 7d7c bebd
00000290: 9bd6 813d d290 c53e 65cb 97bc 4eab 653e
000002a0: 674a 53be 18cd 28be c08f 693e 267b fd3c
000002b0: 920f 3cbd 4f0f 3fbd 6bb3 21be 930d 90be
000002c0: e485 543d c342 cc3d 751b 5bbd d2be 98bd
000002d0: e9cd 173e 5266 88be e7ae d7bd ffc8 bdbd
000002e0: 6cf4 d7be a6fd 19be acb4 08bf 3038 9d3e
000002f0: a732 1ebe 07f0 c5be c179 67be b372 74be
00000300: b5c5 843e 8dec 9b3c dd23 ffbd 9fbf 4a3e
00000310: a475 2a3e d79e 1e3e 22c2 06be 0c1a 41be
00000320: a47b 993e d2d3 bd3c 6625 dbbc 0852 cebe
00000330: c120 b3bd 7ca7 c63d 7692 3d3d b114 263e
00000340: 0592 01be bd78 69be f721 ac3e 1c71 0b3e
00000350: ab5e a8be 07f8 bdbc 29ef 303d 056b 123e
00000360: e030 74be e771 fe3e 04dc 843e 56c5 213e
00000370: 36ca bb3b 0b61 4b39 d5dd 30be 7e3b 94bb
00000380: 0fe3 64bd 72ef 9a3e 7b45 ca3d 5adc d7bc
00000390: d46f 1c3c 7c1a 5dbe 6f29 77be 95a9 c63e
000003a0: 0f19 003c 9294 0d3c 3ac9 30bb d0f9 4a3e
000003b0: 7146 0f3e 4d20 333d 493c a3be 18dd 8b3d
000003c0: e05e a13e 3096 1cbe 0921 2cbc 4f95 0b3d
000003d0: b9e3 9d3e 27bf a03d c03d a53c 75ca 88be
000003e0: bc52 0cbe 775b 6ebe 8273 d43d dd98 723d
000003f0: 2957 d93d 9629 c1bd a60a 05be 83eb bcbd

lstm.bias_ih_l0 f4 [512]
0.03393196 -0.10716233 0.10560408 -0.26246217 -0.010371151 -0.0273687 -0.03285928 -0.20026211
0.0037991998 -0.24914983 -0.2590246 -0.10259212 -0.48980716 -0.29133043 -0.23304452 -0.2797272
-0.17174661 0.19733414 0.16558422 0.030605579 0.33080083 -0.092527196 -0.19373749 -0.1953042
-0.35564017 0.14608058 -0.12982519 -0.128735 0.0068116905 -0.2558501 -0.06504557 -0.2775752
-0.21175356 0.12686045 -0.03184082 -0.10463335 0.10545897 0.046665084 -0.1873143 -0.19033536
0.029496007 -0.09356698 0.083413884 -0.01197507 -0.07251016 -0.04065552 0.21135192 -0.1931459
-0.109220766 -0.1878141 -0.30583307 -0.28553978 -0.15204372 -0.06532451 -0.117894195 0.11140825
0.016695606 -0.20778084 0.098664775 -0.11435675 -0.14097571 -0.10019915 -0.41586608 0.10192353
-0.20276438 0.0047132885 0.1896228 -0.10560731 -0.15789598 0.14704192 0.0032464445 -0.4978992
-0.0121481195 0.04088717 -0.09714369 -0.40269163 0.0003933129 -0.29202956 0.021681482 -0.018409936
-0.016865415 -0.123889595 0.13223876 0.08824339 0.041358154 0.030329976 -0.20486626 0.095993035
-0.33321917 -0.40107688 -0.22419982 -0.29041532 -0.27400666 -0.20115143 -0.11821836 -0.0188274
-0.1621691 -0.24006215 -0.0964579 -0.04043879 -0.124485105 -0.10349534 -0.04401457 0.0799572
0.16177951 0.05011625 -0.049715847 -0.10382398 0.24956937 0.11703822 -0.3641565 -0.14473881
-0.27359352 0.043930735 0.26471984 -0.2917818 -0.15056455 -0.21752304 -0.21674208 -0.16481142
-0.10240307 0.25599056 -0.19343309 0.14544451 -0.038651142 -0.2854214 -0.3287195 -0.15968208
-0.07148295 0.23015666 -0.23627019 -0.059076272 0.3338922 -0.066125184 0.17676967 -0.19196923
-0.08481871 0.009730244 0.013016665 0.033063132 -0.05175911 -0.114061445 0.020340687 -0.14304292
-0.08868684 0.018485839 -0.30604336 0.10495455 -0.19169277 -0.20046291 0.071897104 0.039107125
-0.05226062 0.07569736 -0.15630879 -0.13463831 -0.06988464 0.08293559 -0.17384523 0.04733231
0.10618108 -0.10553216 -0.28524044 0.15492156 0.069819346 0.11740771 -0.051200125 0.011619306
0.079569735 -0.097322024 0.16936973 -0.1653513 0.1678514 0.0863015 -0.32622692 0.017536607
-0.092707954 -0.114273705 -0.053412985 0.068496704 -0.13568155 -0.16315632 -0.2709592 -0.3927444
0.0034139298 0.08796425 0.07947197 -0.17551035 -0.1365795 -0.12650992 -0.05595659 0.27408287
-0.12595119 -0.07454984 -0.0713765 0.0825559 -0.16000202 -0.16235471 -0.043394607 -0.19243796
-0.11425116 -0.030162357 0.14281876 0.08789016 -0.102301344 -0.11110123 -0.14232081 0.034920465
0.13183391 0.099435754 -0.24645929 -0.20900239 0.0057185288 -0.079198554 -0.0694127 -0.17889209
-0.054208662 -0.064517565 -0.4092951 0.10732377 -0.11974947 -0.10028247 -0.042882413 -0.023571119
0.04382239 0.16926442 -0.07205642 -0.17871083 0.059871458 0.061554924 -0.2480412 -0.16427763
-0.03869715 -0.06801809 0.058988374 -0.012625513 0.003619976 0.14888367 -0.30743882 -0.18722934
0.01965917 -0.22570567 -0.040323664 -0.16386773 0.06853203 -0.09145709 0.10478277 0.001389962
0.07969578 -0.012334342 0.21312879 -0.3022486 -0.22031742 0.0016816695 0.09152211 -0.042435292
00000000: 3dfc 0a3d ec77 dbbd f446 d83d 7161 86be
00000010: c3eb 29bc 5334 e0bc 7497 06bd 8311 4dbe
00000020: fffb 783b 2221 7fbe df9e 84be d11b d2bd
00000030: 01c8 fabe 4329 95be 39a3 6ebe 6738 8fbe
00000040: 58de 2fbe f611 4a3e e98e 293e 8db8 fa3c
00000050: ba5e a93e e67e bdbd 1f63 46be d3fd 47be
00000060: 7816 b6be 2696 153e e5f0 04be 1cd3 03be
00000070: 9a34 df3b c9fe 82be 9d36 85bd 561e 8ebe
00000080: edd5 58be b5e7 013e 856b 02bd 034a d6bd
00000090: dffa d73d e323 3f3d 52cf 3fbe 46e7 42be
000000a0: 9ca1 f13c 0ba0 bfbd e6d4 aa3d 1633 44bc
000000b0: 3580 94bd 6786 26bd a36c 583e 0ac8 45be
000000c0: 23af dfbd 5752 40be 2796 9cbe 4532 92be
000000d0: 59b1 1bbe dbc8 85bd 8372 f1bd 022a e43d
000000e0: 39c5 883c 80c4 54be c210 ca3d df33 eabd
000000f0: f05b 10be 3635 cdbd 66ec d4be 49bd d03d
00000100: 77a1 4fbe ee71 9a3b 7b2c 423e a548 d8bd
00000110: 7caf 21be 2892 163e 4dc2 543b a5ec febe
00000120: e808 47bc 4e79 273d 45f3 c6bd 992d cebe
00000130: 9035 ce39 e684 95be 5d9d b13c 6fd0 96bc
00000140: 5729 8abc d4b9 fdbd 9969 073e f3b8 b43d
00000150: 2b67 293d 9276 f83c 76c8 51be ff97 c43d
00000160: b49b aabe f359 cdbe a394 65be 51b1 94be
00000170: 9a4a 8cbe a4fa 4dbe 781c f2bd eb3b 9abc
00000180: a80f 26be dad2 75be b88b c5bd 25a3 25bd
00000190: 0cf2 febd 5df5 d3bd 9f48 34bd 9ac0 a33d
000001a0: 87a9 253e b246 4d3d d8a2 4bbd aba1 d4bd
000001b0: 1d8f 7f3e bcb1 ef3d b972 babe 6936 14be
000001c0: 7314 8cbe b7f0 333d 5c89 873e 6d64 95be
000001d0: 982d 1abe 5cbe 5ebe a3f1 5dbe 53c4 28be
000001e0: b3b8 d1bd 3211 833e 5313 46be 68ef 143e
000001f0: a950 1ebd c122 92be ec4d a8be b383 23be
00000200: a765 92bd 30ae 6b3e d0f0 71be f6f9 71bd
00000210: ebf3 aa3e a46c 87bd 1c03 353e 9593 44be
00000220: 6fb5 adbd 9a6b 1f3c da43 553c 356d 073d
00000230: 5c01 54bd 0c99 e9bd 83a1 a63c d879 12be
00000240: 72a1 b5bd 9d6f 973c b7b1 9cbe 69f2 d63d
00000250: 1c4b 44be 2646 4dbe ca3e 933d cb2e 203d
00000260: 3b0f 56bd 3807 9b3d 690f 20be a0de 09be
00000270: ae1f 8fbd 22da a93d 7c04 32be 86df 413d
00000280: 7775 d93d 3f21 d8bd 090b 92be c2a3 1e3e
00000290: 72fd 8e3d 7473 f03d 39b7 51bd e75e 3e3c
000002a0: 75f5 a23d c550 c7bd 426f 2d3e da51 29be
000002b0: 3de1 2b3e d7be b03d 3707 a7be eea8 8f3c
000002c0: abdd bdbd 5508 eabd 93c7 5abd 0048 8c3d
000002d0: 1bf0 0abe 7312 27be 2abb 8abe cb15 c9be
000002e0: 3dbc 5f3b 9a26 b43d 33c2 a23d fcb8 33be
000002f0: 7fdb 0bbe d18b 01be bd32 65bd 9754 8c3e
00000300: 59f9 00be 96ad 98bd d82d 92bd 1113 a93d
00000310: 92d7 23be 5040 26be 8bbe 31bd 750e 45be
00000320: 83fc e9bd 0c17 f7bc 153f 123e c2ff b33d
00000330: 5e83 d1bd 0b89 e3bd 8cbc 11be c308 0f3d
00000340: 78ff 063e f9a4 cb3d d35f 7cbe b904 56be
00000350: 7f62 bb3b da32 a2bd 3f28 8ebd 7d2f 37be
00000360: e709 5ebd c921 84bd 218f d1be 91cc db3d
00000370: 363f f5bd e560 cdbd 78a5 2fbd 3818 c1bc
00000380: 1b7f 333d a753 2d3e 5192 93bd f9ff 36be
00000390: c63b 753d 0421 7c3d 83fe 7dbe 6538 28be
000003a0: e780 1ebd 124d 8bbd cb9d 713d 3ddb 4ebc
000003b0: 1f3d 6d3b f674 183e 9f68 9dbe 0cb9 3fbe
000003c0: 450c a13c 631f 67be 6d2a 25bd f1cc 27be
000003d0: 855a 8c3d db4d bbbd 5998 d63d 632f b63a
000003e0: 8b37 a33d fb15 4abc 6f3e 5a3e 54c0 9abe
000003f0: e49a 61be 776b dc3a f26f bb3d a1d0 2dbd

lstm.bias_hh_l0 f4 [512]
-0.0671458 -0.058917325 0.19262436 -0.2885018 -0.05342212 -0.11403934 -0.008225191 -0.13542451
0.038318243 -0.3010446 -0.22596212 -0.20240255 -0.39012066 -0.29587093 -0.19205613 -0.21744943
-0.11949151 0.1639432 0.14486963 -0.037887752 0.27921134 0.03866625 -0.26111674 -0.2894209
-0.32152838 0.14780332 -0.20063706 -0.07778275 -0.030030362 -0.23116185 -0.0882989 -0.2593806
-0.24735056 0.070934825 0.0016210333 -0.042019606 0.15505119 0.073193744 -0.23002967 -0.1723715
0.04778751 0.055215728 0.019533351 0.06441467 -0.014921247 -0.07832703 0.1696074 -0.17941588
-0.033322237 -0.16841424 -0.34290567 -0.2802098 -0.10640403 -0.06861318 -0.0723268 -0.03454105
-0.011921268 -0.21355653 0.18194872 -0.129017 -0.063899286 -0.07403621 -0.42512172 -0.02469928
-0.15349625 -0.01571228 0.2126353 -0.09593583 -0.05223348 0.2053321 0.056202684 -0.45808586
-0.1131952 0.025133055 -0.21978846 -0.31395364 -0.07386982 -0.38554797 0.04493411 -0.07743562
0.044554736 0.007910063 0.045289937 0.115437426 -0.02442805 0.16925007 -0.21269795 -0.011833546
-0.28392318 -0.48702046 -0.15659298 -0.2511209 -0.27581203 -0.23337683 -0.037097517 -0.046400223
-0.09093519 -0.21737394 -0.13484581 -0.071378455 -0.058930464 -0.06567524 -0.06311915 0.09257407
0.051136315 -0.014154097 -0.0876515 -0.13459633 0.24528572 0.2002727 -0.24974316 -0.11157341
-0.27514014 0.1199828 0.18421517 -0.21353531 -0.14448062 -0.14466357 -0.21829064 -0.111715876
-0.10236619 0.26515433 -0.1400471 0.12216275 -0.011880814 -0.29220834 -0.32129565 -0.11348079
-0.16429286 0.2115868 -0.1154746 0.018219987 0.32581422 0.019547714 0.16167471 -0.081335954
0.008891924 0.034823906 0.0016017496 0.03082657 0.028571296 0.026879964 0.026027057 -0.23616739
-0.11541557 -0.10645346 -0.4031801 -0.018558834 -0.21702218 -0.12693256 0.035525434 0.09884121
-0.02984448 0.023158172 -0.13119441 -0.21617366 -0.12286748 0.03128554 -0.19554189 -0.00039855647
0.112418346 -0.11760638 -0.2919989 0.08691518 0.07057902 0.093490824 0.052794833 -0.042994898
0.11225494 -0.10767051 0.13210118 -0.1666216 0.10338588 0.10196748 -0.31221214 -0.13356623
-0.19030692 -0.019139197 0.008369357 0.05950563 -0.16186377 -0.1121917 -0.23079364 -0.32115707
-0.050056804 -0.05648252 -0.045523677 -0.0792437 -0.13154696 -0.04668733 -0.017803237 0.3100414
-0.20436227 -0.1440632 -0.1600341 0.13748318 -0.123151325 -0.14942011 -0.14983046 -0.13575543
-0.1433441 -0.08604397 0.26243368 -0.013436227 -0.20149797 -0.06133047 -0.029079316 -0.06379713
0.1314744 0.08990701 -0.2591622 -0.26181802 0.104950435 0.0031304378 -0.10322472 -0.140052
-0.13774706 -0.13919961 -0.42168352 0.16348946 -0.043149434 -0.08074735 -0.12798715 -0.07518053
0.021322154 0.21155588 -0.046075296 -0.17733516 0.13502125 -0.020843437 -0.2527702 -0.13372138
-0.105612144 -0.07097406 -0.011284153 -0.005518603 -0.007951091 0.12693125 -0.32562104 -0.20477737
0.060466666 -0.22039668 -0.030982614 -0.19467084 -0.015601608 -0.16954574 0.071034886 0.03959706
0.15502088 0.093529776 0.2621593 -0.27786714 -0.30630285 0.034473397 -0.050689153 -0.123739555
00000000: bd83 89bd 4b53 71bd 523f 453e 82b6 93be
00000010: 27d1 5abd 758d e9bd f4c2 06bc b9ac 0abe
00000020: 97f3 1c3d 8522 9abe 9d62 67be 9d42 4fbe
00000030: e5bd c7be 657c 97be 5daa 44be 10ab 5ebe
00000040: f7b7 f4bd bae0 273e b458 143e 3030 1bbd
00000050: caf4 8e3e 8060 1e3d 18b1 85be fa2e 94be
00000060: 5e9f a4be c159 173e cd73 4dbe 904c 9fbd
00000070: 3c02 f6bc b1b5 6cbe 0ed6 b4bd 89cd 84be
00000080: 7749 7dbe 4746 913d da78 d43a c01c 2cbd
00000090: bdc5 1e3e 9ae6 953d e68c 6bbe 2882 30be
000000a0: d6bc 433d e329 623d 6804 a03c d7eb 833d
000000b0: 3f78 74bc ec69 a0bd 90ad 2d3e ccb8 37be
000000c0: e67c 08bd c874 2cbe 5591 afbe a977 8fbe
000000d0: 5bea d9bd 1185 8cbd 1320 94bd eb7a 0dbd
000000e0: 6c51 43bc 90ae 5abe c450 3a3e 081d 04be
000000f0: a1dd 82bd 4ca0 97bd 8ea9 d9be 2556 cabc
00000100: 1f2e 1dbe 0ab7 80bc 11bd 593e 017a c4bd
00000110: c6f2 55bd 9442 523e c934 663d 3b8a eabe
00000120: e3d2 e7bd d6e3 cd3c 3a10 61be 88be a0be
00000130: 0f49 97bd 8b66 c5be d40c 383d 9196 9ebd
00000140: 077f 363d 3599 013c f181 393d 756a ec3d
00000150: 551d c8bc e44f 2d3e 7ecd 59be 7de1 41bc
00000160: 615e 91be bf5a f9be e959 20be eb92 80be
00000170: 3c37 8dbe 56fa 6ebe 91f3 17bd 290e 3ebd
00000180: 3b3c babd 4697 5ebe 0515 0abe de2e 92bd
00000190: 1261 71bd bd80 86bd 9d44 81bd 7997 bd3d
000001a0: 5074 513d 96e6 67bc a182 b3bd 9fd3 09be
000001b0: 2e2c 7b3e 4914 4d3e acbc 7fbe 9a80 e4bd
000001c0: 2bdf 8cbe 8bb9 f53d e7a2 3c3e 00a9 5abe
000001d0: baf2 13be b022 14be 9587 5fbe 4bcb e4bd
000001e0: 5da5 d1bd 4fc2 873e 8268 0fbe 7730 fa3d
000001f0: bfa7 42bc 559c 95be dd80 a4be 9e68 e8bd
00000200: 633c 28be 36aa 583e f27d ecbd 1542 953c
00000210: 1fd1 a63e 8722 a03c 0e8e 253e 7793 a6bd
00000220: 6faf 113c 83a3 0e3d ccf1 d13a 0188 fc3c
00000230: 5a0e ea3c 5f33 dc3c b236 d53c ddd5 71be
00000240: 005f ecbd 4604 dabd 9f6d cebe b208 98bc
00000250: 103b 5ebe 9cfa 01be 1e83 113d 436d ca3d
00000260: 697c f4bc 35b6 bd3c d457 06be a15c 5dbe
00000270: f2a1 fbbd 4425 003d 223c 48be 58f5 d0b9
00000280: 973b e63d 9ddb f0bd e180 95be 9600 b23d
00000290: bc8b 903d 1e78 bf3d 653f 583d 6b1b 30bd
000002a0: ebe5 e53d 5b82 dcbd 8845 073e da9e 2abe
000002b0: fabb d33d 53d4 d03d 45da 9fbe 96c5 08be
000002c0: d1df 42be cec9 9cbc a11f 093c 2dbc 733d
000002d0: 9ebf 25be c3c4 e5bd 2b55 6cbe b36e a4be
000002e0: 5d08 4dbd 375a 67bd 0977 3abd 854a a2bd
000002f0: 3fb4 06be 373b 3fbd 18d8 91bc bfbd 9e3e
00000300: 5844 51be 4e85 13be fbdf 23be 64c8 0c3e
00000310: c336 fcbd 9601 19be 286d 19be 7903 0bbe
00000320: ccc8 12be d237 b0bd b55d 863e 9f23 5cbc
00000330: 7c55 4ebe a935 7bbd bf37 eebc 12a8 82bd
00000340: 3aa1 063e 2b21 b83d e8b0 84be 030d 86be
00000350: 41f0 d63d 0828 4d3b 7b67 d3bd cb69 0fbe
00000360: 910d 0dbe 588a 0ebe e7e6 d7be c869 273e
00000370: 76bd 30bd de5e a5bd 100f 03be 40f8 99bd
00000380: ccab ae3c 1ba2 583e 73b9 3cbd 5997 35be
00000390: 0343 0a3e dbbf aabc 186b 81be 42ee 08be
000003a0: 2e4b d8bd d95a 91bd 2be1 38bc 66d5 b4bb
000003b0: 4b45 02bc 44fa 013e cdb7 a6be 29b1 51be
000003c0: e5ab 773d abaf 61be 40cf fdbc cb57 47be
000003d0: e39d 7fbc 669d 2dbe bd7a 913d 8730 223d
000003e0: cbbd 1e3e 8a8c bf3d be39 863e 9a44 8ebe
000003f0: bad3 9cbe fa33 0d3d 6e9f 4fbd 2a6b fdbd

lstm.weight_ih_l1 f4 [512, 128]
-0.043354128 -0.00978319 0.055662397 -0.191606 -0.12211276 0.017213367 0.11904588 -0.18926847
0.07367838 0.016352875 -0.15361106 0.09714986 0.006197457 -0.1126731 0.0669458 -0.03915397
0.1406263 0.09171482 -0.32471648 0.19258747 0.2884786 -0.0071308697 -0.37454095 0.042223006
-0.12105687 0.000566876 -0.042762756 0.03865198 -0.058808796 -0.12663741 -0.1251601 0.4083795
0.10369601 0.13787742 -0.06578843 -0.024147261 -0.035619926 -0.17140543 0.18911783 -0.14307988
0.12588893 -0.042680774 -0.034369253 -0.1402139 -0.10940865 0.08352154 0.14739898 0.07330709
-0.036005635 0.3018723 0.13203357 0.21902375 0.11188744 0.50667596 -0.08560058 0.05378531
-0.15906912 0.08572579 -0.014768601 0.29358163 -0.18697323 -0.02764482 -0.106526345 0.105358504
-0.24841897 -0.10673249 -0.014340802 -0.20493227 0.010355993 0.04785242 -0.10218986 0.044944912
-0.044191714 0.17667274 0.27951998 -0.16651121 0.08262448 -0.1262189 -0.23062342 0.16364479
-0.46739084 -0.16658697 -0.2387227 -0.18112747 -0.19131276 -0.11795425 0.06832769 0.07909028
0.06853843 0.041239653 0.053296592 0.056184925 0.12217949 -0.20716503 0.1292158 -0.16334057
-0.12659094 0.32545254 0.31282455 -0.25688377 0.035014104 -0.20385504 -0.08532211 -0.19318277
0.24874769 0.07843531 -0.17348023 0.36466166 -0.10412691 0.070654914 0.058449276 0.060890686
0.2029699 0.17765138 -0.054862015 0.0001041693 0.48793086 -0.022746198 -0.07780321 0.069747
-0.18773721 -0.1328098 0.12651049 0.055651113 0.45711216 0.05745528 0.16547337 0.16565457
0.2886359 0.062367518 -0.017523922 0.20507 -0.03477925 0.12965713 0.104609005 -0.3856014
-0.20169617 0.31019604 0.14869232 0.26274607 0.2000405 -0.089670174 -0.07529635 0.16294868
-0.017427824 0.32165813 -0.0784143 0.15216132 -0.048912667 0.16582325 -0.067364335 0.3130328
0.051728338 0.08466784 0.04052567 -0.023314474 0.05974204 0.097572304 0.005781014 0.3176712
-0.09901853 -0.25322053 -0.43957117 0.1838666 0.11960339 0.04672279 -0.029737746 0.06658168
0.135103 0.14670157 -0.12832783 -0.13982981 0.08828081 -0.14930591 -0.24887154 0.19027637
0.1902246 -0.040282972 -0.15139481 -0.064503625 -0.032453477 0.0286704 0.099939 -0.30854008
-0.13908379 -0.027598178 0.15584391 -0.1474839 0.28375047 0.11806986 -0.12813511 -0.04878435
-0.082524724 0.066515416 0.07081313 0.27366844 0.10474968 0.062468372 0.065597564 0.27962762
-0.23130502 0.05798379 -0.013719395 -0.05308189 -0.23840305 0.0712168 0.30954406 0.13679896
-0.0582366 -0.05080696 -0.2135358 0.1091557 0.023962995 0.16041769 -0.024188356 0.25633827
0.18923245 0.1188976 0.20584269 0.009382676 -0.15857252 -0.17296502 0.011984934 -0.18505895
0.01078963 -0.28655815 -0.16608892 0.033060968 -0.063654095 0.036469642 -0.44238427 -0.11537921
0.15869837 -0.013449556 0.034989443 0.14062619 0.021468528 0.35464448 0.0035734568 -0.17202717
0.048063137 0.105234265 0.06329143 0.09224107 -0.12406098 0.053630445 -0.034218088 -0.16350415
-0.17993338 0.20051992 -0.030445414 0.32594222 -0.10163707 0.2663133 0.13306293 0.09062555
00000000: 1994 31bd ac49 20bc 41fe 633d 5d34 44be
00000010: 4116 fabd 0c03 8d3c 54ce f33d 98cf 41be
00000020: b1e4 963d 77f6 853c 384c 1dbe 81f6 c63d
00000030: 0a14 cb3b 27c1 e6bd e11a 893d ea5f 20bd
00000040: 5700 103e fbd4 bb3d 3d41 a6be a635 453e
00000050: 78b3 933e 12aa e9bb d5c3 bfbe 08f2 2c3d
00000060: aaec f7bd 689a 143a 0028 2fbd 8a51 1e3d
00000070: 7ee1 70bd 3dad 01be f829 00be 1e17 d13e
00000080: 935e d43d bd2f 0d3e 16bc 86bd 7ad0 c5bc
00000090: 33e6 11bd e884 2fbe 1ba8 413e 8883 12be
000000a0: 07e9 003e 09d2 2ebd c6c6 0cbd 3c94 0fbe
000000b0: a411 e0bd 570d ab3d c2ef 163e 0722 963d
000000c0: a57a 13bd 028f 9a3e cf33 073e c347 603e
000000d0: 3e25 e53d 84b5 013f 5b4f afbd fc4d 5c3d
000000e0: 04e3 22be 0191 af3d 01f8 71bc 5550 963e
000000f0: e975 3fbe 6477 e2bc 7c2a dabd 33c6 d73d
00000100: 8b61 7ebe 9096 dabd aff5 6abc c4d9 51be
00000110: 2fac 293c e600 443d eb48 d1bd 2818 383d
00000120: 5f02 35bd b3e9 343e 3e1d 8f3e ea81 2abe
00000130: 0637 a93d 873f 01be 8c28 6cbe 8092 273e
00000140: da4d efbe c695 2abe b973 74be 7b79 39be
00000150: 7ee7 43be ff91 f1bd 63ef 8b3d 16fa a13d
00000160: e05d 8c3d e9ea 283d 874d 5a3d 2a22 663d
00000170: 3e39 fa3d 1223 54be 2651 043e c042 27be
00000180: 0ea1 01be b7a1 a63e 8a2a a03e 4586 83be
00000190: f36a 0f3d 60bf 50be 5cbd aebd b4d1 45be
000001a0: b7b7 7e3e b1a2 a03d cda4 31be efb4 ba3e
000001b0: 7d40 d5bd 86b3 903d 8268 6f3d 8368 793d
000001c0: 57d7 4f3e 3eea 353e feb6 60bd 7875 da38
000001d0: 13d2 f93e 3c56 babc 4a57 9fbd 84d7 8e3d
000001e0: 2f3e 40be 4bff 07be f78b 013e 6cf2 633d
000001f0: 9b0a ea3e 3a56 6b3d da71 293e 5aa1 293e
00000200: 16c8 933e 1575 7f3d 548e 8fbc dffd 513e
00000210: b074 0ebd d7c4 043e 3f3d d63d 8c6d c5be
00000220: 7189 4ebe 04d2 9e3e cd42 183e a786 863e
00000230: 6bd7 4c3e ffa4 b7bd f934 9abd 05dc 263e
00000240: ccc4 8ebc 60b0 a43e ad97 a0bd 2dd0 1b3e
00000250: a658 48bd 92cd 293e 50f6 89bd d645 a03e
00000260: 18e1 533d 5566 ad3d 3ffe 253d fffd bebc
00000270: 12b4 743d fdd3 c73d a96e bd3b cda5 a23e
00000280: 3aca cabd 1fa6 81be 790f e1be 8747 3c3e
00000290: 9ff2 f43d 6560 3f3d 939c f3bc fa5b 883d
000002a0: 7158 0a3e f038 163e 5f68 03be 8c2f 0fbe
000002b0: 92cc b43d a6e3 18be 2ed8 7ebe cfd7 423e
000002c0: 3dca 423e c2ff 24bd 3e07 1bbe 7a1a 84bd
000002d0: f0ed 04bd 30de ea3c d2ac cc3d f7f8 9dbe
000002e0: fb6b 0ebe 9315 e2bc 8c95 1f3e 0506 17be
000002f0: be47 913e 9cce f13d da35 03be 19d2 47bd
00000300: b902 a9bd 3c39 883d 7906 913d 451e 8c3e
00000310: 0087 d63d d6de 7f3d 0458 863d 5a2b 8f3e
00000320: 39db 6cbe 6980 6d3d 50c7 60bc 656c 59bd
00000330: ee1f 74be 1dda 913d 8f7c 9e3e 0715 0c3e
00000340: 8089 6ebd f51a 50bd 21a9 5abe 068d df3d
00000350: 0b4e c43c 8944 243e a926 c6bc c53e 833e
00000360: 27c6 413e 9680 f33d 6dc8 523e ccb9 193c
00000370: d660 22be be1d 31be 755c 443c 1880 3dbe
00000380: fdc6 303c c0b7 92be 3713 2abe f06a 073d
00000390: 145d 82bd 3161 153d 3180 e2be ef4b ecbd
000003a0: d381 223e 875b 5cbc 1751 0f3d 5000 103e
000003b0: c4de af3c f693 b53e a830 6a3b e427 30be
000003c0: dadd 443d 1085 d73d f09e 813d e3e8 bc3d
000003d0: af13 febd 99ab 5b3d 4428 0cbd a26d 27be
000003e0: 7540 38be 1855 4d3e a968 f9bc e6e1 a63e
000003f0: 1927 d0bd 385a 883e a641 083e e399 b93d

lstm.weight_hh_l1 f4 [512, 128]
0.09791034 0.10790116 0.084053665 -0.014046288 -0.07269646 -0.13590848 0.13455826 -0.19122835
-0.23142667 0.14932685 0.12187861 -0.065506496 -0.13754044 0.0028050293 0.09329301 -0.3541232
0.2729715 0.18599021 -0.2071155 -0.11511845 -0.25084794 -0.08773688 0.27437922 0.097477704
0.115641974 0.21884786 0.23175433 0.038479373 0.2046337 -0.13571712 0.38063964 0.05586691
-0.06060547 0.107782565 -0.028951552 -0.16896483 -0.29653078 -0.053566948 0.017298643 0.050364118
0.030920371 0.025774138 0.39345574 0.057925057 -0.15465823 -0.061516542 -0.10118365 -0.014634564
0.20543379 0.10199494 -0.044281136 -0.06546014 -0.059758525 0.33029786 0.10809611 0.052950323
-0.04135801 0.35822764 0.060717307 -0.11757748 0.05316741 0.10387574 -0.12303522 -0.01081936
-0.10804651 -0.24380699 0.41019496 0.27626482 0.17350917 0.116356604 0.05244791 0.17441288
0.15201515 -0.03806715 -0.19565393 -0.1019224 -0.22372083 0.5533739 -0.17576596 -0.25768244
-0.096859425 0.2738834 -0.21272105 -0.115418814 0.4376257 0.03810953 0.0036866795 -0.28850904
-0.14255771 0.04573028 0.01240847 0.06964633 -0.006828918 -0.2572089 0.26541373 0.21397041
0.115939 0.3489729 -0.04136828 0.12175714 -0.19629468 0.14591864 0.028271971 0.2325924
-0.022346154 -0.24822891 0.1489693 0.020621318 -0.13974586 -0.12695524 -0.04408456 0.10120596
0.27681625 0.11491831 0.107867956 0.026913807 0.0529707 -0.3388089 -0.11255147 -0.2534993
0.03578693 -0.035916187 0.22475785 0.13553195 -0.10979046 0.042160273 0.0710951 -0.12022826
0.13680255 0.013799733 0.31991127 -0.28476965 0.1403213 0.21181537 -0.29837564 0.24813356
-0.075684786 -0.0015011325 -0.17427605 -0.056678213 0.13160613 0.17676853 -0.18874922 -0.11266144
0.07222577 -0.12221339 -0.2458889 -0.051930435 0.013307895 -0.27313218 -0.31148365 0.33136982
-0.07352204 -0.36834413 -0.091460824 0.17801449 0.13222083 -0.03266589 0.0125611015 0.1365659
-0.25685415 -0.104499325 0.051459555 -0.15245692 0.06410181 -0.059970506 0.1209255 -0.023322081
-0.45233682 -0.49357453 -0.039549787 -0.2630905 0.20070794 -0.35816547 -0.25591823 0.32231468
-0.057891797 0.32776144 0.13388446 -0.24678375 -0.16293275 0.34515196 0.053835355 0.22932875
0.15888523 -0.13676241 0.08884033 0.01768683 0.096558355 -0.14755952 -0.012354708 -0.04345426
0.28393635 0.13943931 -0.13885973 -0.09587078 0.17046583 0.10993525 0.106354184 -0.14259349
0.028106943 -0.25958326 -0.035081346 0.43156093 0.26673403 0.32282344 0.09595863 -0.10308145
0.49224406 0.1238307 -0.093029454 0.0066839196 0.12050632 -0.07680704 0.087563775 -0.11305936
0.068999715 0.42385575 -0.06164901 0.017002784 0.056143824 0.2710762 0.12294076 -0.17875932
0.044524826 -0.12061108 0.11871781 0.10993724 -0.108424455 0.1931158 0.35576302 -0.26461163
0.03429975 -0.415379 0.38654587 -0.036631715 -0.26620921 -0.22547111 -0.0030572456 0.10320827
0.11167338 -0.3168555 0.03350323 -0.0014759153 -0.03350529 0.00432298 -0.07824263 -0.370251
0.25372806 0.32599726 0.04312753 -0.16685158 0.16258124 -0.32614988 0.18928643 0.033693884
00000000: 3785 c83d 49fb dc3d 5424 ac3d 6722 66bc
00000010: e2e1 94bd 982b 0bbe a4c9 093e 5dd1 43be
00000020: 1dfb 6cbe 23e9 183e 7e9b f93d 4528 86bd
00000030: 67d7 0cbe 95d4 373b 6810 bf3d a34f b5be
00000040: ecc2 8b3e 3874 3e3e 1616 54be 39c3 ebbd
00000050: 246f 80be 65af b3bd 6f7b 8c3e 64a2 c73d
00000060: b3d5 ec3d a719 603e 0251 6d3e 8c9c 1d3d
00000070: 7f8b 513e 6ef9 0abe 33e3 c23e b3d4 643d
00000080: 713d 78bd 1bbd dc3d ce2b edbc 1e05 2dbe
00000090: e2d2 97be 0469 5bbd e2b5 8d3c 9b4a 4e3d
000000a0: b84c fd3c 4924 d33c 0873 c93e d342 6d3d
000000b0: ba5e 1ebe c5f8 7bbd 6039 cfbd cfc5 6fbc
000000c0: 3c5d 523e b9e2 d03d 2360 35bd f70f 86bd
000000d0: 5bc5 74bd cd1c a93e 7e61 dd3d 70e2 583d
000000e0: 0467 29bd 9d69 b73e b6b2 783d 76cc f0bd
000000f0: 12c6 593d cebc d43d e4f9 fbbd af43 31bc
00000100: 7d47 ddbd 8aa8 79be 1305 d23e 9572 8d3e
00000110: 63ac 313e 5f4c ee3d 9fd3 563d 4a99 323e
00000120: dca9 1b3e 4dec 1bbd 8159 48be b1bc d0bd
00000130: 1317 65be e9a9 0d3f fefb 33be f4ee 83be
00000140: 3c5e c6bd 723a 8c3e 8cd3 59be b360 ecbd
00000150: 7a10 e03e bd18 1c3d 389c 713b 75b7 93be
00000160: a6fa 11be ad4f 3b3d e54c 4b3c bca2 8e3d
00000170: 1ec5 dfbb e3b0 83be 4fe4 873e 0f1b 5b3e
00000180: 6d71 ed3d 93ac b23e c971 29bd cf5b f93d
00000190: 7901 49be b26b 153e 9f9a e73c b42c 6e3e
000001a0: 480f b7bc b82f 7ebe 688b 183e 0aee a83c
000001b0: 8a19 0fbe 8e00 02be 0392 34bd 1245 cf3d
000001c0: dcba 8d3e 4a5a eb3d e0e9 dc3d 587a dc3c
000001d0: cef7 583d 5c78 adbe 6381 e6bd a9ca 81be
000001e0: 5195 123d da1c 13bd ec26 663e e3c8 0a3e
000001f0: d2d9 e0bd 40b0 2c3d 4f9a 913d 3c3a f6bd
00000200: f815 0c3e 4618 623c 69cb a33e 54cd 91be
00000210: 63b0 0f3e 21e6 583e b1c4 98be b916 7e3e
00000220: a000 9bbd a6c1 c4ba 6c75 32be 6a27 68bd
00000230: c2c3 063e cf02 353e 7a47 41be 0bbb e6bd
00000240: 1beb 933d 044b fabd 4dca 7bbe 02b5 54bd
00000250: 5b09 5a3c fbd7 8bbe c97a 9fbe 4ea9 a93e
00000260: b992 96bd 9a97 bcbe d04f bbbd 6e49 363e
00000270: e664 073e abcc 05bd 14cd 4d3c eed7 0b3e
00000280: 6382 83be be03 d6bd 41c7 523d ab1d 1cbe
00000290: cf47 833d a2a3 75bd caa7 f73d f30d bfbc
000002a0: b198 e7be cdb5 fcbe f5fe 21bd ccb3 86be
000002b0: 6286 4d3e 7761 b7be b707 83be 6e06 a53e
000002c0: f31f 6dbd 59d0 a73e 0219 093e e1b4 7cbe
000002d0: d8d7 26be c2b7 b03e 7682 5c3d 28d5 6a3e
000002e0: cfb2 223e 720b 0cbe ebf1 b53d f9e3 903c
000002f0: 63c0 c53d d819 17be 676b 4abc 18fd 31bd
00000300: 1b60 913e 2ec9 0e3e 3f31 0ebe e657 c4bd
00000310: 988e 2e3e bb25 e13d 39d0 d93d 0704 12be
00000320: 8840 e63c 19e8 84be 75b1 0fbd 8ef5 dc3e
00000330: 5d91 883e 1d49 a53e f585 c43d 5e1c d3bd
00000340: 6a07 fc3e f39a fd3d 3a86 bebd c804 db3b
00000350: 04cc f63d 024d 9dbd a354 b33d aa8b e7bd
00000360: b94f 8d3d 9f03 d93e ac83 7cbd 6c49 8b3c
00000370: 11f7 653d 80ca 8a3e 5dc8 fb3d af0c 37be
00000380: aa5f 363d f102 f7bd 5322 f33d c726 e13d
00000390: a40d debd 26c0 453e 9226 b63e 2d7b 87be
000003a0: e57d 0c3d 8eac d4be 57e9 c53e 230b 16bd
000003b0: 934c 88be e6e1 66be 125c 48bb dc5e d33d
000003c0: 03b5 e43d e23a a2be af3a 093d 8073 c1ba
000003d0: d83c 09bd c9a7 8d3b ac3d a0bd 8a91 bdbe
000003e0: a5e8 813e 1de9 a63e 7ea6 303d 24db 2abe
000003f0: b27b 263e 1efd a6be 4dd4 413e 9902 0a3d

lstm.bias_ih_l1 f4 [512]
-0.25943553 -0.4110033 -0.11583057 -0.1324096 0.014811062 -0.21058005 -0.1514999 -0.41178578
-0.2026891 -0.31035128 -0.2739326 -0.3025003 -0.33242837 -0.14142635 -0.21220012 -0.02771965
-0.44285315 -0.12695496 -0.27439144 -0.4040208 -0.0045690085 -0.21787146 0.0029533473 -0.40668443
-0.2045698 -0.15883741 -0.4480226 -0.3103808 -0.080319956 -0.1514383 -0.42623672 -0.37921882
-0.2822765 -0.4603346 -0.2522832 -0.21315567 -0.32113662 -0.3625919 -0.30917767 -0.13957171
-0.09716946 -0.052224178 -0.3391058 -0.1886073 -0.22228749 -0.2237152 -0.13203235 -0.0600935
-0.30125093 -0.14038804 -0.011197118 -0.23599574 -0.24792919 -0.022966294 -0.2408311 -0.27535608
-0.29279214 -0.37496042 -0.3294366 -0.42648113 -0.28892574 -0.086053535 -0.25865686 -0.32317314
-0.10928435 -0.42592064 -0.103294775 -0.2923638 -0.14581369 -0.2106706 -0.26010144 -0.43976864
-0.23507288 -0.20071933 -0.10861012 -0.10205874 -0.22105335 -0.09672187 -0.43215278 -0.14225723
-0.21643825 -0.18372594 -0.47907442 -0.10801198 -0.16325547 -0.16979964 -0.24850108 -0.09691116
-0.4443666 -0.15877455 -0.26383346 -0.22031043 -0.42979026 -0.13932356 -0.10636259 -0.11519722
-0.15040316 -0.20643713 -0.3244659 0.025255846 -0.17003042 -0.31213865 -0.09542925 -0.03160876
-0.08386171 -0.17801078 -0.15876688 -0.3489024 -0.025438838 -0.15715583 -0.089480095 -0.33837587
-0.21186554 -0.12478549 -0.25165436 -0.43515784 -0.16946916 -0.24009882 -0.2802331 -0.24468316
-0.29805273 -0.21708055 -0.2559113 -0.27465865 -0.28830832 0.04369395 -0.22465211 -0.14632837
-0.17994714 -0.30533168 -0.34542048 -0.1915014 -0.2733942 -0.11240487 -0.11024945 -0.21566625
-0.32904762 -0.20291944 -0.2028898 -0.3524048 -0.32750252 -0.0146405585 -0.3009177 -0.11197515
-0.24376327 -0.032319184 -0.24011223 -0.2523996 -0.34079248 -0.31370834 -0.18958977 -0.19734101
-0.3323312 -0.13165101 -0.2435209 -0.224723 -0.03223894 -0.2725638 -0.23404428 -0.14588374
-0.33753136 -0.33069372 -0.21613213 -0.25254825 -0.31392586 -0.2551456 -0.16594604 -0.3360352
-0.09892352 -0.11845682 -0.15068805 -0.07288566 -0.3279194 -0.3011898 -0.16062886 -0.07321827
-0.27556887 -0.13384326 -0.069051296 -0.1282514 -0.19816345 -0.114206344 0.007583198 -0.16003482
-0.29423934 -0.11137656 -0.39875627 -0.40052816 -0.30528072 -0.20490389 -0.26389295 -0.2020086
-0.27005383 -0.32599232 -0.36473697 0.025177956 -0.44929594 -0.25274733 -0.19238272 -0.3691616
-0.3212611 -0.2143783 -0.36577505 -0.25345445 -0.17559242 -0.049409896 -0.26342684 -0.28482503
-0.08699093 -0.3510268 -0.24629723 -0.2043395 -0.46891424 -0.29361516 -0.25016022 -0.3301381
-0.29972702 -0.32061538 -0.043536812 -0.15357193 -0.14896752 -0.20451307 -0.36422494 -0.1843655
-0.1456501 -0.09035602 -0.17916343 -0.20140503 -0.11226188 -0.19287436 -0.19599472 -0.16560656
-0.40593457 -0.17760773 -0.22502789 -0.16289875 -0.25399092 -0.26985532 -0.31617576 -0.19856104
-0.16235188 -0.10696351 -0.039269324 -0.50005865 -0.22028178 -0.2569344 -0.28267533 -0.17348568
-0.41575298 -0.24527407 -0.2856004 -0.2109325 -0.056263015 0.013817447 -0.3545233 -0.20575385
00000000: bcd4 84be 066f d2be 9438 edbd 6296 07be
00000010: 19aa 723c 4ca2 57be ca22 1bbe 96d5 d2be
00000020: bb8d 4fbe 5de6 9ebe e540 8cbe 52e1 9abe
00000030: 0d34 aabe 12d2 10be fd4a 59be 5214 e3bc
00000040: a6bd e2be 7b00 02be 097d 8cbe d0db cebe
00000050: 9fb7 95bb b219 5fbe f28c 413b f138 d0be
00000060: bf7a 51be 46a6 22be 3863 e5be 3bea 9ebe
00000070: ca7e a4bd a412 1bbe b33b dabe f828 c2be
00000080: 8c86 90be fab0 ebbe 432b 81be 7b45 5abe
00000090: 056c a4be a5a5 b9be 894c 9ebe e3eb 0ebe
000000a0: c800 c7bd 05e9 55bd 479f adbe 4622 41be
000000b0: 559f 63be 9915 65be 7d33 07be 9a24 76bd
000000c0: 903d 9abe e2c1 0fbe 1e74 37bc dea8 71be
000000d0: 26e1 7dbe cf23 bcbc 6e9c 76be 79fb 8cbe
000000e0: dae8 95be d0fa bfbe eaab a8be bc5b dabe
000000f0: 13ee 93be d63c b0bd ac6e 84be f376 a5be
00000100: 79d0 dfbd 4512 dabe 368c d3bd b5b0 95be
00000110: 2f50 15be 09ba 57be 042c 85be 5b29 e1be
00000120: f2b6 70be 5e89 4dbe fc6e debd 2c04 d1bd
00000130: cf5b 62be 1e16 c6bd 2143 ddbe e1ab 11be
00000140: fda1 5dbe a722 3cbe 3e49 f5be 6335 ddbd
00000150: 712c 27be f5df 2dbe 1177 7ebe 5c79 c6bd
00000160: 0584 e3be cc95 22be 2e15 87be 0f99 61be
00000170: 780d dcbe d6aa 0ebe a1d4 d9bd 85ec ebbd
00000180: 4903 1abe 4164 53be 6520 a6be 59e5 ce3c
00000190: 741c 2ebe a3d0 9fbe 6970 c3bd 3078 01bd
000001a0: b0bf abbd 7548 36be c993 22be 56a3 b2be
000001b0: 1c65 d0bc 75ed 20be 5741 b7bd 9a3f adbe
000001c0: 48f3 58be 898f ffbd d7d8 80be 02cd debe
000001d0: 5389 2dbe 77dc 75be b67a 8fbe 398e 7abe
000001e0: 5e9a 98be 5d4a 5ebe ce06 83be 0fa0 8cbe
000001f0: 269d 93be 6df8 323d 340b 66be 1bd7 15be
00000200: 1044 38be 6f54 9cbe f4da b0be f118 44be
00000210: 53fa 8bbe 8634 e6bd 77ca e1bd 9dd7 5cbe
00000220: ee78 a8be 1dca 4fbe 58c2 4fbe 676e b4be
00000230: 69ae a7be f4de 6fbc e311 9abe 3a53 e5bd
00000240: 149d 79be 1f61 04bd fbdf 75be 853a 81be
00000250: 5a7c aebe 619e a0be d223 42be c313 4abe
00000260: 5127 aabe 86cf 06be 8b5d 79be c91d 66be
00000270: fb0c 04bd 7b8d 8bbe 4ea9 6fbe 8c62 15be
00000280: e9d0 acbe b050 a9be be51 5dbe 014e 81be
00000290: e4ba a0be 72a2 82be c2ed 29be ce0c acbe
000002a0: 6a98 cabd 7d99 f2bd f84d 1abe 1445 95bd
000002b0: 0de5 a7be 8d35 9abe e47b 24be 76f3 95bd
000002c0: 5d17 8dbe 350e 09be c46a 8dbd 5654 03be
000002d0: 5ceb 4abe 04e5 e9bd 7a7c f83b 2be0 23be
000002e0: 8aa6 96be 6519 e4bd c829 ccbe 0712 cdbe
000002f0: c14d 9cbe 53d2 51be fa1c 87be 58db 4ebe
00000300: 7f44 8abe 77e8 a6be cebe babe 0042 ce3c
00000310: 1e0a e6be 1968 81be faff 44be c002 bdbe
00000320: 567c a4be fc85 5bbe de46 bbbe c8c4 81be
00000330: 80ce 33be 0862 4abd e2df 86be 96d4 91be
00000340: 4d28 b2bd c9b9 b3be 5735 7cbe 603e 51be
00000350: 8715 f0be ba54 96be 0015 80be dc07 a9be
00000360: d275 99be b327 a4be a853 32bd f641 1dbe
00000370: f18a 18be e06b 51be b17b babe 4fca 3cbe
00000380: 4d25 15be 940c b9bd 9e76 37be 1f3d 4ebe
00000390: 8ee9 e5bd db80 45be d7b2 48be c494 29be
000003a0: a8d6 cfbe cdde 35be b66d 66be eece 26be
000003b0: 190b 82be 7a2a 8abe cae1 a1be 9653 4bbe
000003c0: 923f 26be af0f dbbd dfd8 20bd d803 00bf
000003d0: 8c91 61be e88c 83be d2ba 90be 3ba6 31be
000003e0: 93dd d4be 2029 7bbe 373a 92be b0fe 57be
000003f0: 0c74 66bd 9362 623c 1484 b5be 23b1 52be

lstm.bias_hh_l1 f4 [512]
-0.2346656 -0.29446936 -0.21218835 -0.16865072 -0.05878977 -0.24798496 -0.21386558 -0.34540975
-0.25335753 -0.27620384 -0.27662694 -0.3201036 -0.288956 -0.11162244 -0.21341382 -0.043314774
-0.34771037 -0.091572575 -0.1994588 -0.32782698 0.02327761 -0.23560596 -0.0019088992 -0.36952138
-0.25732014 -0.1822415 -0.43650317 -0.29627076 -0.006520788 -0.2779597 -0.38211367 -0.30294442
-0.3571663 -0.425717 -0.35266513 -0.19366015 -0.31748602 -0.33306316 -0.22539762 -0.20094134
-0.096689016 -0.13855968 -0.30511084 -0.19770318 -0.2289919 -0.26272747 -0.17901574 -0.15123343
-0.25929174 -0.09285911 -0.09321576 -0.2480228 -0.26406947 -0.10428147 -0.14803913 -0.18926866
-0.2507813 -0.27609628 -0.31414723 -0.46784002 -0.33858845 -0.030308709 -0.2578021 -0.301438
-0.030438587 -0.35905102 -0.08394377 -0.2670646 -0.1751426 -0.32738572 -0.2695363 -0.40988174
-0.3285457 -0.21946853 -0.14170684 -0.0937147 -0.20975775 -0.08933748 -0.5036357 -0.08303974
-0.115509905 -0.18784039 -0.5093755 -0.14900678 -0.20809263 -0.16994147 -0.15470687 -0.13931137
-0.3719587 -0.1283856 -0.24692227 -0.11122954 -0.5024475 -0.19931172 -0.131701 -0.21973601
-0.17225792 -0.2519717 -0.31891212 0.0027925882 -0.096373215 -0.18794325 -0.044799343 -0.09013122
-0.08673333 -0.2618085 -0.26538575 -0.34630978 -0.08391737 -0.21527086 -0.118573576 -0.2551129
-0.3030764 -0.12456084 -0.19039269 -0.48671347 -0.14723992 -0.1511709 -0.3473903 -0.24482255
-0.22228912 -0.29053208 -0.33974305 -0.25062826 -0.23973966 -0.0021428668 -0.22204691 -0.24263756
-0.20037873 -0.25270626 -0.27459285 -0.23184943 -0.31167197 -0.13675433 -0.23339258 -0.33595055
-0.20148201 -0.23698933 -0.23560226 -0.33478186 -0.30999827 -0.03267621 -0.33233997 -0.0722785
-0.3716357 -0.06804828 -0.26006305 -0.2474708 -0.2378211 -0.42506775 -0.10177636 -0.19454111
-0.3253326 -0.20879123 -0.15449026 -0.095952146 -0.03383714 -0.306721 -0.2734621 -0.21336427
-0.3361297 -0.41364658 -0.24272937 -0.13230836 -0.2813121 -0.26837716 -0.18438718 -0.336033
-0.098688394 -0.09488074 -0.27124968 -0.12070295 -0.31845623 -0.25584453 -0.14661255 -0.05197604
-0.14977613 -0.09720441 -0.04330564 -0.22865285 -0.14372587 -0.10031831 -0.056154393 -0.20200987
-0.2657971 -0.15691496 -0.2413164 -0.35431382 -0.23505633 -0.17117424 -0.23319213 -0.23144788
-0.27295938 -0.27931637 -0.4514538 0.028791063 -0.51815975 -0.094516255 -0.28982833 -0.3013107
-0.41115072 -0.10735399 -0.5116352 -0.17234807 -0.18971126 -0.10335884 -0.37186915 -0.241935
-0.03233706 -0.32370484 -0.2552669 -0.15047108 -0.33236888 -0.3736387 -0.3275371 -0.30297846
-0.22692019 -0.33190146 -0.057767317 -0.11005023 -0.2410715 -0.22808552 -0.26809818 -0.17041932
-0.16850878 -0.053549573 -0.20569912 -0.15192401 -0.2349856 -0.22498582 -0.25235382 -0.15640688
-0.33079642 -0.19336386 -0.1970317 -0.19626844 -0.1562887 -0.27398688 -0.3133162 -0.35005262
-0.30511436 -0.25529867 -0.10628411 -0.39996785 -0.34028998 -0.3252174 -0.29663485 -0.09317885
-0.49758726 -0.20943701 -0.20955539 -0.15527076 -0.09045156 -0.019256273 -0.32688403 -0.22458805
00000000: 2e4c 70be b0c4 96be e747 59be c6b2 2cbe
00000010: 8bcd 70bd c5ef 7dbe 94ff 5abe 8cd9 b0be
00000020: 14b8 81be 976a 8dbe 0ca2 8dbe 9ee4 a3be
00000030: 0af2 93be 4e9a e4bd 2789 5abe d56a 31bd
00000040: 1807 b2be 678a bbbd ed3e 4cbe f0d8 a7be
00000050: b0b0 be3c b042 71be 0734 faba e831 bdbe
00000060: 77bf 83be 849d 3abe 587d dfbe cdb0 97be
00000070: 56ac d5bb bc50 8ebe 67a4 c3be 881b 9bbe
00000080: 80de b6be 94f7 d9be 8690 b4be d94e 46be
00000090: 878d a2be 4187 aabe a2ce 66be 91c3 4dbe
000000a0: e404 c6bd 97e2 0dbe 7d37 9cbe b472 4abe
000000b0: da7c 6abe 3784 86be e74f 37be f0dc 1abe
000000c0: e3c1 84be eb2c bebd e8e7 bebd b0f9 7dbe
000000d0: 1d34 87be 8691 d5bd 9297 17be a5cf 41be
000000e0: 6866 80be 7e5c 8dbe e8d7 a0be ba88 efbe
000000f0: 775b adbe f849 f8bc a3fe 83be 1556 9abe
00000100: 585a f9bc 89d5 b7be b6ea abbd b1bc 88be
00000110: 9558 33be 1a9f a7be a900 8abe 05dc d1be
00000120: 2437 a8be 5cbc 60be 991b 11be 7eed bfbd
00000130: bcca 56be 92f6 b6bd 45ee 00bf bd10 aabd
00000140: 7590 ecbd 3b59 40be 6f66 02bf 3c95 18be
00000150: 3c16 55be 2305 2ebe 7a6b 1ebe a4a7 0ebe
00000160: 5f71 bebe 8477 03be 31d9 7cbe 50cc e3bd
00000170: 66a0 00bf 5f18 4cbe a0dc 06be 7a02 61be
00000180: 6164 30be 6f02 81be 7348 a3be db03 373b
00000190: 525f c5bd 3274 40be 847f 37bd b896 b8bd
000001a0: 3ea1 b1bd c40b 86be a4e0 87be 844f b1be
000001b0: dfdc abbd f76f 5cbe b4d6 f2bd 289e 82be
000001c0: d42c 9bbe c119 ffbd 4df6 42be 8232 f9be
000001d0: 10c6 16be 8bcc 1abe 24dd b1be c3b2 7abe
000001e0: c29f 63be 9fc0 94be cdf2 adbe 5952 80be
000001f0: 507e 75be 576f 0cbb 4460 63be fb75 78be
00000200: 1530 4dbe b762 81be 6f97 8cbe f069 6dbe
00000210: 7893 9fbe 5409 0cbe 77fe 6ebe b601 acbe
00000220: 4d51 4ebe 55ad 72be b841 71be 8768 abbe
00000230: 18b8 9ebe 7dd7 05bd 7728 aabe c006 94bd
00000240: 0947 bebe e65c 8bbd fc26 85be fc68 7dbe
00000250: 6087 73be 7ba2 d9be 2070 d0bd c935 47be
00000260: ff91 a6be 5ecd 55be b232 1ebe 8f82 c4bd
00000270: d098 0abd 890a 9dbe 3903 8cbe 2a7c 5abe
00000280: 3119 acbe 7cc9 d3be 0c8e 78be d87b 07be
00000290: 2408 90be bb68 89be fecf 3cbe 840c acbe
000002a0: 241d cabd d550 c2bd 3de1 8abe 1c33 f7bd
000002b0: b20c a3be 0efe 82be 9a21 16be d4e4 54bd
000002c0: ea5e 19be 1b13 c7bd 4161 31bd f923 6abe
000002d0: e02c 13be b073 cdbd 2602 66bd addb 4ebe
000002e0: 8f16 88be 51ae 20be a51b 77be 9f68 b5be
000002f0: 9bb2 70be 4d48 2fbe ebc9 6ebe ac00 6dbe
00000300: 55c1 8bbe 8e02 8fbe f424 e7be 3cdb eb3c
00000310: 1ea6 04bf bd91 c1bd 6164 94be 6545 9abe
00000320: 5982 d2be 69dc dbbd 86fa 02bf 037c 30be
00000330: ab43 42be cdad d3bd a265 bebe cfbd 77be
00000340: dd73 04bd a4bc a5be 58b2 82be 1715 1abe
00000350: 412c aabe 924d bfbe f1b2 a7be fe1f 9bbe
00000360: c45d 68be fdee a9be 6c9d 6cbd 0462 e1bd
00000370: 73db 76be 408f 69be 2a44 89be 6782 2ebe
00000380: 918d 2cbe cc56 5bbd caa2 52be f891 1bbe
00000390: 11a0 70be af62 66be 8534 81be 2029 20be
000003a0: 265e a9be 2d01 46be aec2 49be 98fa 48be
000003b0: 250a 20be 0248 8cbe fb6a a0be 193a b3be
000003c0: f337 9cbe 82b6 82be 7cab d9bd 96c8 ccbe
000003d0: 7d3a aebe e582 a6be 86e0 97be 8ed4 bebd
000003e0: c2c3 febe a876 56be b095 56be 4cff 1ebe
000003f0: ab3e b9bd 55bf 9dbc 585d a7be 69fa 65be
