resources/models/mnist/Softmax_model_v100.pth (torch, 392114 bytes, 26 tensors)

0.weight f4 [256, 196]
00000000: f658 c8bc 91f4 5fbd afc5 08bd 5be9 0cbc
00000010: 0d5c 2abd 09ff 8fbd a897 873d f95b 803d
00000020: e7a2 b3bc fadf 3d3d 5bf6 5bbd 493d 57bd
00000030: ff20 b3bc 5331 103b ae49 2e3d b245 e53c
00000040: 0c7e 663d f26b 25bd 4279 173d 541c a03b
00000050: b4a1 43bc 4be4 f2bc ddbd 293d 7545 36bd
00000060: 3b68 f6bc 84eb ca3c c88a 8a3d 895f 913c
00000070: 3142 903d aa81 823d 6d77 72bd 3064 833d
00000080: b21a 49bc 684f b0bc 13b1 283d db4e 0dbd
00000090: 2134 6ebd baf9 693d 22a9 6f3d 3b28 4abd
000000a0: 6bf3 81bd 398e d6bc 7cd3 f83c d3cb 223d
000000b0: ff54 cfbb c119 04bd d7aa 213a 3542 013d
000000c0: 253b 07bd d62d 81bb 1609 0e3d 7e94 b9bc
000000d0: 2739 2cbd 0459 8abd def5 41bc df2b 2b3d
000000e0: 0cbf a23c 5fb3 883d d403 7ebd 8bf2 8e3d
000000f0: bfa9 833d 4c84 333d 3040 073d 558d 4b3d
00000100: ec80 0f3d db93 f43c b029 623c acfe 1bbd
00000110: f81c 8e3d 5177 52bd 7a2a 92bd aad6 843d
00000120: 10e4 09bc 04cc 3f3d 1914 6cbc 9a24 b83c
00000130: 730d c8bc 6ecd b8bc a128 6ebd de2f 7d3a
00000140: d808 6a3d b3e7 123c 7c08 1abd e83f 61bc
00000150: 94f5 803d 4ac1 10bc ace8 123d b415 d43c
00000160: 1467 8abd 1caf bd3c 5503 14bc 8f83 8bbd
00000170: 39de c9bc 9e55 7e3d d168 b4bb 3b93 8ebd
00000180: 62ee e33c 2db0 7cbb fb69 713b 0158 3bbd
00000190: 0a45 08bd 208b 4ebd b935 bcbc eeed 0cbd
000001a0: aed7 013c bc9e 793d f18e 83bd bcc6 4f3d
000001b0: 5dd4 023c 0ada 333c ae1c 89ba 417b 6ebd
000001c0: 54ae 9cbc 1c90 e33c 8508 723d 2374 813d
000001d0: 8e29 5dbc 9973 ea3b d861 75bd 01c2 efbc
000001e0: 4018 073c 8379 adbc 0017 07bd fdab 7c3d
000001f0: b412 663c f0c5 3f3d 6dc6 b83c 93ca 2b3d
00000200: 51cb 5bbd 3cb6 193d f4e5 1cbb 30a0 b8bc
00000210: f63f 613d ebaf 7abd 0136 543d 2301 db3b
00000220: 4c84 873b 0466 8c3d 49ee 3f3d 39ff 49bd
00000230: 0afb 613b 61d9 613d 0d5f 633d ff0d 8b3d
00000240: 5ac9 21bd 3f89 813b 72a3 2b3a 5e73 8bbc
00000250: 0abd 5a3d 96c8 02bc 1426 803d 4891 803c
00000260: 23a8 1abd 3744 63bd 7b80 61bc baff 2f3d
00000270: 7ce3 ce3c 6206 643d b701 353b b319 5bbd
00000280: 52d1 89bd 37d8 87bc dcef 493d 87f0 853d
00000290: 702d 0d3c 143d 533d 5f33 03bd 9f70 1ebd
000002a0: 4a43 a33b 253d cd3c 8931 853c 18b6 8dbd
000002b0: cb66 8b3d c246 3abb be2f 313d e36a 6ebd
000002c0: 05c7 c63a e3f0 84bd 3f58 663c 118f 8ebd
000002d0: 1c95 75bd bdd1 b73b 66d6 803d a3e9 fa3c
000002e0: 1219 40bb 8528 94bd 382b 5c3d 6678 803d
000002f0: 628e b83c 003a 6c3d 4549 e83c f5ef 5bbd
00000300: 2a3c ca3c cb63 e33c 08d3 86bc cc7c 00bd
00000310: 64b8 d2bb 7d9f 6bbd fb1b 2cbd 1c28 6f3b
00000320: d6fb 7fbd 2bce bd3c 7a77 21bd 8aea 3a3d
00000330: b48a 833d c99c 723d 1fcd 853d f490 8ebd
00000340: 96ba 843d 79f3 8b3d 3766 863d a9d4 88bd
00000350: 234d 20bd d893 863c c03e 9f3b c80e 0abd
00000360: 4ae8 833d 44cf b3bc 4185 cebb 016d 083c
00000370: 26f7 9a3b 58df 79bd 4739 cfbb 9c35 58bc
00000380: b229 e8bc 2df0 093c b1a9 bc3c 7a88 eb3c
00000390: a164 e23c 513a 97bd 00d4 1ebc cee5 90bd
000003a0: df5b 43bd d5e4 763c fde4 453d 9d99 f33b
000003b0: 6f20 e5bc a329 e1bc 85b0 64bd e909 8fbd
000003c0: 6861 08bd 21af 7f3d 30a0 6a3c 5a0b c2bc
000003d0: 6d6b 9c3c 51c3 543c 9f8f 18bd a99a b6bc
000003e0: f6e3 46bb ec74 40bd 3baf c33c a845 67bc
000003f0: 1e99 40bd 3a05 833d 1596 10bd 3753 8a3d
-0.024456482 -0.054676596 -0.03339165 -0.008600558 -0.041591693 -0.07031066 0.06620723 0.062675424
-0.021928264 0.04635618 -0.05370174 -0.05254868 -0.02186632 0.0022002056 0.042550735 0.027987335
0.05627255 -0.040386148 0.036980875 0.0048861895 -0.0119404085 -0.029649874 0.041440833 -0.044499833
-0.030078998 0.024770506 0.06764752 0.01774575 0.07043875 0.06372388 -0.059195925 0.064155936
-0.012274431 -0.021522239 0.041184496 -0.03449903 -0.058155183 0.057122923 0.058510907 -0.049354773
-0.063452564 -0.026190864 0.030374281 0.039745163 -0.006327271 -0.032251123 0.000616712 0.03155728
-0.03301539 -0.0039422316 0.034676634 -0.022653814 -0.042046692 -0.0675526 -0.011838404 0.041789886
0.019866489 0.06674837 -0.06201537 0.06979855 0.06428861 0.04382734 0.0330202 0.04969533
0.03503506 0.02985566 0.013803884 -0.03808467 0.06939119 -0.05138332 -0.07137008 0.064862564
-0.008416191 0.046825424 -0.0144090885 0.02247839 -0.024420476 -0.022558894 -0.058144215 0.0009658317
0.05713734 0.008966374 -0.037605748 -0.013748147 0.0629684 -0.008835146 0.035866424 0.025889255
-0.06757942 0.023154788 -0.009033998 -0.06812202 -0.024642097 0.06209337 -0.005505659 -0.06961676
0.02782363 -0.0038557157 0.003683685 -0.045738224 -0.033268966 -0.05042565 -0.022974836 -0.034406595
0.007924957 0.060942397 -0.06423748 0.050726637 0.007985202 0.0109772775 -0.0010460818 -0.058223013
-0.019126095 0.027778678 0.059090156 0.063209794 -0.013498677 0.0071548936 -0.059907764 -0.029267313
0.008245528 -0.021176105 -0.03298092 0.06168746 0.014042545 0.046819627 0.022555554 0.041941237
-0.053660695 0.037527308 -0.0023940774 -0.02253732 0.05499264 -0.061202925 0.051809315 0.006683485
0.004135644 0.068553954 0.046858106 -0.049315665 0.0034481906 0.05513895 0.05551057 0.06789779
-0.039498664 0.0039531286 0.00065474876 -0.017022785 0.053402938 -0.007982394 0.06257263 0.015694275
-0.037758004 -0.055484977 -0.013763542 0.04296849 0.025254957 0.05567015 0.002761943 -0.053491306
-0.06729378 -0.016582591 0.049301013 0.065400176 0.00861679 0.05157192 -0.032031413 -0.038681623
0.0049823867 0.02505357 0.016258972 -0.06919497 0.068067156 -0.0028423523 0.04325842 -0.058207404
0.0015165514 -0.06491258 0.014059125 -0.069608815 -0.059956655 0.0056097195 0.06290893 0.030628985
-0.0029311818 -0.07234291 0.053752154 0.06272964 0.02252883 0.0576725 0.02835525 -0.053695638
0.024686892 0.027757546 -0.01645805 -0.031369016 -0.0064306725 -0.057525147 -0.04201887 0.0036492413
-0.06249603 0.023169598 -0.039420582 0.04563383 0.0642294 0.059231553 0.06533264 -0.06961241
0.06480901 0.06833548 0.06562465 -0.06681187 -0.039136063 0.01642792 0.0048597753 -0.033705503
0.0644079 -0.021949418 -0.006302506 0.00832677 0.0047291694 -0.061004013 -0.0063239667 -0.013196375
-0.028340194 0.008419079 0.023030134 0.0287516 0.027635874 -0.0738417 -0.009694099 -0.07075082
-0.047695037 0.015069206 0.048314083 0.0074340836 -0.027969567 -0.027485674 -0.055832405 -0.06984312
-0.03329602 0.062422875 0.014320418 -0.023687053 0.019094193 0.01298602 -0.037246343 -0.022290545
-0.0030348278 -0.046986505 0.023887267 -0.014115728 -0.047021024 0.06397481 -0.03529938 0.06754153

0.bias f4 [256]
00000000: f79b 85bd c981 2dbc c951 463d f9d8 52bc
00000010: 53cd 62bc f936 083d b820 2bbd 664d 1fbd
00000020: ea2f 7abd ded1 033d 3b52 12bc 8b8c 2d3d
00000030: 5205 2cbb cb5c 893d df21 30bd 6cc9 1a3d
00000040: 2410 e7bc e107 053d 5f75 343d cf8e 333c
00000050: 46bc 80bc 6a21 4c3d 17ce 803d c7b4 533b
00000060: 43db 263d 9041 20bd f803 c2bc dc31 c73c
00000070: 6c78 20bd 38a3 4f3d cd58 39bd 60c3 82bd
00000080: 5595 883d cd81 033c 077d 38bd 2c83 39bd
00000090: df49 30bd fbe8 b8bc 7fe3 b5bc 90d5 393d
000000a0: 9726 c33c bc12 66bc a03b c3bc 6b35 5c3d
000000b0: 656d 49bd 3294 29bb 695a 0bbc 8773 393d
000000c0: 7d7a 16bc f53b 533d bb80 883b 7027 513c
000000d0: 08c8 29bd 3be4 ffbc a7e8 253d 05a1 6d3d
000000e0: 7d39 b93c 38d2 42bb 150d c23c 0491 73bc
000000f0: 852c d4bc 559e 22bd a0f1 313d e8ab a9bc
00000100: 6632 d7bc dcfc 8c3d 377b 83bd c422 cb3c
00000110: 8ad6 563c 06f9 07bd 9f48 283d 5c07 8c3b
00000120: 647d 85bc 3572 f93c e564 57bd d08e 4ebd
00000130: 995b 89bd 59e8 063d 3d1f 28bd c197 353b
00000140: c89a a5bb 82b7 a83c 10e3 7fbd 864c 8f3d
00000150: 5a09 793b 5445 b8bc 2af5 80bd b5d3 d0bc
00000160: 407e 743a 7927 b0bb 7d5f 873c 5a1b d33c
00000170: 02d2 273c d24d 39bd 514a 4f3d 6386 fc3c
00000180: e09b 0d3d 55e4 78bd e2bc 0d3d da8b ed3c
00000190: 524d 08bd 53ca 46bd 37f5 073d 378a 90bc
000001a0: 50ba 853d 873c 6ebd 6d7f 34bd 3693 3c3d
000001b0: ccd9 b8bb a2c2 203d 0040 1e3d 00b3 063d
000001c0: 4c6a c3bb e3ab ba3c 6581 843c 239e 25bd
000001d0: 894c 5dbd 84c6 21bd fbad 8e3c 20c3 4d3d
000001e0: 96d8 533d 3666 b73c c4c1 21bc 92d2 76bd
000001f0: 0716 8b3d 5292 34bd 214f 513d 1e83 4e3d
00000200: 7209 87bd ed85 67bd 94c3 b13c f6d0 1e3d
00000210: dc4c 8bbd cc3d 92bd f545 0c3c 72ae 773c
00000220: 518b 8e3d f803 90bd 788c 3bbc 4ff1 883d
00000230: 617a 2abc a515 b63c 285b 16bb 6fba 3b3d
00000240: deb0 25bd 40fd 65bd a18b 7dbd df46 d13c
00000250: bd63 333d f506 1bbd e60d 743d 9595 51bc
00000260: a61a a7bc 6fb3 5f3d 2605 5fbd 119d 6e3d
00000270: 6214 06bc abb3 0f3d ef08 0bbd bc15 90bc
00000280: 54be 2c3d a718 83bd a045 3d3d 3960 7b3d
00000290: 2139 4e3d 65f4 33bd c039 853d 2bd7 82bd
000002a0: 741f 8d3d 0c7a 153d 32e5 93ba 0315 8bbd
000002b0: cc9c ddbc 9178 043c 444d 58bd 81eb 903d
000002c0: 41fe 033d f9a8 0bbd 9665 cf3b d14b 013b
000002d0: b1a9 053d 5925 07bd 4fdd 303d b455 093c
000002e0: 4bfd b23b 6137 18bd ddeb ec3c 767f 1e3c
000002f0: d05b d43c 5ecd 8a3d 4a42 48bd 5683 033d
00000300: 4062 053d 3c9c 3f3d 339e 743d b993 373c
00000310: c147 ba3c 5383 273d 176c 42bd 5821 86bd
00000320: a03c e13c 6916 58bd 8233 00bc 265c 643c
00000330: bb27 7d3d 5da1 f43c 8664 70bd c0b5 89bd
00000340: 26b9 7f3d 37ca dd3c 8028 81bd a3cb d63b
00000350: 1655 27bd 499b 673c cc77 133d ecdb 67bd
00000360: 597c 733b 2b44 013d b898 bebc 7f08 0f3c
00000370: 173b 883b 69b7 623d 1b4e fdbc 6f03 653b
00000380: aeef 7a3c a0f6 8abd 122a 6dbd f32c 55bd
00000390: 6a60 47bd 4fc6 0ebd 1d6b ea3b 2d19 723d
000003a0: 1216 913d d5cb 7ebd 7351 8abd ff4c 863d
000003b0: f97f 953c a6be 8f3d c2ba 103d 74ce d8bc
000003c0: 29b0 d9bc a425 c73c 45a7 8b3c c87a 3e3d
000003d0: 1fcc f0bc c94b 0ebd 7ffc 193d c32d 2bbd
000003e0: 36a9 6f3d 92a2 c33c 2fef 883d d469 84bd
000003f0: 0994 833d 2074 8dbc 784f 7dbd f388 493d
-0.065238886 -0.010590025 0.04841784 -0.012869113 -0.013842898 0.03325555 -0.04177925 -0.038892172
-0.06108085 0.032182567 -0.008930738 0.04237036 -0.0026248288 0.06707152 -0.043001052 0.037789747
-0.028205939 0.032478217 0.044057246 0.010959341 -0.015714776 0.049836554 0.062893085 0.0032303797
0.040736448 -0.039125025 -0.023683533 0.024315767 -0.039177343 0.050692767 -0.045250703 -0.06384921
0.06669108 0.008026552 -0.04504111 -0.04529111 -0.0430392 -0.022572031 -0.022203205 0.045369685
0.023822112 -0.014042553 -0.023832142 0.05376188 -0.049176592 -0.0025875685 -0.008505442 0.04527619
-0.009184477 0.05157085 0.0041657365 0.01276575 -0.04145053 -0.031236758 0.040505078 0.05801489
0.02261042 -0.002972735 0.023687879 -0.014866117 -0.025900135 -0.03970178 0.043443322 -0.020711854
-0.026269149 0.068841666 -0.06419986 0.024796851 0.013112674 -0.03319647 0.041084882 0.0042733382
-0.016295142 0.030449966 -0.052586455 -0.050429165 -0.06706924 0.032936428 -0.041045416 0.002770886
-0.0050538518 0.020595316 -0.062472403 0.069970176 0.0037999959 -0.022493996 -0.06296761 -0.025491575
0.0009326674 -0.0053757993 0.016525025 0.025769878 0.010242941 -0.04524023 0.050607983 0.0308258
0.034572482 -0.06076463 0.03460396 0.02899735 -0.033276863 -0.048532795 0.03319284 -0.017644031
0.06529677 -0.058163192 -0.044066835 0.04603883 -0.005641198 0.039248116 0.038635254 0.03288555
-0.0059635993 0.02278704 0.016174981 -0.040434014 -0.054028068 -0.03949596 0.017416945 0.050234914
0.051720224 0.022387605 -0.0098728575 -0.06025941 0.06791311 -0.044084854 0.051100854 0.05041801
-0.065935984 -0.056524206 0.021699704 0.0387735 -0.06801769 -0.07140693 0.008561601 0.015117275
0.06960166 -0.07032007 -0.011447065 0.06686651 -0.010405154 0.022227118 -0.0022942517 0.045832094
-0.040451877 -0.05614972 -0.06190074 0.02554649 0.04379629 -0.03784843 0.059583567 -0.012792011
-0.02039845 0.05461448 -0.05444827 0.05825526 -0.008183571 0.035083454 -0.033944067 -0.017588489
0.0421737 -0.064011864 0.046208978 0.061371062 0.05034745 -0.043934245 0.065051556 -0.06388696
0.06890765 0.036493346 -0.0011283515 -0.06791117 -0.027052306 0.008085386 -0.05280806 0.07076169
0.032224897 -0.03409669 0.0063292487 0.0019729028 0.032632533 -0.032994602 0.043179806 0.00838225
0.005462324 -0.03716219 0.028921062 0.009673944 0.025922686 0.06777452 -0.048891343 0.032107674
0.0325644 0.046779856 0.059721183 0.011204653 0.022739293 0.040896725 -0.047466364 -0.065493286
0.027494729 -0.052755747 -0.00782478 0.0139379855 0.061805468 0.0298621 -0.058689617 -0.06724119
0.06243243 0.027073963 -0.06306553 0.006555037 -0.04085263 0.014136144 0.03600292 -0.05660622
0.0037152974 0.03155915 -0.023266181 0.008730053 0.0041574347 0.055350695 -0.030921033 0.0034944674
0.015315933 -0.06785321 -0.05790145 -0.05204482 -0.048675932 -0.03485709 0.007153882 0.05910604
0.07084288 -0.062206108 -0.067538165 0.065576546 0.018249499 0.07018785 0.035334356 -0.026465632
-0.026573258 0.02430994 0.017047534 0.046503812 -0.029394208 -0.034740243 0.037594315 -0.04179169
0.05851098 0.02388123 0.06686246 -0.064654976 0.0642472 -0.017267287 -0.061843365 0.04920287

1.weight f4 [256]
00000000: a885 7e3f d08a 803f ae1e 7f3f d062 803f
00000010: 7c5a 803f ea33 7f3f 5c1b 803f 1b0f 803f
00000020: 840c 803f 2f73 803f 882b 803f c8be 7f3f
00000030: fd6f 803f eb41 803f e76b 7f3f 635c 803f
00000040: fb1f 803f 84fd 7f3f 6130 7f3f 5b23 803f
00000050: f069 7f3f 256d 7f3f 2fe7 7f3f 6455 7f3f
00000060: a0b5 7f3f 520b 7f3f 2262 803f 7943 7e3f
00000070: b757 803f 045a 803f d91b 7f3f da4c 7f3f
00000080: 476a 7f3f e780 7e3f 3e05 803f 7e7b 7f3f
00000090: fd84 7f3f d553 803f 355d 803f a3c9 803f
000000a0: 8c8c 803f 9a04 7f3f 144d 803f 1367 803f
000000b0: 91c6 7f3f d20d 803f 5b41 803f 04e6 7f3f
000000c0: 2e3d 803f 3a88 7f3f 17fc 803f 0a84 803f
000000d0: a937 7f3f 6413 803f 912f 803f 60bf 7e3f
000000e0: 9f5c 803f da4f 7f3f ff56 7f3f 8b24 7f3f
000000f0: 4919 7f3f 407c 803f e84f 7e3f b23c 803f
00000100: bb0c 803f 273e 7f3f d77d 803f ca06 803f
00000110: ff5f 7f3f 1660 7f3f 9f43 803f 40dd 803f
00000120: c895 803f 8360 7f3f 6921 7f3f 6f14 803f
00000130: b9a5 7f3f dc46 803f b83f 7f3f 186b 7f3f
00000140: d37e 7f3f 6f47 803f 721d 803f 5b53 803f
00000150: 1882 7f3f 606c 7f3f 97e1 7e3f 0e91 7f3f
00000160: 4ad3 7f3f 7938 7f3f 278d 803f 0ea8 803f
00000170: c511 7e3f 770d 7f3f 4d52 7f3f da77 803f
00000180: 6926 803f d68c 803f a858 803f c833 803f
00000190: 9644 7f3f 2859 803f 1d39 7f3f 4d9b 803f
000001a0: 747a 803f c05a 803f c342 803f 1d2f 7f3f
000001b0: 6b53 7f3f 4555 803f 536b 7f3f 6727 7f3f
000001c0: 6dbb 803f 1465 803f 8b46 7f3f d658 803f
000001d0: 3c64 803f 491c 803f 0ba1 803f 3b68 803f
000001e0: 7f54 803f 5b78 803f 7234 803f 4429 7f3f
000001f0: 9f0c 803f 859a 803f d12e 803f c21d 7f3f
00000200: 2a42 803f fa24 7f3f c26f 803f 15fb 7e3f
00000210: c172 803f 866c 7f3f 8cfb 7e3f 431c 803f
00000220: 9094 7f3f a49b 7f3f 31b7 803f 5b6f 7f3f
00000230: e411 803f 1e80 7f3f e55d 7f3f 39bb 7f3f
00000240: 0489 7f3f 0181 803f ad8b 803f 8c93 7f3f
00000250: 9f93 7f3f f62a 7f3f 1540 803f 65fb 7e3f
00000260: 3468 803f 34a4 803f e692 7f3f e694 7e3f
00000270: 0678 7f3f db58 7f3f d90d 803f eaa6 7f3f
00000280: 1b75 803f 7f53 803f 661b 803f a014 803f
00000290: 5861 803f 705e 7f3f c5ef 7f3f 46c2 803f
000002a0: 7406 803f 5e7a 7f3f 725d 803f c5e8 7e3f
000002b0: c07d 7f3f 049e 7f3f 98ea 7e3f 1f7b 803f
000002c0: f5e9 7e3f 4163 7f3f 57d1 7e3f bff1 7f3f
000002d0: fd34 7f3f 267f 803f 974d 7e3f 50b2 803f
000002e0: 7243 803f e724 803f db69 7e3f a379 7f3f
000002f0: 8a65 7e3f 1569 803f 8ed0 7f3f 2d53 7f3f
00000300: f33f 7f3f 241e 813f 6e85 803f 8a03 7f3f
00000310: f2da 803f 4b48 7f3f e539 803f dd98 7f3f
00000320: 674c 7f3f c915 803f f416 803f 316d 803f
00000330: f933 7f3f 9494 803f 4078 7f3f 2157 803f
00000340: fa5d 803f 3f45 7f3f db65 7f3f 71b6 803f
00000350: 8726 7f3f ab5f 803f fd4e 803f bd7d 803f
00000360: 90af 803f a55b 803f a442 803f d976 7f3f
00000370: 2cf2 7f3f f40c 803f 505c 803f 5d32 803f
00000380: 0e64 7f3f 5061 7f3f 759a 7f3f c034 7f3f
00000390: 2619 7f3f 234b 803f 3940 7f3f c745 7f3f
000003a0: 0c93 7f3f b104 7f3f 66c0 7f3f 2159 803f
000003b0: cc66 803f 595d 7e3f a36b 803f 4ce9 803f
000003c0: 2b45 803f 3930 7f3f 1a8b 803f 0c8b 803f
000003d0: b5a6 7f3f 437c 7f3f 86a9 7e3f 658f 803f
000003e0: d05f 7e3f 6879 7f3f 4d10 7f3f 9318 803f
000003f0: 267e 7f3f ec3a 7f3f 0b59 7f3f 48d8 803f
0.99422693 1.0042362 0.9965619 1.0030155 1.0027614 0.9968859 1.000835 1.000461
1.000382 1.0035151 1.0013285 0.99900484 1.0034176 1.0020117 0.9977402 1.0028194
1.000976 0.9999621 0.99683195 1.001079 0.9977102 0.99775916 0.99962133 0.9973967
0.9988651 0.9962665 1.0029948 0.99321705 1.0026768 1.002747 0.9965187 0.9972664
0.9977154 0.9941544 1.00016 0.9979781 0.998123 1.0025584 1.0028445 1.0061535
1.0042892 0.99616396 1.0023522 1.0031456 0.99912363 1.0004218 1.0019945 0.9996035
1.001867 0.9981724 1.0076932 1.0040295 0.99694306 1.0005918 1.0014516 0.99510765
1.0028266 0.9973122 0.9974212 0.99665135 0.9964796 1.0037918 0.9934068 1.0018523
1.0003885 0.9970421 1.0038403 1.0002072 0.99755853 0.9975599 1.0020636 1.006752
1.004571 0.9975664 0.99660355 1.0006236 0.9986225 1.0021625 0.997066 0.9977279
0.99802893 1.00218 1.0008986 1.0025438 0.9980788 0.9977474 0.9956297 0.9983071
0.99931777 0.99695545 1.0043076 1.0051286 0.99245864 0.9962992 0.99734956 1.0036576
1.0011722 1.004298 1.0027056 1.0015802 0.9971403 1.0027208 0.9969652 1.0047394
1.003737 1.0027695 1.0020374 0.99681264 0.9973666 1.0026022 0.9977314 0.996695
1.0057198 1.0030847 0.99717015 1.002711 1.0030589 1.0008632 1.0049146 1.0031809
1.0025786 1.003673 1.0016005 0.9967234 1.0003852 1.0047156 1.0014287 0.9965478
1.0020192 0.99665797 1.0034106 0.9960187 1.003502 0.9977497 0.9960258 1.0008625
0.99836063 0.99846864 1.0055906 0.9977929 1.000546 0.99804866 0.99752647 0.99895054
0.99818444 1.0039369 1.0042626 0.99834514 0.99834627 0.9967493 1.0019556 0.9960235
1.00318 1.0050111 0.99833524 0.9944595 0.99792516 0.9974496 1.0004226 0.99864066
1.0035738 1.0025481 1.0008361 1.0006294 1.0029707 0.99753475 0.99975234 1.0059288
1.0001969 0.9979609 1.0028517 0.9957393 0.99801254 0.9985049 0.9957671 1.0037574
0.9957574 0.99760824 0.9953818 0.9997825 0.9969023 1.0038803 0.9933714 1.0054417
1.0020583 1.0011262 0.9938027 0.9979498 0.99373686 1.0032068 0.99927604 0.9973629
0.99706954 1.0087323 1.004072 0.99614775 1.0066817 0.99719685 1.0017668 0.99842626
0.99725956 1.0006648 1.0007005 1.0033323 0.9968868 1.0045342 0.9979286 1.002659
1.0028679 0.99715036 0.99764794 1.0055677 0.99668163 1.0029196 1.0024105 1.0038372
1.0053577 1.0027968 1.0020337 0.9979072 0.999789 1.0003953 1.0028172 1.001537
0.99762046 0.9975786 0.9984506 0.99689865 0.9964775 1.002293 0.9970737 0.99715847
0.9983375 0.99616534 0.9990295 1.00272 1.0031371 0.9936119 1.0032848 1.0071197
1.0021108 0.99682957 1.004245 1.0042434 0.9986375 0.99798983 0.9947742 1.004376
0.9936495 0.99794626 0.9963425 1.00075 0.9980186 0.9969928 0.99745244 1.0066004

1.bias f4 [256]
00000000: 1df8 ddbb cce7 bd3b f501 95ba 8e50 943b
00000010: ebcb e23b a60a cbb9 e673 0a39 4591 a0bb
00000020: fd8b 333b d98a b03b 11e8 0b3a 6f41 9b3b
00000030: 5b6d 983a 4f7d 5a3a b659 39ba 1207 293a
00000040: 769b fd3a 4d75 f73b a01f baba 3cfc c536
00000050: 1e8e a53a 35e9 ecbb b3b9 9fbb 9e27 baba
00000060: c51b bbb9 2ed5 62bb 9c0c e23b 1df7 01bb
00000070: 81d9 d63b 6f9f b93b f009 d4bb 97d6 76b9
00000080: 1cec 5cbb 3880 5e39 8f8d 83ba 33bc d33a
00000090: 2d7d b3bb 7f71 10b9 6531 343a c7e4 463b
000000a0: 55f8 c6bb 2ab0 76bb 4b1e b93a 21a9 573b
000000b0: daf9 05bb 0f2d 7ebb 92ff d93a 40f3 163a
000000c0: e2fb aabb 37b2 9e3b 8641 82bb ab4a 83ba
000000d0: 1d16 4abb 7f4b ec3a 0150 00bb 9796 23bb
000000e0: dce1 b63b b9e7 53ba 406d 90bb 8d74 44bb
000000f0: b682 c8bb 4acc d23b 4c2e ffbb beb2 433b
00000100: ecd4 373a 381c 813a ed6c 41b8 1efb d5bb
00000110: da01 4ebb 92bf b2bb e6ea 993b 9db9 293b
00000120: 2e30 37ba 456c 9c3b d7cd 65ba 60f4 6bba
00000130: 7845 f5bb 2f27 c43b 852a 2cbb ff5d 0fbb
00000140: d097 f8ba 156c 5a38 d3be e03b bbb2 253b
00000150: 5ad0 9c3a b9fe a63a c7e5 1ebb 2335 89bb
00000160: 27f3 463a a389 74b9 cad2 ac3b 22fd d8bb
00000170: 8b84 84bb 5753 83bb 23fd 7fbb e20c b43b
00000180: bf93 08bb 9de1 213b ebc1 01bc 21c7 e53b
00000190: 3022 67bb 4013 70ba 7b37 3c39 ffd9 663a
000001a0: 8bad d63b 2765 96bb 7fe8 bb3b 69b9 c0bb
000001b0: 5d29 babb 365f 5f3b 942e 8fbb c44c f33b
000001c0: 7335 c2b9 37ec 893a 2c8a 97ba b008 9e3b
000001d0: fcd6 1dbb f8cd 8fbb a645 d6bb 6a89 dd3b
000001e0: 3317 0d3a aa88 9eba 5a15 b5b9 2dfa d53a
000001f0: 0e47 81bb c1ae edbb 7572 55bb a443 f7b9
00000200: fdc0 a53a 3e35 d7ba b51c 4d3a f393 0dbb
00000210: 5f1d 27bb 78d6 bebb 439b a13a 0312 18ba
00000220: 90be aeba 770d 68b8 63d0 c33b 368b 53bb
00000230: 1c59 af39 2a4b dfba 27b3 12bb 0fef 07bb
00000240: ecaf 72bb 2ca9 853b d2f1 2a3b 9b6b 61bb
00000250: 7bd1 4fbb 57a0 c2bb efdf ac3b 0e18 9cba
00000260: d092 973b 723c cfbb 0f23 dabb 01a4 7bba
00000270: 7e23 98bb e271 0cbb 9418 b93a 97c7 35ba
00000280: 9b53 64ba 7e4d 873b f6c9 153a a037 593a
00000290: 569f b23b 40ce 31bb b24b 94bb c50a e33a
000002a0: 4f03 24bb 1399 c7ba 9326 933b 35ad 3bbb
000002b0: 4935 81bb 164a e2bb f404 13bc 8f35 e53b
000002c0: ab4c 4dbb 3be8 56bb d082 b9ba e9a0 df3a
000002d0: daa9 cd3a 696f 0c3b 3fcb 103b d3b3 83ba
000002e0: 1972 9e3a 3260 54bb b4f6 a8bb 85ae 56bb
000002f0: 0f7d 3abb d26e 8a3b ad06 943a f861 18bb
00000300: 3f01 dcbb 42d0 cdbb 81a3 9a3b 6538 573b
00000310: a184 f4bb 99da d738 68eb b0ba 94a7 3abb
00000320: 5f75 30ba e34c a23b 0fe0 b03b 094e 9e3a
00000330: bdb3 1ebb cca5 923b dfdd bf39 b66c c23b
00000340: 8e61 3f3b 2425 9abb 03be 413a 6b73 603b
00000350: f3a4 ae3a 4d59 b63b 1f04 ba39 32b1 0b3b
00000360: 1bed 83bb cc20 6e38 13cf 4dbb 4490 62bb
00000370: e0dd f636 8513 233a d828 a13b 2d22 813a
00000380: 8ff3 a8bb f4bf 29bb bdf5 8ab8 2c06 a339
00000390: 12b8 7abb 0d71 9aba 0f3e fbbb 141c ec3b
000003a0: b078 23bb a6e2 6eba 7aaf a5bb 7d2b 9c3b
000003b0: 7d9f 233b bbae 6c3b 7af5 763b 6711 06bc
000003c0: 88e4 283b da5e 89bb ad6b faba ccb4 a138
000003d0: 5c45 c1bb 5a7d 933a b116 0bbb c726 55bb
000003e0: 23a2 d0ba be8c adbb 759c 133b 2e24 ed39
000003f0: e69a 4ebb dd1a 623b f919 c1bb 2de8 51bb
-0.006773962 0.0057954546 -0.0011368381 0.0045262044 0.0069212816 -0.0003872711 0.00013203881 -0.00490013
0.0027396672 0.0053876457 0.000533701 0.004738025 0.001162927 0.00083347125 -0.0007070558 0.0006447892
0.0019348699 0.007551825 -0.0014200099 5.9004215e-06 0.0012630855 -0.007229949 -0.004874432 -0.0014202481
-0.0003568811 -0.0034611928 0.006898476 -0.001983113 0.00655669 0.005664758 -0.006470911 -0.00023540329
-0.0033710068 0.00021219335 -0.0010036695 0.001615411 -0.0054775686 -0.00013775191 0.00068738154 0.0030348764
-0.006072084 -0.0037641623 0.0014123408 0.0032907205 -0.0020443113 -0.0038784181 0.0016631952 0.0005758293
-0.005218015 0.004843022 -0.003975096 -0.001001676 -0.0030835934 0.0018027871 -0.0019578936 -0.0024961585
0.0055811238 -0.00080835406 -0.004407555 -0.0029976696 -0.0061190976 0.0064330446 -0.0077875014 0.0029861177
0.0007012624 0.0009850329 -4.611623e-05 -0.0065301796 -0.003143421 -0.005454966 0.0046971915 0.0025897988
-0.00069880753 0.004773649 -0.0008766329 -0.0009000953 -0.007485088 0.0059861164 -0.002627046 -0.0021876094
-0.0018966142 5.207591e-05 0.0068586855 0.0025283534 0.0011963949 0.0012740708 -0.0024245845 -0.0041872426
0.0007589333 -0.00023320927 0.0052741515 -0.0066219727 -0.0040441207 -0.0040077376 -0.0039060793 0.0054947
-0.0020840017 0.0024701126 -0.007919769 0.0070122634 -0.003526818 -0.0009158142 0.00017949745 0.00088062877
0.0065514497 -0.004589695 0.005734503 -0.0058814776 -0.0056812004 0.003408385 -0.004369566 0.0074249227
-0.00037042386 0.0010522668 -0.0011561564 0.004822813 -0.002408444 -0.004388567 -0.0065390645 0.006760766
0.000538218 -0.0012095172 -0.00034538918 0.0016325169 -0.003945238 -0.0072534983 -0.0032569442 -0.00047161907
0.0012646016 -0.0016419066 0.0007824407 -0.0021603077 -0.0025499684 -0.0058239065 0.0012329597 -0.0005801024
-0.0013331939 -5.532565e-05 0.0059757694 -0.003227902 0.00033444993 -0.001703595 -0.0022384615 -0.0020741855
-0.0037031127 0.0040790047 0.0026084078 -0.0034396413 -0.0031710553 -0.005939524 0.0052757184 -0.0011909024
0.0046256557 -0.0063243443 -0.0066570113 -0.00095993286 -0.004642903 -0.0021430184 0.0014121705 -0.0006934343
-0.0008709968 0.004129111 0.00057139935 0.0008286182 0.005451123 -0.0027130991 -0.004525625 0.0017321935
-0.0025026386 -0.0015228115 0.0044906824 -0.0028637175 -0.0039431197 -0.0069058044 -0.008973349 0.00699491
-0.0031326215 -0.0032792229 -0.0014153365 0.0017061505 0.0015690878 0.002142871 0.00220938 -0.0010048099
0.0012088447 -0.003240597 -0.0051563624 -0.003275783 -0.0028455888 0.0042246366 0.0011293493 -0.0023251753
-0.0067140157 -0.00628093 0.004719198 0.003284001 -0.0074620997 0.00010292716 -0.0013497891 -0.0028481232
-0.0006731357 0.0049530133 0.0053978036 0.00120777 -0.002421602 0.004475331 0.00036595666 0.0059333695
0.0029202434 -0.0047041345 0.00073906797 0.0034248482 0.0013324305 0.0055648447 0.00035479755 0.0021315333
-0.004026068 5.6774166e-05 -0.0031403943 -0.0034570852 7.357201e-06 0.0006220865 0.004918199 0.0009852104
-0.0051559876 -0.0025901766 -6.626125e-05 0.0003109438 -0.0038256687 -0.0011782959 -0.00766731 0.0072054956
-0.0024943762 -0.0009112753 -0.005056319 0.0047659264 0.0024966889 0.003611489 0.0037682937 -0.00818286
0.002577098 -0.0041922154 -0.0019105576 7.710754e-05 -0.005898161 0.0011252568 -0.0021223242 -0.0032524334
-0.0015917461 -0.005296319 0.0022523676 0.0004523112 -0.0031525432 0.0034500875 -0.0058929888 -0.0032029257

1.running_mean f4 [256]
00000000: 8a7d a5c2 684e 0b43 4350 0142 eea7 4143
00000010: 45e1 e842 ddc4 8cc2 6957 2d43 e50c d5c2
00000020: 2c4f 1a43 be95 a242 208e fdc2 c2c9 e142
00000030: 55dd 32c3 aad5 17c3 8df6 1643 50cb 36c3
00000040: f7fb 4fc3 5be2 9742 773b 4542 23c9 3ec3
00000050: 7837 ed42 46b0 45c1 40a1 5bc2 2dcd 8e42
00000060: fdbe 7542 2dae 5842 2484 e242 d556 6141
00000070: 67bb b342 8f7a bd42 09de 4ec3 b5e1 d642
00000080: fab0 60c3 dd7f 6e42 8b72 5642 6232 e642
00000090: 9a8b a7c2 d9da dfc2 1076 2e42 3c48 0f43
000000a0: dc5d f0c2 00e8 f5c1 45da f4c2 7b38 3f43
000000b0: 5c21 fbc2 b4e1 b641 cadf 04c3 5fcc a0c2
000000c0: c3df 7bc2 2fe6 fe42 e572 a142 1689 3342
000000d0: d9be 6bc2 eb49 6fc3 5017 ffc2 1efb d540
000000e0: a265 0b43 239d ad42 545f c341 cecd 16c2
000000f0: bc0d 31c2 e833 5743 2f71 a2c2 a69b 8142
00000100: 5fe0 eac2 ab81 3cc2 5a11 b8c2 f579 7bc2
00000110: a738 16c2 35ff 49c2 1984 d742 9bce ea42
00000120: 9a13 3a43 4ea7 ed42 9744 5342 ced2 15c3
00000130: b32e 50c2 8581 a842 8c5e 09c2 ed88 4bc2
00000140: 720d 5a42 8a3b f2c2 9400 2443 8e82 5942
00000150: fe22 57c3 697f 1c43 8f12 0b42 28cd e0c2
00000160: 334c 1fc3 dc57 6342 5c2e d142 2650 13c3
00000170: 5e5b 9c42 2a27 53c2 6863 f4c1 02fd a842
00000180: e036 04c3 08de d242 a928 c5c1 a4bb 4343
00000190: c3a9 17c2 df2d 8242 5cd4 9a42 0762 5e42
000001a0: 4b7b ab42 44da a9c2 9f5c 3343 63c6 0ec2
000001b0: 1c69 1cc2 112a 3543 15c3 06c2 6fbb b542
000001c0: 64a9 4a42 d569 1fc3 463a 0743 5ab1 aa42
000001d0: 8df0 8442 31be 0dc3 db8a 25c3 988b 8b42
000001e0: 31bf fd42 8fc8 4142 9258 b5c2 6a28 5c42
000001f0: fd42 72c2 3756 57c3 94d3 15c3 7ad9 b842
00000200: 8bb9 a5c2 7d69 34c2 c0ef 7042 6f6e 1c42
00000210: 1cb4 0243 3b21 39c2 748a 9d42 adc1 d5c2
00000220: ddfd 90c2 592b 6242 b31f fd42 847d 3ac2
00000230: dec4 bcc2 014e 2042 a699 0642 18bd 3342
00000240: e5d7 4042 5ac3 0943 74fd 6342 74ff 05c3
00000250: b0a9 3cc2 7cf4 1ec2 1109 9842 7906 1242
00000260: 43e1 aa42 5045 aac2 8b55 01c2 4fe4 84c2
00000270: be03 dbc2 28f0 2142 c44c fdc2 8fa0 ddc2
00000280: 36c5 4d42 6cf6 3543 1446 aac2 3f56 11c3
00000290: 3d5a f742 17b4 41c2 bf96 a3c2 9d88 3643
000002a0: 6832 7842 3b52 6443 5e8e 0b43 254a 37c2
000002b0: 3ae8 06c2 f7cd e7c2 8b89 46c2 1035 0943
000002c0: 3e8f 85c2 6ed4 ed41 eebc df41 16cd 1dc3
000002d0: 691e 2d43 424f f142 0d2e 8142 3968 0243
000002e0: 4719 1dc3 f08c 1242 5095 96c2 967b ca41
000002f0: c6db 2841 b06e cb42 9b3a 33c3 ae89 1fc2
00000300: bde3 71c0 0f46 aec2 d749 e242 30e4 ff42
00000310: 4285 8ec2 dc03 3042 8500 e0c2 f8e9 be41
00000320: cf75 11c2 cd64 0f43 e666 bd42 1dc0 3843
00000330: 5af4 2942 8031 8143 5f2e 70c2 6fe9 b542
00000340: e6fd 0643 5bf7 0dc1 10f5 8f42 1e8f 1b43
00000350: b591 9442 693e 2243 f035 ddc2 cd2f b1c2
00000360: e190 dbc2 0186 a1c2 73cb 8bc2 eb82 12c2
00000370: 5bf5 f1c2 83d8 62c3 f2d3 4243 726a f8c2
00000380: 52c7 bbc1 2039 cb42 d8aa 0143 e862 0443
00000390: 2ad2 69c2 b579 fbc2 4470 3dc2 259e 2343
000003a0: bb4e 5c42 7ebf 6542 baeb acc0 e3f5 a742
000003b0: 282d 6943 fede 18c3 94aa e242 fc0a 44c2
000003c0: c871 dbc2 b4cb 23c2 f9c7 eb42 82ba 8842
000003d0: 57a3 d3c2 8d7c 0843 fd65 5342 d657 dd42
000003e0: 2843 1142 18ee 20c2 5c7b 8842 2252 16c3
000003f0: a0bc 5cc2 acdb e742 959f 1ac2 48de 5f42
-82.74519 139.30627 32.32838 193.65598 116.43998 -70.3845 173.34145 -106.525185
154.30927 81.292465 -126.77759 112.89406 -178.86458 -151.83463 150.96309 -182.79419
-207.98424 75.9421 49.30807 -190.78569 118.60834 -12.3555355 -54.90747 71.400734
61.436512 54.170094 113.25809 14.083699 89.86602 94.73937 -206.86732 107.440834
-224.69131 59.624866 53.61186 115.098404 -83.77266 -111.92744 43.615295 143.28217
-120.18332 -30.738281 -122.42631 191.22063 -125.565155 22.860207 -132.87418 -80.39916
-62.968517 127.44958 80.7244 44.883873 -58.936375 -239.28874 -127.54553 6.686904
139.397 86.80691 24.421547 -37.70098 -44.263412 215.20276 -81.22106 64.804
-117.438225 -47.12663 -92.03389 -62.8691 -37.555325 -50.499226 107.758 117.40353
186.07657 118.82677 52.816982 -149.82346 -52.045605 84.25297 -34.34233 -50.883717
54.51313 -121.11629 164.00226 54.377495 -215.13669 156.4977 34.768124 -112.400696
-159.29765 56.8358 104.590546 -147.31308 78.17845 -52.788246 -30.548538 84.494156
-132.21436 105.433655 -24.644854 195.73297 -37.915783 65.08959 77.414764 55.59573
85.74081 -84.9263 179.3618 -35.693737 -39.102646 181.16432 -33.69051 90.86608
50.66542 -159.4134 135.22763 85.34639 66.469826 -141.74294 -165.5424 69.772644
126.87342 48.445858 -90.67299 55.039467 -60.56542 -215.33678 -149.82648 92.42476
-82.86239 -45.103016 60.23413 39.107845 130.70355 -46.28245 78.77042 -106.87827
-72.49583 56.54233 126.56191 -46.622574 -94.38451 40.076176 33.650047 44.93466
48.210835 137.76309 56.997513 -133.99786 -47.16571 -39.738754 76.01771 36.50632
85.439964 -85.135376 -32.333538 -66.445915 -109.50731 40.484528 -126.64993 -110.81359
51.44259 181.96259 -85.13687 -145.3369 123.67625 -48.42587 -81.794426 182.53365
62.049225 228.32121 139.55612 -45.822407 -33.726784 -115.902275 -49.63432 137.20728
-66.77977 29.728725 27.96725 -157.80112 173.11879 120.6548 64.58994 130.40712
-157.09874 36.637634 -75.291626 25.310345 10.553656 101.71619 -179.22893 -39.884453
-3.779525 -87.13683 113.14422 127.94568 -71.26027 44.00377 -112.001015 23.864243
-36.365047 143.39375 94.70097 184.75044 42.488625 258.38672 -60.045284 90.955925
134.99179 -8.8728895 71.97864 155.55905 74.284584 162.24379 -110.60535 -88.59336
-109.78297 -80.76173 -69.89736 -36.62785 -120.97921 -226.84575 194.82791 -124.2079
-23.472324 101.61157 129.66736 132.38635 -58.45524 -125.73771 -47.359634 163.61775
55.076885 57.437004 -5.403775 83.98025 233.17639 -152.87106 113.33316 -49.010727
-109.72223 -40.94893 117.89057 68.36427 -105.81902 136.48653 52.849598 110.671555
36.315582 -40.232513 68.24094 -150.32083 -55.184204 115.92905 -38.65584 55.96707

1.running_var f4 [256]
00000000: c2ba 0048 020f a448 a311 0747 7e0b 1a49
00000010: 545b 6848 2786 bf47 1b58 fa48 1caa 4548
00000020: 128d c748 a60f f247 e53a 8948 bf8c 5a48
00000030: 9b57 0449 2bcb bd48 6e66 bd48 8f0b 0949
00000040: 0780 2e49 ba1d df47 56df 5c47 fb1b 1549
00000050: 8e33 7148 7ae2 a846 cd76 7c47 46d7 c547
00000060: 1da9 9847 b0d6 a047 8d05 5b48 06b9 8f46
00000070: dab3 0e48 19a6 1f48 8478 2d49 43d1 4848
00000080: 5b49 4b49 a480 9347 c376 7a47 6cb2 6248
00000090: fe6b 0248 04ae 5b48 944f 3947 f57a ab48
000000a0: 1e73 7b48 e043 0147 6daf 7e48 5f3e 1749
000000b0: beb9 8548 6eb6 ca46 66d1 9348 3e89 f647
000000c0: e113 a247 0021 8b48 8c14 f247 391b 4547
000000d0: da88 8e47 f885 6749 3a53 8948 e74f 9046
000000e0: d97c a348 f757 0748 f478 d446 643c 1c47
000000f0: fd34 3847 8dd9 3c49 1dbe f447 1295 a647
00000100: fe86 6c48 f2f8 4b47 7907 1948 a7a7 9d47
00000110: 1641 1a47 e52e 5e47 f914 4748 8699 6d48
00000120: 9a9c 0e49 3268 7548 b9ed 7747 27fd ba48
00000130: b99e 7647 4228 0248 17db 0c47 f821 7247
00000140: 6911 7e47 8d06 7948 ff55 dd48 d06f 7847
00000150: 2e72 3a49 4064 cc48 7e21 1747 d41d 5a48
00000160: 0422 d448 1e29 8647 8579 3e48 7af2 b648
00000170: c354 eb47 eb96 7947 b1f3 ef46 a55a 0348
00000180: 1f4d 9048 6b35 4148 e5b1 d346 ecaa 1c49
00000190: 8863 1f47 21d3 aa47 5507 db47 6890 8047
000001a0: e35c 0348 c0ea 0248 4d2d 0449 ac83 1847
000001b0: 0157 1e47 9a3c 0649 eb69 0547 e9db 1448
000001c0: e4a2 6247 1528 d248 67fc 9948 5453 0648
000001d0: 3b42 ae47 64a5 ab48 08d4 e148 34cc be47
000001e0: be95 8748 31cb 5b47 c545 1448 4d3c 8247
000001f0: 9221 9147 1e98 3c49 3b5f bb48 5582 1948
00000200: 9ea1 0148 ad19 4647 bb2c 9647 e7a3 2c47
00000210: 9c5e 9348 007f 4e47 898f e247 8cb7 4648
00000220: 2ff1 d047 b074 8747 d383 8848 05cb 4647
00000230: a32b 2048 581e 2847 e987 1147 5da5 4a47
00000240: 2905 5147 42dd 9f48 9720 8847 5e6d 9848
00000250: ed26 5247 b1c2 2747 e5e3 df47 2279 1847
00000260: c569 0748 fa2a 0648 0d42 0747 9fb1 b047
00000270: 4176 4e48 054e 2247 7ada 8648 64d6 5348
00000280: 3cd3 6347 c641 0749 1607 0548 a7c0 b048
00000290: 0b19 8248 8504 5347 780a f647 1d4a 0a49
000002a0: 3c65 9a47 5660 5449 4f7b a548 4699 4047
000002b0: ad3f 0a47 001d 6948 5e24 5d47 0c17 9e48
000002c0: da4b b147 d5f1 fe46 5de7 d646 dd05 ce48
000002d0: 21dc f848 981c 7a48 fa08 a547 479c 8e48
000002e0: 4bc4 ce48 3fee 1347 2447 d547 11ed de46
000002f0: af98 9346 6caf 3448 0925 0449 d533 2047
00000300: 1a30 a346 da47 0948 7ed5 5748 5f3d 8948
00000310: 7fd4 c547 e49e 3647 ae29 5848 a124 df46
00000320: f020 1b47 e726 ac48 4e4d 2148 ddfc 0b49
00000330: 8f37 3647 2b4f 8649 7b7e 9747 7855 1448
00000340: 07c8 9c48 9939 9546 6a16 c847 1f67 c848
00000350: a033 cf47 ef1a da48 9681 5148 cf91 1148
00000360: 0231 5148 3920 f047 4450 be47 e328 1947
00000370: cb40 7548 dd3d 4f49 1531 1d49 72d5 8348
00000380: 7a1b d346 f388 3348 4109 8b48 afc4 9248
00000390: 27b5 9247 10f8 8748 a1c2 5547 bafd dc48
000003a0: 34fe 8247 8fe1 8747 6487 7e46 2cf6 0348
000003b0: b60e 5a49 2876 c448 f2ec 5d48 6dc3 6747
000003c0: 99c4 4c48 0d28 2447 321e 6d48 3c9e b547
000003d0: edd7 4148 b197 9e48 c55c 7047 da9f 5148
000003e0: 9b1b 1247 fbe8 2947 ac9e b547 a9d7 bc48
000003f0: 8429 8347 74ac 6748 6cef 1f47 3c5d 8647
131819.03 335992.06 34577.637 630967.9 237933.31 98060.305 512704.84 202408.44
408680.56 123935.3 281047.16 223794.98 542073.7 388697.34 387891.44 561336.94
714752.44 114235.45 56543.336 610751.7 246990.22 21617.238 64630.8 101294.55
78162.23 82349.375 224278.2 18396.512 146127.4 163480.39 710536.25 205637.05
832661.7 75521.28 64118.76 232137.69 133551.97 224952.06 47439.58 351191.66
257484.47 33091.875 260797.7 619493.94 273869.94 25947.215 302731.2 126226.484
82983.76 284936.0 123945.09 50459.223 72977.7 948319.5 281241.8 18471.951
334822.78 138591.86 27196.477 39996.39 47156.99 773528.8 125308.23 85290.14
242203.97 52216.945 156701.89 80719.305 39489.086 56878.895 203859.89 243302.1
584137.6 251296.78 63469.723 382953.22 63134.723 133281.03 36059.09 61985.97
65041.41 255002.2 453295.97 63599.812 763682.9 418594.0 38689.492 223351.31
434448.12 68690.234 195046.08 374675.8 120489.52 63894.918 30713.846 134506.58
295528.97 197845.67 27096.947 641710.75 40803.53 87462.26 112142.664 65824.81
134515.55 134059.0 541396.8 39043.67 40535.004 549833.6 34153.918 152431.64
58018.89 430400.66 315363.22 137549.31 89220.46 351531.12 462496.25 97688.41
277677.94 56267.19 151831.08 66680.6 74307.14 772481.9 383737.84 157193.33
132742.47 50713.676 76889.46 44195.902 301812.88 52863.0 115999.07 203486.19
106978.37 69353.375 279582.6 50891.02 164014.55 43038.344 37255.91 51877.363
53509.16 327402.06 69697.18 312170.94 53798.926 42946.69 114631.79 39033.133
138663.08 137387.9 34626.05 90467.24 211417.02 41550.02 276179.8 216921.56
58323.234 554012.4 136220.34 361989.22 266440.34 54020.52 125972.94 566433.8
79050.47 869893.4 338906.47 49305.273 35391.676 238708.0 56612.367 323768.38
90775.7 32632.916 27507.682 421934.9 509665.03 256114.38 84497.95 292066.22
423458.34 37870.246 109198.28 28534.533 18892.342 185021.69 541264.56 41011.832
20888.05 140575.4 221013.97 281066.97 101288.99 46750.89 221350.72 28562.314
39712.938 352567.22 165173.22 573389.8 46647.56 1.1002614e+06 77564.96 151893.88
321088.22 19100.799 102444.83 410424.97 106087.25 446679.47 214534.34 149063.23
214212.03 122944.445 97440.53 39208.887 251139.17 848861.8 643857.3 269995.56
27021.738 183843.8 284746.03 300581.47 75114.305 278464.5 54722.63 452589.8
67068.41 69571.12 16289.848 135128.69 893163.4 402353.25 227251.78 59331.426
209682.39 42024.05 242808.78 92988.47 198495.7 324797.53 61532.77 214655.4
37403.605 43496.98 92989.34 386749.28 67155.03 237233.81 40943.42 68794.47

4.weight f4 [128, 256]
00000000: 90a7 893c 0743 e03c cde0 d23c 37c4 13bd
00000010: 59c7 9e3c bdc9 67bb f0f7 a23c d3da 363d
00000020: f3b7 57ba e9c6 183b 0f9b 41bd 88b0 25bd
00000030: 96db 22bd 0a98 f53c 70e1 b83c 2455 debc
00000040: 1351 29bd fb72 13bd 46cf 8bbb b54a 6abd
00000050: 812a 893b 12dc 71bd c92c 70bd 7f60 3fbd
00000060: eb66 033c 1a4f 33bd 18de bcbc 03d1 f43c
00000070: 8ee9 9e3c d37c 5abd 8c4b 673d 5760 ff3c
00000080: 54cd 75bd 28c5 183d ed0a 823d bc8b b53c
00000090: ecec 3dbd d754 76bc 7dbf cd3b 4f0a 5d3b
000000a0: ee3b 483c bff6 703d 7c30 5ebd a106 47bd
000000b0: 75c8 fc3c db1d d4bc e7bc 773a e7f5 803c
000000c0: 6b3f 713d 054a 803d 2cbf 23bc 809a 513d
000000d0: 4e42 e23c af9c 543c 36e9 37bd 04e5 593d
000000e0: ce69 cf3c cd40 f03c 74aa 27bb ec81 c2bc
000000f0: f849 1dbd 7e4a 57bd f377 0a3d 3a1f 523d
00000100: e0a5 2dbd 5345 5abd bf8d 3b3d 23a1 413d
00000110: 1304 7d3b 786a 9d3c dbde 01bc 6d00 733c
00000120: 2316 713d 95b9 57bd cdbf 043d e539 17bd
00000130: 6e94 6f3c dd72 6c3d 3086 6abd 5ad5 12bc
00000140: 2155 ba3b 4f08 60bd ae2b 0d3d d228 243d
00000150: c04a 073d 5d15 b53b 8273 963a 148d 20bd
00000160: aed5 02bd 23e6 85bc db8d f3bc 520d 8a3c
00000170: 2b8f 543a 3c7f 053d a081 f7bb 050c b43b
00000180: 3e7c 033d 89c2 fabc 692f c438 ef33 973c
00000190: 5410 e43c 2318 59bd e91c 2fba 72f7 3c3d
000001a0: ab95 2b3d 2054 1e3d af1d c53c 80d9 373d
000001b0: f8f4 713d cd63 833d 3f08 24bd 5230 03bd
000001c0: 4bc8 503d c02d 8f3c 71d4 e6bb ab9d 233d
000001d0: 42ac 643d 4483 26bd 3a32 003d bf69 e03c
000001e0: 86ec 68bd 6ccb a63c 9741 f4bc 2d88 4c3d
000001f0: 0677 49bd 4ba3 adbb 60b8 3e3d 5e56 293d
00000200: c36f 56bd 0b29 6dbc 9a68 f73c 5d37 983a
00000210: 72c7 a1bc e6f3 c23c dbc1 383d a6f0 16bc
00000220: 52ee 6c3a dc57 94bc c2e4 553d 927b 7d3c
00000230: cffe 543d edeb 0fbd b73e cebc 4c45 47bd
00000240: 5ee4 0f3d 45d8 2b3a 37b2 16bd 5c3d 60bd
00000250: 01b0 35bd b89f 5ebd 45a6 adbc 972c 8ebc
00000260: 9904 a53a 1cd3 3f3d 844b 2cba 22de 56bd
00000270: 7db5 d03b 1528 e13c b1f2 5dbd c7b0 70bc
00000280: 63e7 a7bc 3b4f 2b3d 3b49 b9bb a9b1 04bd
00000290: 9f42 203d 3ee9 69bd d60c 1bbc fbb2 823d
000002a0: 6c91 363c 97e5 e33c 83dd 5abd ab8c 48bc
000002b0: 13b8 e33c 44bc 493d 1154 e6bb 687b 303c
000002c0: f96d f53c ab04 1f3d 7d72 253d 84e2 91bc
000002d0: 39fb b53c 31c8 83bc 96e8 8d3c 3aff 37bd
000002e0: cd6b 53bd cfaf 2fbd d03d 00bc 9574 abba
000002f0: 835f c13c 4555 32bb 265b 5a3d 7fa1 2dbd
00000300: 58f8 43bd 517c b43c 4a0c 663c c254 34bd
00000310: a22f 6fbc d0b0 ad3c 1654 51bd 7c68 163d
00000320: c0c4 043d cb36 e7bc c27c 293d 17c0 05bd
00000330: 976e 4fbd 87b4 213d 7015 2f3d e91b 4d3d
00000340: a001 f4bc 5db2 2d3c a562 94bc 6296 4abd
00000350: baed 2cbd 6755 c53c 1636 a5bc 1105 49bd
00000360: 5642 6dbd e510 83bd d4fd 863a 8f8b 2c3d
00000370: c710 953c 547c 133d eaeb 7b3d 8a09 75bd
00000380: 2fcf 0f3d 350b 183d 2bdd 22bc 3ac4 3f3d
00000390: 8578 a53c c496 ba3c 44ea 813d 1e00 f1bc
000003a0: c739 78bd fd45 f3bc f71d 2b3d 555e 3fbc
000003b0: 45a8 383d 46d5 30bd b882 42bd 567a 483c
000003c0: f8db ccbc 3e3f febc 5947 9cbc 0470 1a3d
000003d0: 5cc9 363d 2a2b 9f3a 8a1d 0b3d bc88 b5bc
000003e0: 530c 6abd 1c40 173d 1b7c 323d c125 22bd
000003f0: 36a3 4dbd d80c 48bd 11a0 cebb e1ad 5dbd
0.016803533 0.027375711 0.025741959 -0.036075797 0.019382166 -0.0035368048 0.019893616 0.04464228
-0.00082290097 0.002331192 -0.047267016 -0.040451556 -0.039760195 0.029979724 0.022568434 -0.027140208
-0.041337084 -0.035998326 -0.0042666523 -0.057200152 0.004185975 -0.059047766 -0.05863646 -0.046722885
0.008020143 -0.04377661 -0.023055121 0.02988482 0.019398477 -0.053341698 0.05646853 0.031173868
-0.06001027 0.037297398 0.0634974 0.022161357 -0.046368524 -0.015034876 0.0062789307 0.0033728068
0.01222132 0.058829065 -0.054245457 -0.048590306 0.030857304 -0.025893142 0.0009450451 0.015742255
0.05889837 0.06264118 -0.009994309 0.051172733 0.027619507 0.012976809 -0.04490014 0.053196922
0.025319006 0.029327774 -0.0025583776 -0.023743592 -0.03840062 -0.052561276 0.0338058 0.05129931
-0.04239452 -0.05328877 0.045789476 0.047272813 0.0038607165 0.019215807 -0.007926668 0.0148316445
0.058859 -0.05266722 0.032409478 -0.036920447 0.014622791 0.05772673 -0.057256877 -0.008962
0.0056864177 -0.054695424 0.034465484 0.04007799 0.03303027 0.0055262283 0.0011478516 -0.039197043
-0.031942062 -0.01634509 -0.029730728 0.016852055 0.0008108492 0.032592043 -0.0075532943 0.005494597
0.03210091 -0.03061034 9.354839e-05 0.018457381 0.027839817 -0.053001534 -0.0006680028 0.04613442
0.04189078 0.038654447 0.024062006 0.04488516 0.05907151 0.0641552 -0.040046927 -0.032028504
0.050972264 0.01747787 -0.007044368 0.039945286 0.05582834 -0.04065253 0.0312979 0.027394174
-0.05686619 0.020360671 -0.029816432 0.049934555 -0.049185775 -0.005299007 0.046562552 0.04134213
-0.052352678 -0.014475117 0.030201245 0.0011613179 -0.019748423 0.02379794 0.04510675 -0.0092126485
0.0009038198 -0.0181083 0.052220114 0.015471356 0.052000817 -0.035137106 -0.02517639 -0.04865007
0.035129897 0.0006555359 -0.036791053 -0.054746017 -0.044357304 -0.05435154 -0.021197448 -0.017355246
0.0012589871 0.04683219 -0.0006572532 -0.052457936 0.0063692913 0.027484933 -0.054186527 -0.0146905845
-0.020496076 0.041823607 -0.0056544817 -0.032395992 0.039126035 -0.057107203 -0.00946351 0.06381794
0.01114307 0.027819438 -0.053433906 -0.012240569 0.027797734 0.04925181 -0.0070290645 0.01077161
0.029959666 0.03882281 0.040392388 -0.017808206 0.022214519 -0.01608667 0.01732282 -0.044921137
-0.05161648 -0.042892274 -0.007827237 -0.0013081009 0.023605114 -0.002721147 0.053309582 -0.042390343
-0.04784426 0.022031935 0.014041016 -0.044026144 -0.014598759 0.021202475 -0.05110558 0.036720738
0.032414198 -0.02822437 0.041378744 -0.032653894 -0.050642576 0.039478805 0.042745054 0.050075445
-0.029785931 0.010601607 -0.018113444 -0.049459822 -0.0422189 0.024088575 -0.020167392 -0.049077097
-0.05792459 -0.06399707 0.0010299035 0.04212528 0.018196477 0.03600724 0.061504282 -0.05982355
0.035109695 0.037120063 -0.009940426 0.046817996 0.02019907 0.022776969 0.06343511 -0.029419001
-0.060601976 -0.029696459 0.041776624 -0.011680205 0.04508235 -0.043172143 -0.047487944 0.012236198
-0.025007233 -0.031036016 -0.01907699 0.037704483 0.044625625 0.0012143601 0.033963718 -0.022159927
-0.05714066 0.036926374 0.043575387 -0.039586786 -0.05020448 -0.048840374 -0.0063057025 -0.054120902

4.bias f4 [128]
00000000: 91af 31bc e130 273d 02b5 5e3b ea2f 103c
00000010: 7bf1 07bd a525 263d 3fb7 593d e88a a8bc
00000020: 1e0d 783d 4f45 613d 4776 b83c ed62 78bd
00000030: 8ff0 ee3c 8333 23bd bcab 543b 22c9 93bc
00000040: d128 46bd d470 5f3d f06d a9bc 8004 4f3d
00000050: 0cf9 d43c 5fc9 21bd c05b 1ebc 5c41 0c3d
00000060: fe52 213d f82c e4bc 85e4 7ebc cb25 49bc
00000070: a55c 94bc 0617 1abd 8acf ed3c 8ec3 2c3d
00000080: 790e 983b 938d 3a3d 0f5a 0f3c 29f2 6b3d
00000090: d232 6dbc 306a 6c3c 85f2 eebc 8559 39bd
000000a0: 458e 60bd 2ba2 09bd 0d52 703d 8e9b 883c
000000b0: 2bde 773c c8a4 c03c 4445 313d 21f8 3b3d
000000c0: 7f20 7dbd 361c 59bd 6e2a 37bd e3c3 c83b
000000d0: a7c5 d13a f6e6 a73c b260 06bd 2657 47bc
000000e0: 3db8 553c 8266 753c 1ae9 6cbd e666 36bd
000000f0: fb80 02bd dd7a 8b3c b079 b03b d2c3 39bc
00000100: 528a 1abd bb53 2e3d b99d b7bc 6c6c 583d
00000110: f46d 65bd 7fcb c43c a2e4 6bbd 6db8 b3bc
00000120: 68d3 843c cacf 393d 6df4 7bbd 9964 843c
00000130: 0e68 55bd 5859 50bc b26f 01bd 4eab 323c
00000140: fbeb 0f3d b8bf f03c e3a8 35bb bfe1 293d
00000150: 3a73 6a3c d3b5 883c e5a7 dc3c 0b93 6e3d
00000160: 0da5 68bd 098e 73bd 646b f33c 7317 5e3b
00000170: 8f08 ca3c 141c f3bb cfa4 53bd 006b 643c
00000180: 328e 0dbd 4278 023c f4cb 84bc a92d d1bc
00000190: 4f09 f43c 2d0e 05bd 8ad8 49bd 7686 88bc
000001a0: f6c5 273d b217 54bd bb4c d73c 7c13 44bd
000001b0: fa53 c5bb 2300 c13c ab4d 823c 0314 453d
000001c0: 7b9e 1b3d 53ac c03c 70e8 7c3d 1aae 1c3d
000001d0: 6782 37bc 1128 37bd 3f72 d1bc de81 65bd
000001e0: ea06 b93c 1a9d 143d cc54 763d e375 d73c
000001f0: b19f 553c 0700 5d3a 1934 22bd 2c08 f2bc
-0.010845081 0.0408181 0.00339824 0.008800486 -0.033189278 0.040563244 0.053153273 -0.020574048
0.060559385 0.05499774 0.022517337 -0.060641218 0.029167442 -0.039844047 0.0032450994 -0.018040244
-0.04837877 0.05455096 -0.020682305 0.0505414 0.025997661 -0.039498683 -0.00966543 0.03424202
0.03938579 -0.027853474 -0.015557413 -0.012277077 -0.018110583 -0.037619613 0.029029626 0.042178683
0.004640397 0.045545172 0.008749499 0.05760399 -0.014477449 0.014429614 -0.029168377 -0.045251388
-0.05482318 -0.03360192 0.058672 0.016675737 0.015128653 0.023516074 0.043278947 0.04589093
-0.06179857 -0.05300542 -0.0447182 0.006126867 0.001600434 0.020495873 -0.03280706 -0.012166774
0.013044414 0.014978053 -0.05783949 -0.044531725 -0.031861287 0.01702636 0.0053856 -0.011338191
-0.03772957 0.04256032 -0.022414075 0.052837774 -0.056013063 0.024022816 -0.057591088 -0.021938527
0.016214088 0.04536418 -0.0615124 0.01616125 -0.052101187 -0.012716614 -0.03160066 0.0109051
0.035137158 0.029388294 -0.0027719073 0.041475054 0.014309699 0.016688263 0.026935527 0.0582457
-0.05679803 -0.059461627 0.029714294 0.0033888489 0.024662284 -0.0074191187 -0.051670846 0.013941526
-0.034559436 0.007963242 -0.016210534 -0.025534468 0.029789595 -0.032484222 -0.049278773 -0.016665678
0.040960275 -0.05178041 0.026281705 -0.047870144 -0.0060219737 0.023559636 0.015906176 0.048114788
0.037992936 0.02351967 0.061745107 0.038251974 -0.011200524 -0.044715945 -0.025567172 -0.056032054
0.022586305 0.036282636 0.060139462 0.02630133 0.013038562 0.0008430485 -0.039600465 -0.029544912

5.weight f4 [128]
00000000: 19a6 803f 540a 7f3f b1c4 803f 7d94 803f
00000010: 8113 7f3f 3465 7e3f 7c75 803f 8412 803f
00000020: 3c6b 7e3f 7761 7f3f 2b05 7e3f 80b3 803f
00000030: ab7d 803f 8431 7e3f 76ad 7e3f 8ac6 7f3f
00000040: ed74 7f3f 5de7 7e3f 7d09 7f3f ddca 803f
00000050: 7723 7f3f 4647 7f3f 8a8d 803f ad42 803f
00000060: 2942 813f 5e6c 7e3f 0039 7f3f 0d23 7f3f
00000070: ff8b 803f 95fe 7e3f 02d1 7e3f caaa 7e3f
00000080: bb95 7f3f d71b 813f 84e3 7e3f 1d66 7f3f
00000090: 5acc 7f3f b2e4 803f 0d02 7f3f 1a74 803f
000000a0: a67c 803f 7c40 803f 8750 7f3f 1ab0 7d3f
000000b0: 50f0 7f3f f0fd 803f 576a 7f3f 7c1d 7f3f
000000c0: 7228 7f3f 0a20 7f3f 0e39 803f c56d 7f3f
000000d0: aac5 803f 79d9 7f3f 6190 7d3f 1206 7f3f
000000e0: 568d 7e3f 22fa 7d3f 5988 7e3f b7a9 803f
000000f0: 0981 803f 524b 7f3f 79a9 803f d817 803f
00000100: d3a1 803f ce36 7f3f ce42 7e3f 2222 7e3f
00000110: fb73 7e3f ce51 803f 4d2e 813f 9492 7e3f
00000120: 9c38 7f3f 401c 7e3f 7193 7f3f 3e87 803f
00000130: 931c 813f e516 7f3f f24c 7f3f 235e 803f
00000140: e80a 803f d280 803f ecb5 7e3f b399 803f
00000150: c86a 7e3f 3da2 7e3f 9e70 7f3f 19ad 803f
00000160: 71b5 7f3f e28d 7d3f 1adb 803f 7038 7e3f
00000170: 69bc 7e3f acd0 7e3f 7fe9 803f 18b5 803f
00000180: 0c35 803f 4f93 803f 9031 7f3f 6c11 7f3f
00000190: 8783 7e3f 392c 7f3f 3fcd 7f3f 9bc0 7e3f
000001a0: dbc7 7f3f 95a2 7f3f 922b 7f3f 543c 7f3f
000001b0: 0ccb 7e3f ed18 7f3f 57bb 7e3f 6e5f 7f3f
000001c0: 6631 7e3f ed84 803f 0969 7e3f 138f 803f
000001d0: e43e 803f d1bd 7e3f b8d3 803f 7e4c 7e3f
000001e0: cdad 803f f453 7e3f 3c49 7f3f 215c 7e3f
000001f0: 1cca 803f 5801 803f 032c 803f ee05 7f3f
1.0050689 0.99625134 1.0060025 1.0045315 0.99639136 0.99373174 1.0035853 1.000565
0.99382377 0.99758095 0.99226636 1.0054779 1.0038351 0.99294305 0.9948343 0.9991232
0.9978779 0.9957178 0.9962385 1.0061909 0.9966349 0.9971813 1.0043194 1.0020348
1.0098315 0.99384105 0.9969635 0.9966286 1.0042723 0.9960721 0.9953767 0.99479353
0.99837846 1.0086621 0.9956591 0.9976519 0.9992119 1.0069792 0.99612504 1.0035431
1.003804 1.0019679 0.9973225 0.99096835 0.9997606 1.0077496 0.99771637 0.99654365
0.9967109 0.9965826 1.0017412 0.9977687 1.0060322 0.9994121 0.9904843 0.9961864
0.9943441 0.992098 0.994268 1.0051793 1.0039378 0.99724305 1.0051719 1.0007277
1.0049385 0.99693 0.99320686 0.9927083 0.9939572 1.0024965 1.0092255 0.9944241
0.99695754 0.99261856 0.9983435 1.0041273 1.0086845 0.9964431 0.99726784 1.0028728
1.0003328 1.0039313 0.9949634 1.0046905 0.99381685 0.99466306 0.99781215 1.0052825
0.9988623 0.9904462 1.0066864 0.99304867 0.9950624 0.9953716 1.0071257 1.0055265
1.0016189 1.0044955 0.99685 0.9963596 0.99419445 0.99676853 0.99922556 0.9951264
0.9991433 0.99857455 0.9967586 0.9970143 0.99528575 0.9964741 0.9950461 0.9975499
0.99294126 1.0040566 0.9937902 1.0043663 1.0019193 0.99508387 1.0064611 0.9933547
1.005304 0.9934685 0.9972112 0.9935933 1.0061679 1.000041 1.0013431 0.99618423
