resources/models/mnist/Softplus_model_v100.pth (torch, 392148 bytes, 26 tensors)

0.weight f4 [256, 196]
00000000: 411a d0bc 56f3 693d 9509 f63c 6889 bfbc
00000010: 5f32 1c3b f340 0c3c 0de4 0dbd 5386 e23c
00000020: 76b3 3c3d c45b 8cbd b378 2b3d ac50 943d
00000030: fa9e fa3c a86d 36bd 7347 1e3d 4b25 923d
00000040: d40d 2a3c fde9 9abd 0f26 67bc 7aca 38bd
00000050: 0cc9 c0bc 1c70 0ebb 568c 2bbd 7ad8 283d
00000060: d10c 9ebd 2eab 45bc 1aaf fd3b 4cdf e43b
00000070: 5e38 37bd 4469 873d c3d8 46bd 96b8 e4bc
00000080: 4e6f 94bd c487 033c e85b 7e3c f1b6 bf3c
00000090: 0c39 90bc 7402 d0bc 2d44 443d c3d8 96bc
000000a0: bb81 943d dc72 2e3d cf0c 483d 0812 253d
000000b0: 6677 2abc f2a7 cd3c 4d22 aebc 53ee 053d
000000c0: 13f8 97bc bc9f 6a3c bd62 7e3d fb42 84bd
000000d0: 4f8e f2bc 2528 03bd cf2a 46bd 4911 c3bc
000000e0: 1fb8 d8bc 6dcd 6b3d 0d7f d2bc 61e3 8c3d
000000f0: 7505 13bc 3d80 e23c 301b 4f3b 08ef 8ebc
00000100: bdaf 24bd f7c1 57bd 80e7 da3c 4a95 2d3c
00000110: 201f 11bd 6938 04bc 9209 26bc ce42 673d
00000120: 9bf6 8a3c 6d2f 6a3d 6976 17bd ffe4 a0bd
00000130: 0e63 503d 027f 51bd 98ce c7bc fff5 91bd
00000140: a21c 34bd c781 6e3c a1d3 163d 5d83 c63c
00000150: 1be0 453d 9bee 72bd 906b 2abd 8bd9 90bd
00000160: 5e32 2f3c d4ca 573d 5f15 63bd 61c5 c2bc
00000170: 2c6e 3c3d a5cc 373d 52a9 1abd e764 82bd
00000180: a2bb 01bc 822c 9ebd 170b aabd 3994 88bd
00000190: f912 ca39 536f 193c 3bef fdbc 74b7 17bd
000001a0: b283 203b 9f28 0dbd 5bc4 87bd 92f3 8dbc
000001b0: 3edd 65bd 5cde 93bc 6b6f 7bbd 3830 99bb
000001c0: 8d25 9d39 1527 063d bb0e 37bd 4012 323b
000001d0: 4d94 143d ed3a 793c 54db 7dbd 0907 13bd
000001e0: 4332 103d ab4b 263d e3bd 08bd 0fd4 0bbd
000001f0: 3387 233d 334b 84bd cdbe 903d 5ab2 1a3b
00000200: 0599 c9bc e891 263c a842 95bc ffb8 9bbd
00000210: 5ca2 23bd bf2d 8fbd e801 86bd 0204 c93c
00000220: 4d0e 8abd 4924 31bb 86fd 15bd b487 3fbc
00000230: 0cb9 a4bd 8dd7 53bd 3c57 803b b551 a13c
00000240: 68ae 62bd 841d 3ebb c988 65bc 7cec 27bd
00000250: bf29 443b f908 5fbd 3653 973c 8fbe e3bc
00000260: 2d0d 753b 8047 56bd b284 ddbc 4303 1abd
00000270: ea08 543d 0142 36bd c55a f03c 7462 81bc
00000280: 5e2e 78bd bf9b 89bd bb78 9b3b f0fe 783d
00000290: 1eb1 3fbd 8bdf 44bd d01f e33c e4de 6b3d
000002a0: e8d3 7dbd ab04 683d bdbc cabc 0202 403c
000002b0: 319d 7cbd a40c 19bc 057a 7dbd 97f2 9bbd
000002c0: cb0d 95bd 3807 413c 6f7c 3dbb 362c 653d
000002d0: 0ac4 0cbd 5a33 913c e48f 89bd a22b 64bd
000002e0: 635c 5abd 038c a73c da64 043d 7f37 30bd
000002f0: 61e2 b13c 3f3e 803c c5a9 94bb 66d6 87bd
00000300: fc68 a13c a659 9ebc ab37 a93b 1932 343d
00000310: 21bd 81bc c2d6 043d 5abc 053d fb77 0f3d
00000320: 5a34 ee3c d2ac df3c 6c1a 9abd 2373 92bc
00000330: 9420 4dbd 8612 19bb 8400 45bd a944 e03b
00000340: f149 f53c 166e 4fbc 150e 4f3d 1ae0 593b
00000350: a34f 96bd 7561 4f3d 1d93 65bd c400 72bc
00000360: bc8d a4bd 50fe 70bd 00bf 57bc ffa9 503d
00000370: 539c 203d 27be cf3b ef9d 513d 917f a3bd
00000380: fe00 cabd 02c3 bf3c 2fee 32bd 3707 80bd
00000390: 9d5e 853d 03fe 043c a243 86bd 96c8 84bd
000003a0: 623b bfbd 3d7d 17bd d6e2 683c d328 f53c
000003b0: cb67 f33c 6c50 533d de4a d6bc cf0f 1cbc
000003c0: de40 173b 39e0 64bd 31e0 8abc bcff 163c
000003d0: 2fd6 69bd d8be ffbc 6e54 41bc 4a17 afbd
000003e0: 946b 283d 2ba9 aebd ce56 163d 96f0 d83c
000003f0: b621 0f3d 43aa c0bd 5e7e 943d 0741 aebc
-0.025403144 0.05711683 0.030033866 -0.02338095 0.0023833734 0.008560407 -0.034641314 0.027651941
0.046069585 -0.068534404 0.041863155 0.072419494 0.030593384 -0.04453817 0.038642358 0.07136019
0.010379273 -0.07564161 -0.014108195 -0.04511497 -0.023533367 -0.0021734303 -0.04188188 0.041222073
-0.07717288 -0.012064738 0.007741821 0.006984627 -0.04473149 0.06611875 -0.048546564 -0.027920049
-0.07247792 0.0080279745 0.015524842 0.023402663 -0.017605327 -0.025391795 0.04791658 -0.018413907
0.072513066 0.042590007 0.04884034 0.0403004 -0.010404443 0.025104497 -0.02125659 0.032697987
-0.018550908 0.01432031 0.062105883 -0.06458088 -0.029608874 -0.032020707 -0.04838067 -0.023811953
-0.026454983 0.057568956 -0.025695348 0.068793066 -0.008973469 0.02764904 0.0031601898 -0.017447963
-0.04020666 -0.052675214 0.026721716 0.010594675 -0.035430074 -0.00807009 -0.010134118 0.056460194
0.016963294 0.057174135 -0.03697816 -0.078561775 0.050875716 -0.051146515 -0.024390504 -0.07126998
-0.04397262 0.0145573085 0.03682292 0.02423256 0.048309427 -0.059309583 -0.041606486 -0.07072743
0.010693161 0.052683666 -0.055440303 -0.023775758 0.046003506 0.0448729 -0.037759133 -0.06366902
-0.00791827 -0.07723333 -0.083028965 -0.06668896 0.00038542578 0.009364921 -0.030997863 -0.03704019
0.002449256 -0.034462567 -0.06629249 -0.017328057 -0.056119196 -0.018050365 -0.061385553 -0.0046749376
0.0002997335 0.032752115 -0.044691782 0.0027171522 0.036274243 0.015211803 -0.061976746 -0.03589538
0.035204183 0.040599506 -0.033384215 -0.03413778 0.039923858 -0.064596556 0.07067642 0.002360484
-0.024609098 0.010166623 -0.01822026 -0.076036446 -0.03994976 -0.06991147 -0.06543332 0.024538044
-0.06741009 -0.0027029684 -0.036618732 -0.011690069 -0.080431074 -0.051719237 0.003916649 0.019692281
-0.055342108 -0.0029009292 -0.014009663 -0.040997013 0.002993211 -0.054451916 0.018472295 -0.027800826
0.0037391887 -0.05231428 -0.027040813 -0.037600767 0.051766314 -0.04449654 0.029340157 -0.015794016
-0.060591094 -0.06719159 0.004744617 0.060790002 -0.04679977 -0.04806475 0.02772513 0.057585612
-0.061969668 0.056645077 -0.0247482 0.011719229 -0.061673347 -0.009341393 -0.061883945 -0.0761463
-0.072780214 0.011781506 -0.002891328 0.055950366 -0.034366645 0.017724682 -0.06716898 -0.055705674
-0.053310763 0.020452505 0.032322742 -0.043021675 0.021714391 0.015654681 -0.0045368397 -0.0663269
0.01970338 -0.019329857 0.005164107 0.04399309 -0.015837254 0.03243137 0.03265033 0.03502653
0.029077698 0.027304087 -0.07524571 -0.017877167 -0.050079897 -0.0023356988 -0.048096195 0.0068441224
0.029942485 -0.012660524 0.05055054 0.0033245147 -0.07339408 0.05063005 -0.0560485 -0.01477069
-0.08034846 -0.05883628 -0.013168097 0.05094337 0.039211582 0.0063398066 0.051176008 -0.07983316
-0.098634705 0.023408417 -0.04368418 -0.06251376 0.06512187 0.008117202 -0.06555869 -0.06483571
-0.09337498 -0.03698467 0.014214238 0.029926693 0.029712578 0.05159037 -0.026158746 -0.009525253
0.0023079435 -0.055877898 -0.016952606 0.009216245 -0.057089027 -0.031218931 -0.011799915 -0.08549364
0.04111822 -0.0852836 0.036703877 0.026481908 0.03494426 -0.09407475 0.07250665 -0.021271242

0.bias f4 [256]
00000000: 37cf 253c cc54 af3c 3e56 79bd 7d22 41bd
00000010: 3f65 c93c d903 f53c 4877 94bc 86d1 013d
00000020: 4282 8838 0e75 ecbc 0d72 3c3d c2f9 1a3d
00000030: 8464 d3bc 0fa6 3cbd cd68 96bc 5522 c9bc
00000040: f7be 13bd 7b08 2e3d 7b50 8d3d 2493 3a3d
00000050: 3f60 073c 597c 613d 198c 583c 97c2 673d
00000060: 595d ae3c 487e 1ebd 1e43 eb3c 366e 47bd
00000070: 9d4a 16bd 528c 413c 23d4 3b3d 4b28 883d
00000080: a727 df3c 4f22 313d 7e41 4abd efc6 91bc
00000090: 1dbe 09bc dc3d 003d 0765 f1bc e1aa 1a3d
000000a0: 0792 4fbc 79d7 02bc b708 8fbd f271 1dbd
000000b0: dba4 6dbd 7b6d 01bd 82a5 cd3c c28c 413d
000000c0: 247e bdbc a38c 903d 2471 f43c 5c77 1ebd
000000d0: 63f8 26bb 558c ae3b 3d6a 69bd b714 193d
000000e0: f85e 91bc b696 f33c 9b43 8fbd c2f0 44bd
000000f0: b92e bf3c 3500 3e3b 2020 a4bc 8212 54bd
00000100: 8bb6 c93c fc74 55bd 6094 7d3d 24f9 103d
00000110: 599b ddbc 2d93 97bb 2755 913d 101f 05bd
00000120: a457 f5bc 0de3 2d3d 16b4 70bd 7523 fcbc
00000130: c6c5 36bd d5c2 303b 8345 1f3d d2df 8bbd
00000140: fac0 883d eaf3 d53c 3eec 6dbd 74fc 55bd
00000150: 5625 153c 69cf 8ebd 62b3 483c c1fb 5dbd
00000160: 968d 143c 844c cebc ec15 263c 0a3e 533d
00000170: bd83 49bd 05ec 883d 321a 463d 21d6 573d
00000180: e038 133d 4e39 b53c cca7 30bd 7b66 56bd
00000190: d494 24bd 9f9b e1bc 66be 30bd 4afb 4abd
000001a0: 76a5 b53c c42c 92bd 3035 893c 8c0b 88bd
000001b0: 49ad f5bb 9a54 7f3d 5c47 683d 7417 103d
000001c0: 8bd5 4dbc b01f f43c d9be 76bd 9c1c 80bd
000001d0: a205 803d c8bf 8e3d a5a1 ee3c 7fa4 333d
000001e0: 662b 8f3d 0d89 07bd 6111 58bd 0ad8 253d
000001f0: 298a 5cbd a6e8 84bd a90a ec3c 0327 a13c
00000200: 1268 57bd 61a9 32bd 3891 143d 6b19 cabc
00000210: 691a 0bbd 9be1 3f3b 3e8c 9d3b c6f9 9d3c
00000220: 488c 5abb 55e6 073d c1c1 6ebc c12d 75bd
00000230: 0388 113d b8ac b13c eaf5 be3b 9221 3e3d
00000240: b0c3 193d d54c 78bd 06ed 6e3c 52d3 523d
00000250: 7679 82bd 3130 913d d89c 473d c1ff 01bd
00000260: e568 3d3c ad13 2fbd b362 85bd fb15 8a3c
00000270: a0ce 44bc 0560 5d3d 88ee 1ebd 53ae f83c
00000280: 040d 803c 2b14 643d dfd4 f03b 4371 83bd
00000290: c216 5f3d bd6c 5b3d 430c 2f3d 3e08 aabb
000002a0: 6c23 ae3c 5a3a 9abc ce70 50bc 993d 123d
000002b0: 85ed 8cbc ddf0 043d 67a2 ba3c 5fdc 0ebd
000002c0: ff26 33bd b66a f3bc e926 c8bb 2945 88bd
000002d0: 681e 35bd 9faf eabc 6e77 0f3d 49a2 233d
000002e0: f3e0 44bd 54b8 a8bc c33d 3f3c 5181 7d3d
000002f0: 991e f2bc 0023 3e3c e643 883d 748b bcbc
00000300: 9b01 8b3d c521 773c 2e7f febc 3d8b 59b9
00000310: e916 5cbd 4496 1fbb f6b7 263c bcae dcbc
00000320: 761d 41bd 33fd ba3c 7812 5b3d 0222 55bc
00000330: 1cb3 4a3d 0962 09bd f09f 1f3c ca92 8f3d
00000340: 648c 62bc 26ac c23c 4e7f febc e4f9 cc3c
00000350: 2406 5b3d 4619 c9bc 4732 8ebc 3c44 723d
00000360: 4251 c1bc 9ef8 2bbd 226c 52bd cfea debb
00000370: c20d 83bd bb40 c63b fef6 53bc 54a9 e13c
00000380: f3ba 1dbc f8d2 913d e815 50bd 78f9 3fbd
00000390: ffbb 60bd f539 00bd 5142 93bc 36ae 34bd
000003a0: 3a9e 71bd 4747 7ebd 2c74 483d c688 753d
000003b0: f7ac 80bb d59d 883d 17a9 abbc ba5d e3bc
000003c0: 432e 123d 2f4e 2dbc befc 673d 1eee b73b
000003d0: a6fe d33b 97a4 4b3d e5d7 a03b 9973 03bd
000003e0: 5870 5c3d 562c 083c 9dbd 303d d8fd 00bd
000003f0: a19d 11bd 5c03 f03c 2804 f83c 4e7e 41bb
0.010120205 0.021402739 -0.060873263 -0.04715203 0.02458441 0.029909061 -0.018123284 0.031693958
6.509248e-05 -0.02886441 0.046007205 0.037835844 -0.025804766 -0.046056803 -0.01836052 -0.024552504
-0.03607079 0.042488556 0.06900116 0.04555048 0.008262693 0.055050228 0.013216996 0.05658206
0.021284746 -0.03869465 0.028718527 -0.04868909 -0.03669225 0.01181324 0.045856606 0.0664831
0.027240587 0.04324561 -0.049378864 -0.017795054 -0.008407143 0.031308994 -0.029467119 0.03776062
-0.012669093 -0.007985943 -0.06984084 -0.038438745 -0.058018547 -0.03159855 0.025103334 0.047253378
-0.023131438 0.07058074 0.029839106 -0.03868805 -0.002547764 0.0053267875 -0.056986082 0.03737327
-0.01774548 0.02973495 -0.069953166 -0.048081167 0.023337709 0.0028991823 -0.02003485 -0.051775463
0.024623176 -0.052113518 0.06190908 0.03539385 -0.027051615 -0.004625699 0.0709632 -0.032500327
-0.029949017 0.04245286 -0.058765493 -0.030778626 -0.044622205 0.0026971598 0.03888465 -0.068298
0.06677432 0.026117284 -0.058086626 -0.05224271 0.00910314 -0.06973154 0.012249799 -0.05419517
0.00906696 -0.02518297 0.0101370625 0.051572837 -0.0491979 0.06685642 0.048364826 0.052694444
0.035942912 0.022122052 -0.043128774 -0.052343827 -0.040180996 -0.027540026 -0.043150328 -0.049556054
0.022173624 -0.071374446 0.016748995 -0.066428274 -0.007497464 0.06233654 0.05670868 0.035178617
-0.01256312 0.029800266 -0.0602406 -0.06255457 0.062510744 0.06970173 0.029129812 0.043858048
0.069906995 -0.033089686 -0.05275095 0.040489234 -0.053842697 -0.06489687 0.028813677 0.019671923
-0.052589484 -0.043618564 0.036271304 -0.024670323 -0.033960734 0.0029278758 0.004807978 0.01928414
-0.0033347774 0.033178646 -0.014572562 -0.059858087 0.0355301 0.021688804 0.005827655 0.046418734
0.037540138 -0.060620148 0.014582878 0.051471062 -0.06370823 0.0708927 0.048733562 -0.031738047
0.011560653 -0.042743374 -0.06512966 0.016856184 -0.012012154 0.05404665 -0.0388017 0.030356562
0.015631206 0.055683296 0.007349595 -0.06418087 0.054465063 0.053570498 0.042736303 -0.005188971
0.021257125 -0.018826652 -0.012722207 0.035703275 -0.017203102 0.032456268 0.022782518 -0.03487813
-0.04373836 -0.02971397 -0.006108154 -0.06653816 -0.04421845 -0.028648196 0.035026006 0.03994969
-0.04806609 -0.020595707 0.01167244 0.061890904 -0.029555606 0.011605024 0.066535756 -0.023015715
0.067874156 0.015083735 -0.031066503 -0.00020746603 -0.053732786 -0.002435104 0.010175696 -0.026938789
-0.047147237 0.022825813 0.05348441 -0.013008596 0.04948722 -0.03354076 0.009742722 0.0701042
-0.013827417 0.023763727 -0.031066563 0.0250215 0.053472653 -0.024548184 -0.017357958 0.059147105
-0.023598317 -0.041985147 -0.051372655 -0.0068028937 -0.063991085 0.006050197 -0.0129373055 0.027546562
-0.009627092 0.07120317 -0.05080214 -0.04686877 -0.054866787 -0.031305272 -0.017975958 -0.044111453
-0.058988787 -0.062079694 0.048938915 0.05994489 -0.003926869 0.06670729 -0.020954652 -0.027754653
0.03568865 -0.010577722 0.056637518 0.0056131026 0.0064695654 0.049717512 0.004908549 -0.032092664
0.053818077 0.008311352 0.04314958 -0.031492084 -0.035550717 0.029298477 0.03027542 -0.0029524746

1.weight f4 [256]
00000000: 17f2 7e3f 1cbe 793f d80e 823f 3be9 813f
00000010: 311e 893f 35fc 7b3f 09bd 813f eecc 803f
00000020: cc21 7d3f 6a53 843f 0abe 7e3f 5b5a 803f
00000030: b061 7f3f b29f 823f ee03 883f e436 7c3f
00000040: 7a42 7b3f 5778 7d3f 8759 883f fc8a 843f
00000050: 9a65 7e3f 4857 7e3f 2192 7d3f 16a1 793f
00000060: 6bec 7c3f 841d 7d3f 939d 7d3f 985b 7c3f
00000070: 3141 833f aa8d 823f 85b2 823f a9f3 823f
00000080: 7ee6 7c3f f8a1 813f e7cf 803f f6bb 833f
00000090: 9b29 803f 17b2 813f dbc5 803f a800 823f
000000a0: 6ffe 843f f74b 873f 751a 823f 5e8e 813f
000000b0: 59e5 7f3f 9bca 7e3f 97bf 7c3f 46c9 753f
000000c0: dbea 7f3f 70be 7f3f d59d 7d3f 77c1 843f
000000d0: eaf3 7d3f 4e02 783f de79 833f c5c4 813f
000000e0: dcf9 803f 4a97 7f3f beba 813f 1167 813f
000000f0: 0572 833f adef 803f 3340 7d3f 7730 823f
00000100: 84cb 823f 1128 7f3f b8b9 7e3f 28a7 823f
00000110: 967a 803f 3d3f 7f3f 1051 803f df7b 823f
00000120: c6e5 813f ee29 803f a9ab 843f 26a2 803f
00000130: d12f 823f 49cd 853f 1837 823f bc6e 7a3f
00000140: 2eaf 833f 3ea0 813f 3c08 813f cdcf 7e3f
00000150: 428c 833f 32c2 813f 2484 823f c494 7d3f
00000160: 55d2 823f 1f7e 873f 6113 803f 3961 813f
00000170: a246 813f e19d 823f b647 813f 500b 833f
00000180: 0c36 7c3f 1309 7c3f 004b 803f 7c39 7e3f
00000190: ad93 803f 8d30 7e3f 3c37 813f 5dd2 7c3f
000001a0: 53bf 823f f635 7e3f d2db 823f d685 7e3f
000001b0: 308c 7e3f 53a3 7a3f e24b 803f d796 7e3f
000001c0: 0480 7d3f 4d4b 823f 6488 843f 9067 7e3f
000001d0: 86b9 7e3f 5679 813f a0b3 803f 5f79 7c3f
000001e0: 406d 7c3f 5439 813f 2f0c 793f 2389 813f
000001f0: f087 813f 211b 803f d363 7e3f 6124 7f3f
00000200: e701 833f 1d08 813f 1657 7c3f b3d4 7d3f
00000210: f4bf 793f f028 803f 5fb7 843f d1c2 813f
00000220: fa68 7a3f 8530 803f df12 823f 387a 853f
00000230: 40c1 813f fac4 803f c7ba 823f a32f 823f
00000240: 03f4 833f e401 823f 5622 823f 726b 7c3f
00000250: 5fcf 7d3f b4bc 813f 2ca4 7f3f 322d 813f
00000260: 1394 7c3f c81d 7f3f 969e 7f3f e1c5 813f
00000270: 93c7 813f 9b25 823f 274a 803f be72 8a3f
00000280: 4a2c 7f3f 486c 823f 2f3c 8b3f 4b82 833f
00000290: 34ba 7b3f 4995 7b3f d491 803f 0a19 7f3f
000002a0: 29e2 7d3f e193 7d3f 0640 803f eb42 803f
000002b0: 118a 803f 2977 813f 5769 843f 21a7 8e3f
000002c0: 080f 7d3f c16f 823f 5cb3 823f 1a70 7d3f
000002d0: dfa2 833f 2fca 7d3f 626f 853f 3245 813f
000002e0: cc77 7d3f 795d 813f 20e0 783f 9460 853f
000002f0: e05c 813f 3a54 823f b49a 813f 2fd9 813f
00000300: 1664 793f d376 823f c339 803f 1c45 813f
00000310: 22b8 7f3f addc 873f 6b67 7f3f effa 7e3f
00000320: 44d1 7d3f fa07 823f e961 803f 1736 7d3f
00000330: 4767 823f 3822 813f 8897 823f 5ba9 7f3f
00000340: a347 793f a7b1 803f 3829 773f 6831 813f
00000350: 0f1a 803f 7759 7c3f c796 873f 0800 803f
00000360: 5776 813f 3811 803f 3da4 7e3f b1fe 813f
00000370: f6b6 853f 555d 823f 51c6 7f3f bf78 843f
00000380: abf6 7f3f d631 733f 5709 803f 4d27 843f
00000390: 3a56 813f 89ce 803f 48c1 833f 5c1b 7a3f
000003a0: 5c94 813f 3e27 7a3f bff7 7c3f 76ab 803f
000003b0: 5fb0 7c3f 3c1c 7b3f 4160 7c3f 0b10 7b3f
000003c0: 5242 833f 01a6 803f 8ace 7f3f 0e26 8a3f
000003d0: 9f0d 813f 0f3b 813f b6b7 7c3f 8c83 813f
000003e0: 2eff 823f 62d8 823f d7e4 7e3f 8e3a 7e3f
000003f0: 9e7c 7d3f 2532 813f 7834 703f 1859 803f
0.9958815 0.9755571 1.016078 1.0149301 1.0712339 0.9843171 1.0135814 1.006254
0.98879695 1.0337956 0.99508727 1.0027574 0.99758434 1.0204985 1.0626199 0.98521256
0.9814831 0.9901175 1.0652322 1.0354915 0.9937378 0.9935193 0.990511 0.9751142
0.98798245 0.9887316 0.99068564 0.9857726 1.025427 1.0199482 1.021073 1.0230609
0.98789203 1.0127554 1.0063447 1.0291736 1.0012697 1.0132474 1.0060381 1.015645
1.0390147 1.0570058 1.0164324 1.0121572 0.9995933 0.995279 0.9872984 0.96010244
0.99967736 0.9989996 0.9906896 1.0371541 0.9920031 0.96878517 1.0271566 1.0138174
1.0076251 0.99840224 1.0135114 1.0109578 1.0269171 1.0073143 0.98926085 1.017104
1.0218358 0.9967051 0.99502134 1.0207262 1.003741 0.9970587 1.0024738 1.0194052
1.0148246 1.0012796 1.0364887 1.0049484 1.0170842 1.0453273 1.0173063 0.9782522
1.0287836 1.0127027 1.0080638 0.9953583 1.0277178 1.0137389 1.0196576 0.99055123
1.0220438 1.0585364 1.0005914 1.0107795 1.009968 1.0204431 1.010001 1.0237827
0.9851997 0.98451346 1.0022888 0.99306464 1.0045067 0.9929283 1.0094981 0.9875849
1.0214638 0.9930109 1.0223334 0.9942297 0.9943266 0.97905463 1.0023158 0.99448913
0.9902346 1.017923 1.0354123 0.99376774 0.99501836 1.0115154 1.0054817 0.986227
0.986042 1.009562 0.97284216 1.0119976 1.011961 1.0008279 0.9937107 0.99664885
1.0234956 1.0080601 0.9857038 0.9915268 0.9755852 1.0012493 1.036846 1.0137578
0.9781643 1.0014807 1.0162009 1.0427923 1.01371 1.0060112 1.021325 1.0170788
1.0308841 1.0156827 1.0166728 0.9860145 0.9914455 1.0135713 0.9985988 1.0091918
0.98663443 0.9965482 0.9985136 1.0138513 1.013903 1.0167726 1.002263 1.0816267
0.99676955 1.0189295 1.0877742 1.0274137 0.98331 0.98274666 1.0044503 0.9964758
0.9917322 0.9905377 1.0019538 1.0020422 1.0042135 1.011449 1.0344647 1.1144754
0.9885106 1.0190355 1.0210986 0.9899918 1.0284079 0.9913663 1.0424616 1.0099242
0.9901092 1.010665 0.9721699 1.0420098 1.0106468 1.0181954 1.0125337 1.0144404
0.97418344 1.0192512 1.0017627 1.0099216 0.9989034 1.061422 0.9976718 0.99601644
0.9914744 1.0158684 1.002988 0.9891066 1.0187768 1.0088568 1.0202494 0.9986779
0.97374934 1.0054215 0.9654727 1.0093203 1.0007952 0.9857401 1.0592889 1.000001
1.011424 1.0005255 0.9946936 1.0155851 1.044646 1.0184733 0.9991198 1.0349349
0.9998576 0.9499792 1.000285 1.0324494 1.0104439 1.006303 1.029336 0.97698
1.0123401 0.9771613 0.9881553 1.0052326 0.9870662 0.9808996 0.9858437 0.98071355
1.0254614 1.005066 0.9992453 1.0792863 1.0082282 1.0096148 0.9871782 1.011827
1.0234125 1.0222285 0.9956793 0.993081 0.99018276 1.0093428 0.9383006 1.0027189

1.bias f4 [256]
00000000: bf3e 3e3c acb2 35bc a198 71bd 9865 9c3b
00000010: fb1f fe3d 38be d13c a0f0 4a3d aea5 8b3b
00000020: 34b7 683d edba efbd 6759 dd3b 44bf 483d
00000030: 76eb 5a3d c679 06bd e279 0bbe 1810 c63c
00000040: 7002 c13c 5d86 8bbb b50b 0e3e cabf fa3d
00000050: 8d2c d7bb 605c b8bc 5f41 13bd c62c fb3c
00000060: fd99 d2bc 45c5 fc3c 9d0a 6dbb a94f 893b
00000070: 3b89 813d 707e bcbd 869d f4bc 6b8b 81bd
00000080: fd44 d43b 5f34 dc3c 67e4 4ebd 7fcf 8bbd
00000090: a25f 073d 8f3e 983c 346f 02bc f68c 8e3d
000000a0: 9b6a 9bbd ccd3 c83d 9faf cfbd 0f16 f53b
000000b0: e82b 083c 9a14 9e3d 063f 49bb bc6e bebb
000000c0: 13f8 063c 8199 583c e81f b33c a5a4 8ebd
000000d0: 2051 26bd 1072 9ebc 481d 80bd ffd2 9e3c
000000e0: 46d2 8cbc 8e32 aebc 3cb3 8ebd c691 9abd
000000f0: c9b6 4b3d f841 46bb a049 fc3c c325 3f3d
00000100: 2814 6b3d 3a94 1fbd 0b32 603b 7e62 0bbd
00000110: c41f 083d fc7b f03b 999e a2bb 8c38 3f3d
00000120: 0ed8 eabc fa78 a1bb 1eb9 f43d 107f 14bd
00000130: ce45 07bd 9c84 c03d 9411 843d d16d 143c
00000140: 1f7c 753d 396c c6bc b51a 5fbc 24b2 a0bb
00000150: 0869 ca3d 6497 0f3d f5fb 5abd f3cb 533b
00000160: 3240 373d 5aa0 e6bd ac71 05bd 392e 033d
00000170: ffe1 a63c d6b5 77bd 16d9 aabc c963 63bd
00000180: 891f a13c c2b3 7fbc 7130 12bd 23a1 4e3c
00000190: fa42 c13c e69c e8bc f78f 563d 127b 243d
000001a0: b968 413d 533c 53bc 8674 4d3d d8c0 5e39
000001b0: c771 d33c c0fc 103d 1f3e 963d 4edd aebb
000001c0: e019 a3bc 3bab 623d 19cb d0bd 61fe 0cbc
000001d0: e2f9 b13c 00f2 953d b12f 9b3d 6523 bebc
000001e0: 1882 e0bc a92f aebb 28e5 3dbc 343a 9ebc
000001f0: 95df ccbc 824e 6c3d 87ad a33d 28e8 233d
00000200: 1921 7d3d a95b c13d 9a52 e23c 5cec 34bc
00000210: 3409 4b3d 349c a73a a334 7fbd c86b 8d3c
00000220: 6729 203d f8da 33bd 5959 9e3c 0d80 c9bd
00000230: 85ea 113d 84f9 e3bc 76db 833d 6618 f13c
00000240: dac8 c4bd 1810 f6bb ae43 d03c 5e2a 6e3c
00000250: 110b 8ebc 28b5 92bd 9aae b9bb 2d8c b23d
00000260: 123c 39bc 1b19 2d3b 9321 313d ea78 12bd
00000270: 2c6c c1bc bc92 c43d e283 8fbb 4dc5 3bbe
00000280: 24f4 02bc 19e2 413d 0a22 21be 9ea9 ee3d
00000290: f6e3 55bc de36 033d e892 263d 6762 09bb
000002a0: 8379 b2bc fee1 5fbb e3bc e9bc 8361 c5bc
000002b0: 739e 003d 2b74 213d 5ed3 abbd 9e2c 423e
000002c0: bbdb 4c3b 4cd6 15bd 603a 673d e87d 253b
000002d0: 62ce d53d 225f fcba 3d4a d73d 0ba8 1dbc
000002e0: 3d71 c3bc ab6a 42bc 0b48 09ba 84c6 ddbd
000002f0: 0da4 233c cee5 4ebd f596 cbbc 9e36 b6bc
00000300: 94da c9bb 5c80 083d faf8 29bc 6d98 073c
00000310: b28c 07bc b622 07be 466a e2bc 4d98 d7bc
00000320: c572 013a 7b5c 00bd 951f babb 44b4 4f3c
00000330: a3fa c83d 6dd6 303d c9ff 03bd 243a 7e3d
00000340: dab7 343c 0620 583d 1632 733d da14 993b
00000350: 30d4 763c a0c8 503c c344 cabd 9ae3 9b3c
00000360: 1a5e 33bb 42e4 56bd 6c5f 513d 6c6a ab3d
00000370: bcee bbbd be6a bbbc 22af 023d f314 8b3d
00000380: 2c1f 033b 9a4d 25bb ae99 a73b c126 d33d
00000390: b3f1 b63c 6d93 64bc cea9 693d 9675 533c
000003a0: 2da3 b8bc a009 1abd 68ee e73b 1c16 f43a
000003b0: 9624 a5bc e80a ab3c c40f b73c 948e 03bd
000003c0: 92ac 5cbd 6b18 fbbb dc5b 533d 109b 083e
000003d0: 86b8 b53c f827 80bc 9b3e 57bd 1d4e 903b
000003e0: ff04 08be 0791 e93c e852 2c3d 7c97 93bc
000003f0: 24c7 5cba e3cd c3ba b842 cabc 27f3 1d3c
0.0116116395 -0.011089962 -0.05898345 0.004772853 0.124084435 0.025603399 0.049545884 0.004261694
0.05681534 -0.11705575 0.0067550424 0.04901053 0.05344721 -0.032830976 -0.13620713 0.024177596
0.023560733 -0.0042579607 0.13871653 0.12243612 -0.00656659 -0.022504985 -0.035951015 0.030660998
-0.025708193 0.030855784 -0.0036169656 0.0041904044 0.06325003 -0.092038035 -0.02986027 -0.0632542
0.0064779506 0.026880441 -0.05051079 -0.06826686 0.033050187 0.018584518 -0.007961083 0.0696048
-0.07588693 0.09806022 -0.10140919 0.007479436 0.008311249 0.07718773 -0.003070773 -0.0058115404
0.008237856 0.013220192 0.0218658 -0.06964997 -0.04060471 -0.019341499 -0.06255585 0.01938772
-0.01719011 -0.02126434 -0.0696778 -0.07547335 0.049734864 -0.0030251723 0.030796826 0.04666687
0.05739227 -0.03895972 0.0034209515 -0.034029476 0.03323342 0.007338999 -0.004962754 0.046684787
-0.028667476 -0.0049277516 0.11949371 -0.03625399 -0.033025555 0.09400293 0.06448665 0.009059385
0.059932824 -0.024221526 -0.013617207 -0.0049040485 0.09883314 0.035056487 -0.05346294 0.0032317608
0.044738956 -0.112610534 -0.03257911 0.032026503 0.020371435 -0.060476147 -0.020855468 -0.055515084
0.019668357 -0.015606822 -0.03569073 0.01261166 0.023591507 -0.028395128 0.05238339 0.04015643
0.047219012 -0.0128928 0.050159954 0.0002124341 0.02581109 0.03539729 0.073360674 -0.00533644
-0.0199098 0.05533908 -0.10194988 -0.0086055705 0.021725599 0.073215485 0.07577456 -0.023210237
-0.027405784 -0.00531574 -0.01159028 -0.019314863 -0.025008956 0.05769206 0.07992082 0.040016323
0.061799143 0.09441311 0.027627278 -0.011042681 0.049569324 0.0012787641 -0.062306058 0.017263308
0.039101984 -0.043909997 0.019329714 -0.09838877 0.035624046 -0.02782894 0.06438343 0.02943058
-0.09608622 -0.0075092427 0.025422897 0.014536468 -0.017339261 -0.07163459 -0.005666566 0.08718143
-0.011305826 0.002641267 0.04324491 -0.035759844 -0.02361115 0.095983 -0.0043797353 -0.18336983
-0.007992778 0.047334764 -0.15735641 0.11653446 -0.013054838 0.032034747 0.040667444 -0.0020963193
-0.021786457 -0.0034161801 -0.028532451 -0.024094349 0.03140111 0.039417427 -0.083899245 0.18962333
0.00312589 -0.036581323 0.056452155 0.0025252048 0.10439755 -0.0019254426 0.10512207 -0.009622584
-0.023857707 -0.011866252 -0.00052368705 -0.108288795 0.009987843 -0.050512128 -0.024852255 -0.02224284
-0.0061600897 0.033325538 -0.010374302 0.008276087 -0.0082732905 -0.13196835 -0.027638566 -0.02631774
0.00049380615 -0.031338196 -0.0056800344 0.012677256 0.0981343 0.043173242 -0.032226358 0.062067166
0.011030162 0.052764915 0.059373938 0.004671675 0.015065238 0.012743145 -0.098763965 0.019029427
-0.0027369321 -0.052463777 0.051116392 0.08369908 -0.09176394 -0.022878047 0.0319053 0.06791105
0.0020007594 -0.0025223256 0.0051147556 0.10310126 0.022332048 -0.013951165 0.057046704 0.012906453
-0.022538746 -0.037606835 0.007077981 0.0018622312 -0.020159047 0.020879224 0.022346385 -0.032118395
-0.053875513 -0.007662823 0.051601276 0.13340402 0.022182714 -0.015644059 -0.05254994 0.004403843
-0.13283156 0.028511537 0.042071253 -0.01801657 -0.0008422008 -0.0014938678 -0.024690017 0.009640492

1.running_mean f4 [256]
00000000: 00b5 73c2 ce4d 9dc2 492a 8042 2016 83c2
00000010: d875 83c2 76dd 8bc2 8136 85c2 484e 74c2
00000020: 4388 aac2 7c71 a942 24a6 4dc2 56a8 8bc2
00000030: c72b 8ec2 59d4 9d42 05d3 8442 50cc 85c2
00000040: aee6 a3c2 8552 6442 4779 8fc2 b348 94c2
00000050: 6b2f 5542 62e9 7a42 d631 1342 246f 6e42
00000060: a5b6 58c2 3a70 85c2 b02e 72c2 d4d9 c8c2
00000070: 2acc 71c2 bf97 8d42 99e4 9442 18a7 9342
00000080: 9962 42c2 9126 89c2 08dd 8e42 a48a a442
00000090: c801 94c2 3951 33c2 3f5d a141 30e3 8bc2
000000a0: feae 9842 e5f2 cdc1 ea6d 8f42 3f6f 60c2
000000b0: 0d1d 81c2 3bff 71c2 5626 7c42 6088 8a42
000000c0: cc64 a0c2 b0b9 15c2 dac0 88c2 aeeb 04c2
000000d0: e223 9b42 b422 9ac2 9647 6742 31b8 4bc2
000000e0: afb3 9142 ba6a 98c2 5ba1 ac42 4ae9 8d42
000000f0: 5ed2 62c2 38ce 9042 97da fcc1 cb04 6ac2
00000100: a266 f5c1 120d 64c2 1c4a 8f42 3a28 9042
00000110: eeeb 88c2 a6c1 83c2 5e3d 75c2 e8cc 9bc2
00000120: e7bc 3f42 f9c1 5242 4a18 88c2 1f6e 8e42
00000130: 9ece 6e42 dc54 b8c1 bb1b 76c2 106a 92c2
00000140: 6575 8dc2 565f 4c42 8cb4 fc41 a818 fb41
00000150: 5470 80c2 873e 42c2 8597 7842 d13c 83c2
00000160: 23e0 90c2 2a35 9242 f2d4 bb42 9458 63c2
00000170: 6480 66c2 8eee 9342 4b73 9142 e2ff 2342
00000180: 88ee 87c2 3688 7642 9f49 8242 c3d9 b841
00000190: 645b 8742 5e8b 11c2 b0d5 66c2 9c19 8bc2
000001a0: 10dc 29c2 c1fa 85c2 407a 90c2 98d5 88c2
000001b0: 28f2 8bc2 2336 82c2 1284 87c2 9390 a342
000001c0: 71f8 a3c2 d463 a2c2 a53f b942 fabb 58c2
000001d0: 951e 91c2 d8f8 83c2 33a2 8ec2 aa72 7542
000001e0: 86a5 5142 71d1 9b42 899a 8d42 9dae e341
000001f0: ba8f 8342 eab5 43c2 baac 9dc2 29b5 85c2
00000200: a1a1 8fc2 28b9 8ec2 07fb 8ac2 858b 8c42
00000210: 3822 88c2 a2af 8642 9e92 7c42 e468 7cc2
00000220: e6e8 82c2 791f 9f42 e0f2 99c2 2674 2b42
00000230: 6ffb 97c2 cf16 ac42 6f49 7dc2 f7f6 84c2
00000240: b143 9142 3475 0242 14cf 86c2 1f88 99c2
00000250: 9d4a 3742 7b58 8a42 5a15 5142 93d2 6dc2
00000260: af00 da41 4a7d 9442 533e 77c2 d093 5ac2
00000270: b303 8042 fc87 85c2 fdfa 2dc2 7afc 9b42
00000280: 37e1 1542 395d 6fc2 788a 7f42 a979 3dc2
00000290: cb73 57c2 2385 7642 fd78 68c2 69c0 6fc2
000002a0: 8466 b2c2 7561 3942 1893 7ec2 d1ce a742
000002b0: 657f 94c2 d406 32c2 70fc 7c42 f1ed 82c2
000002c0: 6151 54c2 b571 a042 1eb5 8bc2 773f a1c2
000002d0: 2ad9 94c2 e34e 3442 5e83 98c2 2af9 c342
000002e0: 18c6 8fc2 444d 6742 0e01 8ec2 dc3e 7f42
000002f0: 8c64 99c2 6f9a ca42 c139 fd41 ae07 9942
00000300: db6c 8e42 13bc 97c2 eb87 4bc2 1a4d 65c2
00000310: c1ff c6c2 a539 a241 cc9a f7c1 2333 3542
00000320: d1b1 29c2 16ec 5e42 19c8 c7c1 fee1 91c2
00000330: 56f9 a1c2 d181 9b42 3865 4f42 7820 8dc2
00000340: c85f a242 de2d 52c2 4358 5d42 de96 7ec2
00000350: dc1b e0c1 1e93 2e42 e421 2542 af13 22c2
00000360: ef25 5e42 9516 8d42 e20a 8ec2 3fd8 8ec2
00000370: 7f60 9942 177c 8442 c742 6742 ae2b b0c2
00000380: 6e20 40c2 15f9 8e42 f1b3 6242 96f7 94c2
00000390: 3a3b 7ec2 773a 59c2 fa37 72c2 84bc b6c1
000003a0: 6785 4442 2cff 3ec2 1ad2 f3c1 7a9d 04c2
000003b0: 9738 8f42 031a 6b42 7cb3 29c2 f25d 8442
000003c0: 7c86 8942 d9bf 5c42 5596 8ac2 56f0 97c2
000003d0: 2957 75c2 5fc1 b942 467b 8f42 fa15 67c2
000003e0: adb8 a542 3d1b 9cc2 b50f 81c2 8cde 8a42
000003f0: 6369 0542 9845 68c2 184c 8e42 cdf4 74c2
-60.926758 -78.65196 64.08259 -65.54321 -65.73016 -69.93254 -66.60645 -61.076447
-85.266136 84.72165 -51.412247 -69.82878 -71.0855 78.91474 66.41215 -66.89905
-81.95055 57.080585 -71.73687 -74.14199 53.296307 62.727913 36.798668 59.608536
-54.178364 -66.71919 -60.545593 -100.425446 -60.44938 70.79638 74.44648 73.826355
-48.596287 -68.575325 71.4317 82.27078 -74.00348 -44.82932 20.17053 -69.943726
76.34178 -25.7436 71.714676 -56.10864 -64.55674 -60.49925 63.037437 69.26636
-80.19687 -37.431335 -68.37666 -33.230156 77.57008 -77.06778 57.81991 -50.929874
72.850945 -76.20845 86.31515 70.95564 -56.705437 72.40277 -31.606733 -58.50468
-30.675114 -57.012764 71.644745 72.07857 -68.4608 -65.87822 -61.30993 -77.90021
47.934475 52.689426 -68.04744 71.21508 59.701775 -23.041435 -61.52708 -73.20715
-70.72929 51.0931 31.588158 31.38704 -64.21939 -48.56106 62.14797 -65.61878
-72.43777 73.103836 93.91591 -56.836502 -57.62538 73.96593 72.72518 40.999886
-67.96588 61.63302 65.14379 23.106329 67.6785 -36.3861 -57.70868 -69.55002
-42.464905 -66.98975 -72.23877 -68.417175 -69.97296 -65.105736 -67.75795 81.78237
-81.98524 -81.19498 92.624306 -54.18357 -72.55973 -65.98602 -71.316795 61.361977
52.411644 77.909065 70.80183 28.46026 65.780716 -48.92765 -78.83736 -66.85383
-71.81568 -71.36163 -69.49029 70.2725 -68.06683 67.34303 63.14318 -63.102432
-65.45488 79.56147 -76.974365 42.863426 -75.99108 86.04455 -63.321712 -66.48235
72.63221 32.614456 -67.40445 -76.76586 45.822865 69.17281 52.27085 -59.45564
27.250334 74.244705 -61.810863 -54.64435 64.007225 -66.765594 -43.495106 77.99312
37.469936 -59.841038 63.885223 -47.36881 -53.86308 61.630016 -58.118153 -59.9379
-89.200226 46.345173 -63.643646 83.90394 -74.24882 -44.506668 63.24652 -65.46473
-53.07947 80.222084 -69.853745 -80.623955 -74.42415 45.077038 -76.25658 97.98665
-71.8869 57.825455 -71.00206 63.811386 -76.69638 101.30163 31.6532 76.515
71.21261 -75.86733 -50.882732 -57.325294 -99.49952 20.278147 -30.950584 45.29994
-42.42365 55.730553 -24.972704 -72.94139 -80.986984 77.75355 51.848846 -70.563416
81.18707 -52.544792 55.336193 -63.64733 -28.013603 43.64367 41.283096 -40.519222
55.537045 70.544106 -71.021255 -71.422356 76.68847 66.24236 57.815212 -88.08531
-48.03167 71.48649 56.675724 -74.48357 -63.55784 -54.307095 -60.554665 -22.842049
49.130276 -47.74919 -30.477589 -33.153786 71.61053 58.775402 -42.425278 66.18349
68.762665 55.18735 -69.29362 -75.969406 -61.335117 92.87768 71.74077 -57.77146
82.860695 -78.0532 -64.53068 69.43466 33.352917 -58.067963 71.14862 -61.239063

1.running_var f4 [256]
00000000: 662a e145 1646 3e46 2343 fc45 f562 0246
00000010: 3d2a 0346 e660 1446 6d6c 0646 5f72 e245
00000020: f366 5c46 e5bb 5946 33c9 a045 3d40 1546
00000030: 070e 1946 ba46 3f46 4ac6 0546 0694 0746
00000040: 306f 4b46 d0b6 c545 934e 1c46 e3d6 2646
00000050: f53f ac45 4cdf ef45 6423 2445 87c0 db45
00000060: 342c b245 7dca 0646 8956 df45 44b7 9846
00000070: 2348 dd45 60e1 1746 c9cd 2746 a8ec 2446
00000080: 2061 9045 fbea 0e46 f2e4 1a46 33ed 4d46
00000090: dd1a 2646 6a73 7645 721e 7b44 98a1 1446
000000a0: bbba 3046 85dd a044 5e35 1c46 1e52 e245
000000b0: 6a3c fc45 34b4 dd45 d6ca f045 2c3d 1146
000000c0: 90db 4246 fc9a 2a45 8fdc 0d46 6d93 a645
000000d0: 486a 3646 f0d3 3446 5019 cb45 aa05 9e45
000000e0: 67f5 2046 f62f 3046 1d38 6246 01d3 1846
000000f0: 8554 c345 bae4 1e46 140f f244 0eca cf45
00000100: 1e63 0145 6eb6 c445 f179 1b46 5a55 1d46
00000110: db2b 0e46 2ec7 0346 4c76 e445 f5ce 3746
00000120: 6986 8b45 7bcc 0046 0860 0c46 94df 1946
00000130: 0076 d845 253d 8244 9acd e545 ed2c 2246
00000140: 0ff1 1746 609c 9f45 2e0a 0645 17f6 2945
00000150: bd22 fa45 798e 8e45 bb1e ea45 be6c 0246
00000160: d118 1f46 a91f 2246 b0aa 8546 8733 c445
00000170: 8188 c945 8c8a 2546 621f 2046 ee69 4b45
00000180: 4f2e 0c46 3223 e645 bdd0 0046 7290 9a45
00000190: 3519 0b46 8ab6 2045 dd9e c945 8b6b 1246
000001a0: d9f2 5a45 3ebe 0746 cf4a 1e46 249e 0d46
000001b0: d463 1446 45be 0046 d169 0b46 2696 4a46
000001c0: 00b4 4b46 ebff 4746 9734 8246 2a66 b645
000001d0: 3ae0 1f46 3a45 0446 c44f 1a46 36fe e345
000001e0: 941a a645 1c26 3846 0e30 1846 40fd c344
000001f0: a463 0346 dbc8 9045 2a8b 3c46 4390 0746
00000200: ec1d 1c46 5e30 1a46 c888 1246 2dcf 1546
00000210: e895 0c46 af77 0946 cbb4 f145 e4e7 f145
00000220: 83db 0146 abbc 3f46 c988 3346 5802 6545
00000230: f536 2f46 f0a8 6146 9298 f345 a32d 0646
00000240: 51c2 1f46 97ff 0945 66d5 0946 62e6 3246
00000250: c883 7f45 77c1 1046 0463 a545 8e19 d645
00000260: 44d1 b444 27b5 2746 ef25 e745 a806 f545
00000270: 587f f845 f158 0746 36e1 6645 a842 3846
00000280: 31b5 2d45 bc94 d945 1565 f745 530f 8845
00000290: 9641 b045 00ec e545 ec18 cd45 e7c3 d945
000002a0: 09f6 7446 86bd 8445 6078 f545 963c 5546
000002b0: 570a 2746 4124 7345 ab60 f245 9ede 0146
000002c0: c6ca f645 8a3b 4346 19eb 1346 5e30 4546
000002d0: 13b7 2746 ceff 7645 461e 3346 cf96 9146
000002e0: f174 1c46 22e5 ca45 ebe0 1846 3868 f645
000002f0: 322c 3246 6483 9b46 79f5 f244 ca95 3146
00000300: 6370 1946 3a8d 2e46 05cf 9c45 ed3e c745
00000310: 2716 9646 2c41 4844 4244 f244 3746 7945
00000320: 3cfc 8b45 ab34 bc45 2366 c344 aa39 2146
00000330: ad13 4746 acef 3c46 78ee a245 363e 1746
00000340: 13e7 4746 2895 a745 e8dc b945 28d8 f545
00000350: e248 bf44 0644 6745 23e3 4e45 e4ad 4745
00000360: 517e be45 df09 1746 80b0 1846 d49a 1a46
00000370: 1b93 3246 7bfe 0446 6abe ca45 805c 6b46
00000380: 5385 8c45 659c 1a46 b81e c345 f1f4 2746
00000390: 16a2 f445 9bb7 b245 6145 de45 8e62 7c44
000003a0: 4d37 9545 a332 8a45 9e79 8745 c9aa 0b45
000003b0: 317b 1b46 bff6 d045 ca13 5a45 eae6 0446
000003c0: db33 0f46 3ec5 b845 accc 1146 b23f 2f46
000003d0: ff24 e445 16d9 8646 d801 1c46 a122 ca45
000003e0: 11df 4f46 5715 3946 32d1 fc45 c485 1246
000003f0: d06f 0745 68b0 cc45 d9bc 1946 f25d e345
7205.3 12177.521 8072.392 8344.739 8394.56 9496.225 8603.106 7246.2964
14105.737 13934.974 5145.15 9552.06 9795.507 12241.682 8561.572 8677.006
13019.797 6326.8516 10003.644 10677.722 5511.9946 7675.912 2626.212 7032.066
5701.5254 8626.622 7146.817 19547.633 7081.017 9720.344 10739.446 10555.164
4620.1406 9146.745 9913.236 13179.3 10630.716 3943.2134 1004.4757 9512.398
11310.683 1286.9225 9997.342 7242.2646 8071.552 7094.5254 7705.3545 9295.293
12470.891 2729.6865 9079.14 5330.428 11674.57 11572.984 6499.164 5056.708
10301.351 11275.99 14478.028 9780.751 6250.565 10169.182 1936.4712 6649.257
2070.1948 6294.8037 9950.485 10069.338 9098.964 8433.795 7310.787 11763.739
4464.8013 8243.12 8984.008 9847.895 6926.75 1041.9108 7353.7 10379.231
9724.265 5107.547 2144.6362 2719.3806 8004.3423 4561.809 7491.8413 8347.186
10182.204 10375.915 17109.344 6278.441 6449.063 10594.637 10247.846 3254.6206
8971.577 7364.3994 8244.185 4946.0557 8902.302 2571.4087 6451.858 9370.886
3503.178 8687.561 10130.702 9063.535 9496.957 8239.567 8922.454 12965.537
13037.0 12799.9795 16666.295 5836.7705 10232.057 8465.307 9875.941 7295.7764
5315.3223 11785.527 9740.014 1567.9141 8408.91 4633.107 12066.791 8676.065
9991.48 9868.092 9378.195 9587.794 8997.477 8797.921 7734.599 7740.9863
8310.878 12271.167 11490.196 3664.1465 11213.739 14442.234 7795.0713 8587.409
10224.579 2207.9744 8821.35 11449.596 4088.2363 9264.366 5292.377 6851.1943
1446.5396 10733.288 7396.7417 7840.832 7951.918 8662.235 3694.0757 11792.664
2779.3245 6962.592 7916.6353 4353.9155 5640.198 7357.5 6563.115 6968.488
15677.509 4247.6904 7855.047 13647.146 10690.585 3890.2659 7756.0835 8311.654
7897.3467 12494.885 9466.774 12620.092 10733.769 3951.9878 11463.568 18635.404
10013.235 6492.6416 9784.2295 7885.0273 11403.049 19905.695 1943.671 11365.447
9820.097 11171.307 5017.8774 6375.8657 19211.076 801.0183 1938.133 3988.3884
4479.5293 6022.5835 1563.1918 10318.416 12740.919 12091.918 5213.8086 9679.553
12793.769 5362.6445 5947.6133 7867.0195 1530.2776 3700.2515 3310.196 3194.8682
6095.7896 9666.468 9772.125 9894.707 11428.776 8511.62 6487.802 15063.125
4496.6655 9895.099 6243.84 10749.235 7828.2607 5718.9507 7112.6724 1009.5399
4774.9126 4422.3296 4335.202 2234.674 9950.798 6686.8433 3489.2368 8505.729
9164.964 5912.6553 9331.168 11215.924 7300.6245 17260.543 9984.461 6468.3286
13303.767 11845.335 8090.1494 9377.441 2166.9883 6550.051 9839.212 7275.743

4.weight f4 [128, 256]
00000000: cc75 fb3c 2115 303d e543 0abd 850b 4a3d
00000010: 5583 6b3d d638 e8bc 545e e9bc 2396 ffbc
00000020: d549 f93c a8ce 9abc 2157 3f3d 1177 85bc
00000030: 94ca f73c 3039 bbbc e70e 7bbd 385f 103c
00000040: db96 e23c a5b5 783d 25fd 2fbd 7d7b 4c3a
00000050: 2cef 263d 3474 113d ed8e babc df99 05ba
00000060: 7eb6 28bc 1ca7 003c 27e1 6d3d 0d2f 5ebd
00000070: 38da d5bc 2068 333d f19d 57bb a056 52bd
00000080: 58ce 4d3d b1f4 2bbd 6e01 9d3d 2dcf 36bc
00000090: 0048 483d ea51 ba39 dec6 2c3d af7b 47bd
000000a0: 970e 74bd 852f 0ebd ec03 043d a0f7 be3b
000000b0: a235 a03c 4829 053c 09eb 5cbd 7e5b a0bc
000000c0: 230c bb3c 71b6 c03a beef 1cbc 9400 42bd
000000d0: 38fb 993c 58af 41bc 6b9f d03c 9b33 b23c
000000e0: f23f 5c3d a41a 2f3d 76a6 65bc 2813 df3c
000000f0: bb3e 56bc 7013 003d e0a4 99bd 6d36 883c
00000100: 47eb 323d 20ab f93c 05c0 5f3c 0e34 fa3c
00000110: e753 5cbd 9111 09bd 9823 80bd dd66 46bc
00000120: 7b21 703d 0c91 453d edc3 33bd 8827 82bc
00000130: c829 13bd 13bf 473d 3602 053d 551e c33c
00000140: d4b1 c33c 62f7 843d 3d84 82bb 741f a43c
00000150: 2843 2c3c 46b8 a53b d447 19bd 24f2 fc3c
00000160: 38c7 193b 3174 513d e4a8 a33c b0bc 31bd
00000170: ee13 063d 4f4a 82bc a3f6 8dbc 136a 28bc
00000180: 3747 e2bc 0436 f73c e3be 673d a3d3 7e3d
00000190: b07f 3bbc bae5 b73c edf4 01bd 177f 94bd
000001a0: 43ea eabb 3dd2 dc3b 8e57 fe3c 117c 1abd
000001b0: 3d0b 57bc 6a99 f9bc 0241 1d3b ce0e c73c
000001c0: dcef 1bbb 5aee 09bd e948 253d a440 b1bb
000001d0: e4bd 2b3c 3fed 50bd d49b ae3c 784e 82bc
000001e0: d8c5 a1bc ee95 86bc a0e8 6c3d 371e b23c
000001f0: 3a8f 443d ae49 7a3b 3869 84bd 46ee e73c
00000200: c4e3 fcbc e94c 09bd b1c8 e0bc 9b68 3fb9
00000210: eb22 25bd db5b 0b3d d154 35bd bee6 523d
00000220: d1e1 f8bc 5175 783b e84c 1d3d 2d42 85bd
00000230: 429c c43c 2920 17bd a7c5 4dbc 4dcf bfbc
00000240: ceb8 0bbd 19a0 ecbc 6056 00bd 9265 4fbd
00000250: b405 413d 178f 35bd 7f3c e43c 76a0 f8bc
00000260: d360 edbc 03e2 b33c f2c1 a4bd b7c9 63bd
00000270: 9c3e 323d 8f9e cd3c a686 3bbd dc4e 963d
00000280: c3df f2bc 8530 2a3d a870 943d dd9c 0bbc
00000290: a286 2dbd ffd4 363c 9c30 173d 8ef5 82bd
000002a0: 0176 ce3b 547a bb3c 2477 bbbc b209 e6bc
000002b0: 7aca cdbb ae5f 0c3d 61fa 6abd d468 71bc
000002c0: 15d8 6bbd 432e 61bd 6016 403c 1410 acbb
000002d0: 4458 723d c429 323d 216d 4a3d e8bd 983c
000002e0: 2729 f43b 6b7b 6d3c 120e 8ebd fbb6 433d
000002f0: 1ee2 8ebb 1e59 c73c ebbe 64bd 6fc0 4c3c
00000300: 5bc4 023c a61e 41bd e1dd 1dbc f348 acbc
00000310: b291 ec3c 1639 da3a d7d3 c83b f7d1 4b3d
00000320: 1dc1 033c 51b0 8dbd cdc5 18bd ded5 82bc
00000330: fd95 85bd 8ee7 bbbc 7db6 8b3b 4914 5cbd
00000340: 83cd 843d da48 c3bc 8a40 e83c 76bb e9bc
00000350: d578 40bb 41ba 2bbd f885 86bb 5ad3 acb9
00000360: ebd9 81ba 8260 8cbc e7eb 34bc 5dac 48bd
00000370: b8b7 603c d9a1 bbbb 7ea0 1ebb 72aa e6bb
00000380: 8580 81bc ea82 783d 6384 e73c 39bb c23c
00000390: ac99 f93c 035d d0ba cbad 09bd 56be 3f3d
000003a0: fbe8 54bd e1cc 4d3d e843 4fbd b3f3 03bd
000003b0: 2b48 debc 2851 063d 9095 2ebd a679 523d
000003c0: 8afe ecbc 268a 223d 1328 0e3c 97fb c93b
000003d0: 14b1 6ebd f9dd f3bc b782 783d 65b1 5f3b
000003e0: 1c14 943c 86e5 8dba 101a 603d e3c2 643d
000003f0: 94a5 523d 4e56 573d 593b 923c 7c51 38bd
0.030695818 0.0429889 -0.033756156 0.049327392 0.057498295 -0.028347414 -0.028487362 -0.03119952
0.030430714 -0.01889737 0.046713952 -0.016292127 0.030247964 -0.022854418 -0.06129351 0.008811764
0.027659824 0.060720105 -0.042966027 0.00078003836 0.040755436 0.03551121 -0.02277323 -0.0005096476
-0.010297416 0.007852342 0.05807605 -0.05424409 -0.026105031 0.043800473 -0.0032900537 -0.051352143
0.050245613 -0.041981403 0.07666288 -0.011157793 0.04889679 0.00035537715 0.042181842 -0.04870194
-0.059584226 -0.034713287 0.032230303 0.005827859 0.019556824 0.008127518 -0.053935084 -0.019574877
0.022832936 0.0014702809 -0.009578643 -0.047363833 0.018796548 -0.01182159 0.025466641 0.021753123
0.05377192 0.042750016 -0.014016738 0.027230814 -0.01307648 0.031268537 -0.075021505 0.016627515
0.04368141 0.030477107 0.013656621 0.0305424 -0.053790953 -0.03346402 -0.06256789 -0.012109485
0.05862568 0.04823403 -0.04388802 -0.01588799 -0.035928518 0.048766207 0.03247281 0.023818174
0.023888506 0.06492497 -0.003983049 0.02003453 0.010514058 0.0050573675 -0.037422016 0.03087718
0.002346469 0.0511362 0.019977994 -0.043392837 0.03273385 -0.015904574 -0.01732952 -0.010279196
-0.027621849 0.030177124 0.056578528 0.06221355 -0.011444017 0.02244841 -0.03172772 -0.07250803
-0.0071690395 0.0067389295 0.031047609 -0.037715975 -0.013125238 -0.030468661 0.0023995047 0.024299052
-0.002379409 -0.033674575 0.040352736 -0.005409317 0.010482285 -0.051007506 0.021314539 -0.015906557
-0.01974766 -0.016428914 0.057839036 0.021742923 0.047988154 0.003819089 -0.064653814 0.02831186
-0.030870326 -0.033520613 -0.027439447 -0.00018254148 -0.040316503 0.034023147 -0.04427034 0.051489584
-0.030381115 0.0037911723 0.03840342 -0.06506763 0.02400029 -0.036895905 -0.012559331 -0.023414278
-0.03411179 -0.028884934 -0.031332374 -0.050633974 0.04712458 -0.044325914 0.027860878 -0.030349951
-0.028976833 0.021958357 -0.08044805 -0.055612292 0.04351674 0.02510002 -0.045782708 0.0733926
-0.029647714 0.041550178 0.0724805 -0.008521286 -0.042364724 0.011159181 0.036911592 -0.06394492
0.0063006883 0.022885479 -0.02288396 -0.028080795 -0.0062802406 0.034270935 -0.057367686 -0.014734466
-0.05757912 -0.05497576 0.011724085 -0.00525094 0.059166208 0.043496862 0.04942048 0.018645242
0.007451195 0.014494757 -0.069362774 0.047781926 -0.0043604514 0.024334487 -0.055846136 0.012497052
0.007981385 -0.04714837 -0.00963542 -0.021030879 0.028878067 0.0016649093 0.006128769 0.049760785
0.008041647 -0.06918395 -0.037298013 -0.01597112 -0.065227486 -0.022937562 0.0042636977 -0.053730283
0.06484511 -0.02383845 0.028351087 -0.028531771 -0.0029368897 -0.041925672 -0.004105326 -0.00032963866
-0.0009906864 -0.017135862 -0.011042572 -0.048992503 0.013715677 -0.005726081 -0.0024204548 -0.0070393616
-0.015808353 0.060671724 0.02826137 0.023770915 0.030468784 -0.001589686 -0.033613008 0.046812378
-0.05198 0.050244216 -0.05060187 -0.03221483 -0.027134022 0.03279224 -0.042623103 0.051385544
-0.028929967 0.03968253 0.008676547 0.006164025 -0.058274344 -0.02976893 0.060671534 0.0034132835
0.018075995 -0.001082585 0.054712355 0.05584992 0.05142744 0.05257254 0.017850565 -0.044999585

4.bias f4 [128]
00000000: b86a 6dbd 24e6 cb39 2ba8 5f39 7121 da3c
00000010: 96a2 b3bc 0376 ebbc 4048 9d3c ca7b 5d3d
00000020: 186a 77bc 82c1 58bd c0c7 72bd a0ad f13c
00000030: 33a6 513d 6c6e 073d fcad f2bc a072 43b9
00000040: a5a0 39bd fced 04bd 308d dcbc 9164 1b3d
00000050: 98fe 303c 34aa 4abd c355 06bd 28dd 89bb
00000060: 4093 0838 dc78 333c 79b6 a2bb dea6 38bd
00000070: 66c8 03bc 3eed 193d 07b2 183d 3db9 91bc
00000080: fdff 673d 9581 68bd 1559 6bbb 59b7 caba
00000090: 9954 553d 05d2 3d3c 8f67 13bd 85da 1dbb
000000a0: ab6d 293d 58e5 0b3d 4ffa 393d 72ae 903c
000000b0: e80a 35bd 6d5d 713c 78ae 543d a92f 0fbd
000000c0: eb2a 033d 5615 39bd a89f 6abd e7be 263c
000000d0: cd08 30bd 7d9c 4d3d 9e08 623d 5748 693d
000000e0: 6283 543b d583 0e3d a7c1 b73c 8add 3ebd
000000f0: 7e12 69bc d1ef 4abd d919 473d 853f 2bbd
00000100: f78d 63bd bbfe dbbc d15e b13c 3cfe 233c
00000110: 7661 753d 9590 983c b5c7 19bd 48e4 883c
00000120: 46f0 bdbc 89f5 d03a bac0 033d 8f29 c2ba
00000130: cee9 c239 53b8 183d fdc4 743d 8e36 783c
00000140: 2d20 f63c a45c 4c3d 061b cd3b 9604 373c
00000150: 40a4 0a3d 63f4 c1bc 957d 04bc 4dee 03bd
00000160: 1197 31bc 535d 1bbd 8fe6 54bd 00e0 4fbd
00000170: dc67 9bbc f9a0 993a 471c 903b 9d9c 38bd
00000180: b1d6 3f3d 5d7f 2dbd f888 583c b12d e1b9
00000190: 85ae 463d 9756 513d c9fa b63b d568 e63c
000001a0: 76ce 8fbc f46c 163c 7cdb 24bc 3560 993c
000001b0: 2278 78bd cfb6 f53c 2980 be3a 37aa d13c
000001c0: 554c 4a3d 6023 32bd 909a 433d 002f 69bd
000001d0: ca54 f7bc f8ac 253c 4bb1 4ebd 29b0 a4bc
000001e0: 0878 eabc 1327 8f3c ccf3 6a3c 7f4e 26bd
000001f0: fe42 8abc caab 5c3d 3c44 773d 9216 95bc
-0.057963103 0.00038890645 0.00021329585 0.026627274 -0.021928113 -0.028742796 0.01919949 0.054073133
-0.015100978 -0.05291892 -0.059272528 0.029501736 0.05118389 0.03306429 -0.029623978 -0.0001863935
-0.04531922 -0.032453522 -0.026922792 0.037937704 0.010802887 -0.049478725 -0.032796632 -0.004207272
3.2562064e-05 0.010954108 -0.0049656 -0.045081012 -0.008043384 0.037579767 0.037279155 -0.017788524
0.056640614 -0.056764204 -0.0035911251 -0.0015466019 0.05208263 0.011585717 -0.035987433 -0.0024086547
0.041364353 0.034154266 0.04540473 0.017661307 -0.044199854 0.014731747 0.0519242 -0.03495756
0.03202335 -0.045186363 -0.057281166 0.010177351 -0.042977143 0.050198067 0.055184 0.056953754
0.0032426943 0.034793694 0.022431208 -0.046597995 -0.0142256 -0.049545113 0.048608635 -0.041808624
-0.05555531 -0.026854863 0.021651657 0.010009345 0.0599074 0.01862363 -0.03754397 0.016710415
-0.02318586 0.0015942316 0.03216622 -0.0014813411 0.00037176762 0.03728516 0.059758175 0.015149726
0.03004464 0.049893036 0.006259325 0.011170527 0.033848047 -0.023676103 -0.008086582 -0.032209683
-0.01083924 -0.037930798 -0.05197769 -0.050750732 -0.018970422 0.0011720947 0.004397902 -0.045071233
0.046835605 -0.04235779 0.01321625 -0.00042949387 0.04850628 0.05110797 0.005584095 0.02812616
-0.017554503 0.00918125 -0.010062095 0.018722633 -0.060661443 0.029994396 0.0014534044 0.02559386
0.049389202 -0.043490767 0.047754824 -0.05692959 -0.030191798 0.01011204 -0.05046205 -0.020103531
-0.028621688 0.017474687 0.014340352 -0.040602203 -0.016877647 0.05387477 0.060367808 -0.018199239

5.weight f4 [128]
00000000: 956b 873f 5074 863f 6f32 7c3f 921d 833f
00000010: 92bb 793f f96b 883f 7cbd 8a3f 1955 843f
00000020: b070 833f f94f 8a3f b186 873f 6bae 8c3f
00000030: c727 843f ae6e 8d3f 4917 863f 3668 793f
00000040: 47c6 7b3f 307d 863f 0957 873f d8cd 813f
00000050: c0c1 7b3f b034 803f 094b 8c3f 5f07 8a3f
00000060: 1e3e 833f 47bc 843f 9974 7e3f 6757 7d3f
00000070: d95b 813f aafc 833f 9c89 803f 313d 7c3f
00000080: e3d3 843f 4b9d 833f bf61 843f bdfe 7d3f
00000090: dc77 833f d686 803f 5583 873f ee5a 833f
000000a0: 7b05 833f 1814 823f b209 853f 7b47 883f
000000b0: f3ab 8b3f b457 7e3f 5e73 843f 8027 8c3f
000000c0: 9cfe 823f 1b15 883f 8ef6 8d3f b109 823f
000000d0: 1014 8a3f c51e 843f 7eaf 833f 0e20 893f
000000e0: a907 7b3f 70d3 873f a629 863f 6360 8b3f
000000f0: c4cf 833f 7552 8d3f a552 843f 4cc7 853f
00000100: 5d8b 843f 2acf 873f 67d8 853f 2407 833f
00000110: e2f9 823f 7914 803f 0e99 883f c17a 853f
00000120: c46f 833f bf29 8c3f b1b2 893f 1b31 853f
00000130: db68 883f a4ca 8a3f 8486 893f bb4b 8a3f
00000140: bee8 8a3f 882b 833f 415d 8a3f 1b8f 8a3f
00000150: 9c39 883f acc0 853f eb29 893f 90e3 813f
00000160: 775c 903f 084f 863f 8668 853f e9b2 833f
00000170: 1bcb 873f 221c 883f 3c7a 853f 028b 8a3f
00000180: 3247 683f 6416 853f e062 913f e022 833f
00000190: 839d 853f 9ec3 773f 6cbd 803f ca9d 943f
000001a0: 1c35 8b3f 2b16 803f 3f25 8d3f a14c 8b3f
000001b0: fcd1 8a3f 1de1 873f 0098 873f f5b1 863f
000001c0: 1def 813f 8b8d 873f 9f35 7d3f e653 7d3f
000001d0: 9ab6 843f e17f 893f c578 843f cb3c 7d3f
000001e0: a061 853f 8fe7 8b3f f72b 853f 6b55 843f
000001f0: 2672 8e3f 2afb 873f 1f77 8a3f ca58 893f
1.0579706 1.0504246 0.98514456 1.0243399 0.97551835 1.0657951 1.0839076 1.033847
1.0268764 1.0805656 1.058798 1.0990728 1.0324639 1.1049402 1.0475856 0.9742464
0.9834942 1.0506954 1.0573436 1.0140944 0.98342514 1.0016079 1.0960399 1.07835
1.0253332 1.0369958 0.99396664 0.9896149 1.0106155 1.0311482 1.0041995 0.9853087
1.0377163 1.0282377 1.034233 0.99216825 1.0270953 1.0041149 1.0586954 1.0262125
1.0236048 1.0162382 1.0393584 1.0646814 1.091185 0.99352574 1.0347707 1.0949554
1.0233951 1.0631441 1.1090868 1.0159208 1.0787373 1.032189 1.0287931 1.0712907
0.98058563 1.0611401 1.048146 1.088879 1.029778 1.1040789 1.0337721 1.0451446
1.035503 1.0610096 1.0456666 1.0236554 1.0232508 1.0006248 1.0671709 1.0428087
1.0268483 1.095024 1.0757657 1.0405611 1.0656999 1.0843091 1.0744176 1.0804361
1.0852277 1.024766 1.0809709 1.0824922 1.0642581 1.0449424 1.0715917 1.0147572
1.1278218 1.0492868 1.0422523 1.0288974 1.0608858 1.0633585 1.0427928 1.0823672
0.90733635 1.0397458 1.1358299 1.0245018 1.0438694 0.96782863 1.0057807 1.1610653
1.0875583 1.0006765 1.1026992 1.088276 1.0845332 1.0615574 1.0593262 1.0523058
1.0151097 1.059007 0.98909944 0.98956144 1.0368226 1.074215 1.0349356 0.9892089
1.0420418 1.0930041 1.0404042 1.0338567 1.1128585 1.0623524 1.0817603 1.0730221
