resources/models/14_by_14/elu_model_v100.pth (torch, 391978 bytes, 26 tensors)

0.weight f4 [256, 196]
-0.009252496 0.00963351 0.012610554 0.057844587 0.01232794 0.016481267 0.04008758 0.044813935
0.00027280702 0.020555813 0.025194954 0.021724837 -0.036205802 0.0071253823 0.03251856 -0.030521588
-0.009750203 -0.012427 0.0558743 -0.014829344 -0.00080269494 0.03846847 -0.032894406 -0.032172184
-0.055072207 -0.060855616 -0.038192123 0.008339168 0.08281417 -0.09369643 0.03204832 0.018592047
0.03734664 -0.04053723 -0.06422544 0.014876853 0.04426134 0.02663697 -0.0489012 -0.11873827
-0.020928664 0.030553088 -0.09427668 0.007229257 -0.1170478 -0.023152396 -0.012197701 0.024435958
-0.02748836 -0.068686284 0.039385945 0.07036132 -0.016712919 0.10901703 0.043211874 0.0010385604
0.058676884 -0.003255853 -0.044354893 0.0023959342 -0.038689364 0.0080378 0.022053447 -0.020436592
0.014342888 0.006808755 -0.030098071 -0.045704372 -0.07736382 -0.035834823 0.05670928 0.015597015
0.04284014 -0.006119135 0.01793289 -0.002168637 -0.010613014 0.054163877 -0.009659999 -0.026640145
-0.035490483 0.011666464 0.013797023 0.011191355 -0.056458175 0.040708803 0.047654018 -0.010217121
-0.03540792 -0.0022903464 -0.026015492 -0.046584383 -0.007428491 0.022022825 -0.04707659 -0.025048764
0.013924922 0.05275761 -0.06515143 0.030409766 -0.04323897 0.02071191 -0.09043943 0.0006996788
0.11083963 0.046791043 0.041985136 0.041666627 -0.041372098 0.04946542 -0.033212237 0.055977598
0.095827244 0.0112942625 0.060169328 -0.0733473 0.03202403 -0.050667718 -0.05097537 -0.03441328
0.016278515 -0.063198775 0.060254417 0.07009328 -0.08070796 -0.014900284 0.044861592 0.032158762
0.045319457 0.005144958 0.0515836 -0.027546914 -0.0076011363 -0.047205187 -0.056745518 0.011385737
-0.11622584 0.02092897 0.008848282 -0.070079766 0.015026552 -0.039601527 -0.039477263 0.020060383
0.04097256 -0.013054615 0.009761556 -0.037801486 -0.02244536 0.006385402 -0.030977825 -0.01911979
-0.0118336035 -0.020821113 -0.052524038 0.112887315 -0.06409111 -0.049473632 -0.019371957 0.053869125
-0.072091244 -0.005588118 -0.04365845 -0.021844203 -0.022240348 -0.026471075 -0.0015829913 -0.079779945
0.058679752 -0.03378527 0.030749232 0.020675726 0.029315151 0.05712404 -0.047172837 0.052790985
0.044854835 0.051882766 0.07766896 0.038368534 0.07358091 -0.008642336 -0.033332866 0.05483631
-0.072283715 -0.034528013 -0.020382818 -0.046885017 0.023326928 -0.10036055 0.018021861 0.048070714
0.005811181 -0.014482418 0.08474632 0.019871682 0.031855654 0.038780663 0.024406785 -0.023655389
-0.056518823 0.030645967 0.04826144 0.041742407 0.016339425 -0.049031973 0.06730439 0.011144283
0.071531214 -0.032221477 0.057062395 -0.054072775 -0.055220544 -0.024080204 -0.011918869 -0.0031759227
-0.14565164 -0.07023776 -0.016472436 -0.009684837 0.007880481 0.054030713 0.0497977 0.047359478
0.059969544 -0.092395954 0.043785725 -0.007261284 -0.024701025 -0.07605902 0.048953023 -0.037837137
-0.031890325 -0.012506937 -0.006945725 0.083002545 0.01798399 0.053826887 -0.030666344 -0.050355583
-0.044300817 -0.07016636 0.0077451137 0.020592958 0.015169765 0.013016971 -0.037318137 -0.011596645
0.004959799 0.021202901 -0.04660405 0.00095087173 -0.06444432 -0.023850132 -0.05800561 0.005321082
00000000: c897 17bc dfd5 1d3c 7f9c 4e3c 72ee 6c3d
00000010: 21fb 493c b903 873c e032 243d d18e 373d
00000020: 8a07 8f39 aa64 a83c a665 ce3c 49f8 b13c
00000030: 894c 14bd 0a7c e93b 2e32 053d 6908 fabc
00000040: 51bf 1fbc 9e9a 4bbc 73dc 643d c7f6 72bc
00000050: f26b 52ba 1d91 1d3d 49bc 06bd fbc6 03bd
00000060: 6593 61bd bd43 79bd 586f 1cbd 01a1 083c
00000070: 7a9a a93d eae3 bfbd 1945 033d 594e 983c
00000080: caf8 183d 5e0a 26bd a188 83bd 0bbe 733c
00000090: 614b 353d c635 da3c a04c 48bd 0d2d f3bd
000000a0: 9772 abbc 784a fa3c 2214 c1bd 67e3 ec3b
000000b0: c2b6 efbd 18aa bdbc ded8 47bc eb2d c83c
000000c0: 452f e1bc 65ab 8cbd 2853 213d 9919 903d
000000d0: 88e9 88bc 5244 df3d effe 303d 4e20 883a
000000e0: 2c57 703d 2660 55bb 7aad 35bd 1b05 1d3b
000000f0: bd78 1ebd fab0 033c 6ea9 b43c a46a a7bc
00000100: 6ffe 6a3c fa1b df3b 3b90 f6bc 8234 3bbd
00000110: ec70 9ebd 89c7 12bd fd47 683d 9f8a 7f3c
00000120: 2579 2f3d 0683 c8bb ffe7 923c b11f 0ebb
00000130: 35e2 2dbc f1da 5d3d f944 1ebc 6f3c dabc
00000140: 785e 11bd b224 3f3c e90c 623c f25b 373c
00000150: b040 67bd 46be 263d dc30 433d b665 27bc
00000160: e507 11bd a319 16bb 711e d5bc 44cf 3ebd
00000170: b36a f3bb 3669 b43c 62d3 40bd 1133 cdbc
00000180: 5b25 643c 5d18 583d 1d6e 85bd e71d f93c
00000190: 591b 31bd 06ac a93c 4f38 b9bd a66a 373a
000001a0: e3ff e23d f7a7 3f3d 9bf8 2b3d a0aa 2a3d
000001b0: ca75 29bd 419c 4a3d 8e09 08bd c448 653d
000001c0: 1341 c43d 920b 393c 1d74 763d 1c37 96bd
000001d0: a12b 033d f488 4fbd 8dcb 50bd f1f4 0cbd
000001e0: 855a 853c 5c6e 81bd 56cd 763d 118d 8f3d
000001f0: 374a a5bd 5220 74bc cac0 373d e8b8 033d
00000200: e5a0 393d 0997 a83b 5349 533d 11aa e1bc
00000210: f412 f9bb 3a5a 41bd fd6d 68bd 3e8b 3a3c
00000220: d007 eebd 3b73 ab3c 62f8 103c fb85 8fbd
00000230: ed31 763c 3635 22bd e9b2 21bd ac55 a43c
00000240: d8d2 273d 06e3 55bc efee 1f3c bbd5 1abd
00000250: 55df b7bc a23c d13b 35c5 fdbc 1ba1 9cbc
00000260: bbe1 41bc 0a91 aabc 7223 57bd 7731 e73d
00000270: 3342 83bd dda4 4abd f0b1 9ebc dfa5 5c3d
00000280: 93a4 93bd 881c b7bb 34d3 32bd 9df2 b2bc
00000290: 6431 b6bc ded9 d8bc 607c cfba ab63 a3bd
000002a0: 2e5a 703d 6c62 0abd d0e5 fb3c 2460 a93c
000002b0: 5426 f03c e6fa 693d 4e38 41bd 5c3b 583d
000002c0: b4b9 373d 0683 543d e710 9f3d 5328 1d3d
000002d0: 97b1 963d 9698 0dbc 0b88 08bd 0a9c 603d
000002e0: 7c09 94bd 3f6d 0dbd def9 a6bc 810a 40bd
000002f0: 1d18 bf3c d589 cdbd 95a2 933c cce5 443d
00000300: b86b be3b aa47 6dbc 7b8f ad3d f0c9 a23c
00000310: 137b 023d 79d8 1e3d bdf0 c73c f2c8 c1bc
00000320: 4880 67bd 400d fb3c caad 453d 16fa 2a3d
00000330: 42da 853c c0d5 48bd e2d6 893d 8396 363c
00000340: f57e 923d abfa 03bd 42ba 693d 6a7b 5dbd
00000350: f02e 62bd d943 c5bc 5c47 43bc 2423 50bb
00000360: b425 15be d1d8 8fbd 34f1 86bc 27ad 1ebc
00000370: 221d 013c 4f4f 5d3d acf8 4b3d 03fc 413d
00000380: a0a2 753d 173a bdbd a958 333d 11f0 edbb
00000390: ce59 cabc d5c4 9bbd f782 483d 1dfb 1abd
000003a0: 6e9f 02bd e5e9 4cbc f798 e3bb 3dfd a93d
000003b0: 2953 933c 9579 5c3d fc37 fbbc a841 4ebd
000003c0: c674 35bd 61b3 8fbd b9ca fd3b 90b2 a83c
000003d0: 9b8a 783c 2245 553c e7da 18bd dbff 3dbc
000003e0: cf85 a23b b5b1 ad3c e3e3 3ebd ec43 793a
000003f0: 62fb 83bd 5a61 c3bc 4a97 6dbd 795c ae3b

0.bias f4 [256]
-0.02775666 0.047955565 -0.012805127 -0.01420673 -0.028047478 -0.04715148 0.027869325 0.01721647
0.014940256 -0.033377934 -0.037382673 -0.0072738607 -0.027761983 0.0479432 0.03198683 0.0360791
0.00011453014 -0.065271564 0.041314892 0.06957199 -0.028427554 -0.0001621932 -0.05355998 0.05770789
-0.01139663 0.070921876 0.033143844 0.031750046 -0.02861427 -0.05256048 -0.041997302 -0.06170512
-0.056012593 0.049593687 -0.06621737 0.022238988 0.032086026 0.01047376 0.060458474 -0.061987177
-0.06814975 -0.01749424 0.0062218807 -0.06460178 0.029312378 0.050365888 -0.056029186 -0.0637944
-0.068915226 -0.009674 -0.040973604 0.0338663 -0.06052356 -0.050744936 -0.067795 -0.00015910021
0.05859475 -0.0004967159 -0.033045255 0.05987731 0.047938902 -0.029847939 -0.020519936 -0.037176613
-0.04834303 -0.038171694 0.062043548 0.053405747 -0.02020614 -0.07052449 -0.010685363 0.05787053
-0.0060534272 -0.016274478 -0.029154712 0.003627093 -0.050165657 0.023707287 0.035814423 -0.04233715
0.0007265861 -0.031260546 -0.005845591 -0.047524583 0.0024639792 -0.055974495 -0.07044477 -0.026233459
-0.03716211 0.040219627 0.0007112268 -0.03749498 -0.03722594 -0.0024398162 -0.043093078 -0.057597704
0.010927347 -0.02734742 0.06699253 -0.001963883 0.053580217 0.041127693 0.04069973 0.0038658443
0.06833466 0.055289164 -0.051967163 0.045068577 0.017443383 -0.050363008 -0.008259032 0.030246759
-0.06313019 0.05768273 -0.023475356 -0.032975007 -0.058394745 0.0017566911 0.048298843 0.056376725
0.057003666 0.022176001 0.035865586 0.046395816 -0.062488656 0.013416092 -0.047402896 0.07104587
-0.034141224 0.017737001 -0.019931901 -0.01773353 -0.03924205 0.025110962 0.03175017 0.016365102
-0.0556411 0.015309053 0.040654123 0.040153038 0.060493417 -0.070005596 0.052506756 0.042016547
-0.034182455 0.06719506 0.00997539 -0.019408913 0.047970023 0.019620212 -0.05868311 -0.051445104
-0.0077389684 -0.03548138 0.03817294 -0.019828377 0.04911472 -0.027068984 -0.049365185 0.062416915
-0.032425266 0.0011701081 -0.018523209 -0.01820205 0.058455735 0.06814205 0.03491302 0.041538354
-0.014231306 0.016565206 -0.022727428 0.018188614 0.026909497 -0.048573513 -0.053443633 0.033930216
0.031034961 -0.0548753 -0.06941508 -0.03273039 0.03058747 0.02245993 0.061949622 0.0648594
-0.06906594 -0.065235265 0.06130671 0.05365199 0.04132026 -0.05550691 -0.06533585 0.057942137
0.03753918 -0.06775983 0.021552432 0.0047391118 -0.070526175 0.01863644 -0.028770372 0.0092626065
0.022534383 0.014258493 0.010733694 0.05361738 -0.019064236 0.06952476 0.053130303 0.03331489
0.048101712 0.066674545 -0.01787463 0.018103387 -0.02801392 -0.04550342 -0.06663394 -0.06096308
0.013263693 0.010493873 0.06464892 0.071152516 -0.031483017 -0.023156252 0.06971535 0.022977846
-0.028402837 0.06603324 -0.006383328 -0.014001611 0.029340925 0.007947663 -0.06089281 -0.057435848
-0.03830994 -0.06570228 0.055885382 0.064274125 -0.030110652 -0.04087558 0.042571064 0.032392435
0.031823143 0.03763545 -0.051599525 -0.0003848352 0.036766898 -0.029876076 0.020567195 0.033742674
-0.0673743 0.033800878 -0.018488312 0.016085366 0.06406054 0.02758645 0.06599087 -0.022428771
00000000: ef61 e3bc 0e6d 443d 98cc 51bc 58c3 68bc
00000010: d3c3 e5bc e921 41bd 364e e43c 8e09 8d3c
00000020: fac7 743c 4db7 08bd 931e 19bd 9159 eebb
00000030: 196d e3bc 1760 443d 9f04 033d aec7 133d
00000040: e72f f038 19ad 85bd ce39 293d c27b 8e3d
00000050: e7e0 e8bc 6812 2ab9 b661 5bbd 1c5f 6c3d
00000060: eeb8 3abc 7d3f 913d d7c1 073d 560c 023d
00000070: 7968 eabc a849 57bd 5d05 2cbd 82be 7cbd
00000080: 766d 65bd c022 4b3d f99c 87bd 8a2e b63c
00000090: a36c 033d 229a 2b3c 4ea3 773d 44e6 7dbd
000000a0: 1992 8bbd 1550 8fbc ebe0 cb3b f04d 84bd
000000b0: 8320 f03c 764c 4e3d dc7e 65bd a3a6 82bd
000000c0: 6d23 8dbd b27f 1ebc f0d3 27bd 64b7 0a3d
000000d0: 8de7 77bd ecd9 4fbd 1bd8 8abd 23d4 26b9
000000e0: 0c01 703d 0a36 02ba 765a 07bd e941 753d
000000f0: 955b 443d aa83 f4bc 6d19 a8bc 8146 18bd
00000100: 5703 46bd ec59 1cbd 6021 7e3d fcbf 5a3d
00000110: 5987 a5bc 256f 90bd a911 2fbc a609 6d3d
00000120: d45b c6bb 0e52 85bc ddd5 eebc 86b4 6d3b
00000130: 817a 4dbd c935 c23c 25b2 123d b869 2dbd
00000140: 5e78 3e3a 0f0b 00bd 5f8c bfbb 23a9 42bd
00000150: b67a 213b 8345 65bd 5945 90bd 8de7 d6bc
00000160: 4c37 18bd 56bd 243d 9f71 3a3a 5694 19bd
00000170: 3a7a 18bd 53e5 1fbb 5e82 30bd 92eb 6bbd
00000180: 9d08 333c b207 e0bc 6133 893d 7db4 00bb
00000190: ee76 5b3d 8375 283d c3b4 263d 1b5a 7d3b
000001a0: 0bf3 8b3d e476 623d 85db 54bd d499 383d
000001b0: 6de5 8e3c 7149 4ebd e450 07bc 0dc8 f73c
000001c0: 674a 81bd ba44 6c3d 644f c0bc cd10 07bd
000001d0: 542f 6fbd c640 e63a 02d5 453d 48eb 663d
000001e0: ad7c 693d 72aa b53c cbe7 123d 8a09 3e3d
000001f0: 1bf4 7fbd 2bcf 5b3c 8a29 42bd 7f80 913d
00000200: abd7 0bbd 304d 913c 3a48 a3bc e845 91bc
00000210: 46bc 20bd 81b5 cd3c 770c 023d 1b10 863c
00000220: ece7 63bd d2d2 7a3c f084 263d 8377 243d
00000230: f2c7 773d 185f 8fbd 5311 573d 8b19 2c3d
00000240: e702 0cbd 909d 893d d16f 233c 71ff 9ebc
00000250: 377c 443d 91ba a03c b35d 70bd 1ab8 52bd
00000260: 2c97 fdbb ec54 11bd 3b5b 1c3d 1f6f a2bc
00000270: 842c 493d c6bf ddbc 2633 4abd e1a8 7f3d
00000280: 5bd0 04bd 505e 993a fcbd 97bc 771c 95bc
00000290: 486f 6f3d 0f8e 8b3d f400 0f3d 1f24 2a3d
000002a0: 6c2a 69bc c1b3 873c df2e babc 4a00 953c
000002b0: 4e71 dc3c 05f5 46bd b6e7 5abd 69fa 0a3d
000002c0: 083d fe3c ecc4 60bd 7e29 8ebd 4d10 06bd
000002d0: 9392 fa3c e3fd b73c e3be 7d3d 01d5 843d
000002e0: 7272 8dbd 119a 85bd bf1c 7b3d 30c2 5b3d
000002f0: 6f3f 293d 375b 63bd cdce 85bd bc54 6d3d
00000300: afc2 193d aac5 8abd ba8e b03c 8d4a 9b3b
00000310: 0770 90bd 73ab 983c d8af ebbc 30c2 173c
00000320: 079a b83c 749c 693c 60dc 2f3c e69d 5b3d
00000330: 9a2c 9cbc ff62 8e3d 299f 593d 3275 083d
00000340: 4d06 453d aa8c 883d d16d 92bc 8e4d 943c
00000350: 737d e5bc cb61 3abd 6077 88bd 6cb4 79bd
00000360: f64f 593c 7eee 2b3c a766 843d 69b8 913d
00000370: 56f4 00bd 2eb2 bdbc ecc6 8e3d 093c bc3c
00000380: 11ad e8bc 6f3c 873d 3c2b d1bb 0367 65bc
00000390: 615c f03c ea36 023c bd6a 79bd da41 6bbd
000003a0: e2ea 1cbd eb8e 86bd 12e8 643d 27a2 833d
000003b0: 9daa f6bc 276d 27bd ff5e 2e3d eead 043d
000003c0: fc58 023d a127 1a3d 065a 53bd b5c3 c9b9
000003d0: e398 163d acbe f4bc 897c a83c c235 0a3d
000003e0: 89fb 89bd ca72 0a3d cd74 97bc 75c5 833c
000003f0: 2c32 833d fbfc e13c 3926 873d 8bbc b7bc

1.weight f4 [256]
1.0438061 1.0476629 1.0724508 0.99666625 0.97306985 1.0317285 1.0089209 1.0011538
1.120317 1.0612155 0.9510716 1.0189306 1.0053157 0.98505604 1.0658152 1.079572
1.0428323 1.0575805 0.9870765 1.0822186 1.0361192 1.1325504 1.07102 1.0843449
1.0418319 1.024151 0.9622653 1.0090873 1.1051062 0.9401164 1.0645262 1.0104752
1.0913806 1.1309777 0.97251743 0.9830813 0.9807006 1.0328016 1.1512457 0.9671221
1.0488491 0.9962403 0.9711447 1.0777633 1.0577239 1.1144754 0.9816679 1.1236597
1.0861608 1.01387 1.0567993 1.0440845 1.0576953 1.0193632 1.0719388 1.031961
1.0011854 1.0797697 0.9990482 1.0514811 1.0144386 1.116594 1.1078036 0.9588555
1.0654206 1.0459408 0.9922938 0.9841597 1.0116929 0.95032686 1.0983535 1.0421247
1.0138704 1.0742418 1.0447333 1.0624181 1.0144877 1.0916802 1.0713371 0.9916167
1.1327704 1.0418941 1.033075 0.99236923 1.041983 1.1431973 1.0202202 0.97635293
1.0364745 1.1612904 1.0103246 1.0674462 1.1004729 1.00269 0.9895514 1.0912498
1.1174922 1.014888 1.0208653 1.0455048 1.0315837 0.97282386 0.98878604 1.0543543
1.1170249 0.95054996 1.0767815 1.0487674 1.0690353 0.97729385 1.030406 0.98811066
1.0209671 1.0790364 1.0006076 1.0477723 0.98900414 1.0299687 0.9906133 1.05973
1.1225133 1.0292035 1.1234858 1.076836 0.9813477 1.0239363 0.99183667 0.9940323
1.0069941 1.0153012 1.0095459 1.0762594 1.0867499 1.072244 1.0651776 0.9613046
1.0318618 1.0004596 1.0591938 1.0262611 0.9986277 1.0532637 1.0890307 0.94351995
0.9720232 1.052238 1.0138904 1.0072366 1.0401437 1.039789 0.9696404 1.0281521
0.98286444 0.97014946 1.0660019 1.1118833 1.0945472 1.0038046 1.0615327 1.0360473
1.1284894 0.99272335 1.0203675 1.0424045 1.0579792 1.1021073 1.0189036 0.98999107
1.0192239 1.141986 1.025191 1.0222465 1.0307692 1.0468256 1.0908872 0.9955953
1.0817275 1.0704466 1.0351274 1.0666442 0.99668753 1.1125126 0.98556226 1.0653876
0.9959232 1.0984159 1.0556179 0.9824561 1.028807 1.0476491 1.0137892 1.0830123
1.0204735 1.0169113 1.0581139 1.0197703 1.04767 0.9627811 0.98145413 1.0382646
1.0440693 1.0797373 1.0567087 1.0661832 0.9688497 0.9874816 1.0165454 0.974638
1.1014855 0.9996065 1.0691112 1.103796 0.99113786 1.0928022 1.0224147 1.1125227
1.044464 1.0569417 0.9960696 1.0250247 0.9998234 1.0230385 1.0711712 0.95505166
1.0650582 0.97398 1.104087 1.0359635 0.9751755 1.088675 1.0248072 1.0184674
1.0732424 1.0408239 0.990309 0.99649435 1.0583678 0.98627573 1.0111382 0.98240745
0.97478986 1.0299631 1.0050625 1.0526025 1.0173454 0.9314019 0.9910277 0.9951313
1.1177014 1.0364501 0.9876827 0.9417867 0.9475037 0.9933587 1.0223937 1.1395566
00000000: 709b 853f d119 863f 1146 893f 8525 7f3f
00000010: 1b1b 793f ae0f 843f 5224 813f cf25 803f
00000020: 8c66 8f3f e9d5 873f 6e79 733f 516c 823f
00000030: 2fae 803f a22c 7c3f a26c 883f 6a2f 8a3f
00000040: 877b 853f cc5e 873f 0cb1 7c3f 2486 8a3f
00000050: 8e9f 843f 69f7 903f 2f17 893f d0cb 8a3f
00000060: bf5a 853f 6117 833f 0557 763f c629 813f
00000070: 1f74 8d3f 78ab 703f 6542 883f 4057 813f
00000080: 5cb2 8b3f e1c3 903f e7f6 783f 37ab 7b3f
00000090: 320f 7b3f d832 843f 055c 933f 5095 773f
000000a0: b040 863f 9b09 7f3f f09c 783f 26f4 893f
000000b0: 7f63 873f 21a7 8e3f 964e 7b3f 15d4 8f3f
000000c0: 5107 8b3f 7ec6 813f 3345 873f 90a4 853f
000000d0: 8f62 873f 7e7a 823f 4a35 893f 4c17 843f
000000e0: d826 803f e535 8a3f 9fc1 7f3f ef96 863f
000000f0: 20d9 813f 8dec 8e3f 82cc 8d3f 8e77 753f
00000100: b45f 883f 63e1 853f f706 7e3f e4f1 7b3f
00000110: 277f 813f 9f48 733f d996 8c3f 5864 853f
00000120: 81c6 813f c180 893f d2b9 853f 51fd 873f
00000130: bcda 813f 2dbc 8b3f 9321 893f 98da 7d3f
00000140: 9ffe 903f c95c 853f cd3b 843f e90b 7e3f
00000150: b35f 853f 4a54 923f 9396 823f 44f2 793f
00000160: 32ab 843f 2aa5 943f 5152 813f 14a2 883f
00000170: 4cdc 8c3f 2558 803f 3e53 7d3f 13ae 8b3f
00000180: fc09 8f3f dae7 813f b7ab 823f 1ad3 853f
00000190: ef0a 843f fc0a 793f 1521 7d3f 15f5 863f
000001a0: acfa 8e3f 3e57 733f fad3 893f 033e 863f
000001b0: 26d6 883f ee2f 7a3f 58e4 833f d2f4 7c3f
000001c0: 0daf 823f dd1d 8a3f e913 803f 671d 863f
000001d0: 602f 7d3f 04d6 833f d598 7d3f 3ca5 873f
000001e0: 84ae 8f3f f1bc 833f 62ce 8f3f c3d5 893f
000001f0: 9a39 7b3f 5810 833f 02e9 7d3f e778 7e3f
00000200: 2fe5 803f 64f5 813f cd38 813f dec2 893f
00000210: 9f1a 8b3f 4b3f 893f bd57 883f 0f18 763f
00000220: 0c14 843f 0f0f 803f aa93 873f 865c 833f
00000230: 11a6 7f3f 58d1 863f 5c65 8b3f 868a 713f
00000240: 83d6 783f bcaf 863f 29c7 813f 21ed 803f
00000250: 6e23 853f ce17 853f 5a3a 783f 7d9a 833f
00000260: 019d 7b3f b75b 783f c072 883f 3152 8e3f
00000270: 1f1a 8c3f ab7c 803f 4ee0 873f 339d 843f
00000280: 5772 903f 1e23 7e3f 679b 823f 836d 853f
00000290: dd6b 873f da11 8d3f 6f6b 823f 0e70 7d3f
000002a0: ee75 823f 992c 923f 7539 833f f9d8 823f
000002b0: 3ff0 833f 62fe 853f 31a2 8b3f 55df 7e3f
000002c0: 0c76 8a3f 6504 893f 0e7f 843f cc87 883f
000002d0: ea26 7f3f d066 8e3f cf4d 7c3f 9f5e 883f
000002e0: d3f4 7e3f e498 8c3f 7d1e 873f 3e82 7b3f
000002f0: f3af 833f 5e19 863f d8c3 813f 26a0 8a3f
00000300: e09e 823f 262a 823f 4770 873f d587 823f
00000310: 0d1a 863f d278 763f 9440 7b3f dbe5 843f
00000320: 10a4 853f d534 8a3f 3b42 873f b178 883f
00000330: 8906 783f 98cb 7c3f 291e 823f e081 793f
00000340: 7afd 8c3f 36e6 7f3f a3d8 883f 3049 8d3f
00000350: 36bb 7d3f f1e0 8b3f 7cde 823f 2567 8e3f
00000360: ffb0 853f de49 873f 6bfe 7e3f 0234 833f
00000370: 6df4 7f3f edf2 823f 231c 893f 447e 743f
00000380: d453 883f c156 793f b952 8d3f 749a 843f
00000390: 1aa5 793f b459 8b3f e22c 833f 245d 823f
000003a0: 0260 893f b839 853f e484 7d3f 411a 7f3f
000003b0: 9978 873f 917c 7c3f fa6c 813f 0e7f 7b3f
000003c0: d48b 793f d5d5 833f e3a5 803f aebb 863f
000003d0: 6038 823f 5b70 6e3f feb3 7d3f edc0 7e3f
000003e0: d710 8f3f 66aa 843f c6d8 7c3f ef18 713f
000003f0: 9a8f 723f c14c 7e3f ccdd 823f fedc 913f

1.bias f4 [256]
-0.08108264 -0.013480556 -0.0023097156 0.004094409 0.032738272 -0.027217912 0.00816832 0.018311286
-0.020723967 -0.027500438 0.006905506 0.01529979 -0.047617063 -0.053482138 -0.00019291425 -0.048762444
-0.024806838 -0.035808787 -0.0071277246 -0.04968088 -0.05143024 -0.009933554 0.021027505 -0.054164235
-0.088199645 -0.030167561 -0.014458704 0.027668104 -0.048983492 0.031020949 -0.075940825 -0.045913268
-0.10252591 -0.05602944 -0.04296101 -0.040391225 -0.042371575 -0.07759678 -0.045862027 -0.019284237
-0.0345873 0.006690131 -0.038253117 -0.09529992 -0.05330181 -0.035462856 -0.046969153 0.004745033
-0.06493642 0.009956423 -0.008509107 0.019296324 -0.037725177 -0.06430986 -0.032582395 -0.0014687929
-0.045591477 -0.029197907 -0.06517125 -0.018000558 -0.052800573 -0.0519507 -0.043656036 0.006251418
0.021935992 0.03263857 -0.032309968 0.017188473 -0.106686234 -0.008440131 0.005558953 -0.027297575
0.0027800335 0.043206494 0.030829025 -0.019975651 -0.015467707 -0.0146239 0.040424973 -0.05242367
-0.07652671 -0.08913177 -0.06559234 -0.014800907 0.014795337 -0.07501803 0.010919701 -0.040981688
0.013778259 -0.030986233 -0.03469466 0.010140531 0.074248955 -0.04023937 -0.010606916 -0.047780924
-0.05319858 -0.036396407 -0.04931529 0.003908195 -0.031235361 -0.033534046 -0.025467612 -0.0011693658
-0.0069941333 -0.07495508 -0.013836236 0.00015523244 -0.052782457 -0.004718097 -0.038951308 -0.023740835
-0.034762982 -0.09145386 0.0058817184 -0.004136324 -0.008136369 -0.0087293275 -0.032089137 0.00421268
0.04912956 -0.007090333 0.0034944243 -0.009023141 -0.014722386 -0.03187586 -0.050135773 -0.033754863
-0.05900716 -0.0012016965 -0.034157023 -0.041902944 -0.012030894 -0.014511998 -0.0046460615 -0.030632408
-0.025709275 -0.0075527607 -0.03912047 0.011904086 -0.0290573 -0.0339428 -0.08018136 -0.032722704
-0.013290527 -0.00782093 -0.014000828 0.04340544 -0.0039609345 -0.06615041 0.007672988 -0.017989907
-0.041475423 0.0039223293 -0.03962427 0.017451718 -0.036566783 0.016905412 -0.039170954 -0.023384275
-0.09254706 -0.016789507 -0.048028577 -0.032224324 -0.04843659 0.05326909 -0.094051324 -0.0164909
-0.00631866 -0.103135675 -0.019684117 -0.08430549 -0.003581399 -0.01773763 -0.064650565 -0.044506967
0.02039612 0.016295759 -0.01591373 0.08283104 0.0031235083 -0.055929005 0.017939772 0.015674666
-0.008748055 -0.054581866 -0.04323855 -0.04309871 -0.05727582 -0.063452415 -0.05600693 -0.042292744
-0.06559008 -0.033250738 -0.048417136 -0.071360454 0.051483437 -0.0028153285 0.013200353 -0.04197964
0.046484977 0.040358625 0.003376748 -0.00984625 -0.0209152 -0.00874959 -0.017786752 -0.018828753
0.0013927363 0.020492913 -0.050890554 0.024760947 0.033414043 -0.09201802 0.048099395 -0.019843787
0.0109604765 -0.040493157 -0.07075581 -0.03932826 -0.048015576 -0.008363487 -0.015315468 -0.04144077
-0.0440875 -0.036788043 -0.026423596 -0.026795674 0.0034773985 -0.053078946 0.010888737 -0.010411061
-0.01892554 -0.07992028 -0.052842762 -0.02495741 -0.07665872 -0.037437838 -0.012265253 0.010305445
0.012217122 -0.054088093 -0.05710492 -0.014033544 -0.031956583 -0.016368024 -0.035642114 -0.046767958
-0.020259108 -0.018916212 -0.025359936 0.0068104463 -0.03390358 -0.06640897 -0.059253596 -0.050056923
00000000: a80e a6bd 8ddd 5cbc 995e 17bb 642a 863b
00000010: 9118 063d 19f8 debc 6bd4 053c 8d01 963c
00000020: 4fc5 a9bc 9948 e1bc 9547 e23b f8ab 7a3c
00000030: 1c0a 43bd 1610 5bbd 0649 4ab9 21bb 47bd
00000040: b637 cbbc 3cac 12bd b08f e9bb 2e7e 4bbd
00000050: 84a8 52bd 58c0 22bc e041 ac3c 51db 5dbd
00000060: 04a2 b4bd f621 f7bc 33e4 6cbc 38a8 e23c
00000070: eaa2 48bd a51f fe3c dd86 9bbd 8d0f 3cbd
00000080: 1bf9 d1bd 207f 65bd e2f7 2fbd 4571 25bd
00000090: d18d 2dbd 10eb 9ebd d2d9 3bbd faf9 9dbc
000000a0: 6aab 0dbd e338 db3b 4daf 1cbd 9b2c c3bd
000000b0: 0053 5abd 8041 11bd ba62 40bd 397c 9b3b
000000c0: 63fd 84bd 4420 233c c869 0bbc 5313 9e3c
000000d0: b785 1abd e3b4 83bd 1e75 05bd 8384 c0ba
000000e0: 21be 3abd 7330 efbc 8178 85bd e875 93bc
000000f0: 6a45 58bd 42ca 54bd acd0 32bd b2d8 cc3b
00000100: 1cb3 b33c 05b0 053d 7557 04bd d7ce 8c3c
00000110: 507e dabd 7a48 0abc e127 b63b 2a9f dfbc
00000120: 3931 363b 4bf9 303d 278d fc3c faa3 a3bc
00000130: 446c 7dbc 1599 6fbc a894 253d 34ba 56bd
00000140: 09ba 9cbd b88a b6bd 4755 86bd 817f 72bc
00000150: 2468 723c 0ea3 99bd 8ce8 323c 6adc 27bd
00000160: 35be 613c d7d6 fdbc fd1b 0ebd 7824 263c
00000170: d60f 983d 0ad2 24bd a1c8 2dbc eeb5 43bd
00000180: c1e6 59bd 6614 15bd d4fe 49bd 5110 803b
00000190: 4de1 ffbc ff5a 09bd 74a1 d0bc 6845 99ba
000001a0: 0b2f e5bb 0d82 99bd 61b1 62bc e4c5 2239
000001b0: 6b32 58bd 449a 9abb 688b 1fbd 247c c2bc
000001c0: a163 0ebd 294c bbbd 6ebb c03b 008a 87bb
000001d0: 684e 05bc 7405 0fbc e66f 03bd 850a 8a3b
000001e0: 143c 493d 0656 e8bb b602 653b ccd5 13bc
000001f0: 2a36 71bc 4390 02bd 2b5b 4dbd 8a42 0abd
00000200: 7eb1 71bd 3e82 9dba 3ce8 0bbd 6ca2 2bbd
00000210: 3a1d 45bc bbc3 6dbc fd3d 98bb d1f0 fabc
00000220: 429c d2bc 267d f7bb c93c 20bd 5b09 433c
00000230: 9309 eebc 9b07 0bbd 2036 a4bd 3e08 06bd
00000240: 83c0 59bc 5c23 00bc bb63 65bc e7c9 313d
00000250: baca 81bb de79 87bd b06d fb3b 925f 93bc
00000260: 22e2 29bd e286 803b 0f4d 22bd e8f6 8e3c
00000270: 0dc7 15bd 387d 8a3c b971 20bd 6190 bfbc
00000280: 5089 bdbd 268a 89bc 9db9 44bd a7fd 03bd
00000290: 7265 46bd b030 5a3d fb9d c0bd ed17 87bc
000002a0: c30c cfbb cc38 d3bd 9640 a1bc 5ba8 acbd
000002b0: e8b5 6abb 824e 91bc 8467 84bd f04c 36bd
000002c0: c415 a73c af7e 853c 835d 82bc 52a3 a93d
000002d0: c6b3 4c3b d015 65bd 6ef6 923c 2868 803c
000002e0: 0154 0fbc 3c91 5fbd e81a 31bd 4688 30bd
000002f0: 0d9a 6abd 57f3 81bd 8667 65bd 283b 2dbd
00000300: 1854 86bd ed31 08bd 0c51 46bd 6e25 92bd
00000310: 4ce0 523d 6081 38bb 4b46 583c d8f2 2bbd
00000320: 0867 3e3d 164f 253d 6e4c 5d3b 2a52 21bc
00000330: 5a56 abbc 715a 0fbc 86b5 91bc c23e 9abc
00000340: 7a8c b63a c1e0 a73c 9d72 50bd 78d7 ca3c
00000350: 2add 083d f273 bcbd df03 453d 708f a2bc
00000360: 9293 333c 27dc 25bd 6ce8 90bd ab16 21bd
00000370: fbab 44bd 0207 09bc bbed 7abc ccbd 29bd
00000380: 1895 34bd 0faf 16bd 4c76 d8bc 9a82 dbbc
00000390: 11e5 633b 4f69 59bd ac66 323c 2893 2abc
000003a0: bc09 9bbc 3ead a3bd a771 58bd 7b73 ccbc
000003b0: 3fff 9cbd 6b58 19bd 33f4 48bc 2bd8 283c
000003c0: 532a 483c 7a8b 5dbd d9e6 69bd f3ec 65bc
000003d0: e8e4 02bd 3c16 86bc 77fd 11bd c28f 3fbd
000003e0: 6ef6 a5bc 2cf6 9abc a4bf cfbc 2a2a df3b
000003f0: 7bde 0abd 6d01 88bd e6b3 72bd 7d08 4dbd

1.running_mean f4 [256]
-36.052856 -91.441536 57.68259 16.776299 -38.7728 -37.116314 -164.65797 129.90092
-34.15045 78.89091 -4.2469397 -37.73616 172.81575 -87.80552 -24.831823 -199.58208
-69.66421 25.389566 -15.461226 32.426575 -83.08433 151.89647 41.33271 -24.059128
29.76867 22.778992 28.033978 130.7432 -2.2654245 40.520306 -83.45478 36.058403
125.7884 -78.27531 64.76063 -65.44567 -146.20589 127.73893 -130.79944 -14.424222
58.83893 -20.103106 -55.600864 -128.38065 -7.271967 -102.61366 115.11462 75.58554
108.42902 -38.675247 3.1431289 -21.00599 -131.24556 95.82723 207.52869 -49.00659
-158.61462 -157.14513 156.97751 98.95943 -37.3265 190.79567 -79.11211 -6.9984236
-89.4428 12.43173 -55.663937 -12.580783 25.523088 -42.605366 26.53102 31.938019
-72.51969 119.83069 62.973606 44.787216 -52.304276 -104.01009 71.42056 -87.85358
61.085884 106.9203 -25.907299 55.32001 -114.24773 32.364067 -118.56594 -53.84271
211.22392 -29.69729 -177.38893 161.47174 126.722275 -36.702988 1.1057823 -76.24349
-41.04574 61.90365 -66.624725 -17.097433 -51.91113 29.926075 128.70215 -83.06994
-23.104263 -39.560123 14.153117 28.402416 2.9213417 -31.656992 -71.45286 63.271385
247.2056 -141.16689 114.80853 -64.37938 -28.070541 53.38555 -147.89528 173.00815
-42.12137 -28.521309 97.83913 -95.019844 94.652725 0.3783085 38.635113 -84.91892
-68.875565 1.9064327 -73.83343 21.449804 -29.675316 -63.979145 1.2462809 -47.9608
34.41218 -112.53115 17.6394 -19.254124 64.86475 -59.11367 150.81288 -125.491295
35.965626 4.4903083 54.04595 60.995888 41.806263 -94.78543 9.193501 -46.95515
173.81837 17.978872 -21.783367 66.389496 -28.062607 163.1738 -76.97731 -48.974953
-8.002045 -22.627869 -17.328615 -142.94397 -115.46578 -111.6458 -99.436615 -5.447372
38.184742 -19.112696 -52.835323 79.40768 66.25503 105.812004 33.5413 -48.021496
112.03968 169.30707 -15.100568 20.773134 126.460686 35.93893 -45.153408 20.170269
8.209579 -98.21179 -10.094988 105.263084 -17.35971 90.6031 70.35931 -100.88774
-34.943214 -170.38701 184.22379 -7.335304 92.23256 -91.27663 -33.28622 -213.0732
24.172325 6.2609468 104.232574 -111.009224 56.545494 -107.893295 112.27567 2.777769
-13.546159 -104.80407 23.265257 21.972921 -113.3842 31.583704 -22.219887 -28.411272
0.19796433 73.782776 19.5414 -78.26834 99.10996 104.046524 99.36323 -175.48033
93.78994 -1.3240882 37.95992 95.60981 -68.752785 81.98557 -57.63934 -56.40385
-8.757531 -106.77211 -117.36382 34.5688 -24.144026 117.93648 91.29704 37.202682
30.620527 19.490837 51.80041 -138.06075 5.4231496 -53.292194 25.099138 38.5968
39.58896 -153.71188 111.93513 50.233383 43.553734 80.331635 113.43289 83.36867
00000000: 2036 10c2 11e2 b6c2 f9ba 6642 dc35 8641
00000010: 5917 1bc2 1b77 14c2 71a8 24c3 a3e6 0143
00000020: 109a 08c2 25c8 9d42 eee6 87c0 d4f1 16c2
00000030: d5d0 2c43 6d9c afc2 93a7 c6c1 0395 47c3
00000040: 1354 8bc2 d51d cb41 2f61 77c1 d0b4 0142
00000050: 2d2b a6c2 7fe5 1743 b254 2542 1879 c0c1
00000060: 3c26 ee41 603b b641 9645 e041 42be 0243
00000070: b7fc 10c0 cb14 2242 d9e8 a6c2 ce3b 1042
00000080: a993 fb42 f58c 9cc2 7185 8142 2fe4 82c2
00000090: b534 12c3 557a ff42 a8cc 02c3 9dc9 66c1
000000a0: 105b 6b42 29d3 a0c1 4967 5ec2 7261 00c3
000000b0: f4b3 e8c0 323a cdc2 af3a e642 cc2b 9742
000000c0: a9db d842 74b3 1ac2 0629 4940 440c a8c1
000000d0: dd3e 03c3 8ba7 bf42 5887 4f43 c006 44c2
000000e0: 589d 1ec3 2725 1dc3 3efa 1c43 3aeb c542
000000f0: 564e 15c2 b1cb 3e43 6639 9ec2 16f3 dfc0
00000100: b7e2 b2c2 5ee8 4641 dfa7 5ec2 e34a 49c1
00000110: 492f cc41 e56b 2ac2 873f d441 1081 ff41
00000120: 150a 91c2 50a9 ef42 f9e4 7b42 1c26 3342
00000130: 9437 51c2 2b05 d0c2 54d7 8e42 08b5 afc2
00000140: f257 7442 32d7 d542 2642 cfc1 b147 5d42
00000150: d67e e4c2 ce74 0142 c321 edc2 ef5e 57c2
00000160: 5339 5343 0d94 edc1 9163 31c3 c478 2143
00000170: ce71 fd42 dccf 12c2 468a 8d3f ab7c 98c2
00000180: d62e 24c2 569d 7742 dc3f 85c2 8bc7 88c1
00000190: ffa4 4fc2 9a68 ef41 c0b3 0043 cf23 a6c2
000001a0: 88d5 b8c1 913d 1ec2 2b73 6241 2638 e341
000001b0: 43f7 3a40 8541 fdc1 dde7 8ec2 e615 7d42
000001c0: a234 7743 b92a 0dc3 f89d e542 3ec2 80c2
000001d0: 7890 e0c1 ce8a 5542 31e5 13c3 1602 2d43
000001e0: 487c 28c2 a42b e4c1 a2ad c342 290a bec2
000001f0: 324e bd42 a7b1 c13e 5b8a 1a42 7dd6 a9c2
00000200: 4ac0 89c2 fd05 f43f b7aa 93c2 3399 ab41
00000210: 0c67 edc1 a5ea 7fc2 2286 9f3f dcd7 3fc2
00000220: 13a6 0942 f30f e1c2 7e1d 8d41 7208 9ac1
00000230: c1ba 8142 6674 6cc2 19d0 1643 8bfb fac2
00000240: cddc 0f42 9bb0 8f40 0e2f 5842 cafb 7342
00000250: 9d39 2742 2492 bdc2 9518 1341 13d2 3bc2
00000260: 81d1 2d43 bbd4 8f41 5644 aec1 6cc7 8442
00000270: 3880 e0c1 7e2c 2343 62f4 99c2 5ae6 43c2
00000280: 6008 00c1 e005 b5c1 01a1 8ac1 a8f1 0ec3
00000290: 7bee e6c2 a64a dfc2 8cdf c6c2 df50 aec0
000002a0: 2dbd 1842 cde6 98c1 5f57 53c2 bbd0 9e42
000002b0: 9382 8442 bf9f d342 4b2a 0642 0316 40c2
000002c0: 5114 e042 9c4e 2943 ed9b 71c1 612f a641
000002d0: dfeb fc42 77c1 0f42 179d 34c2 b65c a141
000002e0: 705a 0341 706c c4c2 1285 21c1 b386 d242
000002f0: b0e0 8ac1 ca34 b542 f7b7 8c42 86c6 c9c2
00000300: dac5 0bc2 1363 2ac3 4a39 3843 cfba eac0
00000310: 1277 b842 a28d b6c2 1725 05c2 bd12 55c3
00000320: ec60 c141 ad59 c840 1477 d042 b904 dec2
00000330: 962e 6242 5ec9 d7c2 258d e042 f8c6 3140
00000340: 11bd 58c1 af9b d1c2 3f1f ba41 8bc8 af41
00000350: b6c4 e2c2 6dab fc41 54c2 b1c1 494a e3c1
00000360: 29b7 4a3e c890 9342 ca54 9c41 6489 9cc2
00000370: 4d38 c642 d217 d042 f9b9 c642 f77a 2fc3
00000380: 7394 bb42 b97b a9bf f5d6 1742 3938 bf42
00000390: 6d81 89c2 9df8 a342 af8e 66c2 8b9d 61c2
000003a0: d91e 0cc1 528b d5c2 47ba eac2 7446 0a42
000003b0: f726 c1c1 7adf eb42 1698 b642 8ccf 1442
000003c0: d7f6 f441 3ced 9b41 9f33 4f42 8d0f 0ac3
000003d0: 718a ad40 352b 55c2 09cb c841 2063 1a42
000003e0: 185b 1e42 3eb6 19c3 c9de df42 fcee 4842
000003f0: 0637 2e42 cca9 a042 a4dd e242 c2bc a642

1.running_var f4 [256]
2165.0972 2224.9104 2323.7588 2336.0132 2172.1301 2430.631 2404.6313 2285.1077
2370.4187 2349.8774 2184.6638 2160.549 2466.6116 2246.709 2443.4866 2364.6257
2422.2673 2256.1504 2151.8135 2297.5854 2342.0164 2645.681 2226.6587 2447.8335
2160.9875 2344.0522 2357.2434 2395.9639 2442.9812 2157.7996 2373.851 2001.058
2498.4558 2359.6135 2408.4531 2016.7528 2194.356 2501.8186 2476.5825 2203.6614
2409.816 2255.0796 2404.4202 2497.4324 2501.179 2697.9858 2455.7327 2454.5122
2361.5762 2460.3 2494.4854 2518.163 2294.4307 2359.7073 2448.0466 2298.0999
2153.488 2200.829 2422.824 2138.9875 2463.8562 2666.6262 2344.9568 2269.863
2407.0923 2581.6565 2306.941 2276.903 2157.7732 2225.7937 2253.9673 2231.4006
2549.8162 2511.517 2278.2703 2255.1438 2276.4568 2519.2485 2386.4592 2091.84
2403.637 2702.8374 2189.9941 2314.8184 2507.9136 2532.6655 2360.7944 2147.8564
1937.872 2507.2366 2390.4902 2506.8135 2319.81 2476.2305 2431.3757 2498.8584
2665.2625 2208.2441 2324.7764 2539.53 2635.9114 2260.3445 2260.6035 2173.8064
2145.7915 2460.1343 2426.397 2369.797 2434.438 2122.8008 2773.1448 2110.335
2330.1555 2221.2031 2534.4946 2456.2168 2247.3865 2602.2305 2295.8245 2545.546
2643.538 2376.6582 2631.619 2257.2556 2299.8276 2320.0903 2089.1086 2293.8318
2426.5742 2210.0664 2135.3462 2267.5027 2436.6848 2321.3462 2504.8086 2398.4248
2434.3896 2347.326 2192.306 2020.1482 2376.281 2267.9795 2558.9702 2219.8628
2368.6926 2482.738 2264.5535 2384.8857 2735.3923 2241.3857 2338.3542 2472.527
2332.778 2020.4773 2232.8076 2378.6387 2261.1753 2155.937 2305.0344 2555.5312
2395.3582 2052.5505 2410.4849 2298.304 2134.4348 2335.7056 2192.1318 2269.9329
2189.0627 2570.212 2335.8315 2105.027 2374.3574 2470.3162 2403.0933 2420.771
2301.1606 2269.8762 2331.7734 2512.6118 2279.5122 2336.5432 2191.4507 2452.0115
2205.204 2390.8464 2311.3362 2340.1345 2312.203 2339.912 2155.0918 2562.2634
2273.944 2393.88 2399.4883 2343.6287 2431.1165 2358.7556 2266.1025 2527.5312
2524.944 2451.008 2308.5085 2420.2222 2151.12 2303.4177 2388.5498 2186.7493
2482.9888 2184.9102 2241.2532 2246.3857 2367.5657 2325.6084 2334.3057 2268.7822
2378.569 2503.5598 2314.164 2554.8372 2575.7815 2341.5361 2310.507 2150.5637
2298.92 2312.8926 2507.7874 2486.412 2224.7742 2335.8975 2406.3943 2366.9985
2409.5757 2129.3533 2172.5513 2185.588 2329.8542 2210.639 2127.8904 2547.9583
2343.8455 2367.542 2097.437 2237.604 2299.2473 2067.5222 2404.8035 2286.234
2401.8262 2288.4172 2425.6045 2399.0234 2158.853 2341.9368 2051.7776 2413.3875
00000000: 8e51 0745 910e 0b45 243c 1145 3600 1245
00000010: 15c2 0745 19ea 1745 1a4a 1645 b9d1 0e45
00000020: b326 1445 0ade 1245 9f8a 0845 c908 0745
00000030: c929 1a45 586b 0c45 c9b7 1845 03ca 1345
00000040: 4764 1745 6802 0d45 047d 0645 5e99 0f45
00000050: 4360 1245 e55a 2545 8a2a 0b45 56fd 1845
00000060: cd0f 0745 d680 1245 e553 1345 6cbf 1545
00000070: b3af 1845 cbdc 0645 9e5d 1445 db21 fa44
00000080: 4b27 1c45 d179 1345 4087 1645 1718 fc44
00000090: b225 0945 195d 1c45 52c9 1a45 95ba 0945
000000a0: 0e9d 1645 46f1 0c45 b946 1645 eb16 1c45
000000b0: dd52 1c45 c69f 2845 b97b 1945 3268 1945
000000c0: 3899 1345 cdc4 1945 c4e7 1b45 9c62 1d45
000000d0: e466 0f45 517b 1345 bf00 1945 99a1 0f45
000000e0: cf97 0645 448d 0945 2f6d 1745 cdaf 0545
000000f0: b3fd 1945 05aa 2645 4f8f 1245 cfdd 0d45
00000100: 7a71 1645 815a 2145 0e2f 1045 734e 0e45
00000110: 5fdc 0645 b31c 0b45 7adf 0c45 6976 0b45
00000120: 0f5d 1f45 46f8 1c45 5364 0e45 4df2 0c45
00000130: 4f47 0e45 fa73 1d45 5927 1545 71bd 0245
00000140: 313a 1645 66ed 2845 e8df 0845 18ad 1045
00000150: 9ebe 1c45 a64a 1e45 b68c 1345 b43d 0645
00000160: e73b f244 c9b3 1c45 d867 1545 04ad 1c45
00000170: f6fc 1045 b0c3 1a45 03f6 1745 bc2d 1c45
00000180: 3394 2645 e803 0a45 6c4c 1145 7bb8 1e45
00000190: 95be 2445 8345 0d45 a849 0d45 e7dc 0745
000001a0: aa1c 0645 26c2 1945 5aa6 1745 c11c 1445
000001b0: 0227 1845 d0ac 0445 5152 2d45 5ce5 0345
000001c0: 7da2 1145 40d3 0a45 ea67 1e45 7883 1945
000001d0: 2f76 0c45 b0a3 2245 317d 0f45 bc18 1f45
000001e0: 9c38 2545 888a 1445 e779 2445 1714 0d45
000001f0: 3ebd 0f45 7201 1145 bd91 0245 4f5d 0f45
00000200: 30a9 1745 1021 0a45 8a75 0545 0bb8 0d45
00000210: f54a 1845 8a15 1145 f08c 1c45 cce6 1545
00000220: 3c26 1845 37b5 1245 e504 0945 be84 fc44
00000230: 7f84 1445 acbf 0d45 86ef 1f45 cebd 0a45
00000240: 150b 1445 cf2b 1b45 db88 0d45 2c0e 1545
00000250: 47f6 2a45 2c16 0c45 ab25 1245 6f88 1a45
00000260: 73cc 1145 468f fc44 ec8c 0b45 38aa 1445
00000270: ce52 0d45 febe 0645 8d10 1045 80b8 1f45
00000280: bbb5 1545 cf48 0045 c2a7 1645 dda4 0f45
00000290: f566 0545 4afb 1145 1c02 0945 edde 0d45
000002a0: 01d1 0845 64a3 2045 4efd 1145 6f90 0345
000002b0: b865 1445 0f65 1a45 7e31 1645 564c 1745
000002c0: 92d2 0f45 05de 0d45 60bc 1145 ca09 1d45
000002d0: 3278 0e45 b108 1245 36f7 0845 2f40 1945
000002e0: 44d3 0945 8b6d 1545 6175 1045 2742 1245
000002f0: 3f83 1045 983e 1245 78b1 0645 3724 2045
00000300: 1b1f 0e45 149e 1545 d0f7 1545 0f7a 1245
00000310: ddf1 1745 176c 1345 a4a1 0d45 80f8 1d45
00000320: 1bcf 1d45 2130 1945 2348 1045 8e43 1745
00000330: ec71 0645 aff6 0f45 cc48 1545 fdab 0845
00000340: d22f 1b45 908e 0845 0d14 0c45 2c66 0c45
00000350: 0df9 1345 bc59 1145 e4e4 1145 84cc 0d45
00000360: 1ba9 1445 f578 1c45 a0a2 1045 65ad 1f45
00000370: 81fc 2045 9458 1245 1d68 1045 0569 0645
00000380: b8ae 0f45 488e 1045 99bc 1c45 9866 1b45
00000390: 630c 0b45 5cfe 1145 4f66 1645 faef 1345
000003a0: 3699 1645 a715 0545 d2c8 0745 6899 0845
000003b0: ab9d 1145 392a 0a45 3ffe 0445 553f 1f45
000003c0: 877d 1245 acf8 1345 fe16 0345 aad9 0b45
000003d0: f5b3 0f45 5b38 0145 db4c 1645 bee3 0e45
000003e0: 381d 1645 ad06 0f45 ac99 1745 60f0 1545
000003f0: a6ed 0645 fd5e 1245 713c 0045 33d6 1645

4.weight f4 [128, 256]
0.028484888 -0.0431537 -0.034757644 -0.039890815 0.002968811 0.026051052 0.0115886405 -0.0037097316
-0.06869861 -0.07570712 -0.0068328753 -0.028937818 0.04566665 0.024592662 0.022315104 0.04910185
0.08626603 0.009916633 0.0030404092 -0.02889229 -0.05728347 0.011197142 -0.009411102 -0.0094890855
-0.041461576 -0.010504652 0.043725844 -0.03418853 0.045339026 0.055399038 -0.049670197 -0.034584563
-0.069417275 0.017629506 -0.020384805 -0.0033762816 0.016452188 0.0018731857 0.0744796 -0.044367358
0.030831976 -0.0017014374 -0.013205731 0.038379896 0.09083265 -0.05469112 -0.06798355 -0.027312228
0.029479237 0.034751326 0.061570007 0.03671951 -0.0015523224 0.020802904 -0.024718259 -0.010945526
-0.03760585 0.07076553 -0.020904062 -0.008480137 0.0253033 0.03632801 0.012335658 0.017886361
0.027189419 0.05880306 -0.04794949 0.016405394 -0.018086761 -0.070471995 -0.021343313 -0.0068719317
-0.04945684 -0.035195954 0.006375041 -0.009472701 -0.016693624 0.055952128 -0.060635444 -0.0035442093
-0.10858663 0.0024206878 -0.0534931 -0.004168632 0.03499818 -0.09683119 0.008930654 0.052643325
-0.0039775497 -0.06494347 0.06450894 -0.049258206 -0.054964498 -0.048439544 0.039199665 -0.0016187573
0.08492797 -0.061316766 0.0139355315 -0.026306765 0.07621204 0.038582843 0.012202422 0.012384711
0.017681977 -0.038869996 -0.036396157 -0.00416088 -0.021329643 -0.024859829 -0.05122812 0.01752355
0.022667851 -0.078853466 -0.067791805 -0.031727504 -0.023692256 -0.030817464 0.00061216264 0.0042872243
0.0125596 0.01565828 -0.081318036 0.055530418 -0.01256118 -0.0362642 0.0032394514 -0.0064090956
-0.002600625 -0.045284845 0.03527013 -0.010377928 0.042842988 0.08011152 0.023341836 0.06104772
0.0158565 -9.7478114e-05 -0.10760273 -0.022628808 0.0053490098 0.019035969 0.016958898 0.022053873
0.041337002 0.012019052 -0.08141094 -0.02641927 0.052461512 -0.0661913 0.0410924 -0.0730352
-0.044355102 0.024890928 0.021119863 0.02576962 0.040056366 -0.06147733 0.043875396 0.029720351
0.0437346 0.031110309 -0.0039322907 0.028426684 0.027125446 -0.050879184 -0.06839261 -0.0791193
-0.008774223 0.011819528 -0.000821957 -0.05721792 0.013619066 -0.016410278 -0.051701915 -0.06438725
0.023146052 -0.035190366 -0.022479497 0.033896755 -0.024823578 -0.00026478455 -0.0015448516 -0.016085668
0.020951005 -0.065905645 -0.066840716 -0.08516892 -0.07785543 -0.04487172 -0.029823923 0.013330228
0.01531381 0.008360738 0.07460884 -0.028311139 -0.042872287 0.01045636 -0.056402665 0.048512053
-0.016233627 0.05330207 -0.035704385 -0.027621623 -0.033673156 0.0024105872 0.059562176 0.0042302012
-0.004772331 0.034560192 -0.0055400864 -0.033542655 -0.026226759 0.019985873 0.044917855 -0.0015495553
0.0047429153 0.059760228 0.015756398 0.07295467 0.005173308 0.029446755 -0.096869625 0.04247854
-0.00644187 -0.032837395 0.07829622 0.02767434 0.01962514 0.012275928 0.04784199 -0.06968048
-0.025475448 0.078556865 -0.007131073 -0.0072517316 0.0106557375 0.035703648 0.012730794 0.027190005
0.034076963 -0.0053901304 -0.013810592 -0.001628086 0.075096436 0.023499165 -0.019801706 0.006330825
-0.0024156712 0.04805942 0.02521199 -0.057945173 0.04757561 -0.042573567 0.0683966 0.0047001475
00000000: 2459 e93c efc1 30bd 085e 0ebd 8d64 23bd
00000010: 6290 423b 0469 d53c 48de 3d3c f81e 73bb
00000020: dbb1 8cbd 560c 9bbd 50e6 dfbb 010f edbc
00000030: f40c 3b3d 8d76 c93c 2ace b63c 051f 493d
00000040: 3fac b03d 6079 223c 9a41 473b 86af ecbc
00000050: 12a2 6abd 3874 373c 0631 1abc 1c78 1bbc
00000060: 9dd3 29bd b41b 2cbc df19 333d 4609 0cbd
00000070: 6ab5 393d 1aea 623d fa72 4bbd 8ba8 0dbd
00000080: a52a 8ebd c16b 903c 09fe a6bc 9b44 5dbb
00000090: bdc6 863c af85 f53a c388 983d 8cba 35bd
000000a0: 5793 fc3c c402 dfba da5c 58bc 3d34 1d3d
000000b0: 7806 ba3d cc03 60bd f63a 8bbd e5bd dfbc
000000c0: 717e f13c 6857 0e3d d530 7c3d 3267 163d
000000d0: 4c77 cbba da6a aa3c f27d cabc dd54 33bc
000000e0: 9708 1abd 85ed 903d ff3e abbc 46f0 0abc
000000f0: de48 cf3c aecc 143d 801b 4a3c 6b86 923c
00000100: 58bc de3c 7adb 703d af66 44bd 9b64 863c
00000110: b02a 94bc 9f53 90bd 2cd8 aebc f12d e1bb
00000120: 4193 4abd a229 10bd b8e5 d03b 6333 1bbc
00000130: 11c1 88bc 0f2e 653d df5c 78bd f745 68bb
00000140: ab62 debd 67a4 1e3b 951b 5bbd 0599 88bb
00000150: 405a 0f3d 6e4f c6bd e151 123c 87a0 573d
00000160: 1b56 82bb 1501 85bd 431d 843d f9c2 49bd
00000170: 7422 61bd 8b68 46bd d48f 203d 7b2c d4ba
00000180: b7ee ad3d 4a27 7bbd db51 643c 4981 d7bc
00000190: 0f15 9c3d 0b09 1e3d abec 473c 3ee9 4a3c
000001a0: cbd9 903c 2536 1fbd 2314 15bd fe57 88bb
000001b0: 81bb aebc d7a6 cbbc 94d4 51bd 8c8d 8f3c
000001c0: eeb1 b93c ed7d a1bd 6ed6 8abd b3f4 01bd
000001d0: 4316 c2bc e874 fcbc 8a79 203a d87b 8c3b
000001e0: c8c6 4d3c cb45 803c 128a a6bd dd73 633d
000001f0: 68cd 4dbc c589 14bd fa4c 543b 6403 d2bb
00000200: 3f6f 2abb 9a7c 39bd 6977 103d 2f08 2abc
00000210: 217c 2f3d 8211 a43d 6137 bf3c 2d0d 7a3d
00000220: 7ee5 813c 2a6d ccb8 d25e dcbd 0d60 b9bc
00000230: bf46 af3b 52f1 9b3c 63ed 8a3c 53aa b43c
00000240: fd50 293d 8feb 443c c7ba a6bd 3a6d d8bc
00000250: e2e1 563d 4e8f 87bd 8150 283d 7b93 95bd
00000260: b2ad 35bd 0fe8 cb3c 9003 ad3c cf1a d33c
00000270: 2512 243d a7cf 7bbd b0b6 333d 1878 f33c
00000280: 0d23 333d 0cdb fe3c 72da 80bb 14df e83c
00000290: 2f36 de3c b166 50bd 6d11 8cbd 4d09 a2bd
000002a0: c2c1 0fbc b2a6 413c 9a78 57ba 565d 6abd
000002b0: 8122 5f3c d96e 86bc 63c5 53bd 76dd 83bd
000002c0: ca9c bd3c c623 10bd ec26 b8bc 53d7 0a3d
000002d0: d15a cbbc c8d2 8ab9 9e7c caba 17c6 83bc
000002e0: 71a1 ab3c 8af9 86bd c9e3 88bd 0b6d aebd
000002f0: ab72 9fbd 69cb 37bd 4d51 f4bc 0767 5a3c
00000300: c6e6 7a3c 7afb 083c 85cc 983d c3ec e7bc
00000310: da9a 2fbd 2751 2b3c 7b06 67bd 93b4 463d
00000320: 62fc 84bc 4553 5a3d c33e 12bd be46 e2bc
00000330: ddec 09bd f1fa 1d3b 78f7 733d 809d 8a3b
00000340: 3761 9cbb fd8e 0d3d 9d89 b5bb 0664 09bd
00000350: 80d9 d6bc 6ab9 a33c c9fb 373d 731a cbba
00000360: 756a 9b3b 24c7 743d 9013 813c 4269 953d
00000370: da84 a93b 523a f13c 9563 c6bd fafd 2d3d
00000380: 5216 d3bb 8180 06bd c559 a03d 4cb5 e23c
00000390: e7c4 a03c f920 493c f6f5 433d a4b4 8ebd
000003a0: e3b1 d0bc 6ce2 a03d c7ab e9bb ef9f edbb
000003b0: 6795 2e3c fd3d 123d d294 503c 93bd de3c
000003c0: 4994 0b3d b19f b0bb d245 62bc 8065 d5ba
000003d0: 29cc 993d 5281 c03c 3037 a2bc cf72 cf3b
000003e0: 3d50 1ebb f4d9 443d 6089 ce3c eb57 6dbd
000003f0: a5de 423d 9f61 2ebd 8413 8c3d b203 9a3b

4.bias f4 [128]
-0.009341895 -0.024504796 0.06109968 -0.03742585 0.010249462 0.042140704 -0.014337483 0.036899477
-0.005456998 -0.04144093 0.0308375 -0.035190757 -0.0232878 -0.057015173 -0.054705508 0.037252504
0.029769193 -0.06100559 0.052719366 0.027465412 0.03221721 -0.010205234 -0.05955173 0.0047499174
-0.028270999 -0.056789186 0.03770368 0.021104435 -0.01981106 -0.028448623 0.024773197 -0.014035332
0.03591125 0.050518475 0.031054677 0.03132678 0.022525107 0.05747286 0.056973908 -0.024851978
-0.060321897 0.031189363 -0.013531595 0.049839605 0.032518473 0.01961214 0.016386978 0.022948567
-0.050753437 -0.04978532 -0.001135767 0.00592835 -0.01077111 0.0051740855 0.016945627 -0.019800402
0.01332218 0.03916657 0.0021238131 -0.035575625 0.026971925 0.0498265 -0.05067074 0.014712702
-0.053581603 0.04918242 -0.044238932 -0.047018245 -0.0053065675 0.012811487 -0.035738867 -0.016556395
0.020964753 0.0031030665 -0.029699616 -0.040277332 -0.028547784 -0.052306004 0.0019350486 -0.035751827
0.02600222 0.04102402 0.00015999781 0.015073589 -0.0008849758 -0.040955227 -0.0049221627 0.04443554
-0.013736156 0.051705375 -0.03818784 0.017788904 -0.04705677 -0.006883906 0.0021082433 -0.059435755
-0.015576063 0.02982221 -0.023407785 0.050417323 -0.009307127 0.043625027 0.05930087 0.0037435796
0.026575243 -0.046599388 -0.04701388 -0.030350704 0.01274218 0.019311668 -0.002557168 0.038880385
0.0043560867 -0.024710348 0.058645774 0.020718573 -0.0042339237 -0.028966943 -0.040357728 0.006714502
-0.053984303 0.025705947 -0.02431469 -0.06143627 -0.04509144 -0.009611054 -0.040782016 -0.042723056
00000000: bf0e 19bc 48be c8bc a843 7a3d d94b 19bd
00000010: 5ced 273c bb9b 2c3d c3e7 6abc e823 173d
00000020: 9ed0 b2bb f7bd 29bd ed9e fc3c 2f24 10bd
00000030: 0ec6 bebc be88 69bd e212 60bd 1596 183d
00000040: 86de f33c ffe0 79bd 43f0 573d 25ff e03c
00000050: 31f6 033d db33 27bc 84ec 73bd 32a5 9b3b
00000060: 9598 e7bc c79b 68bd 2d6f 1a3d 35e3 ac3c
00000070: ce4a a2bc 160d e9bc 29f1 ca3c 73f4 65bc
00000080: ad17 133d 76ec 4e3d 6166 fe3c 8250 003d
00000090: 9386 b83c a968 6b3d 795d 693d 6096 cbbc
000000a0: 1814 77bd d680 ff3c 9fb3 5dbc 9d24 4c3d
000000b0: 1732 053d a3a9 a03c fc3d 863c a2fe bb3c
000000c0: d6e2 4fbd b1eb 4bbd 04de 94ba 9b42 c23b
000000d0: 4f79 30bc 608b a93b 8ed1 8a3c 7434 a2bc
000000e0: 4645 5a3c 206d 203d ac2f 0b3b bfb7 11bd
000000f0: 3af4 dc3c df16 4c3d 1f8c 4fbd 8b0d 713c
00000100: 6278 5bbd 8173 493d e233 35bd 3496 40bd
00000110: b7e2 adbb 45e7 513c eb62 12bd 47a1 87bc
00000120: 46be ab3c d15c 4b3b 9c4c f3bc d8f9 24bd
00000130: 0bdd e9bc d23e 56bd 75a1 fd3a 8270 12bd
00000140: 9c02 d53c ce08 283d 16c5 2739 37f7 763c
00000150: b8fd 67ba abc0 27bd 184a a1bb 0a02 363d
00000160: 9d0d 61bc 04c9 533d da6a 1cbd 09ba 913c
00000170: 9abe 40bd 6492 e1bb 742a 0a3b e872 73bd
00000180: be32 7fbc b54d f43c afc1 bfbc 6582 4e3d
00000190: ec7c 18bc 28b0 323d 78e5 723d d856 753b
000001a0: 53b4 d93c 00df 3ebd a091 40bd 0aa2 f8bc
000001b0: 94c4 503c 8133 9e3c 2996 27bb 0a41 1f3d
000001c0: 81bd 8e3b 5b6d cabc 8d36 703d ffb9 a93c
000001d0: babc 8abb 154c edbc 254e 25bd 5305 dc3b
000001e0: a51e 5dbd 4795 d23c 9a2f c7bc 99a4 7bbd
000001f0: cdb1 38bd af77 1dbc 0b0b 27bd 5ffe 2ebd

5.weight f4 [128]
1.0004044 0.9816792 0.9371862 0.971531 1.0172356 1.1576031 0.9939625 0.9760026
1.052864 1.0871469 1.0865617 1.0347602 1.0437387 1.1602455 1.0748818 1.0568666
1.0303954 0.9933058 1.1302547 0.958952 0.97676975 1.0999898 1.0806023 1.1457682
1.0513529 1.1042534 1.1559558 1.0609144 1.0395491 1.0461042 1.1047227 0.99353105
0.99053395 1.0417632 0.99966806 1.1512082 1.0549128 1.008053 1.1191835 1.1714196
1.1063169 1.1306981 1.059094 1.1297444 1.0543444 0.99872696 1.0123153 0.97674626
1.0854658 0.98217803 0.98307574 1.151664 0.9828161 1.128187 1.0449969 1.0538108
1.003508 1.0730736 1.1279814 1.0493877 0.9916095 1.1282301 1.0242503 1.1315577
1.0214155 1.075695 1.1281347 0.98678124 1.0956986 0.9702337 0.9736293 1.0934701
0.9758301 1.1017927 1.0993767 1.0108699 0.9792031 1.0990982 1.0156817 1.0869045
1.0294152 1.0167172 1.1036325 0.9759943 1.1550854 1.1363943 1.0729942 1.0627464
1.1376249 1.036956 1.0713402 0.9362747 1.147024 1.0040525 1.080895 1.0976939
1.1275309 1.0615386 1.0345743 1.1402638 1.0204053 0.99164873 1.0220748 0.9232168
1.1554972 1.0735755 1.0329981 1.0292674 0.9987931 1.017901 1.1189106 1.1649568
1.1307069 0.95488703 1.0007292 1.1422551 1.0328631 0.9878194 0.9304806 1.0435237
1.1188072 1.0976888 1.1316502 0.94537 1.0340053 0.9672328 1.0569236 0.95994604
00000000: 400d 803f 544f 7b3f 6feb 6f3f 41b6 783f
00000010: c734 823f 572c 943f 5474 7e3f 4edb 793f
00000020: 3fc4 863f a127 8b3f 7414 8b3f 0673 843f
00000030: 3b99 853f ed82 943f ba95 893f 6847 873f
00000040: ffe3 833f 4a49 7e3f 30ac 903f e17d 753f
00000050: 950d 7a3f 77cc 8c3f 2d51 8a3f 88a8 923f
00000060: bb92 863f 2d58 8d3f 5cf6 933f 0bcc 873f
00000070: f20f 853f bee6 853f 8e67 8d3f 0d58 7e3f
00000080: a293 7d3f 7f58 853f 3fea 7f3f ca5a 933f
00000090: 6207 873f e107 813f 6841 8f3f 14f1 953f
000000a0: cb9b 8d3f b7ba 903f 6490 873f 779b 903f
000000b0: c2f4 863f 92ac 7f3f 8c93 813f 0b0c 7a3f
000000c0: 8bf0 8a3f 0570 7b3f daaa 7b3f ba69 933f
000000d0: d699 7b3f 6e68 903f 75c2 853f 46e3 863f
000000e0: f372 803f 7a5a 893f b261 903f 5652 863f
000000f0: 1fda 7d3f d869 903f a21a 833f e2d6 903f
00000100: bebd 823f 60b0 893f b866 903f b29d 7c3f
00000110: da3f 8c3f 3c61 783f c53f 793f d4f6 8b3f
00000120: 00d0 793f 8b07 8d3f 60b8 8c3f 2f64 813f
00000130: 0ead 7a3f 40af 8c3f dc01 823f b01f 8b3f
00000140: e1c3 833f ca23 823f d443 8d3f c3da 793f
00000150: d7d9 933f 5e75 913f e057 893f 1308 883f
00000160: b19d 913f f9ba 843f ad21 893f b3af 6f3f
00000170: afd1 923f cb84 803f c45a 8a3f 3c81 8c3f
00000180: ef52 903f 7fe0 873f ee6c 843f 2af4 913f
00000190: a49c 823f b1dc 7d3f 59d3 823f f057 6c3f
000001a0: 55e7 933f ec6a 893f 4839 843f 09bf 833f
000001b0: e8b0 7f3f 944a 823f 7638 8f3f 4e1d 953f
000001c0: 01bb 903f 7a73 743f e517 803f 6a35 923f
000001d0: dc34 843f bbe1 7c3f fa33 6e3f 2f92 853f
000001e0: 1335 8f3f 1181 8c3f ead9 903f c503 723f
000001f0: 495a 843f 929c 773f 4649 873f 06bf 753f
