resources/models/14_by_14/log_dataset_model_v002.pth (torch, 85022 bytes, 5 tensors)

lstm.weight_ih_l0 f4 [256, 14]
0	0x3dc235b5	0.094829
1	0x3d8dc908	0.06923109
2	0x3d279730	0.040915668
3	0xbda1ea07	-0.07905965
4	0x3dc63899	0.09678764
5	0xbd579b5f	-0.052638408
6	0x3cb4a81f	0.022052823
7	0x3d4a4610	0.049383223
8	0xbd2b1152	-0.041764565
9	0x3d9bc437	0.076057844
10	0x3d8e7b79	0.06957144
11	0x3e0297ab	0.12753169
12	0xbdde6d42	-0.10860683
13	0xbca8a685	-0.020587215
14	0xbc7e50ed	-0.015522224
15	0xbdac71ad	-0.084201194
16	0xbd48759c	-0.048940286
17	0xbd82ce36	-0.06386988
18	0x3e0911f1	0.1338575
19	0x3dad09ed	0.08449159
20	0xbc42be22	-0.0118861515
21	0xbdca15be	-0.09867428
22	0x3d9d0966	0.07667808
23	0x3d9260e1	0.071473844
24	0x3c684f32	0.014179038
25	0xbd8377b0	-0.06419313
26	0x3d4b6e71	0.049665872
27	0x3d142573	0.036168527
28	0x3dea0e64	0.11428526
29	0xbd49f3c2	-0.04930473
30	0x3c843f6e	0.016143527
31	0xbd95b527	-0.07309943
32	0x3d7bc71f	0.061469194
33	0x3c517297	0.012783668
34	0x3c8157da	0.015788961
35	0x3d0713d5	0.032977898
36	0x3d956d58	0.07296246
37	0xbd79ea2d	-0.061014343
38	0x3d8db426	0.06919126
39	0x3dab0425	0.083504
40	0x3c8494ea	0.016184289
41	0xbd4faba7	-0.05070081
42	0xbd479d1b	-0.04873381
43	0x3b90c846	0.0044184057
44	0x3d546fda	0.051864482
45	0x3d6f6374	0.058444455
46	0xbda3555a	-0.07975264
47	0x3dce75e4	0.100810796
48	0xbd463f06	-0.048399948
49	0x3dc74f51	0.09731925
50	0xbc070604	-0.00824118
51	0xbb8e5dc2	-0.004344673
52	0xbddcf840	-0.107895374
53	0xbd097f1c	-0.033568487
54	0x3d2ef208	0.042711288
55	0xbd4e5307	-0.05037215
56	0x3d789043	0.060684454
57	0xbdd5bb7f	-0.10436153
58	0x3dab3c7e	0.08361147
59	0xbd14b529	-0.03630558
60	0xbdca8c3b	-0.09890028
61	0x3df78837	0.12086528
62	0xbd12dd67	-0.035855677
63	0x3ccf95ca	0.02533998
64	0x3dd03832	0.101669684
65	0xbd7d868e	-0.0618959
66	0xbc40fb0d	-0.011778605
67	0xbc57440b	-0.013138781
68	0x3cb337d6	0.02187721
69	0x3d84e710	0.06489384
70	0xbdde5d81	-0.10857678
71	0xbbbcb3b8	-0.005758729
72	0xbdc18d10	-0.09450734
73	0x3dc67bb2	0.09691562
74	0x3d88a36d	0.06671796
75	0x3d9ee43f	0.07758378
76	0xbdb9a8e4	-0.090654165
77	0xbcc4ed7f	-0.024039028
78	0xbd80d7e7	-0.0629118
79	0xbd7abded	-0.061216284
80	0x3cce98e6	0.025219392
81	0xbb0096de	-0.0019621174
82	0x3c02099b	0.00793686
83	0x3de9bbf1	0.114128
84	0xbd897bcd	-0.06713066
85	0xbd817c65	-0.063225545
86	0xbdb8cf8a	-0.0902396
87	0x3dd77b6e	0.10521589
88	0xbc5ae174	-0.013359416
89	0x3d7e048c	0.062016055
90	0x3c0e2c31	0.008677528
91	0xbe06c219	-0.1315998
92	0x3dc0bd23	0.09411075
93	0x3d8567a2	0.06513907
94	0xbd1d6870	-0.038429677
95	0xbb9b068f	-0.0047310065
96	0xbd3ad2b8	-0.045611113
97	0xbcd52bc8	-0.026021853
98	0xbdc52428	-0.09626037
99	0xbd56d97e	-0.05245351
100	0x3e060769	0.13088764
101	0x3d01c30f	0.031680163
102	0x3bf4940a	0.0074639367
103	0x3d5ec6ec	0.054388925
104	0x3ad39a8a	0.0016144079
105	0x3d5ae13f	0.053437468
106	0xbaa05fe8	-0.0012235614
107	0x3d014269	0.031557474
108	0x3dadc295	0.08484379
109	0xbdd64cc1	-0.104638584
110	0xbd9f0b12	-0.07765783
111	0xbdd6bb32	-0.104849234
112	0x3dcbe5ff	0.09955978
113	0x3c52ec04	0.012873653
114	0xbdf89f17	-0.12139719
115	0xbd9ce79c	-0.076613635
116	0xbc3a4926	-0.011369979
117	0x3db6b460	0.089211226
118	0x3c98ee9e	0.018668469
119	0xbdb00b59	-0.085959144
120	0xbd79bb18	-0.060969442
121	0x3dad748a	0.08469494
122	0x3d9f6c63	0.07784345
123	0xbd80bb12	-0.06285681
124	0xbc651ea7	-0.013984359
125	0x3bd0bf12	0.0063704336
126	0x3db2fc30	0.08739507
127	0xbde27497	-0.11057394
128	0x3da29377	0.07938283
129	0xbdecab69	-0.115561314
130	0xbd7f6a8a	-0.062357463
131	0xbdf6b569	-0.1204632
132	0x3cb98a39	0.022648918
133	0x3de942be	0.11389683
134	0x3d9cb3d7	0.07651489
135	0xbe005e80	-0.12536049
136	0xbb5a82fa	-0.0033342228
137	0xbd8d12bb	-0.06888338
138	0xbdf49934	-0.11943284
139	0xbd8f223f	-0.06988954
140	0xbd06347e	-0.032764904
141	0x3df69937	0.12040942
142	0xbd817572	-0.06321229
143	0x3d85118b	0.06497487
144	0x3dd52484	0.104073554
145	0x3caaa289	0.020829456
146	0xbdbdfd8c	-0.09276876
147	0xbdc55722	-0.0963576
148	0xbd4d2fed	-0.050094534
149	0x3d957ba9	0.07298977
150	0x3b0f849a	0.0021899105
151	0x3d1ffff5	0.03906246
152	0x3d7fcce5	0.062451262
153	0x3db21b73	0.08696642
154	0x3de168b8	0.11006302
155	0x3cdd6c01	0.02702904
156	0xbe043ef0	-0.12914634
157	0xbc23f5a2	-0.010007294
158	0xbdf3c685	-0.11903099
159	0xbded29a0	-0.11580205
160	0xbd9a0f18	-0.0752241
161	0xbdc1d804	-0.0946503
162	0xbddcad38	-0.10775226
163	0xbd382e67	-0.044966128
164	0x3d2d8750	0.042365372
165	0x3daefe1f	0.085445635
166	0x3c9db9ff	0.019253729
167	0x3d8e5601	0.06949998
168	0x3dbac719	0.09120006
169	0xbdb51739	-0.0884232
170	0x3d89ea1d	0.06734107
171	0xbcf4dbeb	-0.029890021
172	0xbdfcad2e	-0.12337719
173	0x3ddc4c6f	0.10756766
174	0xbd82c829	-0.06385834
175	0x3db9152a	0.0903724
176	0xbc8b06e9	-0.016971068
177	0xbdebdd09	-0.115167685
178	0xbda4f413	-0.08054366
179	0xbd864c7f	-0.06557559
180	0xbde69ced	-0.112604
181	0xbdfae8da	-0.12251444
182	0x3d77983b	0.060447913
183	0xbd702f41	-0.058638815
184	0x3c95b72e	0.018275823
185	0x3d43fc70	0.047848165
186	0x3d8ac121	0.06775118
187	0xbdd3cb98	-0.10341567
188	0x3dbb0a5e	0.09132837
189	0xbd86042c	-0.065437645
190	0x3def7fd6	0.11694305
191	0x3d3415ad	0.043965984
192	0xbd96e0c2	-0.07367088
193	0x3dabe0cc	0.08392486
194	0xbd8484a4	-0.06470612
195	0x3d96e7e3	0.07368448
196	0xbdcb92d3	-0.09940114
197	0xbdb8bb25	-0.0902007
198	0x3dc01651	0.093792565
199	0x3bda98c9	0.0066710454
200	0x3c11df11	0.008903281
201	0x3d13b977	0.036065545
202	0xbdd15dfe	-0.10223006
203	0xbc6bc637	-0.01439052
204	0xbd259a4f	-0.040430363
205	0x3d36c00e	0.04461675
206	0x3db3c53d	0.087778546
207	0xbdf842e0	-0.121221304
208	0xbd684180	-0.05670309
209	0x3c567d26	0.013091361
210	0xbdb7d8e2	-0.08976914
211	0x3d8ec84c	0.06971797
212	0x3de30efb	0.11086842
213	0xbe06ace2	-0.13151887
214	0xbdc9e42c	-0.098579735
215	0xbe025733	-0.12728576
216	0xbb679fc7	-0.0035343037
217	0xbd9d8dd8	-0.0769307
218	0xbd69c85c	-0.057075843
219	0xbda94e7e	-0.08266924
220	0x3a498c6e	0.0007688467
221	0xbd9fa3e7	-0.07794934
222	0x3d0488c0	0.032356977
223	0x3d70b11f	0.058762666
224	0x3de79361	0.11307407
225	0x3d3297d7	0.043601837
226	0x3d365b65	0.044520754
227	0x3d88ad87	0.06673723
228	0xbc9c574b	-0.019084593
229	0x3ddc9b5a	0.107718185
230	0x3d295e10	0.04134947
231	0x3d8e6c35	0.069542326
232	0x3dd9b2cb	0.10629805
233	0x3d93a2c9	0.07208783
234	0x3d8e617f	0.0695219
235	0x3d571572	0.052510686
236	0x3c9917c0	0.018688083
237	0xbd36077b	-0.044440728
238	0xbdc6b3f3	-0.09702291
239	0xbdf17c16	-0.11791246
240	0xbddace49	-0.10683877
241	0x3d540311	0.051760737
242	0xbd8ad884	-0.06779578
243	0xbd94020a	-0.072269514
244	0x3d81ba38	0.063343465
245	0xbdc6d659	-0.09708852
246	0x3da534bd	0.080667
247	0x3b2526da	0.002520016
248	0x3c65f71e	0.014035968
249	0x3d97362a	0.07383378
250	0x3d4740b2	0.048645683
251	0xbd53c7bb	-0.05170415
252	0xbc023024	-0.007946048
253	0x3d9454c3	0.072427295
254	0x3e037d85	0.1284085
255	0xbc3b9a36	-0.011450341

lstm.weight_hh_l0 f4 [256, 64]
0	0x3d7a15ca	0.061055936
1	0x3dd1cfda	0.10244723
2	0xbda56ac9	-0.08077008
3	0xbdce1014	-0.100616604
4	0x3df41e8f	0.11919891
5	0x3c26ae62	0.010173412
6	0x3e05c9bd	0.13065238
7	0x3df0b461	0.117531545
8	0x3cecdf1b	0.028914979
9	0x3d81e4d9	0.06342477
10	0xbc68cb4d	-0.014208627
11	0xbd126f71	-0.03575081
12	0xbdeeeb69	-0.11665995
13	0xbd8699f2	-0.065723315
14	0x3cecff34	0.028930284
15	0x3d270343	0.040774595
16	0xbde9a39f	-0.11408161
17	0x3d87e101	0.06634713
18	0x3d50812e	0.050904445
19	0xbd0c20e5	-0.03421106
20	0x3ddcc9a0	0.107806444
21	0x3df0e9a6	0.11763315
22	0x3d33c1d2	0.043886013
23	0x3daed163	0.08536031
24	0x3de4262a	0.11140092
25	0x3d26b525	0.040700097
26	0x3cd48237	0.025940998
27	0x3cb3d8e6	0.021954011
28	0xbda259d2	-0.07927288
29	0xbd21efeb	-0.039535444
30	0xbd9b411f	-0.0758078
31	0xbdcd83e3	-0.10034921
32	0x3dcc7210	0.09982693
33	0xbd7ab932	-0.061211772
34	0x3d2df770	0.042472303
35	0x3c94dc93	0.018171584
36	0x3d897bdf	0.0671308
37	0xbdbfe3ea	-0.09369643
38	0xbb9c9955	-0.004779021
39	0xbdd3143c	-0.10306594
40	0xbd264b8c	-0.04059939
41	0xbd65901d	-0.05604564
42	0x3dcb8df8	0.09939188
43	0x3dd68d15	0.10476128
44	0x3da633a1	0.08115316
45	0x3def12a6	0.11673479
46	0xbd5e21c0	-0.054231405
47	0xbbc4e4ca	-0.006008719
48	0x3ddb2abc	0.1070151
49	0x3dbc861c	0.09205267
50	0xbd9f3409	-0.07773597
51	0x3d99c862	0.07508923
52	0xbdd75173	-0.10513582
53	0x3dccac35	0.099937834
54	0xbd184207	-0.037172344
55	0x3d311390	0.043231547
56	0xbd68ebc8	-0.056865484
57	0xbde19c99	-0.11016197
58	0x3cbdb378	0.023156866
59	0x3bb924f5	0.0056501576
60	0xbc6b5c35	-0.014365246
61	0x3d98d8d5	0.074632324
62	0xbd6b548d	-0.05745368
63	0x3df12023	0.11773708
64	0xbb77c48a	-0.0037806355
65	0x3c5acea0	0.013354927
66	0x3de455fa	0.11149211
67	0xbde24249	-0.11047799
68	0xbd8b3fee	-0.06799303
69	0xbd269a89	-0.04067472
70	0xbdd76ab0	-0.10518396
71	0x3d70098c	0.058602855
72	0x3be72828	0.0070543475
73	0xbdd92c86	-0.10604195
74	0xbdd9b8fd	-0.10630987
75	0x3da7c340	0.08191538
76	0xbd1d496d	-0.038400102
77	0xbda399b9	-0.07988305
78	0x3c6c7494	0.014432091
79	0xbdd1e8e2	-0.10249497
80	0xbe0823f4	-0.13294965
81	0x3dd0a986	0.10188584
82	0x3dd4a100	0.10382271
83	0xbc33b41d	-0.010968235
84	0xbd850fc2	-0.06497146
85	0xbc46168d	-0.012090337
86	0x3dd98f32	0.106230155
87	0x3d6d3e97	0.05792102
88	0x3c96697c	0.018360846
89	0x3dbdc902	0.09266855
90	0xbd601652	-0.054708786
91	0xbdab2b8b	-0.083579145
92	0x3d44469e	0.04791891
93	0x3d30b03c	0.04313682
94	0xbd3959f9	-0.04525182
95	0x3ccf9a97	0.025342269
96	0xbd2a49e4	-0.041574374
97	0xbd4eceff	-0.050490376
98	0x3d040bda	0.032237865
99	0x3d362d58	0.044476837
100	0x3d89f3b9	0.067359395
101	0x3baf6000	0.0053520203
102	0xbc28b87d	-0.010297892
103	0xbdddbf97	-0.108275585
104	0xbcd9e2d4	-0.026597418
105	0x3d6f9056	0.05848726
106	0xbdac88ab	-0.08424505
107	0xbc6f99b6	-0.01462405
108	0x3dabe823	0.08393886
109	0x3d00dae0	0.031458735
110	0xbdf34c21	-0.11879755
111	0xbd949394	-0.07254711
112	0x3d669fa6	0.056304596
113	0xbcbd73b5	-0.023126462
114	0x3ddbfd6a	0.10741694
115	0x3ccff755	0.025386492
116	0xbc683a99	-0.014174127
117	0xbc834124	-0.016022272
118	0xbdc3b258	-0.09555501
119	0xbc7b5191	-0.015339271
120	0x3dd18265	0.10229949
121	0x3cba3355	0.022729555
122	0x3dc7b603	0.09751513
123	0x3d8b7b60	0.06810641
124	0x3dc9baf8	0.098501146
125	0xbc59baf8	-0.013289206
126	0xbc2673bb	-0.010159428
127	0xbdc0aa56	-0.09407489
128	0xbd338cc4	-0.043835416
129	0xbca8078b	-0.02051141
130	0xbdf8fa9e	-0.121571764
131	0xbdf8b02c	-0.12142977
132	0xbd4c2f4a	-0.049849786
133	0x3d5b6d2c	0.05357091
134	0x3d6de229	0.05807701
135	0x3d2222c3	0.039583933
136	0xbd8aa902	-0.06770517
137	0xbd3ab4ed	-0.0455827
138	0x3e018ea6	0.12652072
139	0x3d0c6052	0.034271546
140	0x3d7016a1	0.05861533
141	0xbdfb266b	-0.12263187
142	0xbdc75196	-0.09732358
143	0xbd906383	-0.0705023
144	0x3da9a900	0.08284187
145	0x3ca28e41	0.019843223
146	0xbd4e9c0f	-0.050441798
147	0x3bd066ac	0.0063598957
148	0x3c3269ab	0.010889451
149	0xbdf0d46f	-0.117592685
150	0x3e037420	0.12837267
151	0x3dd35716	0.10319345
152	0xbda7767e	-0.081768975
153	0xbdc6f31b	-0.097143374
154	0xbdac6f9e	-0.08419727
155	0xbd8a9233	-0.067661665
156	0x38e97913	0.000111328576
157	0x3c748b88	0.014925845
158	0x3de3597c	0.11101052
159	0x3da9ad53	0.08285012
160	0xbc96ff26	-0.018432211
161	0x3dde264c	0.10847148
162	0x3d9fc09d	0.0780041
163	0x3c0cd816	0.008596441
164	0x3b7f15a6	0.0038922816
165	0xbd1c55e6	-0.038167857
166	0xbdc1a6cc	-0.09455642
167	0x3d059379	0.032611344
168	0x3b1cae7f	0.0023907719
169	0x3bf24c07	0.007394317
170	0x3d220f97	0.03956565
171	0xbd3d837e	-0.04626798
172	0xbd2d4e8f	-0.042311247
173	0x3cb0ee73	0.021598076
174	0x3d78d654	0.060751274
175	0x3e0163a0	0.1263566
176	0x3d933b9b	0.07189103
177	0xbd6cfb9e	-0.05785715
178	0xbd070969	-0.03296796
179	0xbd75dcea	-0.060025133
180	0x3dd10104	0.10205272
181	0x3c92eeb3	0.017936086
182	0x3d889ba8	0.06670314
183	0x3d9ab961	0.075548895
184	0x3c9643e3	0.018342918
185	0x3dcad96d	0.09904752
186	0x3c47a516	0.012185356
187	0x3d3b44c6	0.045719884
188	0x3d78c709	0.06073669
189	0x3d4be6a2	0.049780495
190	0x3b94ae4a	0.0045373784
191	0xbc2e2814	-0.010629673
192	0x3dd025d6	0.10163467
193	0xbda4d583	-0.08048537
194	0xbd50ed52	-0.051007576
195	0x3dd1bce6	0.10241108
196	0x3d4b1a21	0.049585465
197	0x3d69671d	0.056983102
198	0x3cf7fae1	0.030270996
199	0xbdd48cdf	-0.103784315
200	0xba936cfb	-0.0011247689
201	0x3b8452f3	0.0040382086
202	0xbd3ed795	-0.046592314
203	0xbd970abd	-0.07375095
204	0xbdac5c49	-0.084160395
205	0x3df6bff9	0.12048335
206	0x3c953752	0.018214855
207	0xbd02be24	-0.031919613
208	0xbd306ea3	-0.04307426
209	0x3d8f9da7	0.07012492
210	0x3d29a3a2	0.041415818
211	0xbdc79714	-0.09745613
212	0xbd910c8e	-0.07082473
213	0x3d5a1c11	0.053249422
214	0x3dd67ae4	0.10472658
215	0xbd1a888e	-0.037727885
216	0xbd770c2a	-0.060314335
217	0x3d76f2c0	0.0602901
218	0xbd9ccf51	-0.0765673
219	0xbcb36901	-0.021900656
220	0xbde3ab0c	-0.11116609
221	0x3da22496	0.079171345
222	0xbdd23339	-0.10263676
223	0x3bec1abe	0.0072053364
224	0xba8ece2e	-0.0010895187
225	0x3d000254	0.03125222
226	0xbdb7da01	-0.08977128
227	0x3d843dd4	0.06457105
228	0x3d9d26a0	0.07673383
229	0x3d6ad4e4	0.057331935
230	0x3c996b1a	0.018727828
231	0x3e0b4956	0.13602194
232	0x3d8d7c51	0.06908477
233	0x3d42a278	0.047518224
234	0x3e08170b	0.1329004
235	0x3df041d6	0.11731307
236	0x3c123f1f	0.008926182
237	0x3dcf0c38	0.101097524
238	0xbd9ad176	-0.07559483
239	0xbdbf49f1	-0.09340275
240	0x3da0795d	0.07835648
241	0xbd3c7d66	-0.046018027
242	0xbd324b33	-0.043528747
243	0x3cd30fa4	0.025764294
244	0x3cb1674c	0.021655701
245	0xbd16a98a	-0.03678278
246	0x3dc57b63	0.09642675
247	0x3d49bc78	0.049252003
248	0xbd084fec	-0.033279344
249	0x3da0e623	0.07856395
250	0x3c94c935	0.01816235
251	0xbde968d6	-0.11396949
252	0x3c5a74c6	0.013333505
253	0x3dfd8c5f	0.12380289
254	0x3de4ea77	0.11177533
255	0x3d89f24f	0.0673567

lstm.bias_ih_l0 f4 [256]
0	0x3dbd8135	0.0925316
1	0x3db5c6fa	0.088758424
2	0xbd4b726d	-0.04966967
3	0x3dcb433f	0.099249355
4	0xbdbdcdb6	-0.09267752
5	0x3d05f32b	0.032702606
6	0x3e03b501	0.12862016
7	0xbdc47a44	-0.09593633
8	0x3db600f8	0.088869035
9	0x3dac9b2c	0.08428034
10	0x3d8b46a6	0.068005845
11	0xbd0a9e9a	-0.03384266
12	0xbcfac0ba	-0.030609477
13	0xbd01544f	-0.031574544
14	0x3dca1141	0.09866572
15	0xbd905302	-0.070470825
16	0xbdb2062a	-0.08692582
17	0x3d8c4b7e	0.068503365
18	0x3d8e367b	0.06943985
19	0x3d46973f	0.048484083
20	0xbd44b6e5	-0.048025984
21	0x3d8192aa	0.06326802
22	0x3d4e2525	0.050328393
23	0xbdb256d7	-0.0870797
24	0xbe006073	-0.12536792
25	0xbe099d94	-0.13439018
26	0xbdb9f824	-0.09080532
27	0xbde7410f	-0.11291706
28	0x3d154f24	0.036452428
29	0xbd1a5ec9	-0.03768805
30	0x3cd6c225	0.026215622
31	0xbcf7e83d	-0.030262107
32	0x3de0ee2c	0.10982928
33	0x3d0a2e73	0.033735704
34	0xbdc85a3c	-0.09782836
35	0x3bf27896	0.007399629
36	0x3d81067a	0.063000634
37	0xbd1ee37b	-0.03879116
38	0xbc586d1e	-0.013209609
39	0x3da2036a	0.079108074
40	0x393d0e18	0.00018029695
41	0xbda1fa9a	-0.079091266
42	0x3deea372	0.116522685
43	0x3b26eb04	0.002546967
44	0xbdc36d85	-0.095423736
45	0xbd2108c6	-0.039315008
46	0xbdf02e3b	-0.11727568
47	0x3dab3bd6	0.08361022
48	0xbc78b9b4	-0.015180994
49	0xbd37e356	-0.04489454
50	0x3d9b352e	0.075785026
51	0xbd34c9b5	-0.044137675
52	0x3db8dbdf	0.09026312
53	0xbdf3cea4	-0.11904648
54	0x3cc8ca6d	0.024510587
55	0x3df0e3ce	0.117622
56	0x3dd4608d	0.10369978
57	0x3c519642	0.012792172
58	0x3da84335	0.08215944
59	0x3dafc697	0.085828
60	0xbe02ef75	-0.12786658
61	0x3cc47c99	0.023985194
62	0x3d8e5501	0.06949807
63	0xbd1f3b9f	-0.03887522
64	0xbd219d86	-0.039456867
65	0xbae6d894	-0.0017612153
66	0x3dd30b0a	0.1030484
67	0x3d8238cd	0.0635849
68	0x3d4c28ad	0.04984348
69	0x3cb84878	0.022495493
70	0xbda42057	-0.08013981
71	0xbd9087db	-0.070571624
72	0x3dbee51d	0.09321044
73	0x3d1462cf	0.036227044
74	0x3d66116e	0.056168966
75	0x3cda8f81	0.026679756
76	0xbd702184	-0.058625713
77	0x3da51882	0.08061315
78	0xbde8457f	-0.1134138
79	0x3dc67f52	0.09692253
80	0x3d24fd18	0.04028043
81	0x3df37baf	0.11888825
82	0x3d04f7d3	0.032462906
83	0x3d0cae86	0.034346126
84	0xbc27c579	-0.010239952
85	0x3ddf8a00	0.10914993
86	0xbdc99976	-0.098437235
87	0xb9b36f43	-0.00034224437
88	0xbd4efdfe	-0.050535195
89	0x3c60fc87	0.013732082
90	0x3d3e1593	0.046407294
91	0xbd063df4	-0.032773927
92	0xbd4e9208	-0.050432235
93	0xbdf50c02	-0.11965181
94	0xbbf663db	-0.007519228
95	0x3cf0ebcd	0.029409314
96	0x3d251368	0.04030171
97	0x3dd90b11	0.10597814
98	0xbd0b3585	-0.033986587
99	0xbdca333a	-0.09873052
100	0xbd47e96a	-0.048806585
101	0x3df9e83a	0.12202497
102	0xbd0db298	-0.03459415
103	0xbc9dd9de	-0.019268926
104	0xbd14c07f	-0.03631639
105	0x3d041818	0.03224954
106	0xbd3ba75c	-0.045813903
107	0x3dcdc5a4	0.100474626
108	0xbdb177fb	-0.086654626
109	0x3cefcbf5	0.029272059
110	0xbd95c828	-0.073135674
111	0xbbdd5a71	-0.006755166
112	0xbc9e290a	-0.019306678
113	0x3e03c0e2	0.12866548
114	0xbdc2478d	-0.094863035
115	0x3d3378d8	0.043816417
116	0x3d9f7154	0.077852875
117	0xbca96667	-0.020678712
118	0x3d558a5a	0.052133895
119	0xbcb77a82	-0.022397283
120	0xbdfa4953	-0.12221017
121	0xbd32facf	-0.04369622
122	0xbd37cb32	-0.044871517
123	0xbcbf8c27	-0.02338226
124	0xbdb4f9ee	-0.08836733
125	0xbdd12544	-0.10212186
126	0xbdd283f3	-0.102790736
127	0xbdb0980d	-0.086227514
128	0xbd8142c0	-0.0631156
129	0x3dbb82ab	0.09155782
130	0x3d2d7293	0.042345595
131	0xbd67802c	-0.05651872
132	0x3dea0758	0.11427182
133	0x3dce5cda	0.10076304
134	0xbd344645	-0.044012327
135	0xbdda1f6d	-0.10650525
136	0x3d930477	0.07178586
137	0xbc884a2d	-0.016636932
138	0xbd867dc6	-0.06566958
139	0x3df618d4	0.12016454
140	0x3bee300b	0.0072689108
141	0x3e087264	0.13324887
142	0x3dbbd656	0.09171741
143	0xbc920298	-0.017823502
144	0xbdc91c1b	-0.09819814
145	0x3d41b137	0.047288146
146	0x3c967ef1	0.018371077
147	0xbd9360b3	-0.07196178
148	0x3cd4054f	0.025881438
149	0x3b840e32	0.0040300125
150	0x3c887b5f	0.01666039
151	0x3d2e78ee	0.042595796
152	0xbd06d77e	-0.032920353
153	0xbdee2183	-0.116274856
154	0x3d7f1516	0.06227597
155	0xbd740564	-0.059575453
156	0x3dd4638e	0.10370551
157	0x3cb241c5	0.021759877
158	0x3dcc1b45	0.09966139
159	0x3d7a19cf	0.06105977
160	0xbd7e4de9	-0.06208602
161	0xbde61f88	-0.11236483
162	0x3d0ff001	0.035140995
163	0xbc30bf61	-0.010787816
164	0x3d7629fa	0.060098626
165	0x3bf08881	0.0073404913
166	0x3dc03e27	0.093868546
167	0xbd55574c	-0.052085206
168	0x3d49b75e	0.04924714
169	0xbcf5cf64	-0.030006118
170	0xbdc45a69	-0.09587557
171	0x3d1c4bab	0.0381581
172	0x3d66fdae	0.05639427
173	0xbd862402	-0.06549837
174	0x3d2d5cf4	0.042324975
175	0x3d7797bf	0.06044745
176	0x3cc8322f	0.024437992
177	0x3dae41ed	0.08508668
178	0x3d1614a0	0.036640763
179	0x3dd75d9b	0.10515901
180	0x3da9d4ac	0.08292517
181	0xbd4a6884	-0.04941608
182	0x3d88df95	0.0668327
183	0xbc17bf19	-0.00926187
184	0x3d139272	0.036028333
185	0xbba8bfe8	-0.00514983
186	0x3d215b4e	0.039393716
187	0x3ca2abb8	0.019857273
188	0xbd778483	-0.060429107
189	0xbdc30d91	-0.09524072
190	0x3bfeac8d	0.0077720345
191	0x3dbc2c7c	0.09188172
192	0xbb45327a	-0.00300899
193	0x3d9ac7a9	0.075576134
194	0xbd531bb6	-0.0515401
195	0x3d188547	0.03723648
196	0xbd6685d1	-0.05627996
197	0xbc8919e9	-0.016735988
198	0x3e01410a	0.12622467
199	0xbd0a1afe	-0.033717148
200	0x3d1e8461	0.038700465
201	0xbddd5ebc	-0.10809085
202	0x3de39aa5	0.111134805
203	0xbc8a92c1	-0.01691568
204	0xbc865034	-0.016395666
205	0xbc6ee0b2	-0.014579939
206	0xbc0e20f7	-0.008674852
207	0x3d5d8acd	0.05408745
208	0xbd5096ba	-0.050924994
209	0xbdc31797	-0.09525984
210	0x3d344feb	0.04402153
211	0x3dd34826	0.103164956
212	0x3d158f4d	0.036513615
213	0xbdaf00a2	-0.085450426
214	0xbd2a3b6d	-0.04156058
215	0xbb51ff77	-0.0032043138
216	0xbdf32e1e	-0.118740305
217	0x3db048a2	0.086076036
218	0x3d1c16de	0.038107745
219	0x3dc0a906	0.09407239
220	0x3c8ec7d7	0.017429275
221	0x3dea9ec9	0.11456067
222	0xbc3712c8	-0.011173911
223	0x3db5a1ea	0.08868773
224	0x3d979aac	0.07402548
225	0xbc83b406	-0.016077053
226	0x3dec21a5	0.11529855
227	0x3c833b13	0.01601938
228	0xbd10eb91	-0.035380904
229	0xbdbab2eb	-0.09116157
230	0xbd8e08fc	-0.069353074
231	0x3ca954d8	0.02067034
232	0x3dcb1639	0.09916348
233	0xbcd38739	-0.025821315
234	0x3d060b81	0.032725815
235	0x3df6283b	0.12019392
236	0xbbfa2c91	-0.0076347073
237	0x3ccea3c1	0.025224568
238	0xbdca8366	-0.098883435
239	0x3e05ddde	0.13072917
240	0x3dd0029a	0.10156746
241	0x3dd8ad07	0.10579877
242	0xbd594335	-0.05304261
243	0x3d89b7f8	0.067245424
244	0xbd3d0564	-0.04614772
245	0x3da964b1	0.082711585
246	0xbd81d6f6	-0.06339829
247	0x3e02ecfc	0.12785715
248	0xbbe6047f	-0.007019579
249	0xbd822d97	-0.06356352
250	0xbd032845	-0.032020826
251	0x3dd4c46f	0.10389029
252	0xbd30eca5	-0.04319443
253	0xbdc0e165	-0.094179906
254	0xbd57308b	-0.05253653
255	0x3c1bb97f	0.009504675

lstm.bias_hh_l0 f4 [256]
0	0x3ce7b1a1	0.028282942
1	0xbd6bd990	-0.05758053
2	0x3de69570	0.11258972
3	0xbcde9a26	-0.027173113
4	0x3d9cc5e3	0.076549314
5	0xbdccfb05	-0.10008816
6	0x3d36f75d	0.044669498
7	0x3d75e91a	0.060036756
8	0xbdf5abfe	-0.119956955
9	0x3dd42c07	0.1035996
10	0x3d99933c	0.07498786
11	0xbd28ed61	-0.041242007
12	0x3e04557b	0.12923233
13	0x3c048c6f	0.008090123
14	0x3dcceb5b	0.10005828
15	0x3de9159a	0.11381073
16	0x3b5ccd78	0.0033691805
17	0x3daf9c82	0.08574773
18	0xbd75fcb5	-0.060055453
19	0x3d6afca9	0.05736986
20	0x3db251ac	0.08706984
21	0xbc35442b	-0.011063616
22	0xbc8bb61c	-0.01705461
23	0xbdf99abd	-0.12187717
24	0x3c225da4	0.009910021
25	0x3dc469bd	0.095904805
26	0x3d3276de	0.04357039
27	0x3d91bce6	0.07116108
28	0x3deac1f6	0.11462776
29	0xbd39c9e3	-0.04535855
30	0x3d31e840	0.04343438
31	0xbc58bbc2	-0.013228359
32	0x3cda5d06	0.026655685
33	0x3da6def4	0.08147994
34	0x3d9faabb	0.07796236
35	0x3c79f85b	0.015256966
36	0x3dacb8e5	0.08433703
37	0x3d060505	0.03271963
38	0xbc1790b5	-0.009250809
39	0x3daded14	0.08492485
40	0x3cf13310	0.029443294
41	0x3d934865	0.071915425
42	0xbd1c282b	-0.038124245
43	0xbd0b75a2	-0.03404773
44	0xbd81a9f5	-0.06331245
45	0x3d1a6cd0	0.037701428
46	0x3dc49fd2	0.09600796
47	0x3dfd0a46	0.12355475
48	0x3dea73ab	0.11447843
49	0xbd8a25e7	-0.067455105
50	0xbd838841	-0.06422473
51	0x3d064c08	0.032787353
52	0xbddb1eb5	-0.10699216
53	0xbd206957	-0.03916296
54	0xbda6d993	-0.08146968
55	0xbd5de060	-0.05416906
56	0x3d868af7	0.06569474
57	0x3d479435	0.048725326
58	0xbd8c29ae	-0.06843887
59	0x3b96cf82	0.0046023736
60	0x3d41737a	0.047229268
61	0xbdeb029f	-0.11475109
62	0x3d468fc3	0.048476946
63	0xbdee5fda	-0.11639376
64	0xbe031610	-0.12801385
65	0xbd30d085	-0.04316761
66	0x3d86bedb	0.065793715
67	0xbd67e55f	-0.05661523
68	0x3bce2976	0.0062915636
69	0x3c651208	0.01398135
70	0xbd80a62c	-0.06281695
71	0x3d543c34	0.051815227
72	0x3de253b9	0.11051125
73	0xbd6a200d	-0.057159472
74	0x3dff82be	0.12476109
75	0x3d6b51d6	0.05745109
76	0x3da8c3af	0.08240449
77	0x3a809072	0.0009808673
78	0x3dd4c669	0.10389406
79	0xbdd0b394	-0.10190502
80	0x3d5eb170	0.054368436
81	0x3d0816df	0.033224937
82	0x3dc11069	0.09426958
83	0xbdc9f3a0	-0.09860921
84	0x3de29ae4	0.11064699
85	0xbda187d9	-0.07887239
86	0x3defbe4c	0.11706218
87	0x3d590db8	0.0529916
88	0xbd9b69c6	-0.07588534
89	0xbd9af85b	-0.07566901
90	0x3aa43a73	0.0012529626
91	0x3dcd6a19	0.10030002
92	0xbbc79190	-0.0060903504
93	0x3df15c00	0.11785126
94	0xbc035641	-0.00801617
95	0xbdb1f158	-0.08688611
96	0x3d2f7ad8	0.042841762
97	0x3db738d4	0.08946386
98	0x3d6f2d27	0.05839267
99	0x3d458fd9	0.048232887
100	0xbdc6a27f	-0.096989624
101	0xbd770244	-0.060304895
102	0x3c85a93b	0.016316047
103	0xbdba4856	-0.09095828
104	0xbdd607bc	-0.10450694
105	0xbcabe8dd	-0.020985061
106	0x3d838c22	0.064232126
107	0x3c069dd8	0.008216344
108	0xbd86d0fc	-0.06582829
109	0x3de4e665	0.11176757
110	0x3d1b17f5	0.037864644
111	0xbd411a15	-0.047144014
112	0x3d7d7f2d	0.061888862
113	0x3dac94f7	0.0842685
114	0x3de493d7	0.11161011
115	0x3daae72b	0.08344873
116	0x3da3bd20	0.07995057
117	0xbd97b279	-0.07407088
118	0xbdf8abdd	-0.12142155
119	0xbd22e749	-0.039771352
120	0x3dd050ed	0.10171685
121	0xbd7fde74	-0.062468007
122	0xbd18f01d	-0.037338365
123	0xbd87fd70	-0.06640136
124	0xbced285f	-0.028949915
125	0xbdb77884	-0.089585334
126	0xbde59a73	-0.112110995
127	0x3c81990e	0.015820052
128	0x3ce47850	0.0278894
129	0xbdecef09	-0.1156903
130	0x3e03a606	0.12856302
131	0x3a600233	0.00085452496
132	0x3d9da02e	0.076965675
133	0x3d5f8d89	0.054578338
134	0xbd0a81e2	-0.033815272
135	0x3e076a38	0.13224113
136	0xbd676ef7	-0.05650231
137	0x3d9c0fa3	0.0762017
138	0xbd5813b7	-0.052753177
139	0x3c1f5130	0.009723946
140	0x3d21f33e	0.039538614
141	0x3dc93329	0.09824211
142	0x3d291d8d	0.041287947
143	0x3df0f8be	0.11766194
144	0xbc336423	-0.010949167
145	0xbdba6805	-0.091018714
146	0xbd2e94c1	-0.04262233
147	0x3d94cebe	0.072659954
148	0x3d6ae815	0.057350237
149	0xbc5bd80c	-0.013418209
150	0x3de3c515	0.11121575
151	0x3d6abaa8	0.057306916
152	0x3d202c0c	0.039104506
153	0xbc9356c0	-0.017985702
154	0x3dacd59d	0.08439181
155	0x3cdf7b30	0.02728042
156	0xbd9ee3f2	-0.07758321
157	0xbdd34489	-0.103158064
158	0x3dd3b2f3	0.10336866
159	0xbb8bfdc0	-0.0042721927
160	0xb98fce9c	-0.0002742902
161	0xbdcc4e7e	-0.09975909
162	0x3d2efe71	0.042723123
163	0xbda62003	-0.081115745
164	0xbddea1a2	-0.10870673
165	0xbdcb7e79	-0.09936232
166	0xbd97d0f3	-0.07412901
167	0x3d8b04fe	0.067880616
168	0xbbd2d219	-0.006433737
169	0x3d9b9c63	0.07598188
170	0xbc9f3f4f	-0.019439368
171	0xbd8fa921	-0.07014681
172	0x3da3842a	0.07984193
173	0xbdf17d68	-0.117914975
174	0xbdb0e7e6	-0.08637981
175	0x3c90c46e	0.01767179
176	0x3e0824c7	0.1329528
177	0xbd9b1b8f	-0.07573616
178	0xbdec0944	-0.11525205
179	0xbd24ebfa	-0.040264107
180	0xbd996da6	-0.07491617
181	0xbda1da49	-0.07902963
182	0x3de849a1	0.113421686
183	0x39068d6a	0.00012831917
184	0x3d453982	0.048150547
185	0xbdc9a9a7	-0.09846812
186	0xbd85f550	-0.0654093
187	0xbc82dbbd	-0.01597392
188	0x3d17cf4b	0.037062924
189	0x3dab1b7c	0.083548516
190	0x3d6d4fb2	0.05793733
191	0xbd1abc50	-0.037777245
192	0xbdab77b2	-0.083724394
193	0xbde7735b	-0.11301299
194	0x3c520c2f	0.012820288
195	0x3dbe8f1e	0.09304641
196	0x3dad80f6	0.08471863
197	0x3b951ff6	0.004550929
198	0x3de1d91f	0.11027741
199	0x3c865f4a	0.01640286
200	0xbdcb8d7d	-0.09939096
201	0xbd503ea9	-0.050841007
202	0xbd26a565	-0.040685076
203	0xbd2c7ab4	-0.042109206
204	0x3dd38978	0.103289545
205	0xbd4a0fbd	-0.049331415
206	0xba4f9b74	-0.00079195877
207	0x3d572b01	0.052531246
208	0x3d5855b9	0.052816126
209	0xbe06231e	-0.13099334
210	0x3dd3cf72	0.103423014
211	0xbe0009d3	-0.12503748
212	0xbda5dc34	-0.08098641
213	0x3d81e686	0.06342797
214	0xbd9cdeca	-0.07659681
215	0xbd5a712d	-0.05333059
216	0x3cf08027	0.029357983
217	0xbdef6166	-0.11688499
218	0x3b3deecd	0.0028981448
219	0xbdf49266	-0.11941986
220	0xbdcb3da4	-0.099238664
221	0xbde94f0b	-0.113920294
222	0x3dd45f16	0.10369699
223	0xbda60c72	-0.081078425
224	0x3d915336	0.07095949
225	0x3d943890	0.07237351
226	0x3d96e65b	0.073681556
227	0xbc017ebd	-0.007903752
228	0xbd281bd1	-0.041042153
229	0x3d08089d	0.03321134
230	0xbdfc0acc	-0.12306747
231	0xbc75479c	-0.014970686
232	0xbd6beb8f	-0.057597693
233	0x3df8d64e	0.121502504
234	0x3d513a1f	0.05108082
235	0x3d0e413c	0.03473018
236	0xbdcfcea3	-0.10146835
237	0xbdfc9bf6	-0.12334435
238	0xbbabc26c	-0.0052416828
239	0x3c2178c4	0.009855453
240	0xbcb3b624	-0.021937437
241	0xbdde51cf	-0.108554475
242	0x3d5727e1	0.052528266
243	0xbe0376a5	-0.12838228
244	0xbd9e974e	-0.07743703
245	0xbd7458c0	-0.05965495
246	0xbb4c4275	-0.0031167541
247	0x3dfcefb4	0.12350407
248	0x3dcccb3a	0.099997
249	0x3d509da2	0.05093158
250	0x3d4914b3	0.049092006
251	0x3d161f4e	0.03665095
252	0x3dad0ac6	0.084493205
253	0xbde7a3a1	-0.113105066
254	0x3c4a8189	0.012359985
255	0x3d80d1cc	0.062900156

fc.weight f4 [1, 64]
0	0x3d637661	0.055532817
1	0x3e008819	0.12551917
2	0x3d8e0927	0.069353394
3	0x3dcd081b	0.100113116
4	0x3dd2fa95	0.10301701
5	0xbcecf6bd	-0.028926248
6	0xbd375c51	-0.044765774
7	0xbd85e528	-0.06537849
8	0x3da2324e	0.07919751
9	0x3d9e6de0	0.07735801
10	0xbd981f71	-0.07427872
11	0x3de3cdab	0.111232124
12	0x3c9977fa	0.018733967
13	0xbd386016	-0.04501351
14	0xbd049c5e	-0.032375686
15	0x3cc8e002	0.024520878
16	0x3c607641	0.013700069
17	0x3d85e53e	0.06537865
18	0x3de113f2	0.109901324
19	0x3d5bbd7c	0.053647503
20	0xbe0077da	-0.1254572
21	0xbdd87e3d	-0.10570953
22	0xbde54fee	-0.11196886
23	0xbdac5a28	-0.084156334
24	0xbd6f1fdd	-0.058379997
25	0xbdc9ab99	-0.09847183
26	0xbd294f1a	-0.041335203
27	0x3d077344	0.03306891
28	0xbc187f63	-0.009307715
29	0x3c9cbe8b	0.019133827
30	0xbca8aa97	-0.020589156
31	0x3d7868c5	0.06064679
32	0xbcf41113	-0.029793298
33	0x3dcd3c61	0.10021282
34	0xbd750da3	-0.059827458
35	0xbd8824da	-0.06647654
36	0x3d55189c	0.052025422
37	0xbd22da9a	-0.039759256
38	0xbcff9a22	-0.031201426
39	0x3dd1c90e	0.10243426
40	0x3d9afed3	0.07568135
41	0xbcc36af6	-0.023854714
42	0xbe06043b	-0.13087551
43	0xbda01733	-0.07816925
44	0x3dcc03dc	0.099616736
45	0xbdefa39c	-0.11701128
46	0x3d186d86	0.037213825
47	0x3d36e6e7	0.0446538
48	0xbe08ae54	-0.13347751
49	0x3d128134	0.03576775
50	0xbd76a24a	-0.060213365
51	0x3d6ec2ab	0.05829112
52	0xbddc00da	-0.1074235
53	0x3d440952	0.04786045
54	0xbdcbe921	-0.09956575
55	0x3cc68274	0.024232127
56	0xbd7bebe2	-0.061504252
57	0x3dab326a	0.08359225
58	0xbdcb5bb2	-0.09929599
59	0x3dc3fde5	0.09569911
60	0x3d22371c	0.039603338
61	0x3d365bbb	0.044521075
62	0xbddaa74e	-0.10676442
63	0xbda13235	-0.07870904
