resources/models/14_by_14/relu_model_v100.pth (torch, 392148 bytes, 26 tensors)

0.weight f4 [256, 196]
000000 9c 44 6d bd 2b 82 64 bd 31 1d 66 bd 90 96 a4 bc
       -0.05792676 -0.0557882 -0.056180183 -0.020091325
000010 e0 23 51 3d ef db fa 3b 71 0b 46 3d ce 08 85 bd
       0.051059604 0.0076556127 0.048350755 -0.0649582
000020 fa f5 49 bd 14 d7 4a bd 32 f7 15 bd 1c 97 26 bd
       -0.049306847 -0.04952152 -0.036612697 -0.040671453
000030 e3 28 00 3d 1c f4 1d bd 67 95 e8 bc 69 7f de bc
       0.031288993 -0.03856288 -0.028391553 -0.027160363
000040 44 99 00 3d e3 18 7c bd eb bc 12 3d 15 cf e5 3c
       0.031396165 -0.06154717 0.035824697 0.028052846
000050 17 26 bb bc 4f 53 48 3d d1 f4 96 bc 67 6a 76 3d
       -0.022845311 0.048907574 -0.018427284 0.060160067
000060 cc 97 ef 3c 36 d4 6a bd a5 26 9e bd f8 20 06 bd
       0.029247187 -0.057331286 -0.077222146 -0.032746285
000070 03 cf 2c 3d 7a 26 b3 3c 0e 1d dd 3c 5c 9e 72 bd
       0.04218961 0.021868933 0.026991393 -0.059233055
000080 a2 42 1b bc d9 17 18 3c 67 1f 92 3c 5a bd 1f bd
       -0.009476336 0.0092830295 0.01783724 -0.03899894
000090 24 b2 03 3d fa 84 f6 3c 1b e3 c4 3c fd 04 c4 3c
       0.03215231 0.030092705 0.024034074 0.02392816
0000a0 69 9e f0 3a 14 ef 72 bd cc eb 2e bc c1 33 33 3d
       0.0018357757 -0.059310034 -0.010676336 0.04375053
0000b0 dd 3c a5 bd f6 f9 e1 bc 36 5c e9 ba 5a 38 6c 3d
       -0.080682494 -0.027585011 -0.001780397 0.05767093
0000c0 6c df b2 bd f0 3f 97 bd bc 7b 4d 3d 69 20 ab bd
       -0.087340206 -0.07385242 0.05016683 -0.08355791
0000d0 3e d3 66 3d ba c3 7a bd 19 9c b5 bc 9f ef 1c 3d
       0.0563538 -0.061221816 -0.02216916 0.038314458
0000e0 e5 4b 89 3c ba 2a 1e bc b8 d0 05 3d 91 7c 56 3c
       0.016759822 -0.0096537415 0.032669753 0.013091222
0000f0 f8 13 46 ba f2 69 db 3c c0 34 52 3a 66 cc 31 3c
       -0.0007556076 0.026783917 0.00080187246 0.010851955
000100 c7 32 22 bd 48 8a 07 3d d9 68 bc 3c 15 13 8c bd
       -0.039599206 0.03309086 0.022999214 -0.06839577
000110 0c 98 25 3d 5a 7c 20 3d 62 9d 1c bd bc b2 3f 3d
       0.040428206 0.03918109 -0.03823603 0.046801314
000120 bd 0a ea bc e8 48 17 bd 8b df fa 3c c6 ae dd 3c
       -0.028569574 -0.036934763 0.030624172 0.027060878
000130 ee 59 5a 3d ea e0 d2 3c 2d c1 97 bd 3b 83 22 bd
       0.05330842 0.025742013 -0.07409892 -0.039675932
000140 9a 9d 69 bd cf d4 81 bd 0f 67 55 3d 06 90 d5 bb
       -0.057035066 -0.06339418 0.052100237 -0.006517413
000150 12 04 97 bd 08 ab 40 bd cb ce 48 bc eb 5f 0a bc
       -0.07373823 -0.047038108 -0.012256335 -0.00844572
000160 ff 04 6a 3c 6d c7 26 3d 5a 26 8f 3b 2a 11 ba 3c
       0.014283418 0.04071753 0.0043685855 0.022713263
000170 ac 3d 3b 3d 0b 58 bc bd c7 35 30 bd 98 09 8d 3c
       0.04571311 -0.0919648 -0.043020036 0.017216489
000180 14 e2 8e 3c f5 ca 69 3c 4a 82 28 3c e0 ab cf 3c
       0.017441787 0.01426958 0.01028497 0.025350511
000190 4a df 69 ba ea 4e ec 3c d9 c1 03 bd 4b ac 55 bc
       -0.00089215173 0.028846223 -0.03216729 -0.013041566
0001a0 36 1d 62 3d fd 89 0b 3d 6b 1f 31 3d 25 81 ec 3c
       0.05520364 0.034067143 0.043242853 0.028870175
0001b0 f9 fe 36 bc 76 8b 30 bc d9 bd bd bc b4 49 7b 3d
       -0.011169189 -0.010775438 -0.023161815 0.061349586
0001c0 83 0a 85 bd 5f f9 a8 bd 6f a4 3f bc 3e 59 68 bd
       -0.064961456 -0.08250689 -0.011696919 -0.056725733
0001d0 f2 24 22 bd bf 4c be 3c 48 de 36 bc fc d7 ff 3c
       -0.039586015 0.023229955 -0.011161394 0.031230919
0001e0 20 0f ea 3c 3c ee cf bc b0 50 3b bd 85 c4 0a 3c
       0.028571665 -0.025382154 -0.045731246 0.0084697055
0001f0 66 d8 37 3c be 75 3c 3c 9f 43 09 3d 79 ac 68 3c
       0.011221027 0.011502681 0.033511754 0.014201277
000200 59 16 83 3b e3 f5 ab 3c 0f 73 1a 3d fb 84 18 bd
       0.004000467 0.020991271 0.037707385 -0.037236195
000210 84 ec 96 3c e8 54 02 bd 7b a5 09 3d 7a 9d 63 bd
       0.018423326 -0.031819254 0.03360508 -0.055570103
000220 52 13 b3 bc a3 89 83 bd 8b 25 e2 3c d7 ca b9 bd
       -0.021859799 -0.064227365 0.027605793 -0.09071892
000230 d9 0c 44 bc f7 7c 56 bd 55 23 ca bc 86 2c 1b 3d
       -0.011965954 -0.05236527 -0.02467505 0.037884258
000240 7e 82 06 3c bc 15 8a 3d 48 6d 47 bd 0a c6 38 bd
       0.008209823 0.06742427 -0.048688203 -0.04511074
000250 a7 01 8b bd 77 1c 88 bd 23 d4 bc 3b 30 b9 d0 3c
       -0.067874245 -0.06646054 0.0057625934 0.02547893
000260 25 8f 78 3d f8 e6 6d 3d ca 9f b7 3c 6d 19 d3 3c
       0.06068339 0.058081597 0.02241506 0.02576896
000270 26 47 09 bd 23 cf 10 bd ed dc 00 3d 6f 6b 25 3c
       -0.033515118 -0.03535379 0.03146069 0.010096415
000280 52 22 0d bd e0 b1 18 3d 70 03 38 3d de 55 72 bd
       -0.03445656 0.03727901 0.044925153 -0.05916392
000290 f2 9e ad bd 53 4a 15 bd da a8 88 3b 38 34 32 3d
       -0.08477582 -0.036447834 0.0041705193 0.04350683
0002a0 4b 23 07 3d bd eb 5e bd c4 dc 08 bc 3c 5f e9 bc
       0.032992642 -0.054424036 -0.008353416 -0.028487794
0002b0 98 af 7a bc fe 05 83 3d 40 ae ab bc 25 f3 ae 3c
       -0.015300654 0.06397627 -0.020957112 0.021356175
0002c0 69 02 a0 bc 6b ee 9b 3c 98 05 7e bd 5c 3f 05 bd
       -0.0195324 0.019034585 -0.062017053 -0.032531127
0002d0 29 74 52 bd cc bd 41 3d aa 09 84 bd 24 62 e4 bc
       -0.05138031 0.047300145 -0.06447156 -0.027878828
0002e0 12 02 6a bd 93 7e a3 bc a0 dd 64 3d 97 2b d4 bc
       -0.05713088 -0.019957816 0.05587542 -0.025899692
0002f0 4a 6b 81 3c 4b 97 2e 3d 22 08 6f 3c 18 87 b7 bc
       0.01579823 0.042624753 0.014589341 -0.022403285
000300 0f e4 5d 3d 6c b5 40 3d 2e 85 1f bc f3 c9 f3 bc
       0.05417257 0.047048017 -0.009736342 -0.029759383
000310 c7 f0 a1 bc 5a 60 3e 3d 9f 34 6a 3d 10 5f 30 bd
       -0.019768132 0.046478607 0.05717909 -0.04305941
000320 4e 72 76 3d 01 c7 04 bc 7c f3 8f bc b9 a3 6c bd
       0.060167603 -0.008104087 -0.017572157 -0.057773326
000330 34 50 09 3d d2 b3 7b 3d a2 ce fd 3c f9 66 19 3d
       0.033523753 0.061450787 0.03098232 0.037451718
000340 27 27 12 3c 32 2e 34 bc f3 28 e8 3b 41 d2 60 bc
       0.008920467 -0.010997342 0.0070849597 -0.013722003
000350 fd 6c 29 3d 94 4f 72 3d 89 9d 86 bc fa de 19 3d
       0.041363705 0.059157923 -0.01643254 0.037566163
000360 72 a0 7b bd 67 a0 3c 3d 8d 76 24 bd eb 0b 26 3d
       -0.06143231 0.04605141 -0.04015212 0.04053871
000370 6f 1e 6d bc 56 b8 8c bd f6 36 15 bd a3 cc 92 bc
       -0.014472588 -0.06871097 -0.036429368 -0.017919844
000380 1b c8 3d 3d ab 39 85 bb 26 4e ef 39 e8 36 84 3d
       0.046333414 -0.0040657124 0.00045643857 0.06455785
000390 47 a4 81 bc 1a 07 e5 bc d5 2e 95 bc 7e ce ac 3c
       -0.015825404 -0.027957488 -0.018210808 0.021094557
0003a0 9d 52 2c 3c 9a 29 9c 3c 9e eb e2 39 4f 89 d6 3c
       0.010517743 0.019062806 0.00043281628 0.02618852
0003b0 42 ec 92 3b 7c 52 a4 3c e6 e7 2d bd 09 80 40 bd
       0.0044837305 0.020058863 -0.042457484 -0.046997104
0003c0 29 a1 14 bd 9b 19 5e bd c3 44 5c b8 53 7a 13 3d
       -0.036286507 -0.054223638 -5.2516127e-05 0.03600533
0003d0 ac 6e 94 bd 39 9c 00 bd a8 d1 af 3b 0a 2d 3b bd
       -0.072476715 -0.031398986 0.005365569 -0.04569725
0003e0 a9 fe 20 3c 95 bb 9c bd 53 96 8c bd 72 49 71 3d
       0.009826341 -0.07652966 -0.068646096 0.058907934
0003f0 95 38 d6 bc 45 26 85 bd b5 eb 32 bd a3 3a 9d 3b
       -0.026150027 -0.0650144 -0.04368182 0.00479825

0.bias f4 [256]
000000 2b 9c 0e 3c 97 45 65 3d f4 22 9c bc 69 8a f3 39
       0.0087042255 0.05597457 -0.019059636 0.00046451695
000010 e6 3f 65 3d 0b 88 cc 3c 6b 93 9c 3c 93 18 da bc
       0.05596914 0.024967214 0.019113263 -0.026623046
000020 96 61 9b 3c 96 61 75 bd 86 08 45 bd e8 e1 40 3c
       0.018967431 -0.05990752 -0.04810383 0.01177261
000030 a8 5a d5 3c 23 b5 20 bc b6 62 25 3d 01 e3 08 bc
       0.026044205 -0.009808811 0.04037734 -0.008354903
000040 44 93 04 bd 31 65 1d bd 8e 8d 77 3d cf 8f 64 3d
       -0.032367006 -0.03842658 0.06043773 0.05580121
000050 4b 07 39 3d 35 66 7a bc 44 01 26 bd 21 19 25 bd
       0.04517297 -0.015283157 -0.04052855 -0.040307168
000060 60 0a a6 3c b5 13 08 bd d6 fe 8c 3d ad 8d 53 bd
       0.020268619 -0.03322192 0.068845436 -0.051648784
000070 ba d4 0c 3d 6a 10 87 bd 5d 4d 0e bc a5 af 66 bd
       0.03438256 -0.065949276 -0.008685437 -0.05631985
000080 0d 57 8b 3d e4 78 12 3b 0a 21 c1 3c 8c 81 a2 3c
       0.06803713 0.0022349888 0.023575325 0.019837163
000090 ab 14 39 bd c5 48 24 3d f4 cc d8 bc 56 26 28 3d
       -0.045185726 0.04010846 -0.026464917 0.041052185
0000a0 f2 73 68 3d a4 92 cd 39 a0 eb 46 3d 76 f6 46 bd
       0.0567512 0.00039209903 0.048564553 -0.048574887
0000b0 2b 85 50 3c 68 bc 10 bd 8f db b0 b9 d8 42 4c bd
       0.012727062 -0.03533593 -0.0003373292 -0.049868435
0000c0 0a 09 01 bd 17 0d 53 bc 32 fd 52 3d 8c 1e 02 3d
       -0.03150276 -0.012881539 0.051510997 0.031767413
0000d0 69 24 54 3c b2 32 07 3d cf 90 41 bd 48 e6 3c bc
       0.012948134 0.03300733 -0.04725724 -0.011529513
0000e0 4e f9 6d 3d a1 aa 56 3d b1 6d 95 3c 50 4f d3 bc
       0.058099084 0.05240882 0.018240782 -0.025794655
0000f0 50 86 4b bd 27 65 81 bc a4 1d b0 39 a3 eb 0a 3c
       -0.049688637 -0.015795304 0.0003359142 0.008479032
000100 d9 0b 58 3d af ac fe bc ef 98 28 3d fe 0a 15 bd
       0.052745674 -0.031088201 0.041161474 -0.036387436
000110 42 a7 8f bd 47 db 25 3d d2 58 8b 3d d5 e8 55 3c
       -0.07014324 0.040492322 0.068040505 0.013056
000120 41 8d 3c 3d d9 7a aa bb 4a c9 59 bd 32 2d 11 bd
       0.046033148 -0.005202633 -0.05317048 -0.035443492
000130 cd a6 36 bd fc fb 29 3d b6 7f 13 3c 88 1c 88 3d
       -0.044592667 0.041500077 0.009002617 0.06646067
000140 3e af 06 bd a7 e7 fd 3b 6b c8 91 3d 4b d2 83 bd
       -0.032881968 0.0077485624 0.07118305 -0.064365946
000150 73 6e 7c bd 6f ca 01 bc 44 b8 c8 bc c5 b1 90 bd
       -0.06162877 -0.007921799 -0.024501927 -0.07065157
000160 63 5f 4e 3d 3f 05 92 bb 93 45 ba bc de ad 59 bd
       0.050383937 -0.004456192 -0.022738254 -0.05314433
000170 af ea 2c 3d bd 95 17 3d f5 17 9d 3c 9e 01 0f bd
       0.042216 0.037008036 0.019176463 -0.03491365
000180 d7 31 8c bd b7 06 8c bd d1 aa cb 3c 1a 41 8a bd
       -0.06845444 -0.06837218 0.024861725 -0.067506984
000190 47 75 9d 3c a1 17 85 bd b0 33 54 bd ba 73 53 bd
       0.019220961 -0.064986475 -0.051807106 -0.051624037
0001a0 e0 6c 67 3d 2e 40 91 3d 50 2e 1b bd 5f fa 6a bd
       0.056500316 0.070923194 -0.037885964 -0.05736768
0001b0 e7 21 3a 3d f0 53 99 ba e2 04 fc 3b 33 cc 8d bd
       0.045442488 -0.0011697989 0.0076910118 -0.069237135
0001c0 3c 1c 87 3d eb cc 09 3d e9 4f 21 3c d0 38 2e bd
       0.06597182 0.03364269 0.009845712 -0.04253465
0001d0 71 3c 61 bd dd 76 30 3c 53 9c 9f 3c 4b 25 cf 3b
       -0.054989282 0.010770527 0.01948372 0.0063215843
0001e0 93 85 8e 3d e4 3b 6f 3d 4c 2f 48 3c 17 24 7e 3d
       0.06959071 0.058406726 0.012218308 0.062046137
0001f0 46 d9 60 3d 1c 63 85 bd 77 a0 2d bc c4 cf 75 3d
       0.054894708 -0.06513044 -0.01059734 0.060012594
000200 e6 58 1d bd 26 3e b2 3c 6e 0c 64 bd 2c bc 63 3d
       -0.03841486 0.02175815 -0.055675916 0.055599377
000210 f4 60 4b bd 31 03 6e bd 1c 50 9b bc e8 32 12 bd
       -0.04965301 -0.058108512 -0.018959098 -0.03569308
000220 28 13 15 bd f3 41 7a 3b 57 08 e4 bb b7 ef c9 3c
       -0.036395222 0.0038186281 -0.006959002 0.024650438
000230 95 0a 18 3b e6 fb 2b bd 9a c2 16 bd ed d0 e5 3c
       0.0023199667 -0.041988276 -0.03680668 0.028053725
000240 0d 66 68 bd e5 a6 71 bd af 18 43 bd a4 18 4f 3d
       -0.05673795 -0.058997054 -0.047630962 0.05056061
000250 46 d9 d7 bc 9e 91 33 3d 78 02 83 bc 45 d4 1b 3d
       -0.026348721 0.043840043 -0.015992388 0.038044233
000260 3b e9 83 3c 50 e3 39 bd e3 f6 0e bd 53 ed 75 bb
       0.016102424 -0.045382798 -0.03490342 -0.003752549
000270 2b cd 8c bd d5 91 08 bc ec be 4c 3d 68 6c 35 3c
       -0.0687507 -0.00833555 0.049986765 0.011073209
000280 87 7b 16 bd a3 10 df bc 71 8d 51 3d 2e df 84 bd
       -0.0367389 -0.027229613 0.05116028 -0.06487881
000290 d4 12 2b bb 26 b0 20 3d 0a f3 83 3b 01 a5 d3 bc
       -0.0026103752 0.03923049 0.0040267752 -0.025835516
0002a0 8d d2 cd ba 17 1a 8e bd 38 83 ee 3c ab 79 81 3c
       -0.0015703008 -0.0693857 0.029115304 0.015805086
0002b0 f2 0c 12 3d 18 d7 c5 bc 25 47 85 3c d1 3c 77 3d
       0.035656877 -0.024150416 0.016269276 0.060360733
0002c0 65 dc 4e bd 3a 62 4e 3d 1b 74 0c 3d 74 57 80 3d
       -0.050503153 0.050386645 0.034290414 0.0626668
0002d0 be e6 0d 3d 1f b9 45 bd e2 fb 0d bd 13 03 cb bc
       0.03464388 -0.04827225 -0.034664042 -0.02478174
0002e0 ab 59 d3 bc 1e 09 09 bc 84 55 8c bd 20 cb 83 bd
       -0.025799593 -0.00836399 -0.06852248 -0.064352274
0002f0 80 a5 f8 3c 19 34 1d 3c 70 ac 16 bd 3d f7 02 bc
       0.030352354 0.009594941 -0.036785543 -0.0079935165
000300 88 e7 d3 bc 7b 01 f3 3c 42 98 66 3c 45 10 aa bb
       -0.025867239 0.029663792 0.014074387 -0.0051899278
000310 c4 3e 3e bd 3f 00 22 bd 4c 10 70 3d de a6 db bc
       -0.046446577 -0.039551016 0.058609292 -0.026812967
000320 f8 8b c3 bc b4 d5 8c 3d 96 0f 2e bd 05 ca bc 3b
       -0.023870453 0.06876698 -0.042495333 0.0057613873
000330 b9 a5 11 3b 46 44 1b bd 9a 08 84 bb bf d1 27 3d
       0.0022224023 -0.037906907 -0.0040293457 0.040971514
000340 42 e5 01 3c 6c c2 16 3c e8 8f 35 3d 0d f5 65 bc
       0.0079281945 0.009201627 0.044326693 -0.014035475
000350 ff 61 88 bd e3 0f 82 3d d3 dd 88 3d a7 3d a5 3b
       -0.06659316 0.063506864 0.066829346 0.00504275
000360 b3 29 94 3c d2 2a af 3c de 1c 28 bd d4 e7 2b 3c
       0.01808629 0.021382723 -0.041043155 0.010492284
000370 f9 0a 68 3d f0 1e 88 3d c3 eb 09 bb f1 c9 4a bd
       0.05665109 0.06646526 -0.0021045066 -0.049508993
000380 a3 6e 33 3d cb 86 cc 3c f5 c5 17 3d c6 71 1c 3d
       0.043806683 0.024966618 0.03705402 0.03819444
000390 dc 83 1e bd ab 56 26 bd d1 9b ca bc 89 a5 52 3d
       -0.03869997 -0.040609997 -0.024732502 0.051427398
0003a0 f2 53 31 bd 8c 62 10 3c 9a d8 19 bd c5 c7 0b bc
       -0.043292947 0.008812558 -0.037560083 -0.0085315155
0003b0 16 3e 28 bd 13 46 7d bc fc b5 fb 3c cd 74 3f bd
       -0.041074835 -0.0154586015 0.030726425 -0.04674225
0003c0 ec 61 45 3b 6c 12 83 3c ae ee 33 bd 6a e4 d0 3c
       0.003011818 0.015999995 -0.043928795 0.025499541
0003d0 51 d7 0a 3d 8f 4b 8f bd e8 23 e3 3c 60 fc 39 bd
       0.033896748 -0.069968335 0.027727082 -0.0454067
0003e0 d1 0e 20 bb f5 c5 7d bd 36 dd 64 3d 37 ff 0e bd
       -0.0024422894 -0.061956365 0.055875026 -0.03491136
0003f0 42 81 42 3d 7f ae 8c 3d 90 24 ca 3c db a0 f0 3b
       0.04748655 0.0686922 0.024675637 0.007343394

1.weight f4 [256]
000000 09 15 7d 3f 13 db 74 3f d0 53 7b 3f d0 6b 7f 3f
       0.9886022 0.9564678 0.9817476 0.99773884
000010 a4 91 7d 3f 3c 14 81 3f 6d 67 7f 3f 49 9a 76 3f
       0.99050355 1.00843 0.9976719 0.9632917
000020 b3 9c 80 3f 96 73 7b 3f 19 30 84 3f 07 07 83 3f
       1.0047821 0.98223245 1.0327178 1.023652
000030 cb 4a 81 3f e3 5c 81 3f 03 6d 87 3f e2 01 81 3f
       1.010095 1.0106472 1.0580143 1.00787
000040 71 68 88 3f e2 52 7c 3f bb c0 7c 3f 83 6f 7d 3f
       1.0656873 0.9856397 0.98731583 0.9899828
000050 27 c2 75 3f 20 b2 80 3f 76 d6 82 3f a6 c7 83 3f
       0.9599938 1.005436 1.0221698 1.0295303
000060 bd 22 79 3f 6d b5 80 3f 0d ce 7f 3f a1 fd 7d 3f
       0.9731863 1.0055367 0.99923784 0.9921513
000070 5a 49 81 3f f4 00 7b 3f 0d 78 7c 3f ed 0a 7e 3f
       1.010051 0.9804833 0.9862068 0.9923542
000080 17 3c 81 3f b6 50 8a 3f 9a b1 82 3f 5b 5b 79 3f
       1.0096463 1.0805881 1.021045 0.9740502
000090 0f 05 7a 3f aa 49 72 3f 47 1d 8f 3f d1 b3 82 3f
       0.9766397 0.9464365 1.118081 1.0211126
0000a0 6a 9a 80 3f d9 73 81 3f 21 51 79 3f ab dc 80 3f
       1.0047123 1.0113479 0.9738942 1.0067343
0000b0 21 29 7f 3f a4 92 7f 3f 44 a7 80 3f c2 93 7a 3f
       0.9967213 0.9983313 1.0051045 0.9788171
0000c0 15 50 7a 3f 95 3f 81 3f e5 cb 7c 3f 56 c0 7a 3f
       0.97778445 1.0097529 0.9874862 0.9794973
0000d0 e3 9f 7c 3f a8 43 81 3f 94 44 79 3f d6 ed 7c 3f
       0.9868147 1.0098772 0.97370267 0.9880041
0000e0 e0 7a 81 3f 1a 48 7f 3f 4c 55 83 3f ff 4e 80 3f
       1.0115623 0.99719393 1.0260406 1.0024108
0000f0 d6 db 80 3f b9 47 7a 3f 48 a4 7d 3f 5a 77 77 3f
       1.0067089 0.9776569 0.990788 0.9666649
000100 07 19 78 3f 8d 04 7e 3f fd 12 7b 3f a2 0f 81 3f
       0.9691319 0.99225694 0.9807585 1.0082896
000110 d5 a4 81 3f 0f b7 7a 3f 3c da 88 3f c4 6a 81 3f
       1.0128428 0.97935575 1.06916 1.0110707
000120 f2 ae 80 3f 5d 88 7c 3f ca 43 77 3f 47 9a 8c 3f
       1.0053389 0.98645574 0.9658781 1.0984582
000130 91 7f 81 3f d4 f7 7f 3f 5b 98 80 3f 65 6b 79 3f
       1.0117055 0.9998753 1.0046495 0.97429496
000140 65 ab 79 3f 21 73 7a 3f 8a bf 7d 3f 8b 4d 81 3f
       0.9752715 0.9783192 0.9912039 1.0101789
000150 a8 af 87 3f 13 bf 80 3f d5 6d 7a 3f f9 ec 80 3f
       1.0600481 1.0058311 0.9782384 1.0072318
000160 9d 18 72 3f fc d0 7e 3f a4 74 78 3f 6c 58 7b 3f
       0.94568807 0.99537635 0.9705298 0.98181796
000170 86 a5 7b 3f 96 ff 78 3f e1 02 7f 3f 90 8f 7d 3f
       0.98299444 0.97264993 0.9961377 0.99047184
000180 dc 20 80 3f 5a 69 78 3f f9 ce 80 3f 3d bc 7d 3f
       1.0010028 0.97035754 1.0063163 0.99115354
000190 01 93 80 3f 07 ba 7c 3f 0c dd 79 3f 49 96 8f 3f
       1.0044862 0.98721355 0.97602916 1.1217738
0001a0 16 06 81 3f e5 75 80 3f 56 b3 80 3f 61 71 7c 3f
       1.0079982 1.0035979 1.0054729 0.986105
0001b0 c5 86 7f 3f a6 72 81 3f 8e 99 78 3f 66 f7 7b 3f
       0.99815017 1.0113113 0.97109306 0.98424375
0001c0 cd e4 76 3f 95 08 81 3f 1a 18 7d 3f fd 60 81 3f
       0.9644287 1.0080744 0.988649 1.0107723
0001d0 ee 4d 80 3f e0 4a 86 3f cf 5f 7b 3f 25 17 8a 3f
       1.0023782 1.04916 0.9819307 1.0788313
0001e0 98 06 7e 3f ad b9 7a 3f 35 73 8a 3f d6 31 81 3f
       0.9922881 0.9793957 1.0816408 1.0093334
0001f0 02 3c 80 3f 08 fc 80 3f e3 f2 80 3f 72 3e 80 3f
       1.0018313 1.0076914 1.0074123 1.0019057
000200 01 fb 80 3f c5 52 7a 3f 41 18 80 3f 9c e3 7c 3f
       1.00766 0.97782546 1.0007402 0.98784804
000210 2c c5 81 3f 69 e7 7f 3f d2 99 7d 3f 52 36 81 3f
       1.0138297 0.9996248 0.99062836 1.0094702
000220 13 1a 80 3f 94 f8 7e 3f a1 9e 81 3f f1 7d 7d 3f
       1.0007957 0.9959805 1.0126535 0.99020296
000230 a2 6f 7d 3f b6 12 7c 3f 09 4f 81 3f f1 c4 7c 3f
       0.98998463 0.9846605 1.0102245 0.9873801
000240 84 cd 7a 3f 1a 0e 80 3f 33 cb 7d 3f 23 aa 7d 3f
       0.9796984 1.0004303 0.9913818 0.99087733
000250 f0 73 82 3f 93 dc 7b 3f 0c 88 82 3f 9b d5 7b 3f
       1.0191631 0.98383445 1.0197768 0.9837281
000260 e1 3f 81 3f b3 8d 7a 3f f5 09 81 3f 69 e8 75 3f
       1.0097619 0.97872466 1.0081164 0.96057755
000270 31 95 7d 3f 33 c2 85 3f 81 22 79 3f c0 07 8e 3f
       0.99055773 1.044989 0.97318274 1.1096115
000280 c8 d4 80 3f d8 7a 85 3f 1d 81 7c 3f f3 b8 7f 3f
       1.0064936 1.0428114 0.9863451 0.99891585
000290 ae 03 87 3f 3e 1e 78 3f e6 33 81 3f c3 f4 7c 3f
       1.0547998 0.96921146 1.0093963 0.98810977
0002a0 7b 6d 8c 3f 9b 88 81 3f 2d 95 7b 3f 19 a4 7b 3f
       1.0970911 1.0119814 0.982745 0.9829727
0002b0 ea 21 7f 3f 75 44 71 3f eb b5 7b 3f f9 e1 7d 3f
       0.99661124 0.9424508 0.9832446 0.9917293
0002c0 43 64 80 3f 97 7e 7d 3f 65 89 7a 3f f5 3c 7f 3f
       1.0030597 0.99021286 0.978659 0.9970239
0002d0 82 95 81 3f 33 67 80 3f 10 fc 7e 3f d7 88 8e 3f
       1.0123751 1.0031494 0.99603367 1.113551
0002e0 84 1b 80 3f 44 45 80 3f 2b e0 7e 3f bd b9 74 3f
       1.0008397 1.0021138 0.99560803 0.95595914
0002f0 f4 b3 80 3f 52 ed 78 3f 87 7e 79 3f 19 4e 81 3f
       1.0054917 0.9723712 0.9745869 1.0101959
000300 34 10 7a 3f 54 c3 7f 3f 92 a1 7d 3f 9f 58 80 3f
       0.97680974 0.9990742 0.9907466 1.0027045
000310 0b 65 7e 3f 5d 48 80 3f ec d4 7d 3f d9 4c 7b 3f
       0.9937293 1.0022084 0.9915302 0.98164135
000320 b1 1a 80 3f f8 3a 72 3f 7d 07 82 3f 95 be 80 3f
       1.0008146 0.9462123 1.0158535 1.0058161
000330 79 8d 7b 3f 24 7c 7c 3f b8 96 7d 3f e1 93 7f 3f
       0.98262745 0.98626924 0.99058104 0.9983502
000340 b2 df 84 3f d3 e7 7f 3f e7 d6 80 3f e4 45 80 3f
       1.0380766 0.9996311 1.0065583 1.0021329
000350 6c 41 7d 3f 09 6d 80 3f 6b 97 7f 3f 3b f7 75 3f
       0.9892795 1.0033275 0.9984042 0.9608037
000360 0e 15 7d 3f 15 b9 7b 3f 2d 8a 77 3f 29 08 81 3f
       0.9886025 0.9832929 0.96695215 1.0080615
000370 f8 05 80 3f 50 36 81 3f 03 b8 7b 3f d0 8d 80 3f
       1.0001822 1.00947 0.98327655 1.0043278
000380 d8 7e 79 3f 53 d7 7f 3f 3b d9 80 3f e7 f0 83 3f
       0.97459173 0.99937934 1.0066293 1.0307893
000390 fd b6 81 3f 76 7a 7b 3f f1 f5 7e 3f 22 44 82 3f
       1.0133969 0.98233736 0.99594027 1.0177042
0003a0 85 36 89 3f 11 e3 7d 3f cd 12 74 3f 67 d9 7b 3f
       1.0719763 0.991746 0.9534119 0.98378605
0003b0 f2 44 7d 3f 0d 85 80 3f 49 88 7e 3f 17 60 7b 3f
       0.9893333 1.0040604 0.99426705 0.98193496
0003c0 06 73 81 3f 9f 1a 80 3f f1 37 7a 3f fd b9 79 3f
       1.0113227 1.0008124 0.9774161 0.9754942
0003d0 39 b1 80 3f 6c 10 7d 3f 26 7a 81 3f 3a 96 80 3f
       1.0054084 0.9885318 1.0115402 1.0045846
0003e0 a7 ad 7c 3f 95 f0 7e 3f 3e d9 79 3f 72 96 81 3f
       0.9870247 0.9958585 0.9759711 1.0124037
0003f0 ee ad 81 3f c3 f8 7c 3f 9c 2f 80 3f d9 e4 80 3f
       1.0131204 0.9881708 1.0014529 1.0069839

1.bias f4 [256]
000000 71 69 90 bc 80 6e 80 bc 58 a3 47 bd ca 95 2a bc
       -0.017628403 -0.01567769 -0.04873976 -0.010411689
000010 74 8d b8 ba 48 22 05 3b 86 1d 8b bc ea dd d7 bc
       -0.0014080242 0.0020314623 -0.016981851 -0.026350934
000020 f0 5f dc 3c 99 33 02 bd bc 2e 04 3c 6d 8a d1 bc
       0.026901215 -0.03178749 0.008067783 -0.025578702
000030 d2 44 a5 3c 87 e9 02 3d 5c d5 95 bb 0d 8b d6 bc
       0.020174418 0.03196099 -0.0045725536 -0.026189351
000040 14 7d aa bc c7 31 09 bd de 1b a5 bc 37 69 98 bc
       -0.020811595 -0.033494737 -0.02015489 -0.018604858
000050 dd e7 00 bd d4 82 5e bb 58 f3 2c 3d 56 a5 59 3d
       -0.031471122 -0.0033952491 0.04222426 0.053136192
000060 4e 77 bb bc 4d ee 19 bc d6 1b 32 bd 53 0e 80 bc
       -0.022884037 -0.009395194 -0.043483578 -0.01563183
000070 54 72 c7 3c 04 82 c9 bc 7d 3d a9 bc 6a 95 48 bd
       0.024346508 -0.02459813 -0.020659203 -0.048970617
000080 b3 f5 c2 3c b6 a9 80 ba 68 a3 ac bc d6 cc b4 bc
       0.0237988 -0.0009816203 -0.021074012 -0.02207033
000090 11 ba 81 bc 8e 6e 2f bd c4 57 9b bc a4 23 2f 3c
       -0.015835794 -0.042830043 -0.018962748 0.01068965
0000a0 bb c1 b5 bb cb 8e 69 bc c5 5e ce bc 72 fd 4c bc
       -0.005546776 -0.014255236 -0.025191674 -0.012511598
0000b0 9c dd 52 bc 2b d1 4a 3d 40 89 a3 bc 25 4a 2d bd
       -0.012870219 0.049515884 -0.019962907 -0.042307038
0000c0 fa b6 5e bc e4 e0 6e 3c 94 27 9c 3c b1 c7 88 bc
       -0.01359343 0.014579985 0.019061841 -0.016696783
0000d0 e4 d8 7c bc 76 42 f0 3c 9e 4f 09 bd 79 cd 02 3b
       -0.01543257 0.029328566 -0.033523194 0.0019958897
0000e0 98 e5 49 3d d8 b0 5f bc 0a ab c3 3c 18 8f 9e bc
       0.049291223 -0.013653003 0.023885269 -0.019355342
0000f0 42 cc d1 b9 4c 68 cb bb c6 a7 bf 3c 7e b4 87 bc
       -0.0004001577 -0.0062075015 0.02339543 -0.016565558
000100 5f d7 7e bc d7 08 d6 3c 72 f5 00 bd cf 1d e5 3c
       -0.015554278 0.026127262 -0.031484075 0.027968315
000110 20 4e 9b 3c d8 2a 2e bc db 53 ef 3c e3 3d c3 3c
       0.018958151 -0.010630332 0.02921479 0.02383322
000120 e1 5f c7 bc 4d d1 a5 bc 1d 3d 48 3d b8 83 7a bc
       -0.02433771 -0.020241404 0.048886407 -0.015290193
000130 75 b5 d9 3c 86 10 28 bc 77 f7 19 bd 3d b3 eb bc
       0.026575783 -0.010257846 -0.037589516 -0.02877199
000140 01 be a9 bc 1e a6 1a bd 3c 52 1b bb 99 19 f7 3c
       -0.020720484 -0.037756078 -0.0023700139 0.030163573
000150 95 0f e2 3c 1d 7f 99 3c 4e 36 af bc 7e e9 1a bc
       0.02759532 0.01873737 -0.0213882 -0.009455083
000160 45 fc 75 bd 6e a8 47 bc fe c2 4d bd 12 e6 86 bc
       -0.060055036 -0.012186153 -0.050234787 -0.016467128
000170 ae 8c b8 bc 7a b3 76 bc 40 f7 e0 bc 24 20 54 3c
       -0.022528019 -0.015057439 -0.027461648 0.012947116
000180 4e 46 8b bc 1f 60 35 bd 83 ac 8c 3c 5f 22 ae 3b
       -0.017001297 -0.04428112 0.017172104 0.005314156
000190 20 2c 06 3c aa c0 a8 bc ff 0e 5b 3b b2 f4 a1 3b
       0.008189231 -0.020599682 0.0033425686 0.0049425
0001a0 b3 db fa 3c 5d ca 6f 3c 94 2a 82 bc 7e e7 c4 bc
       0.030622339 0.0146356495 -0.015889443 -0.024036165
0001b0 18 ca 99 3b 0a 6d 83 bc 28 57 10 bd 70 66 88 bc
       0.004693281 -0.016043205 -0.03523937 -0.016650409
0001c0 b2 9b 7a bd ed 30 0a 3d 66 99 30 bc f1 1e 75 3a
       -0.06118364 0.033738066 -0.010778761 0.0009350619
0001d0 7d 02 2d 3c aa dd 10 bc b3 82 cf bc b8 61 8c 3c
       0.010559675 -0.008841911 -0.025330877 0.01713644
0001e0 b0 64 0f ba 31 56 15 bc f4 b5 66 bc b0 08 6a 3c
       -0.00054700207 -0.009114788 -0.014081467 0.014284298
0001f0 38 74 a8 3c 88 80 54 bc 65 78 0e bb 2d 26 a8 3b
       0.02056323 -0.012970097 -0.0021739241 0.005131504
000200 b1 31 86 bc 31 b5 2e bc 5c 22 5c 3c d0 b1 d3 bc
       -0.016381117 -0.010663317 0.013435926 -0.025841624
000210 ed 2a fe 3c 6f 56 3b bc e3 a8 3b bd 32 28 d3 3c
       0.031026328 -0.011434182 -0.04581536 0.025776003
000220 15 3c b6 bc f8 a5 d3 3b 40 86 7f 3b ae 64 31 bc
       -0.022245446 0.006458994 0.0038989931 -0.010827227
000230 a2 57 60 3b c0 f1 04 3c 24 1d 6d 3c 85 52 17 3c
       0.003423192 0.008114278 0.01447228 0.009235983
000240 23 db b5 bc c8 fb b6 3c 7e d3 7f bc 21 97 31 bc
       -0.02219922 0.022336856 -0.0156143885 -0.010839255
000250 dd 87 15 ba ec b8 83 bc 86 63 71 3d f5 d9 3f bd
       -0.0005704144 -0.016079389 0.058932804 -0.04683872
000260 b7 8d 04 3d ad e5 0b 3c 02 ff 6c bb 1a ae 60 bc
       0.032361712 0.008538646 -0.0036162739 -0.013713384
000270 e6 ec b7 3b 2a 82 8e 3c cf f5 e6 bc 6e 4f 5e bc
       0.0056129573 0.017396051 -0.028193383 -0.013568742
000280 85 50 7a 3c f8 d0 b6 3c 96 45 00 bc 7d 38 07 bd
       0.015277986 0.022316441 -0.007829091 -0.033012856
000290 f0 9b 08 ba 9a 3f 3f bd 6d b9 bc 3c cc c3 fd bb
       -0.0005211225 -0.046691515 0.023037637 -0.007744288
0002a0 fe 39 2d 3c d0 e1 c1 3c 36 71 36 bd 0b df be bc
       0.010572908 0.023667246 -0.04454156 -0.023299715
0002b0 47 fe 01 3c c9 ba ff bc 39 69 a5 bc 1c 84 1f 3b
       0.00793416 -0.031216996 -0.020191776 0.0024340218
0002c0 a2 f2 cf bc 16 a4 80 bc ef 0e c1 bc ec a3 eb bc
       -0.025384251 -0.015703242 -0.023566691 -0.028764687
0002d0 5f 15 04 3d d6 2c be 3c 78 81 44 3a d0 7d 51 bd
       0.032246944 0.023214739 0.0007496099 -0.051145375
0002e0 ea 34 37 bc 75 11 ec bc 5f 7c 8d 3c 55 ba 18 bd
       -0.011182049 -0.028816918 0.017271219 -0.037287075
0002f0 3c ee 04 bc ec 12 7e bc c1 ed 03 bc a0 62 98 3c
       -0.00811344 -0.015507441 -0.00805229 0.018601716
000300 5a 45 7c bd 8f 9a be bc b2 f3 9c bc 6a fa 24 bb
       -0.061589576 -0.023267059 -0.019159172 -0.0025173672
000310 e9 ca a0 bc fa 61 c9 bc 58 ab 6d 3b 2c 39 0d bc
       -0.019628005 -0.024582852 0.003626546 -0.008619588
000320 8a 55 98 3c 88 66 3e bd 18 bf 47 3d ad d6 62 3c
       0.018595476 -0.0464845 0.048766226 0.013845128
000330 1d 46 a3 bc 63 8c 0c bd 1d 55 20 bc f0 02 fa bb
       -0.019930894 -0.03431357 -0.009785918 -0.0076297447
000340 dc 53 05 3a c5 60 a8 3b 80 9d 43 3c 7c 6f e8 3b
       0.00050860434 0.005138489 0.011939406 0.007093368
000350 0c 43 48 bc be c7 5a 3c 7e bd 81 ba 4c e5 26 bd
       -0.0122230165 0.013353286 -0.0009898392 -0.04074602
000360 38 42 a6 bc 89 b9 af bc 68 f6 cf bc 92 54 8c 3c
       -0.020295247 -0.021450775 -0.02538605 0.01713017
000370 c1 43 06 3a 28 f6 b7 3c 7e 9c 56 bc ad 86 22 3d
       0.00051217905 0.022456244 -0.013098834 0.039679218
000380 76 4d 9f bc 10 f6 25 3c 4f 9d 07 3d 4a 27 eb 3c
       -0.019446116 0.010129467 0.033109006 0.028705258
000390 08 f9 c3 bb 67 e4 e3 bc 05 16 8e bc e8 e8 af 3c
       -0.0059806146 -0.027818872 -0.017344484 0.021473363
0003a0 61 db 28 3d d6 f9 88 3a 89 f7 af bc f2 5a 13 3b
       0.04122484 0.0010450433 -0.021480339 0.0022484628
0003b0 d0 84 b0 bc fb 23 2c 3c 94 ab f4 3c 8a a3 d5 bc
       -0.021547705 0.010506625 0.029866971 -0.026078958
0003c0 7a 04 de bc 3e 69 72 bc 84 e5 04 bd 54 fe 55 bb
       -0.027101744 -0.0147955995 -0.032445446 -0.0032652812
0003d0 0f 3b bc 3c ff 08 99 bc 88 c2 72 3a 17 e4 9a bb
       0.02297738 -0.018681047 0.0009260555 -0.0047268975
0003e0 d0 74 32 bc ab 80 df bc 92 ee 26 bc 72 98 d3 3c
       -0.010892108 -0.027283033 -0.0101887155 0.025829528
0003f0 29 8b 9d bb 1e 94 3e bc d4 2c be bb fe 30 08 bd
       -0.004807849 -0.011631994 -0.005803684 -0.033249848

1.running_mean f4 [256]
000000 9c 21 fb 42 65 81 f1 43 c2 a1 ba c3 ed bf 60 44
       125.56564 483.0109 -373.26373 898.99884
000010 0c dc de 43 33 c1 80 c4 a8 66 41 c4 69 9b 65 44
       445.71912 -1030.0375 -773.604 918.4283
000020 f4 5d 6d 44 64 e4 66 c4 b5 e5 87 c4 01 a2 e2 c1
       949.468 -923.5686 -1087.1783 -28.329103
000030 c3 2a 77 44 31 ca e1 43 1f b8 23 c1 ed 75 49 c4
       988.66815 451.57962 -10.232451 -805.8426
000040 af 1c 80 41 c4 a6 3f c4 2c 7a 2e c4 cd 96 04 c4
       16.014006 -766.6057 -697.90894 -530.35626
000050 bf 6b 5b c4 b6 23 4b c4 1c 6b 5b 42 c2 ef 03 c3
       -877.68353 -812.558 54.8546 -131.93655
000060 37 f1 85 c4 b5 7d 71 c4 d2 64 8c c4 cf aa 5c c4
       -1071.538 -965.9642 -1123.1506 -882.6689
000070 a7 56 06 44 80 38 9e c4 2b 96 ff c3 b9 2a 67 c4
       537.35394 -1265.7656 -511.1732 -924.66754
000080 55 72 0d 44 43 7d a6 c1 ed b9 8e c2 f0 99 79 44
       565.78644 -20.811163 -71.36314 998.4053
000090 0b b1 81 44 a6 26 c1 c3 94 21 04 c1 98 9d 92 c1
       1037.5326 -386.30194 -8.258198 -18.32695
0000a0 d3 9e 6d c4 7d b3 50 c4 f0 d3 65 44 fb e0 7f c4
       -950.4816 -834.8045 919.3115 -1023.5153
0000b0 17 a7 cd c1 b3 13 3b 44 89 48 77 c4 7a 04 4f c4
       -25.706587 748.3078 -989.13336 -828.06995
0000c0 c7 2a 51 44 5a 26 28 44 0d dc be 43 16 8b e3 43
       836.6684 672.59924 381.71915 455.0866
0000d0 6a 12 0f c4 b7 9c e1 43 a6 f0 5b c4 d4 1b d1 43
       -572.2877 451.22433 -879.76013 418.2174
0000e0 cc b8 82 44 e9 8c 6a c4 28 89 96 c4 67 0e 39 c4
       1045.7749 -938.2017 -1204.2861 -740.22504
0000f0 e0 ac 5e 44 c6 ac 4c 44 85 88 29 44 e9 53 15 44
       890.7012 818.6996 678.1331 597.3111
000100 31 ae a6 c3 f9 2d b5 43 41 7a d7 c3 66 31 72 44
       -333.36087 362.35916 -430.9551 968.77185
000110 72 a1 53 44 48 92 4b 44 17 42 b3 c1 d1 0c 95 44
       846.5226 814.28564 -22.40727 1192.4005
000120 47 37 68 c3 53 bb 52 c4 90 99 b6 43 2a 14 3b c1
       -232.21593 -842.92694 365.1997 -11.692423
000130 b8 da 69 44 c4 97 79 c4 f0 7d 57 c4 d9 cc 90 c4
       935.4175 -998.37134 -861.9678 -1158.4015
000140 5f d0 32 43 9f ed 88 c4 4a 0c 1f 44 1a be 39 44
       178.81395 -1095.4257 636.192 742.97034
000150 fa c8 9d c1 b6 3a e5 42 e7 db fd c3 2e f5 43 c4
       -19.723133 114.61467 -507.718 -783.83093
000160 0f 7f 2d c4 f1 fa 58 c3 f2 4b 5b c4 41 9f 89 44
       -693.9853 -216.98024 -877.18665 1100.9767
000170 ae e6 58 c4 82 4c 34 44 a0 d4 7d c4 16 81 d4 43
       -867.6044 721.19543 -1015.32227 425.00848
000180 e4 de 62 c4 6c d3 59 c4 18 e4 b3 43 fe 63 40 44
       -907.48267 -871.30347 359.78198 769.5624
000190 3a 36 7b 44 38 6f 5a c4 17 b6 fc 43 7f 13 03 c2
       1004.8473 -873.7378 505.42258 -32.76904
0001a0 64 ed 5a 44 d4 b0 fa 43 22 33 ab c1 22 77 36 c4
       875.7092 501.38147 -21.399967 -729.86145
0001b0 58 6e 5d 44 9e fb 12 c3 6d 95 77 c4 aa 2a 3d 44
       885.7241 -146.98288 -990.3348 756.6666
0001c0 1e d5 13 c4 81 d1 49 44 b6 36 48 44 6e b1 55 44
       -591.32996 807.2735 800.85486 854.77234
0001d0 a2 1a 7d 44 82 94 f2 c1 5c 17 6b c4 40 0c 0a c1
       1012.41614 -30.322514 -940.365 -8.627991
0001e0 c2 26 09 c4 59 60 41 44 2c 95 d2 c0 e3 31 d9 43
       -548.6056 773.50543 -6.5807095 434.38974
0001f0 e2 12 33 44 96 8e 9a c3 b5 f8 6a c4 bd 05 db 43
       716.29504 -309.11395 -939.88605 438.04483
000200 fa 49 0c c4 33 cb 7c 43 45 39 0e c3 8d a0 28 c4
       -561.1559 252.79375 -142.22371 -674.5086
000210 44 52 7b 44 74 1a 52 44 01 5b 44 c4 4d 21 61 44
       1005.2854 840.4133 -785.42194 900.5203
000220 e2 02 70 c4 70 d4 3d 44 fe 5f 17 c3 df 7b 38 c3
       -960.04504 759.31934 -151.37497 -184.48387
000230 0c 93 64 44 18 95 6b 44 0b ab 92 44 74 b1 57 44
       914.2976 942.3296 1173.3451 862.7727
000240 30 96 63 c4 71 f2 2a 44 7a 62 45 c4 18 67 5b c4
       -910.3467 683.78815 -789.5387 -877.61084
000250 8c 74 c1 c4 93 b2 48 c4 e5 aa 59 44 cc f6 ad c3
       -1547.6421 -802.7902 870.6702 -347.9281
000260 c6 13 36 44 62 ee 43 44 a8 c6 83 c4 bd 0c 4f 44
       728.30896 783.72473 -1054.208 828.19904
000270 d4 d5 57 44 f4 65 5d c2 77 81 7a c4 0d b3 ec c1
       863.34106 -55.349564 -1002.0229 -29.587427
000280 79 46 51 44 bd cc 4f c2 51 c4 74 c4 5a 88 8c c4
       837.10114 -51.94994 -979.06744 -1124.261
000290 36 6b 17 43 d0 5a 28 c4 b1 a8 80 44 70 1a 1c 43
       151.4188 -673.41895 1029.2716 156.10327
0002a0 37 32 c4 c1 43 ee 64 44 5a d7 75 c4 82 e2 7f c4
       -24.524519 915.72284 -983.36487 -1023.5392
0002b0 d8 2a 81 44 c0 e7 57 c4 92 72 9b c3 77 ed 1f c3
       1033.3389 -863.6211 -310.89508 -159.9276
0002c0 fc 79 2d c4 58 b1 f5 43 cb 78 4d 44 c7 43 4d c4
       -693.906 491.3855 821.8874 -821.059
0002d0 3c 8b 29 43 d5 42 45 44 24 d9 89 c4 22 98 d1 c1
       169.54388 789.04425 -1102.7856 -26.199284
0002e0 2e 55 7d c4 5a d0 3c c4 4d ad 41 44 20 98 58 c4
       -1013.33093 -755.2555 774.7078 -866.37695
0002f0 f0 19 74 c4 1d 52 e2 43 f2 c5 61 c4 91 a4 7e 43
       -976.4053 452.6415 -903.0929 254.64284
000300 90 0e 17 c4 09 85 72 c4 c5 e3 5d c4 de f1 5f 44
       -604.22754 -970.0787 -887.5589 895.7792
000310 20 58 2f c4 0c 58 93 c4 1f 91 23 44 d6 86 8d 44
       -701.37695 -1178.7515 654.2675 1132.2136
000320 95 0f 6d 44 ba 91 4f c4 47 54 77 44 78 32 14 44
       948.24347 -830.277 989.31683 592.7886
000330 81 43 5c c4 cd a5 3f c4 51 c9 90 c4 5c f4 7b 44
       -881.05475 -766.59064 -1158.2911 1007.8181
000340 3c 2d 8a c4 85 f3 5e 44 72 2a 69 44 63 7e 5b 44
       -1105.4136 891.805 932.6632 877.9748
000350 39 1d dc 43 cc eb 6a 44 78 0c a3 c1 e2 ad 07 c4
       440.2283 939.6843 -20.381088 -542.7169
000360 30 0d 06 43 9c 22 5f c4 90 65 6a c4 fc 88 68 44
       134.05151 -892.5408 -937.5869 930.1404
000370 bf b1 4e 44 f4 e6 60 44 f4 4b 78 44 3f e4 60 44
       826.7773 899.60864 993.18677 899.56635
000380 19 0e 62 c4 60 23 61 44 78 b6 72 40 0b 03 27 41
       -904.2203 900.55273 3.792387 10.438243
000390 15 33 87 c4 c0 62 0f c4 03 bb 43 c4 36 3d 16 43
       -1081.5963 -573.54297 -782.92206 150.2391
0003a0 c8 fb 3c c2 5f 27 07 44 bd 92 03 c4 4c 94 07 44
       -47.24588 540.6152 -526.2928 542.31714
0003b0 9d 1f 57 c4 0e 2b 6d 44 a0 aa bb 41 51 4c f8 c3
       -860.49396 948.6727 23.458313 -496.59622
0003c0 88 6f 40 bf e4 77 71 c4 91 96 98 c4 98 53 46 44
       -0.75170183 -965.8733 -1220.7052 793.30615
0003d0 a3 4b 5f 44 63 ff 11 c3 e9 a5 90 c4 e4 ee 67 c4
       893.1818 -145.9976 -1157.1847 -927.73267
0003e0 ee 14 90 c4 fb ae 51 c4 ad 19 64 44 f7 1f 8d 44
       -1152.654 -838.7341 912.4012 1128.9989
0003f0 1a d8 6c c4 e6 ee 94 43 45 11 88 c4 de 38 55 c4
       -947.3766 297.8664 -1088.5397 -852.88855

1.running_var f4 [256]
000000 a5 a6 73 48 5a 5a 5d 49 ee 9e 06 49 ef a2 3a 4a
       249498.58 906661.6 551406.9 3.0578518e+06
000010 0b 93 3f 49 04 b0 74 4a 64 f4 0a 4a 0c bf 42 4a
       784688.7 4.008961e+06 2.276633e+06 3.190723e+06
000020 01 cc 4f 4a 5d fd 44 4a 9b 1f 88 4a e0 c3 38 47
       3.4045442e+06 3.2274792e+06 4.4604935e+06 47299.875
000030 73 c6 60 4a 28 3a 45 49 d1 ae 3f 47 19 8f 16 4a
       3.6827168e+06 807842.5 49070.816 2.4667582e+06
000040 68 f2 48 47 42 78 08 4a 30 53 e2 49 a6 f2 89 49
       51442.406 2.2359205e+06 1.854054e+06 1.1300688e+06
000050 9c db 31 4a 04 b7 18 4a 4b cb 8e 47 43 b1 0e 48
       2.914023e+06 2.502081e+06 73110.586 146117.05
000060 92 23 84 4a 85 80 57 4a f4 91 91 4a 8f 11 34 4a
       4.329929e+06 3.5307852e+06 4.770042e+06 2.9502438e+06
000070 6f 4c 88 49 9b 0e b8 4a 99 00 76 49 b6 6b 45 4a
       1.1165579e+06 6.0311815e+06 1.00762556e+06 3.2345415e+06
000080 c4 f6 96 49 4f bc 3a 47 b3 a0 72 47 1d da 65 4a
       1.2366965e+06 47804.31 62112.7 3.7658952e+06
000090 79 50 78 4a e6 3f 11 49 dc 88 80 47 08 d5 3f 47
       4.0683822e+06 594942.4 65809.72 49109.03
0000a0 5d 52 50 4a aa 7c 22 4a 00 be 42 4a 29 91 71 4a
       3.4131432e+06 2.6621865e+06 3.190656e+06 3.9578342e+06
0000b0 0e 7e 21 47 71 f4 01 4a 9a 94 61 4a 01 5d 1e 4a
       41342.055 2.1291802e+06 3.6959105e+06 2.5946242e+06
0000c0 c2 54 22 4a 85 5e d2 49 17 5c 0d 49 c9 66 45 49
       2.6596325e+06 1.7233446e+06 579009.44 808556.56
0000d0 f2 5a 9a 49 7b 1c 48 49 4e c5 32 4a c6 58 28 49
       1.2644782e+06 819655.7 2.9289795e+06 689548.4
0000e0 ca ec 7b 4a a5 9b 4a 4a 61 cb a6 4a b5 56 00 4a
       4.1275385e+06 3.3195292e+06 5.4655205e+06 2.1027012e+06
0000f0 ed 5a 37 4a 4c 6e 1b 4a 78 68 d6 49 f6 d9 a6 49
       3.0040912e+06 2.546579e+06 1.756431e+06 1.3668468e+06
000100 d5 da de 48 5e b6 ff 48 35 aa 31 49 ee d0 58 4a
       456406.66 523698.94 727715.3 3.5523155e+06
000110 8a 34 26 4a f0 38 19 4a 3a 6f 6e 47 f5 79 a3 4a
       2.7231065e+06 2.510396e+06 61039.227 5.3567945e+06
000120 5a 4b 9e 48 e7 4b 24 4a 00 f0 02 49 12 39 21 47
       324186.8 2.6918338e+06 536320.0 41273.07
000130 fc 7f 49 4a 55 07 66 4a 62 07 2c 4a 5a 5e 9a 4a
       3.301375e+06 3.7687892e+06 2.8185205e+06 5.058349e+06
000140 03 03 19 48 a6 07 8a 4a 2c 36 bd 49 0c 76 00 4a
       156684.05 4.522963e+06 1.5500215e+06 2.104707e+06
000150 22 2c 64 47 15 54 ed 47 90 c2 72 49 c3 6e 12 4a
       58412.133 121512.164 994345.0 2.3991528e+06
000160 da 42 e0 49 35 4b 8e 48 00 93 31 4a 5b b6 8b 4a
       1.8371472e+06 291417.66 2.909376e+06 4.5780935e+06
000170 66 27 2e 4a 60 bc f1 49 74 ef 6d 4a ad 03 2d 49
       2.8533375e+06 1.9803e+06 3.898333e+06 708666.8
000180 1c 6c 3e 4a 96 72 2f 4a 11 ed fd 48 7d 78 09 4a
       3.119879e+06 2.8745335e+06 520040.53 2.2523192e+06
000190 c4 5c 68 4a 5a 6f 30 4a ba 8a 70 49 9e 00 43 47
       3.807025e+06 2.8907105e+06 985259.6 49920.617
0001a0 a8 0c 31 4a 1f 80 73 49 d6 1b 4c 47 6a 41 f6 49
       2.900778e+06 997377.94 52251.836 2.0173252e+06
0001b0 54 58 35 4a 5c d3 61 48 78 05 62 4a c6 19 05 4a
       2.971157e+06 231245.44 3.703134e+06 2.1807215e+06
0001c0 21 6e a3 49 8b 0f 17 4a 4d 37 14 4a 6c fd 28 4a
       1.3388201e+06 2.4749788e+06 2.4283712e+06 2.768731e+06
0001d0 fc 53 6c 4a ba 59 39 47 b1 14 4c 4a 9a 48 34 47
       3.871999e+06 47449.727 3.3436602e+06 46152.6
0001e0 fa 3b 8d 49 70 b1 0a 4a 75 9c 1f 47 af 02 3a 49
       1.1569912e+06 2.272348e+06 40860.457 761898.94
0001f0 2c 39 ee 49 21 c7 ea 48 6d d9 4b 4a be 1c 40 49
       1.9515255e+06 480825.03 3.3398672e+06 786891.9
000200 10 38 97 49 3b 0c 85 48 2b 72 18 48 d3 f6 d3 49
       1.238786e+06 272481.84 156104.67 1.7364104e+06
000210 7c ed 68 4a 7a 45 23 4a ae fa 0e 4a 8c 70 3b 4a
       3.816287e+06 2.6750385e+06 2.3425715e+06 3.071011e+06
000220 13 f1 55 4a fe e5 05 4a 98 11 56 48 03 9f 1c 48
       3.5052208e+06 2.1937915e+06 219206.38 160380.05
000230 c4 d0 40 4a a1 d7 4c 4a 17 9a 9e 4a 94 f5 2b 4a
       3.159089e+06 3.3561362e+06 5.1970675e+06 2.817381e+06
000240 cb 95 3f 4a ad fb d9 49 3c 8c 10 4a dc 66 32 4a
       3.1389308e+06 1.7857176e+06 2.368271e+06 2.922935e+06
000250 ca 57 09 4b 34 2a 15 4a 89 77 2f 4a 47 12 f0 48
       9.000906e+06 2.443917e+06 2.8748502e+06 491666.22
000260 58 9a f6 49 45 5d 0e 4a f2 3d 80 4a 13 87 1e 4a
       2.020171e+06 2.3324972e+06 4.202233e+06 2.5973168e+06
000270 e9 60 2c 4a db 1e af 47 78 6b 67 4a f7 78 2c 47
       2.8242502e+06 89661.71 3.791582e+06 44152.965
000280 73 5a 22 4a 59 b7 6e 47 cf 0f 5d 4a ba 78 91 4a
       2.6599968e+06 61111.348 3.6218758e+06 4.766813e+06
000290 1d e5 84 48 90 f7 d3 49 c7 3f 74 4a 0b 10 eb 47
       272168.9 1.736434e+06 4.0017778e+06 120352.086
0002a0 bf c7 13 47 8e 0b 42 4a 52 2c 5f 4a cb 5c 71 4a
       37831.746 3.1792355e+06 3.6564685e+06 3.9544828e+06
0002b0 da e9 75 4a 3d 7d 2c 4a c5 c1 be 48 c4 9a ec 47
       4.0290465e+06 2.8260632e+06 390670.16 121141.53
0002c0 6b 06 e0 49 2e f8 64 49 53 43 1c 4a ef e9 1b 4a
       1.8352134e+06 937858.9 2.5602128e+06 2.5544918e+06
0002d0 18 53 82 48 9f 59 10 4a a7 fa 8b 4a f4 d6 16 47
       266904.75 2.3650318e+06 4.5868355e+06 38614.953
0002e0 08 38 6d 4a 48 c8 04 4a 54 38 0b 4a 2b 8a 2d 4a
       3.886594e+06 2.175506e+06 2.280981e+06 2.8432748e+06
0002f0 dd df 5b 4a 60 49 44 49 74 e5 3b 4a 7d 53 9b 48
       3.6024232e+06 803990.0 3.078493e+06 318107.9
000300 47 80 aa 49 a9 f5 58 4a 31 e8 35 4a d0 7d 39 4a
       1.3967449e+06 3.5546662e+06 2.9803642e+06 3.039092e+06
000310 ba 92 e4 49 87 c4 9f 4a a8 68 c7 49 22 c8 93 4a
       1.8724712e+06 5.2352675e+06 1.633557e+06 4.842513e+06
000320 02 20 4f 4a 1b 9f 1f 4a 82 18 62 4a 92 c3 a4 49
       3.3935365e+06 2.6152388e+06 3.7043525e+06 1.3497462e+06
000330 dd 9b 33 4a df 45 08 4a 2a 13 9a 4a 14 e0 69 4a
       2.9427112e+06 2.2326958e+06 5.048725e+06 3.831813e+06
000340 ce 90 8c 4a ff 3d 38 4a 6f 07 49 4a 41 f3 31 4a
       4.606055e+06 3.0186238e+06 3.2936598e+06 2.9155362e+06
000350 b3 9d 37 49 42 aa 4b 4a 43 2b 13 47 cf d5 8a 49
       752091.2 3.3368485e+06 37675.26 1.1373379e+06
000360 a4 4d 09 48 ef 1f 38 4a 2b 60 4b 4a 2a 96 47 4a
       140598.56 3.0166998e+06 3.3321068e+06 3.2700265e+06
000370 b5 df 1d 4a dc bc 3a 4a b4 74 63 4a 44 ea 3a 4a
       2.5866052e+06 3.059511e+06 3.726637e+06 3.062417e+06
000380 d1 b9 3c 4a 8b 2e 3b 4a cb 93 6e 48 a9 c4 55 47
       3.0920842e+06 3.0667868e+06 244303.17 54724.66
000390 4b ac 86 4a 72 f5 99 49 ac 31 0e 4a 3a 6e 6b 48
       4.4129655e+06 1.2612302e+06 2.329707e+06 241080.9
0003a0 da fb 5e 47 65 2f 89 49 8b 87 82 49 72 7d 8a 49
       57083.85 1.1238206e+06 1.0692974e+06 1.1345102e+06
0003b0 7f 05 2b 4a d1 88 4f 4a 56 63 32 47 50 d2 68 49
       2.8020158e+06 3.4002442e+06 45667.336 953637.0
0003c0 45 e7 51 47 95 99 57 4a c1 75 ab 4a 05 d0 11 4a
       53735.27 3.5323892e+06 5.6184005e+06 2.3889932e+06
0003d0 c9 96 38 4a 44 c1 12 48 d1 50 9a 4a c7 77 46 4a
       3.0243062e+06 150277.06 5.0566165e+06 3.2516978e+06
0003e0 32 00 99 4a 59 b2 22 4a 03 52 40 4a 5b 8a 92 4a
       5.013529e+06 2.6656222e+06 3.1509768e+06 4.8018375e+06
0003f0 65 bf 4e 4a e2 88 b1 48 63 96 88 4a cf 13 28 4a
       3.3873532e+06 363591.06 4.4756975e+06 2.7537798e+06

4.weight f4 [128, 256]
000000 c3 32 56 3d b2 f2 66 bd a8 11 43 ba 40 35 8f 3c
       0.052294504 -0.056383796 -0.00074412907 0.017481446
000010 9b 9b 7d bd 68 cc cf 3c a8 1a 6b 3b 19 be 1f bd
       -0.061915975 0.025366023 0.0035874043 -0.03899965
000020 ef f7 e8 bc 69 86 21 bd 79 94 f0 3c 1b 71 7a bd
       -0.028438536 -0.039434824 0.029367672 -0.061143022
000030 16 1d 47 bc 6c 61 8a bb af 74 f1 bc 61 d3 d2 3c
       -0.012152931 -0.0042230394 -0.029474584 0.025735559
000040 fd 82 26 3c 56 06 b0 3a 24 64 9a 3c f5 c6 4f bc
       0.010163066 0.0013429623 0.018846579 -0.012681712
000050 57 0e ea 3c f6 e3 f1 3b 28 65 71 bd 7a 2c 88 3a
       0.02857129 0.0073819114 -0.05893436 0.0010389232
000060 b0 9c 4c 3d c9 ef 7f 3a d0 75 57 3d 5b 44 08 3d
       0.049954116 0.0009763209 0.05260259 0.033268314
000070 67 e6 0b bd 9a b6 40 bd 14 57 1b bd f8 15 be 3a
       -0.034155276 -0.047049142 -0.03792484 0.0014502397
000080 c3 54 70 bc 96 37 8e 3b 4a 09 28 bd a6 e8 85 3c
       -0.014668646 0.0043401225 -0.041024484 0.016346287
000090 b4 c2 5f 3d b3 22 d3 3a 96 37 23 bd b4 4e 13 3d
       0.054629043 0.0016108364 -0.039847933 0.03596373
0000a0 34 75 33 bd ef b1 ff 3c b5 f5 70 bd 98 7a d9 3c
       -0.043812945 0.031212775 -0.058828074 0.026547715
0000b0 48 08 2d 3d dc c6 65 bc 70 87 64 bd 8a ae 74 3d
       0.042244226 -0.014024463 -0.055793226 0.059736766
0000c0 98 09 fa 3b 84 a7 61 bd 03 89 9d bc a3 62 d9 3c
       0.007630538 -0.055091396 -0.019230371 0.026536291
0000d0 8a 99 72 3d 68 5d 88 3c 83 8e 84 bc 13 b6 e5 3b
       0.059228458 0.016646102 -0.016181236 0.0070102303
0000e0 da e7 90 bc 99 e6 6c 3d 82 d4 94 3b 35 bd 50 3d
       -0.01768868 0.057837103 0.0045419345 0.050961692
0000f0 e5 44 f2 ba be 5d ed bc 62 be 09 3d be 9d 07 3d
       -0.0018483667 -0.028975364 0.03362883 0.03310942
000100 be 65 e4 bc 44 94 31 3c e0 f8 6b bb ee 79 86 bc
       -0.027880546 0.010838572 -0.0036006495 -0.016415562
000110 91 ea ad 3c a0 7d 58 3c 3f cb 95 bc c3 55 f9 bc
       0.021230014 0.013213545 -0.018285392 -0.030436402
000120 9e 50 01 bd 1a 12 26 3d 75 cf ee 3c 90 fe f9 bc
       -0.031571023 0.040544607 0.029151658 -0.030516893
000130 d5 f3 f1 3c 8f dc 3b 3d 86 69 63 3a 5a c6 9e 3d
       0.029535213 0.045864638 0.0008675087 0.07752676
000140 3e 20 fc bc 76 f9 43 bc 56 0e ef ba ba e3 25 3d
       -0.030777093 -0.011961332 -0.0018238525 0.04050038
000150 1d 71 6a bd 8e 05 82 bd e7 f5 33 3c 9c a1 88 3c
       -0.05723678 -0.06348716 0.010983921 0.016678624
000160 63 a9 28 3d 0b 77 12 bc c8 c3 56 3d 2b f1 f4 3c
       0.041177165 -0.008939515 0.052432805 0.029900154
000170 a7 d5 43 3a 9c e4 ea 3b f1 ab 4c 3d 94 2e f9 3c
       0.00074704963 0.0071683656 0.049968664 0.030417718
000180 bb 01 88 3d 61 73 d1 3c 5b 91 52 bd 71 8f c6 3c
       0.06640955 0.025567712 -0.051408153 0.02423832
000190 cd dc ad 3c f2 1f d0 bc 08 75 6a bd f4 14 5c 3c
       0.02122345 -0.025405858 -0.057240516 0.01343273
0001a0 bc 2a 59 bd da 7a d3 3b 16 46 ea bb 93 f4 0d 3d
       -0.05301927 0.006453854 -0.007149468 0.034657072
0001b0 95 23 3b bc e8 9f 4e 3d 0a 47 2d 3d 81 93 98 bd
       -0.011422058 0.050445467 0.042304076 -0.07450009
0001c0 1a 5e be bb fe 05 1c 3a 62 2f 42 bd 79 42 1f bc
       -0.0058095576 0.00059518206 -0.04740847 -0.009720438
0001d0 37 47 2a 3d 75 32 6a 3d d2 6f d8 bb e1 24 6d bd
       0.041571822 0.057177026 -0.006605127 -0.0578965
0001e0 73 b6 95 bc be 25 94 3b c5 67 2e bd 17 26 00 bd
       -0.018275475 0.004521101 -0.04257943 -0.031286325
0001f0 7a 94 35 3d fa 98 50 bb 13 50 d6 bc 95 ae 09 3d
       0.04433105 -0.0031829462 -0.02616123 0.03361376
000200 f2 7e a4 3b a5 ba ee 3a 1f 76 67 bc 3f 1d 3d 3d
       0.005020016 0.0018213583 -0.014127283 0.04617047
000210 15 d5 05 bd b1 b8 a9 bc 75 8a ff 3a b5 e4 b6 3c
       -0.032673914 -0.02071795 0.001949622 0.022325853
000220 d0 0a a5 bc 9d f5 4c 3d d9 2d 6b bc f9 4f 96 bc
       -0.020146757 0.050038923 -0.014354193 -0.01834868
000230 6e 27 66 bd 0e c5 15 bd 2d 5b bb 3c 37 f5 1d bd
       -0.056189947 -0.03656488 0.022870624 -0.038563933
000240 77 9a a8 bc d3 b1 ac 3c fb 60 b5 bb c1 ed d8 3b
       -0.020581467 0.021080887 -0.0055352426 0.0066201393
000250 27 28 89 3d ab 17 0f bd c8 f0 26 bd 36 00 76 ba
       0.066971116 -0.03493468 -0.04075697 -0.00093841867
000260 c9 e9 9a bd b4 1e e1 3c e7 34 ba 3c a3 ae c5 bc
       -0.07564122 0.02748046 0.022730304 -0.024131125
000270 9f 17 9f bb 66 a6 c2 bc 3a 1e af 3d cf 48 0c bd
       -0.004855111 -0.023760986 0.08550687 -0.034249123
000280 70 41 e7 bc 78 11 a3 bc 66 8a 46 bc 65 c7 45 3d
       -0.028229445 -0.01990579 -0.012117958 0.04828586
000290 b4 3e 84 ba b1 2f 62 bd 5e 21 eb 3c d2 36 9d ba
       -0.0010089488 -0.055221263 0.028702434 -0.0011994487
0002a0 a7 1e f0 3c 3b 7e 8e bd c8 d8 c4 3c 85 45 a3 3d
       0.029311491 -0.0695767 0.02402915 0.07972244
0002b0 98 33 d6 3c 03 95 21 bd d3 6a 2e bd 53 ad 92 bd
       0.026147649 -0.03944875 -0.042582344 -0.07161965
0002c0 39 80 1d bc d8 67 62 bd a1 9b 95 bd d8 85 dc bc
       -0.00961309 -0.055274814 -0.073050745 -0.02691929
0002d0 50 4b aa bc f4 18 11 bb de 75 2d 3d bd 2d 2b 3d
       -0.020787865 -0.0022140117 0.042348735 0.041791666
0002e0 cb 88 8a 3c fb 81 1a 3b c2 19 e7 3c 6d 06 25 3c
       0.016910931 0.002357601 0.028210524 0.010072333
0002f0 47 8e 27 3d 60 5d 29 3d 6c 46 7a 3d a8 8c 87 bd
       0.04090717 0.041348815 0.061102316 -0.06618625
000300 1e c6 d6 3b 5c 3f 0a bd 9f 32 16 bd 5a 05 b0 3b
       0.006554379 -0.03375183 -0.03666937 0.0053717317
000310 60 36 54 3c c3 15 3c bd 41 4f 06 3c ad c0 80 bd
       0.012952417 -0.04591919 0.008197607 -0.0628675
000320 3d 8c b0 bc d4 ce df 3c 8b 0d 79 bd 51 dd 8a bd
       -0.021551246 0.027320303 -0.06080393 -0.06780494
000330 0b 91 37 bb 4b 77 a5 bc e3 db 77 bc 08 31 0e bd
       -0.0028010036 -0.020198485 -0.015128109 -0.03471473
000340 01 d1 4b 3d 4b 28 a0 bd 48 20 03 3d a0 fb 84 3c
       0.04975987 -0.07820185 0.032013208 0.016233265
000350 86 54 b6 3b 8b 7f 8a bd 19 97 c0 3c df bb 6d 3d
       0.005564275 -0.06762608 0.023509549 0.058040496
000360 00 3c f7 3c 11 36 01 3d 79 a9 37 3b 43 88 51 3c
       0.030179977 0.031545702 0.0028024598 0.012788835
000370 e8 a0 6e bc 4f ec a8 bc 79 73 87 bc bc d5 e8 b9
       -0.01456473 -0.020620493 -0.016534554 -0.00044409733
000380 64 bf f0 bc d9 4c 57 bd 88 4c 6f bd c9 55 f7 3c
       -0.029388137 -0.052563522 -0.058422595 0.030192273
000390 46 6a 0b 3d 98 01 56 bd 00 1a 16 3d ca 1a ea 3c
       0.034036897 -0.052247614 0.03664589 0.028577227
0003a0 b2 2b 02 bd ce f9 fa bc cb bc 9d 3d ae 70 2b 3d
       -0.031779952 -0.030636694 0.07702025 0.041855507
0003b0 50 78 21 bc 8c c4 9b 3c 40 4e ca 3a 0b 08 51 3d
       -0.009855345 0.01901462 0.0015434697 0.05103306
0003c0 c1 df 35 3d b2 af 59 bd 0a 87 84 3d 87 ac 8e bb
       0.04440284 -0.05314607 0.06471069 -0.004354063
0003d0 b0 13 3f bc 36 6f 57 bc 3c d7 ab bc 29 80 17 bc
       -0.011662409 -0.013149073 -0.020976655 -0.009246864
0003e0 80 1e 7d 3c 70 68 95 ba 05 bd 0c 3c ce 0a cc 3c
       0.015449166 -0.0011398923 0.008589988 0.024907496
0003f0 a2 c9 13 3d ed ff 2b 3c c5 02 1d 3d 34 95 ec bb
       0.036080964 0.010498029 0.03833272 -0.007219935
