resources/models/14_by_14/sqrt_dataset_model_v001.pth (torch, 85032 bytes, 5 tensors)

lstm.weight_ih_l0 f4 [256, 14]
0.05496473 0.037787292 -0.027664984 0.107022725 0.0120189 -0.118183695 0.061363757 0.048164416
-0.10225193 0.056031574 0.0125807375 0.0317342 -0.06210683 -0.0652265 -0.021722576 -0.0014204297
-0.02965009 0.11512903 0.0345394 -0.05034013 -0.072999686 0.057793245 -0.050295092 -0.10975453
0.118158974 -0.019830925 -0.0056921523 0.071335055 0.020415356 -0.11809155 -0.1119892 0.11226293
-0.055822797 0.059462696 0.102193825 0.07153149 0.106562 0.039229978 0.090649225 -0.090931214
-0.029164745 -0.023313152 0.02059453 0.11197555 0.12218942 -0.015564583 0.108644515 0.10142918
0.07908189 0.07979399 -0.09395807 0.02159271 -0.11553731 -0.07462734 -0.06738297 -0.09564066
-0.0014980971 -0.10666183 0.07205698 0.017296778 -0.047970895 -0.028730487 0.007278443 -0.07600019
-0.05970435 0.04793166 -0.021753285 -0.10363165 0.04001291 0.023700519 0.12889709 0.015467538
-0.05392366 0.044503905 0.05830978 -0.06898025 0.026497588 -0.032598566 0.11891608 0.11788143
-0.10466258 0.04759941 -0.01920681 0.07124503 -0.069129124 0.0187468 0.08565219 0.10501048
-0.01064593 0.082200155 -0.065970376 0.0824622 0.053840462 0.06998398 -0.0073217894 0.041334197
0.068252124 -0.08802761 -0.06524672 0.09906707 -0.076448694 0.049790263 0.09091766 -0.04057822
0.019845232 0.0643426 0.11537368 0.07334371 -0.061277214 0.041229643 0.08807565 0.0563673
-0.0952029 0.030507278 -0.07401295 0.059690237 0.085796215 -0.10416645 0.0640346 0.08784775
-0.09783377 -0.036678378 -0.004276356 -0.04497418 -0.116899595 0.004241692 -0.08178641 -0.056090374
0.09368955 0.060225625 0.11261098 0.042499486 0.04555843 -0.054164164 -0.12640496 0.07958245
-0.053425703 0.058075573 0.10190702 0.05679596 0.11042277 -0.037090108 -0.028484093 0.09981996
-0.12849005 -0.01572335 -0.0071961973 -0.09634505 -0.06294584 -0.11357905 0.04703668 -0.08272471
0.023356926 -0.0765578 -0.015002858 -0.1335911 0.074942015 -0.04380936 -0.053567987 -0.12324433
0.04574431 0.10282303 -0.08826216 0.076291524 -0.009497222 0.08012218 -0.11064935 -0.07824874
0.10812467 -0.11255709 0.07031261 -0.10510616 -0.0046999846 0.04012637 -0.08336745 -0.04458698
0.09196793 0.04777838 -0.09359323 0.113704205 0.037959818 0.116045065 -0.061089724 0.011665401
0.0063418853 -0.13153145 0.09057489 0.01717833 0.03692613 0.077793986 0.058394153 -0.11037727
-0.12625556 -0.026092937 0.06506164 -0.10252537 0.0099247 0.100839406 -6.7944886e-05 -0.0010891833
0.039633356 0.048326816 0.07904841 -0.0351819 -0.04914914 0.020168822 -0.031871013 0.043260787
-0.10839631 -0.027583884 -0.067516126 0.032552276 -0.054402616 0.07223292 0.0063439677 0.07341951
0.056364197 -0.035810202 0.120436415 -0.076343276 0.030272052 -0.036851596 0.1298062 0.03415192
0.07133628 0.113689564 -0.04303846 -0.076032385 0.053765874 -0.092366055 0.07217432 0.1101159
-0.06831526 0.0732228 0.069474846 -0.0717442 0.11891773 0.12150599 0.09140729 -0.08996439
-0.073142365 -0.041643124 -0.0625076 0.04239297 0.07485489 0.08050037 0.034913614 -0.008021741
0.00960038 -0.07009508 0.12287609 -0.023666214 -0.006298692 -0.123580344 -0.07685975 0.08172263
00000000: b222 613d d9c6 1a3d ada1 e2bc bb2e db3d
00000010: ecea 443c 4b0a f2bd 9058 7b3d 0d48 453d
00000020: 7669 d1bd 5d81 653d 701f 4e3c b8fb 013d
00000030: bb63 7ebd 7995 85bd 8bf3 b1bc b62d baba
00000040: bfe4 f2bc c5c8 eb3d 3079 0d3d 7431 4ebd
00000050: dc80 95bd 9cb8 6c3d 3a02 4ebd fcc6 e0bd
00000060: 55fd f13d 7774 a2bc 3c85 babb 1d18 923d
00000070: 1b3e a73c fcd9 f1bd 985a e5bd 1bea e53d
00000080: 72a6 64bd 288f 733d ff4a d13d 1a7f 923d
00000090: 2e3d da3d 9daf 203d 4da6 b93d 253a babd
000000a0: e7ea eebc 39fb bebc dcb5 a83c 7053 e53d
000000b0: 723e fa3d 9802 7fbc 0481 de3d 1aba cf3d
000000c0: b0f5 a13d 086b a33d 176d c0bd 32e3 b03c
000000d0: d39e ecbd 38d6 98bd 1500 8abd 40df c3bd
000000e0: cc5b c4ba 8471 dabd 9c92 933d f9b1 8d3c
000000f0: 217d 44bd 335c ebbc 0180 ee3b fda5 9bbd
00000100: 8c8c 74bd fd53 443d f233 b2bc d53c d4bd
00000110: 94e4 233d 9727 c23c 99fd 033e 8e6b 7d3c
00000120: 0edf 5cbd ba49 363d 3cd6 6e3d 8445 8dbd
00000130: 7811 d93c 1386 05bd 468a f33d d26b f13d
00000140: 5659 d6bd 99f7 423d 9a57 9dbc eae8 913d
00000150: 9293 8dbd e492 993c 6a6a af3d bc0f d73d
00000160: 446c 2ebc 8e58 a83d 7a1b 87bd f1e1 a83d
00000170: d187 5c3d c353 8f3d 9feb efbb 0c4e 293d
00000180: c5c7 8b3d d247 b4bd 13a0 85bd ade3 ca3d
00000190: 2291 9cbd e0f0 4b3d 0a33 ba3d 5935 26bd
000001a0: 7892 a23c 0ec6 833d 0949 ec3d 3a35 963d
000001b0: d1fd 7abd 6ae0 283d 0261 b43d 66e1 663d
000001c0: bdf9 c2bd 66ea f93c 1a94 97bd c07d 743d
000001d0: edb5 af3d 3855 d5bd 9324 833d 85e9 b33d
000001e0: 125d c8bd 113c 16bd ad20 8cbb d936 38bd
000001f0: 0e69 efbd e4fd 8a3b a27f a7bd 05bf 65bd
00000200: 4fe0 bf3d 25af 763d 96a0 e63d f113 2e3d
00000210: 7a9b 3a3d 3edb 5dbd 4d70 01be 20fc a23d
00000220: e9d4 5abd a7e0 6d3d a1b4 d03d e1a2 683d
00000230: 5525 e23d cceb 17bd 7957 e9bc 686e cc3d
00000240: e592 03be 41ce 80bc 14ce ebbb 8e50 c5bd
00000250: c0e9 80bd 229c e8bd 89a9 403d 936b a9bd
00000260: 0657 bf3c 56ca 9cbd 8cce 75bc 1bcc 08be
00000270: 337b 993d 7271 33bd 1b6a 5bbd 8667 fcbd
00000280: 635e 3b3d e194 d23d cbc2 b4bd bb3e 9c3d
00000290: 3c9a 1bbc 1917 a43d 209c e2bd e040 a0bd
000002a0: 7870 dd3d 5584 e6bd 0f00 903d e641 d7bd
000002b0: 5402 9abb 8c5b 243d 8ebc aabd d6a0 36bd
000002c0: af59 bc3d 43b3 433d cfad bfbd c0dd e83d
000002d0: c17b 1b3d 09a9 ed3d 3839 7abd 3d20 3f3c
000002e0: 97cf cf3b 2eb0 06be 547f b93d 92b9 8c3c
000002f0: db3f 173d 7452 9f3d b52e 6f3d 7a0d e2bd
00000300: 2349 01be dbc0 d5bc 0a3f 853d d2f8 d1bd
00000310: 359b 223c e484 ce3d a27d 8eb8 edc2 8eba
00000320: 9656 223d 57f2 453d 22e4 a13d e51a 10bd
00000330: 9c50 49bd 1639 a53c 2e8b 02bd 3932 313d
00000340: e2fe ddbd 99f7 e1bc e545 8abd 8955 053d
00000350: 47d5 5ebd daee 933d 0fe1 cf3b f85c 963d
00000360: 25de 663d b8ad 12bd 5ea7 f63d dd59 9cbd
00000370: 18fd f73c b3f1 16bd ebeb 043e e2e2 0b3d
00000380: c118 923d 13d6 e83d 1949 30bd deb6 9bbd
00000390: 9b39 5c3d 6a2a bdbd 21d0 933d 7284 e13d
000003a0: dfe8 8bbd d6f5 953d d448 8e3d a0ee 92bd
000003b0: 248b f33d 22d8 f83d bf33 bb3d 403f b8bd
000003c0: aacb 95bd fb91 2abd fc03 80bd 40a4 2d3d
000003d0: 854d 993d 61dd a43d 9401 0f3d 9f6d 03bc
000003e0: ea4a 1d3c 028e 8fbd 76a6 fb3d a6df c1bc
000003f0: 4265 cebb b117 fdbd a568 9dbd 325e a73d

lstm.weight_hh_l0 f4 [256, 64]
-0.098121576 -0.09713387 0.005462977 0.07350861 -0.05261793 0.09350838 0.056942984 -0.0037563657
-0.110581316 0.024483796 -0.051357176 -0.0941065 0.047660645 -0.047498368 -0.11556604 -0.03980936
-0.05481196 0.1184536 -0.0461485 -0.07934735 -0.073899336 -0.085148156 -0.018577032 -0.053684138
0.113741055 -0.0654048 -0.035664335 -0.09475956 0.0056162127 -0.0011134185 0.05409059 -0.046703212
0.048617356 0.0145832915 -0.08696126 0.04266297 -0.06233752 -0.0027379987 -0.04691708 -0.006581333
0.027551148 0.110615365 -0.028412988 0.111454844 -0.1233694 0.08498605 -0.03933409 0.06316943
0.05084529 0.004428312 0.058228943 0.053656872 0.007317906 -0.014452188 -0.091288246 0.015515178
0.085760556 0.049223278 -0.07581141 -0.03435441 0.062084474 -0.07616377 -0.12087653 -0.091975406
0.107287295 -0.07132319 -0.09705136 0.025097487 0.050896652 -0.008474111 0.06412433 0.080216914
-0.102753155 0.048818626 -0.037371006 -0.023081033 -0.075050324 -0.08228472 0.12095775 0.08208867
0.0104258545 0.083376125 0.05629002 0.07365298 0.071826525 0.023878295 -0.057566598 -0.11899423
0.09682419 0.069816686 0.0598234 -0.010369845 -0.048232462 0.11015276 -0.049237262 -0.031809803
-0.0056630843 0.027894804 -0.11015781 0.1150616 -0.013060049 -0.02208728 0.072183594 0.08742283
-0.057060663 0.1002684 0.103453174 0.016842132 -0.027272765 -0.048224673 -0.092253864 0.12404129
0.12418523 -0.06688577 0.08152919 0.0091596255 -0.09413012 0.08236467 -0.041376658 0.07063249
0.034029406 0.07616298 0.022670178 0.011026876 -0.04767141 -0.10121497 -0.06970845 0.067783214
0.10151969 -0.019042842 0.108343095 -0.12578432 -0.1331842 0.11414515 -0.038028847 -0.10464469
-0.11637927 0.09811094 -0.0982503 0.09925365 0.11429704 -0.080016464 -0.045697436 -0.0033430266
-0.09911548 -0.09088183 -0.09892123 0.003673498 0.05479652 -0.04526141 -0.0771206 0.048245445
0.1059826 0.040493857 -0.12356832 -0.06519051 -0.09339513 -0.01375352 -0.10063052 0.1016536
0.11425524 0.06778313 0.07269957 0.055290975 0.08067162 -0.046042982 -0.08252509 -0.09245911
-0.0660633 0.066030666 0.11767935 0.07742187 0.03013741 0.013088932 0.08691977 0.12977691
0.081728466 0.091295056 -0.051020116 0.0026684406 0.08974506 -0.023178814 -0.023718571 -0.09982793
-0.03142414 -0.0346202 -0.07610655 -0.047225986 0.019341977 0.06306913 0.11070513 -0.120193824
-0.008853797 -0.015014929 0.106230296 0.026993064 -0.06307661 -0.004150944 0.110868245 -0.087726
0.07155704 0.005624413 -0.06598161 0.026579866 0.08406667 0.04779204 0.09048987 0.025681665
0.1217828 -0.029926186 0.025264014 0.13142705 -0.0102766 0.06370143 0.003950935 0.054185785
-0.02755734 0.04721079 0.0797519 0.11165735 0.055494826 0.0044843303 0.0813392 -0.10415386
-0.057550903 -0.009270247 -0.08888875 0.098449655 0.0540091 -0.0014812704 -0.023233682 0.083597854
0.11671211 0.091184445 0.07093682 -0.054353353 -0.047765654 0.041299593 0.0020523672 0.01782862
0.055316307 -0.030289644 0.12274708 -0.029821958 -0.115357816 -0.06028683 -0.1013127 -0.0032578888
-0.06480773 -0.094437726 0.11014011 0.05366499 -0.015675647 -0.12540016 -0.0071083433 0.077418074
00000000: f7f3 c8bd 1fee c6bd c602 b33b af8b 963d
00000010: e685 57bd 5281 bf3d 0c3d 693d 5c2d 76bb
00000020: 7578 e2bd 3e92 c83c e75b 52bd e9ba c0bd
00000030: cf37 433d a68d 42bd e3ad ecbd 240f 23bd
00000040: 8182 60bd cd97 f23d 3606 3dbd dd80 a2bd
00000050: 8958 97bd 2862 aebd dc2e 98bc e6e3 5bbd
00000060: 12f1 e83d f4f2 85bd c414 12bd 4d11 c2bd
00000070: 3508 b83b 20f0 91ba 188e 5d3d de4b 3fbd
00000080: fe22 473d c2ee 6e3c bf18 b2bd 5ebf 2e3d
00000090: a155 7fbd ff6f 33bb 202c 40bd 39a8 d7bb
000000a0: f2b2 e13c 4f8a e23d 5bc2 e8bc 7042 e43d
000000b0: 19a9 fcbd 2b0d ae3d c81c 21bd f95e 813d
000000c0: 2743 503d 601b 913b 7981 6e3d 4fc7 5b3d
000000d0: 0bcb ef3b dfc8 6cbc 55f5 babd 6033 7e3c
000000e0: 3ba3 af3d 599e 493d 0343 9bbd 36b7 0cbd
000000f0: 4a4c 7e3d c0fb 9bbd 1d8e f7bd 9a5d bcbd
00000100: 71b9 db3d e511 92bd ddc2 c6bd 3f99 cd3c
00000110: 0279 503d ffd6 0abc 9e53 833d c448 a43d
00000120: 3f70 d2bd 0af6 473d 5712 19bd 6f14 bdbc
00000130: fcb3 99bd e484 a8bd b2b8 f73d 1b1e a83d
00000140: 34d1 2a3c 1ac1 aa3d 5d90 663d 60d7 963d
00000150: c919 933d 6a9c c33c f4ca 6bbd 3fb3 f3bd
00000160: c34b c63d 0dfc 8e3d 6209 753d 48e6 29bc
00000170: 678f 45bd c597 e13d 03ad 49bd ff4a 02bd
00000180: 6591 b9bb a583 e43c 6b9a e1bd 6ba5 eb3d
00000190: d1f9 55bc 62f0 b4bc fed4 933d be0a b33d
000001a0: 71b8 69bd 8559 cd3d 42df d33d 83f8 893c
000001b0: 226b dfbc 3c87 45bd 98ef bcbd 5c09 fe3d
000001c0: d354 fe3d 68fb 88bd c7f8 a63d 4112 163c
000001d0: 4bc7 c0bd cfae a83d 927a 29bd c4a7 903d
000001e0: 6b62 0b3d 56fb 9b3d cfb6 b93c 12aa 343c
000001f0: 1943 43bd cb49 cfbd 4ec3 8ebd edd1 8a3d
00000200: 8ee9 cf3d bcff 9bbc fce2 dd3d 9bcd 00be
00000210: 7061 08be efc4 e93d 23c4 1bbd f54f d6bd
00000220: 4158 eebd 63ee c83d 7437 c9bd 7f45 cb3d
00000230: 9114 ea3d acdf a3bd 3c2d 3bbd ae16 5bbb
00000240: 0ffd cabd 4120 babd 3797 cabd 12bf 703b
00000250: 5172 603d 0764 39bd 68f1 9dbd 049d 453d
00000260: 680d d93d e3dc 253d 6311 fdbd 9a82 85bd
00000270: f245 bfbd 7256 61bc 6017 cebd c32f d03d
00000280: a7fe e93d e2d1 8a3d 83e3 943d ca78 623d
00000290: 2a37 a53d 9197 3cbd ea02 a9bd 345b bdbd
000002a0: 324c 87bd 163b 873d df01 f13d 5b8f 9e3d
000002b0: bbe2 f63c f672 563c fe02 b23d 3de4 043e
000002c0: 4161 a73d e7f8 ba3d 78fa 50bd 01e1 2e3b
000002d0: 42cc b73d 7fe1 bdbc 734d c2bc 9672 ccbd
000002e0: 99b6 00bd e9cd 0dbd c0dd 9bbd 0970 41bd
000002f0: 1173 9e3c 632a 813d 5fb9 e23d 2e28 f6bd
00000300: 840f 11bc 2d01 76bc 458f d93d 8f20 dd3c
00000310: 4f2e 81bd a404 88bb e40e e33d b0a9 b3bd
00000320: 7f8c 923d ff4c b83b 5e21 87bd 05be d93c
00000330: 252b ac3d 96c1 433d c152 b93d 5b62 d23c
00000340: 4369 f93d c327 f5bc 7af6 ce3c d094 063e
00000350: 2f5f 28bc e575 823d d876 813b eaf1 5d3d
00000360: eebf e1bc 1a60 413d f754 a33d 9cac e43d
00000370: 8b4e 633d 4af1 923b 2b95 a63d 9e4e d5bd
00000380: 7fba 6bbd 3ce2 17bc 4e0b b6bd f99f c93d
00000390: a538 5d3d 3027 c2ba 9054 bebc 5a35 ab3d
000003a0: c206 ef3d e9be ba3d 5347 913d 9fa1 5ebd
000003b0: eba5 43bd c329 293d 0281 063b 530d 923c
000003c0: 5a93 623d fd21 f8bc d262 fb3d 2e4d f4bc
000003d0: b840 ecbd 53ef 76bd 087d cfbd 4e82 55bb
000003e0: eab9 84bd 9168 c1bd 2391 e13d d2cf 5b3d
000003f0: 376a 80bc e668 00be 1bed e8bb 5e8d 9e3d

lstm.bias_ih_l0 f4 [256]
-0.013090359 -0.054568764 0.0076474743 0.11290565 -0.06255908 0.085873425 0.1128826 0.030294193
-0.055240083 0.12127447 0.0048543275 0.06574913 -0.03973887 0.06460323 -0.0861126 0.039497856
-0.083227344 -0.08916279 0.11879257 -0.046336796 0.06744795 0.08411421 0.01816187 -0.09133102
0.101339385 0.060788233 0.040297896 0.11161494 -0.0020152463 0.120607436 0.054844473 -0.015637785
0.035168808 0.11424163 0.10746074 0.10596439 0.0039455453 -0.052918654 -0.034960803 0.01975304
0.081290975 0.097610086 0.06225147 0.13391237 -0.00373004 0.07359054 0.05707996 0.018149458
-0.04380319 -0.09321271 0.05224445 0.06232177 -0.13414067 -0.052210797 0.103546456 -0.011403687
-0.029637951 -0.049947374 0.06456834 -0.037889592 -0.09753157 0.059530832 0.0381799 0.09882959
-0.030810686 0.08233797 0.08611479 -0.029837033 0.0031480207 -0.09796422 0.02354786 0.09141408
-0.034232955 -0.0009313082 -0.005147298 0.011067947 -0.01866591 0.061727863 0.04900964 0.0040141935
0.006078088 0.0407455 0.066547304 -0.08943871 -0.0568211 0.043875735 -0.126707 0.07318575
0.038567554 -0.036694366 -0.09795472 0.021339832 -0.011787906 0.086244866 0.115349315 0.098906785
0.06397278 0.10531472 -0.092183344 0.017209234 -0.10205536 -0.051717453 -0.10235593 -0.022225194
0.0890715 -0.0015338002 0.123647906 -0.11155058 0.08886084 0.08047225 -0.07986173 0.03140277
0.012348136 -0.093443714 -0.037670404 0.11107964 0.11998232 -1.1457858e-05 0.07084252 0.022181397
0.0022611388 -0.07329682 0.031325683 0.030550951 -0.10496283 -0.04678389 -0.037655313 0.030233225
0.07466793 0.09293839 0.08371914 0.1275075 -0.086914346 -0.07500226 0.04231433 0.04133306
-0.070773356 0.05071241 -0.013873127 -0.033405147 0.13136436 0.07886279 0.06562396 0.010902865
0.029970527 -0.0032443604 -0.08636146 0.004223446 -0.11300714 0.11090406 -0.07844261 -0.108094804
-0.07421266 -0.10902084 -0.049149867 0.11369382 -0.08927019 -0.10933782 -0.12674187 0.06272306
0.09324964 -0.07253895 -0.048548758 0.08275839 0.09648176 0.07206886 0.1208109 -0.10187119
-0.051571067 0.08364214 -0.119116716 0.013571568 0.0027000632 0.035498004 0.09874212 -0.10522324
0.105029486 0.043731328 -0.10326561 -0.006344096 -0.12921628 -0.045801464 0.060901094 0.015901225
-0.027041482 -0.12000925 0.09775189 -0.047741883 0.08458976 -0.024174722 -0.072579995 0.096002385
-0.04373804 -0.088627756 -0.021081243 -0.06826968 -0.10001774 -0.0056035626 0.0064871595 0.0969487
-0.008136599 0.022036424 -0.030051889 -0.014519701 -0.10431895 -0.040278465 0.037345577 0.0147779295
0.10176261 -0.11633845 0.11974702 -0.05807454 0.013151742 0.0966514 -0.08105321 -0.057047885
-0.106892064 0.014788828 0.023764092 0.09247355 -0.06627695 -0.061142042 -0.048907645 -0.027705153
-0.011396092 -0.04282841 -0.059957013 -0.0959877 -0.10129183 0.014566239 0.009775165 -0.077712946
0.1322217 0.11545093 0.10328931 0.038950317 -0.12454786 -0.02764891 0.025266875 0.007857781
0.12746136 -0.028221775 -0.07395798 -0.061318267 -0.018950561 -0.0015642004 0.12630722 -0.08973794
-0.008731488 0.1157027 0.044125635 0.06919479 0.09612209 0.011754984 -0.08305319 -0.07648578
00000000: f278 56bc 7f83 5fbd aa97 fa3b 143b e73d
00000010: fa1e 80bd 68de af3d fe2e e73d 872b f83c
00000020: 6d43 62bd c05e f83d 0d11 9f3b 7ba7 863d
00000030: 3ac5 22bd b34e 843d ce5b b0bd 81c8 213d
00000040: 1973 aabd fb9a b6bd 8549 f33d a7cb 3dbd
00000050: 2722 8a3d 1244 ac3d 34c8 943c c20b bbbd
00000060: 068b cf3d 15fd 783d 680f 253d 6096 e43d
00000070: 3912 04bb 0801 f73d 99a4 603d d01a 80bc
00000080: 2b0d 103d 84f7 e93d 6014 dc3d dc03 d93d
00000090: a249 813b 3bc1 58bd 0f33 0fbd 21d1 a13c
000000a0: e27b a63d cce7 c73d 66fb 7e3d 5320 093e
000000b0: b073 74bb a3b6 963d adcc 693d 2cae 943c
000000c0: f96a 33bd 4ee6 bebd 47fe 553d 1d45 7f3d
000000d0: 2c5c 09be fdda 55bd 2a10 d43d 88d6 3abc
000000e0: 4acb f2bc 9e95 4cbd 683c 843d 1e32 1bbd
000000f0: a2be c7bd 9ad6 733d 8762 1c3d 2b67 ca3d
00000100: b166 fcbc cfa0 a83d f35c b03d cb6c f4bc
00000110: 064f 4e3b 77a1 c8bd 71e7 c03c 4e37 bb3d
00000120: db37 0cbd 0923 74ba aaaa a8bb 5656 353c
00000130: 40e9 98bc 5bd6 7c3d 55be 483d 7f89 833b
00000140: b32a c73b c1e4 263d f449 883d a42b b7bd
00000150: 3ebd 68bd 0bb7 333d 7bbf 01be 69e2 953d
00000160: 03f9 1d3d d54c 16bd 7c9c c8bd dfd0 ae3c
00000170: 1022 41bc 26a1 b03d 433c ec3d a48f ca3d
00000180: 2904 833d 3eaf d73d 9fca bcbd 61fa 8c3c
00000190: 6702 d1bd aed5 53bd fc9f d1bd 9c11 b6bc
000001a0: 1e6b b63d cb09 c9ba 1d3b fd3d a174 e4bd
000001b0: acfc b53d a3ce a43d 8c8e a3bd 31a0 003d
000001c0: d64f 4a3c 6b5f bfbd 484c 1abd b97d e33d
000001d0: 4ab9 f53d 203b 40b7 e215 913d c3b5 b53c
000001e0: 9d2f 143b a51c 96bd 5c4f 003d fd45 fa3c
000001f0: c1f6 d6bd 77a0 3fbd 753c 1abd abab f73c
00000200: 80eb 983d 7c56 be3d f174 ab3d 5391 023e
00000210: 2600 b2bd c99a 99bd ca51 2d3d db4c 293d
00000220: 9ff1 90bd d1b7 4f3d 1d4c 63bc d6d3 08bd
00000230: 6184 063e d082 a13d db65 863d eea1 323c
00000240: c084 f53c 569f 54bb 47de b0bd d564 8a3b
00000250: 4a70 e7bd ab21 e33d 85a6 a0bd cf60 ddbd
00000260: cffc 97bd 5146 dfbd 5f51 49bd 4ed8 e83d
00000270: 4ad3 b6bd 82ec dfbd 9fc8 01be f374 803d
00000280: abf9 be3d 4d8f 94bd 10db 46bd 3b7d a93d
00000290: 3b98 c53d d798 933d b56b f73d d8a1 d0bd
000002a0: 2f3c 53bd 924c ab3d 77f3 f3bd 485b 5e3c
000002b0: 8bf3 303b 5b66 113d 4f39 ca3d 487f d7bd
000002c0: b319 d73d 9f1f 333d ec7c d3bd 22e2 cfbb
000002d0: 4651 04be 519a 3bbd 6d73 793d 4943 823c
000002e0: 1986 ddbc 69c7 f5bd 2532 c83d fe8c 43bd
000002f0: 653d ad3d 110a c6bc d2a4 94bd e69c c43d
00000300: a926 33bd 7882 b5bd 92b2 acbc f9d0 8bbd
00000310: 1ad6 ccbd 179e b7bb 3d92 d43b 0a8d c63d
00000320: 5f4f 05bc bb85 b43c 612f f6bc 0ae4 6dbc
00000330: 2ca5 d5bd 08fb 24bd adf7 183d 211f 723c
00000340: ea68 d03d da42 eebd ed3d f53d 92df 6dbd
00000350: 677a 573c 2bf1 c53d 3aff a5bd 0bab 69bd
00000360: 3aea dabd d74c 723c eaac c23c c662 bd3d
00000370: 36bc 87bd 1470 7abd 6253 48bd ebf5 e2bc
00000380: adb6 3abc d86c 2fbd 7c95 75bd 3395 c4bd
00000390: 1772 cfbd 3ca7 6e3c 0328 203c f727 9fbd
000003a0: 2065 073e 8a71 ec3d 5989 d33d 5e8a 1f3d
000003b0: f312 ffbd f87f e2bc 7afc ce3c ecbd 003c
000003c0: 3b85 023e 5a31 e7bc 4877 97bd dd28 7bbd
000003d0: 353e 9bbc db05 cdba ae56 013e 86c8 b7bd
000003e0: 840e 0fbc 8af5 ec3d 15bd 343d 00b6 8d3d
000003f0: a9db c43d fa97 403c ca17 aabd 94a4 9cbd

lstm.bias_hh_l0 f4 [256]
-0.08476838 0.096562676 -0.116978765 0.13147071 -0.07490748 0.07459108 -0.049874943 -0.058427893
0.060830653 0.053434152 -0.024236847 0.02284299 0.042017348 0.011343132 -0.09689678 0.044274602
0.13026506 -0.042511497 -0.08241593 0.030217452 -0.107592344 -0.048814435 0.10536691 0.042797156
-0.01872996 0.052525457 0.07498344 -0.08393744 -0.12673561 -0.0290661 0.06320992 0.0670445
-0.071049765 0.10249185 -0.08745866 -0.08935538 0.00931102 0.11310363 0.08160077 0.07078208
0.009605049 -0.024438968 0.039676968 -0.0023287267 -0.062848784 -0.11296881 -0.017119197 0.026493767
0.023459854 0.07191468 0.11214585 0.008784639 0.109521255 0.082236156 0.008743038 0.04561605
-0.06304398 -0.06868742 0.06725832 0.10652213 0.101779886 -0.055346992 -0.00058097014 -0.064941175
-0.12019071 0.020284148 -0.037147846 -0.12394917 -0.059449144 0.08825628 0.11543663 -0.057527956
0.0048170676 -0.12591964 0.01278288 0.10592024 -0.028605951 0.03331576 -0.08681312 -0.09598584
0.08717821 -0.1165629 -0.031363983 0.08569227 -0.10638425 0.09230189 0.07286249 0.10287743
0.100552805 0.13472591 0.04576063 0.097493954 0.11377955 -0.052921098 0.079825945 0.0018002979
0.047771852 -0.04006814 0.045436352 -0.13179599 -0.05652978 -0.06857067 -0.002547944 -0.09767442
0.08179691 -0.027806658 -0.10873472 -0.03548212 0.070096955 0.12231022 0.09245066 -0.10339827
-0.033714566 0.060822748 0.038150374 0.0972537 -0.063096955 0.05407575 -0.07350391 0.0072973403
-0.009282905 0.025614085 0.05774892 0.093591824 0.1137102 0.024588289 0.12028965 0.066516854
0.036166225 -0.015687497 -0.042415384 -0.029393014 0.06481333 -0.038210295 0.054041963 -0.0401681
-0.102920204 0.11195776 -0.12668145 -0.011202061 0.12520002 0.032010905 -0.048142735 0.058685277
0.10484788 0.08686948 0.13340479 0.009358014 -0.07697968 -0.10340155 0.04873209 -0.08731363
-0.096930034 -0.09773784 0.0656787 0.08550975 0.13223276 -0.012950566 -0.018554488 -0.047431894
-0.10232686 -0.03619971 -0.09869572 -0.10752802 0.034032468 -0.12173708 -0.11596397 0.07415299
0.02524149 -0.10052395 -0.07970592 -0.086259425 0.0057278634 0.13200994 0.046018597 0.07460275
0.107069276 -0.017536337 -0.026706822 -0.07363439 -0.06366859 0.092594184 0.044996247 -0.026626479
0.11652499 -0.10657912 -0.046105485 0.0070313695 0.1304596 0.0077785538 0.040019594 0.10996065
-0.10765696 0.08131016 -0.12526032 0.012550638 0.09507144 0.11929977 0.093020715 0.002005011
0.0074532353 -0.041617338 0.025468497 0.13101123 -0.12134816 0.07440327 0.024892144 -0.022721449
-0.10234709 0.03345015 -0.039880764 -0.111456454 -0.10861765 -0.11096254 -0.03395304 0.09421735
-0.028408976 -0.049179453 0.095998175 -0.04088111 0.062042624 -0.02488028 0.06211896 0.1050852
-0.04904739 -0.026365375 0.0811665 0.13312556 0.058325022 -0.035560448 0.036539394 0.013674288
-0.074714795 -0.11171502 0.022863979 0.062014207 -0.12774517 0.10580877 0.022196848 0.08543264
0.045014966 0.004514653 -0.09686825 0.042557076 -0.010090521 0.07754185 0.01354808 0.11175894
0.076707095 0.03527375 0.01256285 -0.06981598 -0.042837027 0.0018915058 -0.030211074 -0.0026310391
00000000: 0b9b adbd a7c2 c53d 9092 efbd 42a0 063e
00000010: 1869 99bd 35c3 983d ab49 4cbd 1652 6fbd
00000020: 9029 793d c5dd 5a3d 5a8c c6bc 3921 bb3c
00000030: 621a 2c3d 8bd8 393c d271 c6bd 4959 353d
00000040: 3464 053e 8920 2ebd afc9 a8bd 978a f73c
00000050: 6059 dcbd a5f1 47bd 9bca d73d 124c 2f3d
00000060: 936f 99bc ef24 573d eb90 993d 64e7 abbd
00000070: fbc6 01be 081c eebc 3474 813d a04e 893d
00000080: 8a82 91bd 3fe7 d13d 871d b3bd f4ff b6bd
00000090: 408d 183c e0a2 e73d 4e1e a73d 32f6 903d
000000a0: 7f5e 1d3c 3b34 c8bc 5184 223d 8d9d 18bb
000000b0: ddb6 80bd 315c e7bd 8f3d 8cbc 7509 d93c
000000c0: e12e c03c 0148 933d b9ac e53d 72ed 0f3c
000000d0: ae4c e03d 6e6b a83d f63e 0f3c e5d7 3a3d
000000e0: 341d 81bd fdab 8cbd bbbe 893d 4628 da3d
000000f0: f971 d03d 87b3 62bd 3f4c 18ba e1ff 84bd
00000100: 8c26 f6bd f12a a63c 5728 18bd 10d9 fdbd
00000110: f280 73bd b5bf b43d 0a6a ec3d 6fa2 6bbd
00000120: 7ed8 9d3b 14f1 00be 496f 513c b6ec d83d
00000130: 0757 eabc 1b76 083d 14cb b1bd 3994 c4bd
00000140: 7d8a b23d 88b8 eebd 8577 00bd 6e7f af3d
00000150: fcdf d9bd c608 bd3d ee38 953d 67b1 d23d
00000160: a1ee cd3d 97f5 093e 806f 3b3d e9aa c73d
00000170: 4105 e93d cbc3 58bd c97b a33d f9f7 eb3a
00000180: 6bac 433d 7d1e 24bd 781b 3a3d 87f5 06be
00000190: c58b 67bd c86e 8cbd 68fb 26bb 8709 c8bd
000001a0: 2385 a73d caca e3bc 4fb0 debd b355 11bd
000001b0: fe8e 8f3d c87d fa3d c656 bd3d 79c2 d3bd
000001c0: 4918 0abd 4621 793d 9143 1c3d f32c c73d
000001d0: fa38 81bd 897e 5d3d 3889 96bd 871e ef3b
000001e0: 5317 18bc a1d4 d13c 228a 6c3d 12ad bf3d
000001f0: e5e0 e83d 616d c93c 6c5a f63d fd39 883d
00000200: 0923 143d 1183 80bc c1bb 2dbd 9ec9 f0bc
00000210: dabc 843d 6682 1cbd 1b5b 5d3d 4e87 24bd
00000220: d4c7 d2bd 1c4a e53d c8b8 01be d988 37bc
00000230: 6f34 003e de1d 033d 5131 45bd f95f 703d
00000240: 7cba d63d a0e8 b13d 449b 083e 5b52 193c
00000250: 86a7 9dbd 31c4 d3bd 4d9b 473d 7dd1 b2bd
00000260: 4183 c6bd c72a c8bd 8e82 863d bc1f af3d
00000270: 0668 073e 9c2e 54bc 95ff 97bc f247 42bd
00000280: bf90 d1bd 2646 14bd fb20 cabd a737 dcbd
00000290: a165 0b3d 4a51 f9bd 857e edbd 86dd 973d
000002a0: 3ec7 ce3c 80df cdbd db3c a3bd c8a8 b0bd
000002b0: cdb0 bb3b 9d2d 073e ff7d 3c3d 54c9 983d
000002c0: 2347 db3d 5da8 8fbc 44c8 dabc a1cd 96bd
000002d0: ad64 82bd 05a2 bd3d fc4d 383d c61f dabc
000002e0: a7a4 ee3d 2746 dabd 1bd9 3cbd 6767 e63b
000002f0: 3497 053e 3de3 fe3b 96eb 233d 0d33 e13d
00000300: 417b dcbd f185 a63d 3e44 00be 31a1 4d3c
00000310: d1b4 c23d 7053 f43d a581 be3d 8166 033b
00000320: 453a f43b f176 2abd 4fa3 d03c cf27 063e
00000330: 6285 f8bd be60 983d 9cea cb3c 5522 babc
00000340: 5a9b d1bd 0603 093d 035a 23bd 4843 e4bd
00000350: ee72 debd 5440 e3bd 5812 0bbd 07f5 c03d
00000360: f1b9 e8bc 6570 49bd b19a c43d f372 27bd
00000370: 6820 7e3d bbd1 cbbc 7370 7e3d e936 d73d
00000380: ebe5 48bd 33fc d7bc 9f3a a63d 1152 083e
00000390: 38e6 6e3d d5a7 11bd 55aa 153d 1f0a 603c
000003a0: 1204 99bd d8ca e4bd 3d4d bb3c 9c02 7e3d
000003b0: a1cf 02be 45b2 d83d 2ad6 b53c 4ff7 ae3d
000003c0: 9d61 383d a7ef 933b dc62 c6bd 5450 2e3d
000003d0: b652 25bc 43ce 9e3d c4f8 5d3c dfe1 e43d
000003e0: 9c18 9d3d 357b 103d 69d4 4d3c aefb 8ebd
000003f0: e175 2fbd 67ec f73a 377d f7bc 836d 2cbb

fc.weight f4 [1, 64]
0.023382274 -0.03792339 0.008824489 -0.09696588 0.11293507 0.036888555 -0.06397785 -0.020255733
-0.09168973 0.034278028 -0.039584637 0.034848966 0.025419533 0.039166223 -0.02684272 -0.09960122
-0.013546314 -0.04269319 -0.12273771 0.065895215 0.13024656 0.07416001 0.011957307 -0.05198505
-0.09858211 0.042452887 -0.06809167 -0.090746075 -0.06377477 -0.12606835 0.071560554 -0.029976139
-0.06064658 0.0247805 -0.076247215 -0.041761756 0.09285997 0.040925536 -0.08566926 0.016991625
0.03846258 -0.041298818 -0.1308378 -0.11776398 0.08693816 0.06557414 -0.12172215 0.07868668
0.013452363 0.08828009 0.048977457 -0.11368005 -0.06780915 0.118708506 0.024967963 0.08444137
-0.088004366 0.1038495 -0.04810384 0.11211284 0.085252814 -0.026425477 -0.018057674 0.07722924
00000000: 2f8c bf3c 8e55 1bbd 9794 103c 0c96 c6bd
00000010: 814a e73d 7418 173d d206 83bd 5aef a5bc
00000020: d3c7 bbbd 1e67 0c3d 8023 22bd cabd 0e3d
00000030: a03c d03c c36c 203d 44e5 dbbc b9fb cbbd
00000040: 5cf1 5dbc 0edf 2ebd e95d fbbd 12f4 863d
00000050: 5b5f 053e 34e1 973d 95e8 433c 47ee 54bd
00000060: 6be5 c9bd 14e3 2d3d a573 8bbd 14d9 b9bd
00000070: 599c 82bd 1018 01be 578e 923d 8590 f5bc
00000080: 8c68 78bd 7a00 cb3c 8027 9cbd 600e 2bbd
00000090: 5e2d be3d 89a1 273d 5d73 afbd 0532 8b3c
000000a0: f08a 1d3d f328 29bd 58fa 05be 3e2e f1bd
000000b0: a20c b23d bc4b 863d 7649 f9bd 7b26 a13d
000000c0: 4d67 5c3c 31cc b43d 969c 483d 16d1 e8bd
000000d0: 86df 8abd 721d f33d 9d89 cc3c 99ef ac3d
000000e0: a23b b4bd 0caf d43d 8808 45bd 6b9b e53d
000000f0: 0799 ae3d 3e7a d8bc b0ed 93bc 5d2a 9e3d
